scripts/modelling/early_stopping_state.pt (torch, 459179 bytes, 33 tensors)

conv1.weight f4 [100, 27, 3]
0	0xbdb66cf9	-0.08907504
1	0xbb3e58d0	-0.0029044636
2	0x3cb6aafa	0.022298325
3	0x3d20671b	0.03916083
4	0x3bee825b	0.007278723
5	0x3caaf65f	0.020869432
6	0xbcb69933	-0.022289848
7	0x3d867a3b	0.06566282
8	0xbc7af109	-0.015316256
9	0xbce8ada2	-0.028403107
10	0x3df1e288	0.118107855
11	0xbc66204e	-0.014045788
12	0xbd80aaae	-0.062825546
13	0xbd7c449c	-0.06158887
14	0x3ceb8bee	0.028753247
15	0xbd9549a1	-0.07289434
16	0x3c827f34	0.015929796
17	0x38b09bd0	8.421356e-05
18	0x3d238496	0.039921366
19	0xbc2b0091	-0.010437147
20	0x3d7b49d5	0.06134971
21	0x3d3a5a5a	0.045496322
22	0xbcf2892c	-0.029606424
23	0xbda7593e	-0.081713185
24	0x3b3286a7	0.0027240904
25	0xbd3efb69	-0.046626482
26	0xbd815dd7	-0.06316727
27	0x3d0efda3	0.034909856
28	0x3df2c91f	0.11854767
29	0xbd7360b8	-0.05941841
30	0x3c76b077	0.015056721
31	0x3e2322dc	0.15931267
32	0x3dbbd52c	0.09171519
33	0xbd6795d1	-0.05653936
34	0x3d74c587	0.05975869
35	0xbd667249	-0.056261335
36	0x3e1757a2	0.14779523
37	0xbb707454	-0.003669043
38	0xbd8de21a	-0.06927891
39	0xbd0aee70	-0.033918798
40	0xbbbaa813	-0.0056963055
41	0xbbacef94	-0.0052775834
42	0xbcc01b8f	-0.023450641
43	0x3deeae3a	0.11654325
44	0x3d7d7490	0.06187874
45	0x3e0653f5	0.13117965
46	0x3dba150b	0.09086045
47	0x3bb0bfff	0.0053939815
48	0xbc24515e	-0.010029165
49	0xbdfd92f3	-0.12381544
50	0x3d06235b	0.03274856
51	0x3ca7ce7e	0.020484205
52	0xbd8e6dd9	-0.069545455
53	0x3e15c2d4	0.14625102
54	0x3c27d5c4	0.010243837
55	0xbd8b57a6	-0.06803827
56	0x3dacdcc6	0.08440547
57	0x3c3ffe26	0.011718309
58	0x3ca9e8cf	0.020740895
59	0xbcc314d8	-0.02381365
60	0xbd8a56a8	-0.067548096
61	0x3beeb516	0.0072847707
62	0x3b32207e	0.0027180011
63	0x3dc7085a	0.0971839
64	0xbd363fd6	-0.044494472
65	0xbd5db139	-0.05412409
66	0x3e15bbb2	0.14622381
67	0x3d3e5598	0.046468347
68	0xbcfecd41	-0.031103732
69	0xbd55c7b2	-0.052192397
70	0xbd062aaa	-0.03275553
71	0x3cdc2247	0.026871813
72	0xbdc9ddbd	-0.09856746
73	0x3d588b09	0.05286697
74	0xbb895601	-0.0041911607
75	0xbe065a62	-0.13120416
76	0x3d6b4176	0.057435475
77	0x3b99f3b4	0.004698241
78	0xbd655bac	-0.05599563
79	0x3d5f5c77	0.05453154
80	0x3d6f25b7	0.058385577
81	0x3d97c476	0.07410519
82	0x3d915dc6	0.07097964
83	0x3e24da0c	0.16098803
84	0xbd9d0f8b	-0.0766898
85	0x3cee4f65	0.029090593
86	0xbce13c82	-0.027494673
87	0xbdba3e73	-0.090939425
88	0xbdd337ad	-0.10313354
89	0xbdace21b	-0.08441564
90	0x3e64d593	0.22347097
91	0xbc773277	-0.015087715
92	0x3dcc49b9	0.09974999
93	0x3e209c84	0.15684706
94	0xbdb791de	-0.08963369
95	0xbddeb238	-0.10873836
96	0xbe85bf68	-0.26122594
97	0xbd9220a2	-0.071351305
98	0xbe929689	-0.28630474
99	0x3df058a7	0.11735659
100	0x3dc1bc54	0.09459749
101	0xbd98cfc4	-0.07461503
102	0xbe492048	-0.1964122
103	0xbd8d057f	-0.06885814
104	0x3c85eb14	0.016347446
105	0xbdd1d805	-0.102462806
106	0x3d6c14fc	0.0576372
107	0xbe674e91	-0.22588564
108	0x3d1c498b	0.038156074
109	0x3d0e3834	0.03472157
110	0x3d8a7ca7	0.06762057
111	0x3c5ddc09	0.01354123
112	0x3bf79862	0.0075560072
113	0x3da81c58	0.08208531
114	0x3c98feae	0.018676128
115	0xbd4421b9	-0.047883723
116	0xbe2d4c03	-0.16923527
117	0xbdb74cc4	-0.08950189
118	0xbdf654a3	-0.12027862
119	0x3e0abd1a	0.13548699
120	0x3e534ea9	0.20635475
121	0x3e427bed	0.18992586
122	0xbdf5bfe0	-0.11999488
123	0x3ccae3e4	0.02476687
124	0xbd28217f	-0.04104757
125	0x3e146770	0.14492583
126	0x3c861629	0.016367989
127	0xbe03df18	-0.12878072
128	0x3e0300c6	0.12793264
129	0xbd908873	-0.070572756
130	0x3e1859c0	0.14877987
131	0xbcb3aafe	-0.021932121
132	0xbc3a0d74	-0.011355747
133	0x3eaa9b58	0.33321643
134	0x3e08e6d2	0.13369301
135	0xbd40791b	-0.046990495
136	0xbdaaae8e	-0.08334075
137	0x3e159639	0.14608087
138	0xba9baf60	-0.0011877827
139	0xbd896147	-0.06708007
140	0x3dfa00fd	0.1220722
141	0xbd823dc1	-0.06359435
142	0xba6b0890	-0.00089658145
143	0x3d5151e5	0.05110349
144	0xbcffc881	-0.031223537
145	0xbda2a51b	-0.079416476
146	0xbd8bc0ed	-0.06823907
147	0x3e075ae2	0.13218263
148	0x3d64b69f	0.055838224
149	0xbda2f6dd	-0.07957242
150	0xbe156891	-0.1459067
151	0xbd4e6685	-0.05039074
152	0x3dc7c81b	0.09754964
153	0x3db87f34	0.09008637
154	0xbd9166b1	-0.07099665
155	0xbd38ccab	-0.04511706
156	0x3d93762f	0.07200276
157	0xbe08d44a	-0.13362232
158	0xbd4f4d71	-0.050610963
159	0xbe06cf43	-0.13165002
160	0xbc8d02b9	-0.017213212
161	0x3e153588	0.14571202
162	0x3e0b15c5	0.13582523
163	0x3db524bc	0.08844897
164	0x3cd952c7	0.02652873
165	0x3d494990	0.04914242
166	0x3c87470a	0.016513366
167	0x3c1b4cf3	0.009478795
168	0x3e1fcc73	0.15605335
169	0x3bd5dbd0	0.006526448
170	0xbd75e0ad	-0.06002872
171	0xbdfa7e0b	-0.12231072
172	0xbd0736e3	-0.03301133
173	0xbdc20e94	-0.09475437
174	0xbc97d888	-0.018535867
175	0xbdf3b009	-0.118988104
176	0xbd14c41a	-0.03631983
177	0xbda05fe5	-0.078307904
178	0xbc92e8a7	-0.017933203
179	0x3dd662ca	0.10468061
180	0x3de38879	0.111100145
181	0xbd5c7269	-0.053820048
182	0x3e17f03a	0.14837733
183	0x3d6b1390	0.057391703
184	0x3dfc7af1	0.12328137
185	0xbd1c19f5	-0.038110692
186	0xbe3a4142	-0.18188956
187	0x3e73776f	0.23776029
188	0xbe091815	-0.13388093
189	0x3d267ff3	0.040649366
190	0x3da61c30	0.08110845
191	0x3d2495c2	0.040181883
192	0x3bf24c60	0.0073943585
193	0x3b23fc29	0.0025022125
194	0xbd114cb0	-0.035473526
195	0x3d70a210	0.058748305
196	0xbda2df17	-0.07952707
197	0x3cc44bb3	0.023961877
198	0x3d86d2c4	0.06583169
199	0xbd70ea8f	-0.058817443
200	0xbd90e8ac	-0.07075629
201	0xbe0d9652	-0.13826874
202	0xbe1ec22f	-0.15503763
203	0xbde80c48	-0.113304675
204	0x3cb78bdc	0.022405557
205	0x3c43f0ff	0.011959313
206	0x3e6ed3e7	0.23323022
207	0x3c85da64	0.016339488
208	0x3c6f6259	0.01461085
209	0x3e348321	0.17628147
210	0xbce5881b	-0.028019002
211	0xbd9bb862	-0.076035276
212	0xbcac9046	-0.021064889
213	0x3d3d228f	0.046175536
214	0x3dd16fb3	0.10226383
215	0x3d1da398	0.038486093
216	0xbd58d11c	-0.052933797
217	0xbdf0f234	-0.117649466
218	0x3d69dcc9	0.057095323
219	0x3d252805	0.04032137
220	0x3c558660	0.013032526
221	0x3b44fa81	0.0030056539
222	0xbda3a6fc	-0.07990834
223	0xbd119192	-0.035539217
224	0xbdc06d0e	-0.093958005
225	0xbc95e40b	-0.018297216
226	0x3e58c587	0.211691
227	0x3cf7f278	0.030266985
228	0x3d90ffdd	0.07080052
229	0xbd70631e	-0.058688276
230	0x3da93f51	0.0826403
231	0xbd517aab	-0.051142376
232	0x3e395f27	0.18102704
233	0x3d1746a1	0.03693259
234	0x3b4dca5b	0.003140113
235	0xbd96b8b3	-0.07359447
236	0xbb3af2fb	-0.0028526175
237	0xbcba55bd	-0.022745961
238	0xbc5340e0	-0.012893885
239	0x3cef9127	0.029244019
240	0xbd85fe2c	-0.0654262
241	0x3e0ce6c0	0.13759899
242	0x3da78ed3	0.081815384
243	0xbbe3eac3	-0.006955476
244	0x3d858f4f	0.065214746
245	0x3ca661f1	0.020310374
246	0xbc2297d9	-0.009923899
247	0x3d64be94	0.055845812
248	0x3c30a2f5	0.0107810395
249	0x3daa2f27	0.08309775
250	0x3d167d00	0.036740303
251	0x3dee77bd	0.11643932
252	0xbbf9c42b	-0.007622262
253	0x3dc3810c	0.09546098
254	0x3b0641a2	0.0020485898
255	0x3cd2bf07	0.025725855

conv1.bias f4 [100]
0	0xbc8495ad	-0.016184652
1	0x3d631afc	0.055445656
2	0x3e039efd	0.12853618
3	0xbe2d339c	-0.16914219
4	0xbce3faac	-0.02782949
5	0x3d59b34e	0.053149514
6	0xbe1f2977	-0.15543161
7	0x3d711eaf	0.058867153
8	0xbc70f976	-0.014707914
9	0x3e7c1931	0.24618985
10	0xbd658376	-0.056033574
11	0x3ce16cbc	0.027517669
12	0xbe2ba6ec	-0.16762894
13	0xbd8eba71	-0.069691546
14	0xbd956371	-0.072943576
15	0xbe73557f	-0.23763083
16	0xbdb44f30	-0.08804166
17	0x3c039381	0.008030773
18	0xbbf4bf86	-0.0074691204
19	0x3bc63f8f	0.0060500572
20	0xbe2865f3	-0.1644514
21	0xbdcf438d	-0.10120306
22	0xbc9c9384	-0.01911331
23	0x3da03c7a	0.07824035
24	0xbe7c0a41	-0.24613287
25	0xbdaa287f	-0.08308505
26	0xbe2c088c	-0.16800135
27	0x3d61a6ff	0.0550909
28	0x3d3eb42f	0.046558555
29	0xbe14d427	-0.14534055
30	0xbd12350c	-0.03569512
31	0xbd2518cb	-0.040306848
32	0xbde9d45b	-0.11417457
33	0x3dc937a2	0.09825064
34	0x3c0c57ca	0.008565852
35	0xbdf2b4fe	-0.11850928
36	0x3ca08e71	0.019599171
37	0x3d9c9cce	0.076470956
38	0xbe23946d	-0.15974589
39	0xbe1cabfe	-0.15299985
40	0x3dc1b41f	0.094581835
41	0xbbed9a5c	-0.007251067
42	0xbe0215ab	-0.12703578
43	0xbce60b70	-0.028081626
44	0xbd68985b	-0.056785922
45	0xbd495f28	-0.049163014
46	0xbe203a97	-0.1564735
47	0x3d548577	0.051885094
48	0xbcb7cdaf	-0.022436945
49	0x3ced7a5a	0.028989006
50	0xbd35d0e4	-0.044388667
51	0xbcc49601	-0.023997309
52	0x3d13f116	0.03611859
53	0x3c6b2b4c	0.0143535845
54	0xbe549f56	-0.20763907
55	0xbddbe2a8	-0.107365906
56	0xbd94f16e	-0.072726116
57	0xbc99b6b0	-0.01876387
58	0xbda8a1a2	-0.08233954
59	0x3cbcf4e7	0.023065997
60	0x3cf67b88	0.030088201
61	0x3d772ac1	0.060343508
62	0x3c6a2e1f	0.014293223
63	0x3aaf4527	0.001337205
64	0x3afcb730	0.0019280668
65	0x3d3ab488	0.045582324
66	0xbe80a852	-0.25128418
67	0xbd4f5404	-0.050617233
68	0xbe007030	-0.12542796
69	0x3c933bbc	0.01797282
70	0xbe4c2fcc	-0.19940108
71	0x3de4be28	0.11169082
72	0xbe73d817	-0.238129
73	0xbe0339d3	-0.12815027
74	0xbc9e5a53	-0.01933018
75	0xbdb4614d	-0.08807621
76	0xbd1367ed	-0.035987783
77	0x3da69513	0.081339024
78	0x3b365992	0.0027824384
79	0x3e56fc81	0.2099476
80	0x3d2d646f	0.04233211
81	0xbc9ba023	-0.018997258
82	0xbd1a2082	-0.037628658
83	0x3db36471	0.08759392
84	0x3b9b5e09	0.0047414345
85	0xbdc1848f	-0.09449112
86	0xbe35fe4c	-0.17772788
87	0xbd8c8e1b	-0.06863042
88	0xbda31171	-0.07962311
89	0xbd764ee2	-0.060133822
90	0xbd9835f5	-0.074321665
91	0xbdd624ee	-0.104562625
92	0x3dc2261c	0.09479925
93	0xbd1d5b96	-0.03841742
94	0xbd3464a7	-0.044041302
95	0xbc665c45	-0.014060085
96	0xbe8a62c4	-0.27028477
97	0xbd8af6bc	-0.06785342
98	0x3db2d82d	0.087326385
99	0x3e0c9f1f	0.13732575

conv2.weight f4 [100, 100, 3]
0	0xbd58a82e	-0.052894764
1	0xbc165680	-0.009175897
2	0xbd20a832	-0.039222904
3	0x3cfb0a4d	0.03064456
4	0xbd692c6d	-0.056927133
5	0x3d5cc023	0.053894173
6	0xbd6ec8f3	-0.05829711
7	0x3de16953	0.11006417
8	0x3bf82f53	0.007574001
9	0xba80dc45	-0.000983127
10	0x3d496c4e	0.049175553
11	0xbd58ed75	-0.05296083
12	0xbd178371	-0.036990587
13	0xbce6ba00	-0.028164864
14	0x3d17724d	0.03697424
15	0xbd436bf4	-0.047710374
16	0xbcf32fbd	-0.02968585
17	0xbcb6f26a	-0.022332389
18	0xbd6d7138	-0.057969302
19	0xbd3c014c	-0.045899674
20	0xbbef6353	-0.0073055415
21	0xbcf3ec53	-0.029775774
22	0x3c179651	0.009252147
23	0xbd626d58	-0.05528006
24	0xbd55e087	-0.05221608
25	0xbd95a327	-0.073065095
26	0xbd644600	-0.05573082
27	0xbdaa1e32	-0.083065405
28	0xbc8ba6d2	-0.01704732
29	0xbdb33f6b	-0.087523304
30	0x3c0264ad	0.007958573
31	0x3c2ef65a	0.010678852
32	0x3c97ccd8	0.018530294
33	0xbd47b3c0	-0.048755407
34	0xbd566448	-0.05234173
35	0xbcfb23ad	-0.03065666
36	0xbbdeeb6f	-0.006802968
37	0xbce0fcaf	-0.027464239
38	0xbd9d3a9e	-0.07677196
39	0xbccfa097	-0.02534513
40	0xbd588eeb	-0.052870672
41	0x3d53891a	0.051644422
42	0xbd888ed0	-0.06667864
43	0xbd1b4950	-0.037911713
44	0x3c906179	0.017624604
45	0xbc3ddccd	-0.011588288
46	0xbd0fb048	-0.035080224
47	0xbd123160	-0.03569162
48	0xbd14951d	-0.036275018
49	0x3d6c20ed	0.057648588
50	0xbd47833c	-0.04870914
51	0xbc40ac7b	-0.011759873
52	0x3c9cf65d	0.019160444
53	0xbbbad597	-0.0057017314
54	0xbd6edf12	-0.058318205
55	0xbdabc8fc	-0.08387944
56	0xbc29bd1a	-0.010360027
57	0xbc68fc3f	-0.014220296
58	0x3d141bc3	0.03615929
59	0x3b5bbd51	0.003352959
60	0xbc8994d0	-0.016794592
61	0x3c6114f5	0.013737907
62	0xbc9b2d34	-0.018942453
63	0xbccd5c52	-0.025068436
64	0xbe12d0d0	-0.14337468
65	0xbd3e9d99	-0.046537016
66	0xbcf3a0fe	-0.029739853
67	0xbc41dfc3	-0.011833134
68	0xbd8f889c	-0.07008478
69	0xbd0ad2d2	-0.03389246
70	0xbcc590ed	-0.024116958
71	0x3d7a45ae	0.061101608
72	0xbca157d2	-0.019695196
73	0x3b068856	0.002052804
74	0x3d802ef2	0.06258954
75	0xbc3c6bc5	-0.011500304
76	0x3ca028dd	0.019550735
77	0xbd2641bd	-0.040590037
78	0xbd1207e1	-0.035652045
79	0xbc82946e	-0.015939917
80	0xbcaeee0b	-0.021353742
81	0xbcf48d15	-0.02985243
82	0xbc8857e0	-0.016643465
83	0x3bed8d32	0.007249498
84	0xbd7aa8d8	-0.06119618
85	0x3d6c355c	0.057668075
86	0xbc8a6628	-0.016894415
87	0xbd4c9177	-0.049943414
88	0xbccb1182	-0.024788622
89	0x3d545d68	0.05184689
90	0x38d90f3f	0.00010350206
91	0xbd6da882	-0.05802203
92	0x3bbcee9b	0.0057657487
93	0xba0b2497	-0.00053078815
94	0xbb604005	-0.0034217846
95	0x3be86784	0.007092418
96	0xbd6b662d	-0.05747049
97	0x3d318140	0.043336153
98	0xbd814aa9	-0.063130684
99	0x3c93d522	0.018045966
100	0x3d398f16	0.045302473
101	0xbbbf4a17	-0.0058376896
102	0x3c3b8c7d	0.011447069
103	0xbae328a8	-0.0017330842
104	0xbd1b7dd3	-0.037961792
105	0x3bcdf9bf	0.0062858756
106	0x3d411d59	0.04714713
107	0x3da7a7fa	0.08186336
108	0xbbe7aea0	-0.0070703775
109	0x3bbd1b75	0.0057710954
110	0xbd3f66bd	-0.04672884
111	0xbd1be929	-0.038064156
112	0x3c2062ee	0.009789212
113	0xbc8f1e09	-0.017470377
114	0xbcd24349	-0.02566685
115	0xbd75eb61	-0.060038928
116	0xbd13b5b2	-0.03606195
117	0xbce2166f	-0.027598588
118	0xbd43780d	-0.04772191
119	0x3b40f1f1	0.0029441083
120	0xbd179b9c	-0.037013635
121	0x3c49616e	0.012291295
122	0x3cfb19fe	0.030652042
123	0xbca16094	-0.019699372
124	0xbbbd54f2	-0.0057779485
125	0xbd901625	-0.07035474
126	0xbc434bd5	-0.011919935
127	0x3cce7f40	0.025207162
128	0x3cc93969	0.024563508
129	0x3b101674	0.002198604
130	0x3c999681	0.018748524
131	0xbc10cadd	-0.008837429
132	0xbcc5bab0	-0.024136871
133	0xbd582a02	-0.052774437
134	0x3bf120d5	0.00735865
135	0xbc479bfd	-0.012183187
136	0x3da69d9f	0.081355326
137	0x3bb44431	0.005501293
138	0xbd15d38c	-0.0365787
139	0xbd71d3ae	-0.059039764
140	0xbba339a0	-0.0049812347
141	0xbcc8e342	-0.024522427
142	0x3d3765ae	0.044774704
143	0x3acf2463	0.0015803691
144	0xbc3f3c80	-0.011672139
145	0xba10ba13	-0.0005520891
146	0x3d444e67	0.047926333
147	0xbd151aab	-0.036402386
148	0xbc9c8b2f	-0.019109337
149	0xbd795a7a	-0.0608773
150	0xbd0f0219	-0.03491411
151	0x3c2be148	0.010490723
152	0xbd94a249	-0.07257516
153	0xbc75b5c4	-0.01499695
154	0x3d5b732d	0.053576637
155	0x3d207d87	0.039182212
156	0x3c818de0	0.015814722
157	0xbcc46de5	-0.023978183
158	0xbccb0954	-0.024784721
159	0x3c3e4253	0.011612493
160	0x3d4a2888	0.04935506
161	0x3b7d8f14	0.0038690018
162	0xbd9bae59	-0.076016136
163	0x3d1b3d51	0.037900273
164	0xbd3ff60b	-0.046865504
165	0xbdb15455	-0.08658663
166	0xbc0ec44e	-0.008713795
167	0x3d49ed07	0.049298313
168	0xbd287d53	-0.041135143
169	0xbce82c2b	-0.028341373
170	0x3cc22270	0.023698062
171	0xbcea2cc2	-0.028585795
172	0xbc9245c2	-0.017855529
173	0xbc580e46	-0.013186997
174	0x3cec9286	0.028878462
175	0x3d8ce58f	0.06879722
176	0x3bd4d40e	0.0064950055
177	0xbd474f3a	-0.04865954
178	0x3d5d9d2b	0.054104965
179	0x3da2923f	0.079380505
180	0xbd226632	-0.039648242
181	0xbd400298	-0.046877474
182	0xbd3334af	-0.043751415
183	0xbcde67fe	-0.027149197
184	0xbd44e246	-0.048067354
185	0x3cd8503d	0.026405448
186	0xbbaa6636	-0.005200173
187	0xbd25d222	-0.0404836
188	0x3c7875c6	0.015164798
189	0xbc893a91	-0.01675156
190	0xbd9d6ed7	-0.07687157
191	0x3c18124b	0.009281705
192	0xbd812e0b	-0.0630761
193	0xb93a3f13	-0.00017761839
194	0x3d652d1c	0.055951223
195	0x3d879f73	0.066222094
196	0x3d64766a	0.05577699
197	0xbb712480	-0.0036795437
198	0x39d92aae	0.00041421264
199	0xbd40b1cf	-0.04704457
200	0x3cca9763	0.02473039
201	0x3b964543	0.0045858934
202	0xbaf79597	-0.0018889186
203	0x3cb54375	0.022126893
204	0xbd82a6aa	-0.06379445
205	0x3d6d1423	0.057880532
206	0x3bfa3172	0.007635289
207	0x3cf621f2	0.030045483
208	0xbd25e4d9	-0.04050145
209	0x3bfa8010	0.007644661
210	0xbc8abbb9	-0.016935216
211	0xbd910785	-0.07081512
212	0xbbcc0b35	-0.006226922
213	0xbd24e374	-0.04025598
214	0x3d4a83a2	0.04944194
215	0xbd4d780a	-0.050163306
216	0x3c469a98	0.012121819
217	0x3d5a2807	0.05326083
218	0x3ce19b0a	0.027539749
219	0xbc119904	-0.008886579
220	0xbd1b495f	-0.03791177
221	0x3d09059e	0.033452623
222	0xbd17b5ae	-0.037038498
223	0xbd1b2f7d	-0.037887085
224	0xbc46ccd6	-0.012133798
225	0xbd34c975	-0.044137437
226	0xbd81dc62	-0.06340863
227	0xbd2c0ee1	-0.042006377
228	0xbd136160	-0.035981536
229	0xbc8d967d	-0.017283672
230	0xbc928dbd	-0.017889852
231	0x3c1302f6	0.008972874
232	0xbd5e3f8f	-0.054259833
233	0xbd443962	-0.047906287
234	0x3d068b79	0.032847855
235	0xbcd08762	-0.02545518
236	0xbc5518f2	-0.013006436
237	0xbb875aac	-0.004130682
238	0xbc24116f	-0.010013922
239	0xbd08198c	-0.03322749
240	0xbc8de4a0	-0.017320931
241	0xbcab80ee	-0.020935502
242	0xbc1293ac	-0.0089463405
243	0x3cb43722	0.021998946
244	0xbba3491a	-0.0049830796
245	0x3d2f193b	0.04274867
246	0xbcc62977	-0.024189694
247	0xbd215809	-0.039390597
248	0xbc81e2b5	-0.015855173
249	0xbbe76fc2	-0.007062883
250	0xbda42f52	-0.08016838
251	0x3d2e8d1c	0.04261504
252	0xbd02cabc	-0.031931624
253	0xbc5d1099	-0.013492727
254	0x3d4a75b6	0.049428664
255	0xbc2b45f4	-0.01045369

conv2.bias f4 [100]
0	0x3c57b06a	0.013164619
1	0x3dfa92bd	0.12235019
2	0xbc591503	-0.0132496385
3	0x3e1b3d26	0.15160045
4	0x3db2010c	0.08691606
5	0xba3f6504	-0.0007301124
6	0x3b42697e	0.002966493
7	0xbc826c9a	-0.015920926
8	0xbdbfd546	-0.093668506
9	0x3da8e389	0.08246524
10	0x3dccf64a	0.100079134
11	0xbcbf3568	-0.023340896
12	0xbe625f6f	-0.22106718
13	0x3dd61955	0.104540505
14	0x3ddb1faa	0.10699399
15	0x3d008612	0.03137786
16	0xbcb34b5e	-0.021886524
17	0x3e20236d	0.15638514
18	0xbd1424ce	-0.036167912
19	0xbd85999e	-0.06523441
20	0x3bc2f4e3	0.005949603
21	0x3c2a1215	0.010380288
22	0x3d4dab18	0.050211996
23	0xbd276e1d	-0.040876497
24	0x3cc40fef	0.023933379
25	0xbdf71a00	-0.12065506
26	0x3e617099	0.22015609
27	0x3dae971c	0.085249156
28	0xbd3944ad	-0.04523151
29	0xbd3bf814	-0.045890883
30	0xbb4b4ac7	-0.0031019913
31	0x3d84ecab	0.06490453
32	0x3bdc0774	0.0067147557
33	0xbd584ece	-0.05280953
34	0x3da30314	0.079595715
35	0xbc154b48	-0.009112187
36	0xbce7be38	-0.028288946
37	0x3df119dc	0.117725104
38	0xbdf3f62d	-0.11912189
39	0x3d8757ef	0.06608569
40	0xbc838ad8	-0.016057417
41	0xbd794c43	-0.060863744
42	0x3d54765f	0.0518707
43	0x3c8e6b2b	0.017385086
44	0x3d876bff	0.066123955
45	0xbdccc0a7	-0.09997683
46	0x3d2fd12b	0.042924087
47	0x3da50f32	0.08059539
48	0xbd2a2e55	-0.041548092
49	0x3da75cee	0.08172022
50	0x3d8aac6c	0.06771168
51	0x3ce22aac	0.027608238
52	0xbd3125e8	-0.04324904
53	0x3c1ea600	0.009683132
54	0xba955dbe	-0.0011395735
55	0xbd07adeb	-0.033124845
56	0x3cb81173	0.022469258
57	0x3dbf0907	0.09327894
58	0xbd054165	-0.03253307
59	0x3d9a688b	0.07539471
60	0x3d51d8bd	0.05123209
61	0xbdfc881a	-0.12330647
62	0xbe30d456	-0.172685
63	0x3da0be42	0.07848789
64	0xbd8c146d	-0.068398334
65	0xbcfe377e	-0.03103232
66	0x3e2695ee	0.16268131
67	0x3ca11d18	0.019667193
68	0xbce03dcf	-0.027373223
69	0x3dd2f655	0.1030089
70	0x3d4860d3	0.048920464
71	0x3d2e631b	0.042574983
72	0xbae188d4	-0.0017206916
73	0x3cddb552	0.027064
74	0x3d8625d8	0.06550187
75	0x3ce9033a	0.028443921
76	0x3d070781	0.03296614
77	0x3c8c06d9	0.017093109
78	0x3dfda753	0.1238543
79	0x3d8e74a5	0.06955842
80	0x3dee379c	0.116317004
81	0xbe9a1bd3	-0.30099353
82	0x3ddaafb1	0.10678042
83	0x3dacc393	0.0843574
84	0x3d3a8fdb	0.045547348
85	0x3d883660	0.06650996
86	0x3b89c820	0.004204765
87	0x3dad3677	0.08457654
88	0xbd2d2c67	-0.042278673
89	0x3ca57bd0	0.02020064
90	0xbcb33744	-0.021876939
91	0xbdd1168f	-0.10209381
92	0x3db12356	0.08649318
93	0x3d1b7bbd	0.037959803
94	0x3ca705ce	0.02038851
95	0xbc8be33d	-0.01707613
96	0x3d68b635	0.05681439
97	0x3cd1dcdf	0.025618015
98	0x3d7253cc	0.059161946
99	0x3d5bacc4	0.05363156

rnn1.weight_ih_l0 f4 [200, 100]
0	0x3c5fdf7f	0.013664125
1	0xbb5fffd2	-0.003417958
2	0xbc726b1a	-0.014796043
3	0xbb043533	-0.002017331
4	0xbbaea345	-0.005329522
5	0xb9f13efd	-0.00046014032
6	0xb707b834	-8.089515e-06
7	0x3b50a034	0.003183377
8	0xbba50f75	-0.005037243
9	0x3b8137af	0.0039434056
10	0x3c656f15	0.014003535
11	0xbba8717e	-0.0051404824
12	0xbb730ebb	-0.0037087637
13	0x3bc14092	0.00589759
14	0xbc780513	-0.015137929
15	0x3c0e4c23	0.008685145
16	0x3c0f9426	0.008763349
17	0xbb08628e	-0.0020810696
18	0x3b101bc2	0.0021989201
19	0xbb077b7d	-0.002067297
20	0x3ac5020f	0.0015030521
21	0x3ba4501e	0.0050144335
22	0x3bf72cc5	0.0075431787
23	0x39fe09d6	0.00048453984
24	0xbbec4c61	-0.0072112535
25	0x3bddb757	0.0067662406
26	0x3bf19e68	0.00737362
27	0xbbefe2e9	-0.007320751
28	0xbbcf02db	-0.006317479
29	0xbb8409a9	-0.004029472
30	0x3a4cddb7	0.00078150205
31	0x3c0f321c	0.008739974
32	0xbb97a8f9	-0.0046282974
33	0xbb5c5656	-0.0033620796
34	0xbb811b21	-0.0039400016
35	0x3bdfaaf3	0.0068257987
36	0x3b4a0331	0.0030824656
37	0xbc685c5d	-0.014182177
38	0x3c0d7a9f	0.008635192
39	0xb9a28dc2	-0.00031004666
40	0x3bb7ab53	0.0056051402
41	0x3bb79265	0.0056021684
42	0xbabbde8f	-0.0014333295
43	0x3c29b2f1	0.010357604
44	0xbbab9c59	-0.005237144
45	0xbb55884a	-0.0032582455
46	0xbc3921d7	-0.011299572
47	0xbaed4d30	-0.0018104669
48	0xbab488d7	-0.0013773692
49	0xbc16225d	-0.009163466
50	0xbc93a3dd	-0.018022472
51	0x3b9cc752	0.004784503
52	0x3b92e978	0.004483398
53	0xb99103fe	-0.0002765953
54	0x3b08ba40	0.0020862967
55	0xbab57a33	-0.0013845622
56	0x3a9746b0	0.0011541452
57	0x3bec2bbc	0.007207362
58	0x3b8ddd74	0.004329378
59	0xbad63145	-0.0016341588
60	0x3b88007c	0.0041504484
61	0x3b87e606	0.004147294
62	0x3a24ab6a	0.0006281646
63	0xbb33010a	-0.0027313852
64	0xbc95e878	-0.018299326
65	0xbae88a11	-0.0017741342
66	0xbaa5d2c2	-0.0012651312
67	0xbc4206eb	-0.01184247
68	0xbb8ac47f	-0.00423485
69	0xbbc72aa3	-0.0060780807
70	0x3b8d8594	0.0043189023
71	0x3b64b877	0.0034899989
72	0xbb634dd9	-0.0034683852
73	0xb8abcfe9	-8.192642e-05
74	0x3c1d54f9	0.009602779
75	0x3abf9c88	0.0014618794
76	0xb986b084	-0.00025689986
77	0xba2736e1	-0.0006378722
78	0xbac5bd2e	-0.0015086287
79	0x3b11f2ac	0.0022269888
80	0x3b9b8cf4	0.0047470275
81	0xbb7ad751	-0.0038275311
82	0x3b472e78	0.0030392688
83	0x3c15d9da	0.009146178
84	0xba7ab428	-0.00095635885
85	0x3b220868	0.0024724249
86	0xbbcfedbd	-0.0063454793
87	0x3bd0c268	0.0063708313
88	0xbc8a3ddb	-0.016875198
89	0xbc2f0244	-0.0106816925
90	0xbc70ead9	-0.01470443
91	0xbbc62cda	-0.006047827
92	0x3af585fc	0.0018731947
93	0x3a046d1d	0.00050516595
94	0x3c22049e	0.009888796
95	0xbb59fd0b	-0.0033262398
96	0xbc3fe098	-0.011711262
97	0x3bd77cdf	0.006576165
98	0xbc3798d3	-0.01120587
99	0xbbdbcdea	-0.0067078965
100	0x3ab2aee5	0.0013632445
101	0x3c3dc187	0.011581785
102	0x3a54ae8f	0.00081131695
103	0x3a73c713	0.0009299379
104	0xbd3ccc69	-0.04609338
105	0x3ca62ebf	0.020285962
106	0xbc612db6	-0.0137438085
107	0xbbed0a3d	-0.0072338865
108	0xbc5f26d7	-0.0136201
109	0xbca37935	-0.019955257
110	0x3c103962	0.008802744
111	0x3c6be842	0.014398636
112	0xbcb6794f	-0.022274641
113	0x3a503d5b	0.0007943713
114	0x39c4a6ba	0.00037508254
115	0x3be3e121	0.0069543277
116	0xbc811a5a	-0.015759636
117	0xbc2285ba	-0.009919578
118	0xbb435f10	-0.00298113
119	0x3c4a1415	0.0123338895
120	0x3c9ca307	0.019120706
121	0x3b1868f2	0.0023255912
122	0x3b916140	0.004436642
123	0xbb190729	-0.0023350215
124	0xbc885569	-0.01664229
125	0xbafccd0b	-0.0019287182
126	0xbd41222b	-0.047151726
127	0x3baa5044	0.0051975567
128	0x3c14e89b	0.009088661
129	0xbc3d8be7	-0.011569
130	0x3b93911a	0.0045033814
131	0x3b90ed86	0.0044228463
132	0xbc0224eb	-0.007943372
133	0xbb8116b5	-0.0039394745
134	0x3c27fcba	0.010253126
135	0xbac36fa6	-0.0014910593
136	0xbc5e30e1	-0.013561458
137	0xbc1d8c7e	-0.0096160155
138	0xbc0f6ba9	-0.0087536955
139	0x3b4faf8b	0.0031690325
140	0x3c834ced	0.016027892
141	0xbc0a9f52	-0.0084608365
142	0x3b110487	0.0022127943
143	0x3b7fb4bd	0.003901764
144	0xbb9bcd5d	-0.004754706
145	0xba8025d4	-0.0009776899
146	0x3c1a1e05	0.009406571
147	0xbd13a6a5	-0.036047596
148	0x3ce7ca4d	0.028294707
149	0xbc479493	-0.012181419
150	0xbc36744e	-0.011136128
151	0x3b8a0fad	0.0042132945
152	0x3c336308	0.010948904
153	0xbc046891	-0.008081571
154	0x3b8c0844	0.0042734463
155	0xbcbd9c60	-0.023145854
156	0xbc731ff1	-0.014839158
157	0xbc807d6f	-0.015684811
158	0x3c90e5f3	0.017687773
159	0xbc89061a	-0.016726542
160	0x3c9a47f7	0.018833144
161	0xbaf7ef9e	-0.0018916016
162	0x3b830b04	0.003999116
163	0xbb0645f6	-0.0020488477
164	0xbcdd9eaa	-0.027053196
165	0x3c383eff	0.011245488
166	0x3c9d3bb5	0.01919351
167	0xbc9c687c	-0.01909279
168	0xbb82d8a4	-0.0039931107
169	0xbcab9c8d	-0.020948673
170	0xba8ea99b	-0.0010884287
171	0x3ca719b1	0.020397993
172	0xbb8d8bd4	-0.0043196473
173	0xb996e116	-0.00028777932
174	0xbbb7980f	-0.0056028436
175	0x3bceb0d2	0.0063076997
176	0x3b50139a	0.0031749965
177	0x3c8a8e80	0.016913652
178	0x3c1b5504	0.0094807185
179	0x3a8f2f7c	0.0010924186
180	0x3ba41d41	0.00500837
181	0x3cd1f3ca	0.025628943
182	0x39feda02	0.00048609084
183	0x3c0d3461	0.008618445
184	0xbb3320db	-0.0027332816
185	0x3b62f821	0.003463276
186	0xbc116adb	-0.008875574
187	0xbca65bbf	-0.02030742
188	0xbd116828	-0.03549972
189	0xbc3a82e1	-0.011383743
190	0x3c0cab9c	0.008585837
191	0xbc6519a1	-0.013983161
192	0xbcedfece	-0.029052164
193	0x3c01783d	0.007902202
194	0x3b18b1b2	0.0023299274
195	0x3aedb916	0.0018136825
196	0xbc93dfc1	-0.01805103
197	0x3a2cbe3a	0.0006589625
198	0xbd04c71d	-0.03241645
199	0x3b62620b	0.0034543301
200	0xbad410c6	-0.0016179315
201	0x3c11e544	0.008904759
202	0x3c5c0d29	0.013430872
203	0x3c4b1a66	0.012396431
204	0xbc968e0e	-0.018378284
205	0xbbafbafc	-0.0053628664
206	0xbc25ab48	-0.010111637
207	0x3b8f26cb	0.004368638
208	0x3b3011b9	0.0026866032
209	0x3bbeff04	0.00582874
210	0x3cce03a7	0.025148226
211	0x3b68436a	0.0035440573
212	0xbbfa3a73	-0.007636362
213	0xbcb61f88	-0.022231832
214	0xbb949772	-0.0045346553
215	0xbbd12357	-0.0063823867
216	0xbb583584	-0.0032990882
217	0x3a51e4e9	0.00080068276
218	0x3b262629	0.0025352335
219	0x3afaa211	0.0019121786
220	0x39598d81	0.00020747447
221	0xbbf91ce3	-0.0076023205
222	0x3c6d5b8b	0.014487158
223	0x3b513181	0.0031920376
224	0x3c1956a2	0.009359034
225	0x3c34896e	0.011019094
226	0xbcaee549	-0.021349566
227	0x343daa00	1.7663842e-07
228	0x3bc31238	0.0059530996
229	0xbc370546	-0.011170691
230	0x3a81061e	0.0009843742
231	0x3b0bcbf6	0.0021331287
232	0xbbf19d99	-0.0073735234
233	0x3c776c49	0.015101501
234	0x3be576c1	0.007002682
235	0x3cbf117b	0.023323765
236	0xb7d6ee0b	-2.5621635e-05
237	0xbcbc7507	-0.023005022
238	0x3af6df91	0.0018834939
239	0xbbd699c8	-0.006549094
240	0x3b8fe83d	0.0043916986
241	0xbadc99fc	-0.0016830559
242	0xbb9861b0	-0.004650317
243	0xba8f8223	-0.0010948818
244	0xbb21c7e3	-0.0024685792
245	0x3a0f23af	0.00054603344
246	0xbb6a6a9f	-0.0035769118
247	0xbb1af3ee	-0.0023643929
248	0xbc4bd860	-0.012441725
249	0x39a00983	0.00030524665
250	0x3c6fb831	0.014631317
251	0x3c5ad22a	0.013355771
252	0xbc8bac32	-0.017049883
253	0x3b99d406	0.0046944646
254	0x3bc79aaa	0.0060914354
255	0xbc093607	-0.0083746975

rnn1.weight_hh_l0 f4 [200, 50]
0	0xbbca9725	-0.0061825686
1	0x3bce6f0a	0.006299858
2	0xbb9ba1b2	-0.0047495
3	0x3c1c0c68	0.009524442
4	0xbb418ef2	-0.0029534665
5	0xba627d89	-0.0008639922
6	0xbb90005f	-0.0043945755
7	0xbbee1cda	-0.007266623
8	0x3c2e0a88	0.010622628
9	0x3be44a02	0.00696683
10	0xbbe1a9bb	-0.0068866885
11	0x3b6e0c42	0.0036323224
12	0x3b6f8ecd	0.0036553622
13	0xbb7351c9	-0.0037127605
14	0xbb49a397	-0.0030767673
15	0xbbaef3fe	-0.0053391447
16	0x3c4eec44	0.012629572
17	0x392fc624	0.00016763114
18	0x3b953566	0.0045534847
19	0x3ba9f82b	0.0051870546
20	0xbb5031d9	-0.0031767993
21	0x3ba3f52c	0.005003592
22	0x3bb2e438	0.0054593347
23	0xbb989a92	-0.004657098
24	0x3b0bed7a	0.0021351264
25	0x3b85256a	0.004063298
26	0x3c14409a	0.009048605
27	0xbbe1952f	-0.006884239
28	0xbbaeae07	-0.0053308043
29	0xbc08cd6d	-0.008349759
30	0x3b79891a	0.0038076104
31	0x3bc29008	0.00593758
32	0xba32fd84	-0.0006827938
33	0xba63dbf3	-0.0008692138
34	0x3af53f7b	0.0018710935
35	0xbb66a70f	-0.003519479
36	0xbba2a293	-0.004963228
37	0xb990e4de	-0.0002763634
38	0xbb80b71d	-0.003928079
39	0xbba21b25	-0.0049470835
40	0x3be43f7d	0.006965576
41	0xbb4b26c0	-0.0030998439
42	0x3b684c2e	0.0035445797
43	0xbc673468	-0.014111616
44	0xbb950127	-0.0045472565
45	0x3baecbc5	0.00533435
46	0x3b8c5df8	0.004283663
47	0x3bca46a3	0.0061729713
48	0x3adb0dad	0.001671245
49	0x3c09bcdb	0.008406843
50	0xbb34c566	-0.002758348
51	0x3bc58a90	0.006028481
52	0xba0876e4	-0.00052057044
53	0x3c1ea7de	0.009683577
54	0x3b359455	0.002770682
55	0xbb9d5066	-0.004800844
56	0x3ae3334b	0.0017334012
57	0xbb8d95e6	-0.004320848
58	0x3be82afd	0.0070852027
59	0x3b253a60	0.0025211796
60	0x3c51630c	0.012779962
61	0xbb7f9ab5	-0.0039002125
62	0x3be550b3	0.0069981455
63	0xbc2f75f8	-0.010709278
64	0xbb044796	-0.002018427
65	0xbb4b3b07	-0.0031010525
66	0xbd0767d5	-0.033058006
67	0xba3d4ce8	-0.0007221238
68	0x3b81cd7b	0.0039612628
69	0x3b6c3dda	0.0036047609
70	0x3c1c2ad8	0.009531699
71	0xbba7fc6e	-0.0051265275
72	0x3b7c81f1	0.00385296
73	0x3938a580	0.00017609261
74	0xbbda358d	-0.006659216
75	0x3b6891d5	0.0035487313
76	0x3b21eeb7	0.0024708936
77	0xbb19a57e	-0.0023444588
78	0xbc182539	-0.009286218
79	0xba24a464	-0.00062805996
80	0x3a0ae628	0.0005298578
81	0x3c0c64b6	0.008568933
82	0xbab8146d	-0.0014044173
83	0xb916c3d4	-0.00014378066
84	0x3a95887c	0.0011408473
85	0xbbb9c3d6	-0.0056690974
86	0xbb24bc88	-0.0025136787
87	0x3b2a9173	0.0026026636
88	0xbbb8ecc3	-0.0056434586
89	0xbb2d7e78	-0.0026473086
90	0x3bd8ec57	0.006619971
91	0x3a4f8a87	0.00079170655
92	0xba61eb6c	-0.00086181494
93	0x3d16c876	0.03681227
94	0xbacca492	-0.0015613011
95	0x3b0f1392	0.0021831733
96	0x3b9a33fc	0.004705904
97	0x3bab4f0f	0.0052279304
98	0x3abfbd82	0.0014628621
99	0xb98d3976	-0.00026936427
100	0xbbff60b2	-0.0077935094
101	0x3b2df262	0.0026542176
102	0xbc3efecb	-0.011657427
103	0x3bec35d3	0.007208565
104	0xbc124c85	-0.0089293765
105	0x3bf150d7	0.007364373
106	0xbc29be2b	-0.010360281
107	0xbc5cba9c	-0.0134722255
108	0x3c02c36d	0.007981163
109	0x3bf85249	0.0075781685
110	0xbc030a7e	-0.007998107
111	0x3c201600	0.00977087
112	0x3c2eeec7	0.010677046
113	0xbc040222	-0.008057149
114	0xbbb95298	-0.005655598
115	0xbc97e830	-0.018543333
116	0x3ce6c066	0.028167915
117	0x3be5dd39	0.007014897
118	0x3c17f046	0.009273594
119	0x3c12580b	0.008932124
120	0xbb0df673	-0.0021661788
121	0x3c2b49a9	0.010454574
122	0x3cbf4e6d	0.023352826
123	0xbc47aae1	-0.012186737
124	0x3b8bc184	0.004265012
125	0x3c312258	0.010811411
126	0x3c5ba525	0.013406073
127	0xbbee130e	-0.007265455
128	0xbc4d7893	-0.012540954
129	0xbc5e9bf1	-0.013586984
130	0x3c587c5c	0.013213243
131	0x3c51fc0c	0.01281644
132	0xbad82468	-0.0016490342
133	0xbac49479	-0.0014997862
134	0x3bd55c74	0.0065112654
135	0xbbb9b1a5	-0.005666929
136	0xbc2f6f3d	-0.010707674
137	0xbb5e6ca1	-0.003393926
138	0xbc674c75	-0.01411735
139	0xbc5bca08	-0.013414867
140	0x3c65bf26	0.014022624
141	0xbc594b2e	-0.013262553
142	0x3c43dd1e	0.011954574
143	0xbd0dd4e8	-0.03462687
144	0xbc5ecddb	-0.013598884
145	0x3c231f55	0.009956201
146	0x3ca13d11	0.019682439
147	0x3c25502d	0.010089916
148	0x3a614420	0.000859322
149	0x3c5c8c7b	0.0134612275
150	0x3c9fc340	0.019502282
151	0xbca7c5dc	-0.020480089
152	0x3cb6a11d	0.022293622
153	0xbce141a1	-0.027497115
154	0x3cd4b546	0.025965344
155	0xbcd2bd7b	-0.025725117
156	0x3bc8bf77	0.00612634
157	0x3cb233e4	0.021753259
158	0xbccfba78	-0.02535747
159	0xbc91b3d5	-0.017785946
160	0x3d42c512	0.047551222
161	0xbd01ba85	-0.03167202
162	0xbbbd5cac	-0.0057788696
163	0x3b8772ef	0.004133574
164	0x3c8ee3a9	0.017442541
165	0x3ca210bf	0.019783376
166	0xbd48eb78	-0.049052685
167	0xbcc06693	-0.023486411
168	0xbcbd5c4a	-0.023115296
169	0xbcbe6e27	-0.023245884
170	0x3cc9427b	0.024567833
171	0xbcbcf8c1	-0.023067834
172	0xbc43de95	-0.011954923
173	0x3ce5a1ba	0.028031219
174	0xbcb909b1	-0.022587629
175	0xbcd85f04	-0.026412494
176	0xbc922ca6	-0.017843556
177	0x3ccddddd	0.025130207
178	0x3c87120f	0.016488103
179	0x3cafed6a	0.021475513
180	0xbc39e552	-0.011346178
181	0xbc0f5529	-0.008748331
182	0xbc4814d2	-0.012211995
183	0x3ae6e555	0.0017615954
184	0xbc89d0dd	-0.016823227
185	0x3c449a4f	0.011999681
186	0x3ca1d746	0.01975597
187	0x3c65477e	0.013994096
188	0x3c9f149f	0.019419013
189	0x3c9f4647	0.01944269
190	0xbc617a6c	-0.013762098
191	0x3cbfdfa0	0.023422062
192	0xbc4ff21e	-0.012692003
193	0x3d490b3b	0.049082976
194	0x3b9ec76b	0.00484555
195	0xbc334acd	-0.010943127
196	0xbd0d55cc	-0.03450565
197	0xbc5d9a08	-0.013525493
198	0xbcd60faf	-0.026130525
199	0xbc021586	-0.007939702
200	0xbc20ef9e	-0.009822754
201	0x3c21e211	0.009880559
202	0xbc38809d	-0.011261133
203	0x3c3a20c9	0.011360356
204	0xbbdca798	-0.006733846
205	0x3c001ba6	0.007819092
206	0xbbfdd653	-0.0077464967
207	0xbc2f9acb	-0.010718058
208	0x3c079418	0.008275054
209	0x3c42b76b	0.011884551
210	0xbc7a4064	-0.015274141
211	0x3c495d78	0.012290351
212	0x3c122cc1	0.008921803
213	0xbb3f7026	-0.0029211133
214	0xbc33c19b	-0.010971452
215	0xbc8cc63e	-0.017184373
216	0x3d103362	0.035205252
217	0x3c23feff	0.010009526
218	0x3c3e8e6d	0.011630637
219	0x3c360d81	0.011111618
220	0xbbb81fb0	-0.005619012
221	0x3c2fa146	0.010719603
222	0x3c5f4370	0.013626918
223	0xbc7d62b2	-0.015465425
224	0x3bdf4d51	0.0068146368
225	0x3c2c414b	0.010513614
226	0x3bffc900	0.0078059435
227	0xbbed4bb6	-0.0072416915
228	0xbc455d67	-0.012046195
229	0xbc5a73ff	-0.01333332
230	0x3c4fcb89	0.012682804
231	0x3c123e13	0.008925932
232	0x3b561e08	0.0032671709
233	0xbaee1cfc	-0.0018166597
234	0x3c513852	0.012769775
235	0xbc09dd3f	-0.008414566
236	0xbc0bed2b	-0.008540432
237	0xbbb724e2	-0.0055891136
238	0xbc3e4db9	-0.01161521
239	0xbc5852cf	-0.013203337
240	0x3be8e346	0.007107171
241	0xbbd075ba	-0.0063616903
242	0x3c0d5585	0.0086263465
243	0xbd2091b3	-0.03920145
244	0xbc19789c	-0.009367134
245	0x3c180c3c	0.009280261
246	0x3ca79d22	0.020460669
247	0x3c11ea9b	0.008906032
248	0x3b941989	0.0045196456
249	0x3c5eabc8	0.0135907605
250	0xbc6b9bdf	-0.014380424
251	0x3c81fe23	0.015868252
252	0xbccdbf8e	-0.025115754
253	0x3d020948	0.031747133
254	0xbc6d3927	-0.014478958
255	0x3c118814	0.008882541

rnn1.bias_ih_l0 f4 [200]
0	0xbc1415d3	-0.009038406
1	0xbd6d075c	-0.057868347
2	0xbd049bb5	-0.032375056
3	0xbd60f6b4	-0.054922774
4	0xbcc333b8	-0.023828372
5	0xbc42d2ea	-0.011891106
6	0xbccf5f79	-0.02531408
7	0xbcdd54a3	-0.027017897
8	0xbd1b385f	-0.037895557
9	0xbcbb8200	-0.022889137
10	0x3d5b9d1e	0.053616636
11	0xbce8d10f	-0.02842
12	0xbd1e3aa0	-0.038630128
13	0xbc45ca77	-0.012072197
14	0xbcd1655d	-0.02556103
15	0xbce66b92	-0.028127465
16	0xbcaa8d7b	-0.020819416
17	0xbb9d10da	-0.0047932686
18	0xbce511e2	-0.027962629
19	0xbd0be93e	-0.034157984
20	0xbcd5834f	-0.02606359
21	0xbcdc4756	-0.026889484
22	0xbc310372	-0.010804044
23	0x3b77e0a8	0.0037823115
24	0xbc54e5a2	-0.012994202
25	0xbc82c66a	-0.015963752
26	0xbd18d917	-0.037316408
27	0xbcbd706f	-0.023124902
28	0xbbccda6d	-0.0062516243
29	0xbcde3cfa	-0.027128685
30	0xbc6553e0	-0.013997048
31	0xbc998801	-0.01874161
32	0xbc4ff065	-0.012691592
33	0x39c516a1	0.00037591628
34	0xbbae27dc	-0.00531481
35	0x3c174620	0.009233028
36	0xbc9a5f65	-0.018844316
37	0xbd88667a	-0.06660171
38	0xbc5d85ac	-0.013520639
39	0xbc4b8074	-0.012420762
40	0xbca5ac18	-0.020223662
41	0xbb40128e	-0.0029307934
42	0xbc8ea936	-0.01741467
43	0x3d038147	0.03210571
44	0xbd092711	-0.033484522
45	0xbc82a8ff	-0.015949724
46	0xbca0e341	-0.019639613
47	0xbd00b72a	-0.03142468
48	0xbc1df443	-0.009640756
49	0xbca8fd93	-0.020628726
50	0x3c0b7e33	0.008513975
51	0xbd276970	-0.040872037
52	0xbc32160e	-0.010869516
53	0xbc3ed343	-0.011647048
54	0xbcb973e3	-0.022638267
55	0xbda2ed96	-0.07955472
56	0xbd215878	-0.03939101
57	0xbcd307b0	-0.025760502
58	0x3a4f485c	0.0007907206
59	0xbd256002	-0.040374763
60	0x3db2dbf4	0.08733359
61	0xbbaa900c	-0.00520516
62	0xbcc3658c	-0.023852132
63	0xbcbbc49e	-0.022920903
64	0xbc93149d	-0.017954165
65	0xbb1ce544	-0.0023940364
66	0x3ef2f7c1	0.47454646
67	0xbc6ae223	-0.014336142
68	0xbc824a97	-0.015904708
69	0xbc7424ac	-0.014901321
70	0xbd0b68c3	-0.034035455
71	0xbd315e3e	-0.043302767
72	0xbcaf4b5d	-0.02139824
73	0x3c90f73c	0.017696016
74	0xbbaaebae	-0.0052160835
75	0x3bb61d45	0.0055576884
76	0xbd108872	-0.035286374
77	0xbb828849	-0.0039835316
78	0x3b434407	0.0029795186
79	0xbd2f7c03	-0.042842876
80	0x3c70b2f4	0.014691103
81	0xbcf85f82	-0.03031898
82	0xbc657889	-0.014005789
83	0xb9959f24	-0.00028538064
84	0xbd155651	-0.03645927
85	0xbc7a5895	-0.015279909
86	0xbd6f28ca	-0.05838851
87	0xbd210b29	-0.039317284
88	0xbc56404a	-0.013076851
89	0xbba8209b	-0.00513084
90	0xbd63a71e	-0.055579297
91	0x3c0be9ed	0.008539659
92	0x3beae07e	0.007167875
93	0x3f08cbf4	0.5343621
94	0xbd12e73e	-0.03586506
95	0xbd00b309	-0.03142074
96	0x3c750040	0.014953673
97	0xbc333dcb	-0.010940026
98	0x3c095dc9	0.0083841765
99	0xbcc0c720	-0.02353245
100	0xbae45b15	-0.0017422164
101	0x3c5e9168	0.013584472
102	0xbcb8d075	-0.022560338
103	0x3cdf8d13	0.02728895
104	0x3c0d6a18	0.008631252
105	0x3cf0664b	0.029345652
106	0xbccdd084	-0.025123842
107	0x3b8f5f4e	0.004375375
108	0x3d4897c8	0.048972875
109	0xbb92f588	-0.004484836
110	0xbb7ed452	-0.0038883877
111	0xbd038ff5	-0.03211971
112	0xbca6f09b	-0.020378402
113	0xbca7b02b	-0.020469746
114	0x3a8d7aaa	0.0010794003
115	0x3c833f48	0.016021386
116	0xbdddc105	-0.10827831
117	0xbd448648	-0.047979623
118	0x3d06262d	0.03275125
119	0xbccb3127	-0.024803711
120	0xbd8e5584	-0.069499046
121	0x3bd79308	0.006578807
122	0x3c0e5f27	0.008689678
123	0xbd81e37d	-0.06342218
124	0x3da0c61d	0.07850287
125	0x3d09232b	0.033480804
126	0x3c304a90	0.010759965
127	0xbd7a0f3e	-0.061049692
128	0xbce6740d	-0.02813151
129	0xbc94b95c	-0.018154792
130	0xbd27a2e3	-0.040926825
131	0x3ce1c34c	0.027558945
132	0x3cc0fc5f	0.02355784
133	0xbc22f856	-0.009946903
134	0x3c15583c	0.009115275
135	0xbda293cd	-0.07938347
136	0xbc13f15e	-0.009029714
137	0xbd184e7f	-0.037184235
138	0xbd28b4bf	-0.041187998
139	0xbd070637	-0.03296491
140	0x3d27834d	0.040896703
141	0x3cc2f31d	0.023797566
142	0x3af78efa	0.0018887215
143	0x3e369825	0.17831476
144	0x3ce7ec07	0.028310789
145	0xbba0e97c	-0.004910646
146	0xbd3f606d	-0.04672282
147	0xbccbab6f	-0.02486202
148	0x3d045d7b	0.032315712
149	0xbcadd580	-0.021219969
150	0xbc774e3c	-0.015094336
151	0xbd815d7d	-0.063166596
152	0xbcf7e159	-0.030258821
153	0xbd876a97	-0.06612127
154	0xbc8beac2	-0.017079715
155	0xbca32ec2	-0.019919757
156	0xbd097301	-0.033556942
157	0xbcde975b	-0.027171781
158	0xbd583620	-0.052785993
159	0xbd039732	-0.032126613
160	0x3d7e0134	0.062012866
161	0xbd2b8fc7	-0.041885164
162	0xbd2fcc52	-0.042919464
163	0xbc4d4236	-0.012527993
164	0xbcc23290	-0.02370575
165	0xbd4245d6	-0.047429882
166	0x3ea5565f	0.32292458
167	0xbc093679	-0.008374804
168	0xbd2f23b3	-0.042758655
169	0xbd31df09	-0.043425594
170	0xbcc9fbb6	-0.024656158
171	0xbd019d77	-0.03164431
172	0xbcbaf171	-0.022820206
173	0x3b2473be	0.0025093402
174	0xbc7f2337	-0.015572361
175	0xbc8d3fae	-0.017242279
176	0xbd3a0ba9	-0.045421276
177	0xbd07c359	-0.033145282
178	0xbcb75598	-0.022379681
179	0xbd287284	-0.041124836
180	0xbca7425b	-0.020417383
181	0xbcc27dbf	-0.023741601
182	0xbc7838d6	-0.0151502695
183	0x39efcca8	0.00045738113
184	0xbc188529	-0.009309092
185	0x3be8a360	0.007099554
186	0xbcb3659a	-0.021899033
187	0xbd573702	-0.052542694
188	0xbce531f6	-0.027977925
189	0xbc5a9377	-0.013340822
190	0xbca18469	-0.019716458
191	0xbc4ac158	-0.012375198
192	0xbcad9ff8	-0.021194443
193	0x3ed9631e	0.42458433
194	0xbd13d47c	-0.036091313
195	0xbc951538	-0.018198594
196	0xbcb2e804	-0.02183915
197	0xbd1abdd7	-0.0377787
198	0xbc45ce6f	-0.012073143
199	0xbccd1662	-0.025035087

rnn1.bias_hh_l0 f4 [200]
0	0xbc141ec7	-0.009040541
1	0xbd6d020b	-0.057863276
2	0xbd04b905	-0.03240301
3	0xbd60727d	-0.054796685
4	0xbcc32fa1	-0.023826422
5	0xbc42d503	-0.011891606
6	0xbccf445d	-0.025301153
7	0xbcdd54a8	-0.027017906
8	0xbd1b6eab	-0.037947338
9	0xbcbba396	-0.022905152
10	0x3d5b9cee	0.053616457
11	0xbce8cd6d	-0.028418267
12	0xbd1e3a48	-0.0386298
13	0xbc456ea1	-0.012050302
14	0xbcd16c26	-0.025564265
15	0xbce67207	-0.028130544
16	0xbcaa8950	-0.020817429
17	0xbb9d2458	-0.0047955923
18	0xbce51f51	-0.027969034
19	0xbd0be9dd	-0.034158576
20	0xbcd598e9	-0.02607389
21	0xbcdc75e5	-0.026911685
22	0xbc310883	-0.010805252
23	0x3b77c519	0.0037806688
24	0xbc54e589	-0.012994179
25	0xbc82c78b	-0.01596429
26	0xbd18cbc1	-0.03730369
27	0xbcbd768f	-0.023127822
28	0xbbccd6f4	-0.0062512103
29	0xbcde4877	-0.027134163
30	0xbc655f91	-0.013999836
31	0xbc998760	-0.01874131
32	0xbc4ff48e	-0.012692584
33	0x39c5674f	0.0003765174
34	0xbbae80d2	-0.005325415
35	0x3c172d2e	0.00922708
36	0xbc9a5f23	-0.018844193
37	0xbd8890aa	-0.066682175
38	0xbc5d85ea	-0.013520697
39	0xbc4b5e9c	-0.012412693
40	0xbca5c3f9	-0.020235049
41	0xbb4034d5	-0.0029328365
42	0xbc8eb849	-0.017421858
43	0x3d037cf0	0.03210157
44	0xbd093584	-0.033498302
45	0xbc82aadf	-0.015950618
46	0xbca10540	-0.019655824
47	0xbd00c55a	-0.03143821
48	0xbc1e551d	-0.009663847
49	0xbca86885	-0.020557651
50	0x3c0b305b	0.008495416
51	0xbd27dc12	-0.04098136
52	0xbc32251c	-0.010873105
53	0xbc3e9926	-0.011633193
54	0xbcb93d40	-0.022612214
55	0xbda2da55	-0.079518
56	0xbd217048	-0.03941372
57	0xbcd3429e	-0.025788601
58	0x3a5120ca	0.0007977603
59	0xbd2564f8	-0.040379494
60	0x3db2e88d	0.08735762
61	0xbbaad079	-0.00521284
62	0xbcc3562d	-0.023844803
63	0xbcbbe69a	-0.022937108
64	0xbc931324	-0.017953463
65	0xbb1d6486	-0.0024016215
66	0x3ef2ee4c	0.4744743
67	0xbc6ad152	-0.014332132
68	0xbc824372	-0.015901301
69	0xbc742614	-0.014901657
70	0xbd0be7e6	-0.034156702
71	0xbd3132f7	-0.043261494
72	0xbcaf43d2	-0.021394644
73	0x3c909d37	0.01765309
74	0xbbaa7233	-0.005201602
75	0x3bb616d1	0.005556919
76	0xbd10f75d	-0.035392154
77	0xbb826d82	-0.0039803395
78	0x3b43542e	0.0029804814
79	0xbd2fa5a1	-0.042882565
80	0x3c70411b	0.01466396
81	0xbcf8593d	-0.03031599
82	0xbc6575e6	-0.01400516
83	0xb9931fe8	-0.00028061797
84	0xbd154d7a	-0.03645084
85	0xbc7a4098	-0.015274189
86	0xbd6f246c	-0.058384344
87	0xbd210659	-0.039312694
88	0xbc558e71	-0.013034449
89	0xbba8d09e	-0.005151822
90	0xbd63f1af	-0.05565041
91	0x3c0cf900	0.008604288
92	0x3beaa033	0.0071602105
93	0x3f08a7aa	0.53380835
94	0xbd12cc1b	-0.03583918
95	0xbd00b3c1	-0.031421427
96	0x3c74ff30	0.01495342
97	0xbc33544f	-0.010945394
98	0x3c095c07	0.008383757
99	0xbcc0b075	-0.023521641
100	0x3ae93e46	0.0017795048
101	0x3a95bc06	0.0011423833
102	0xbc9fb2ec	-0.019494496
103	0x3c743767	0.014905787
104	0x3c39407e	0.01130688
105	0x3cbad81c	0.022808127
106	0xbca56572	-0.020189974
107	0x3c32f75d	0.010923234
108	0x3d1e2a35	0.03861447
109	0x3bb88f1c	0.0056322943
110	0xbc8f3348	-0.017480507
111	0xbcd5746c	-0.02605649
112	0xbcbb6f4e	-0.022880223
113	0xbcc0934a	-0.023507733
114	0xbbb7f733	-0.0056141852
115	0x3ce6c91d	0.02817207
116	0xbdf49728	-0.11942893
117	0xbce77c1e	-0.028257426
118	0x3d10469e	0.035223596
119	0x3bc5930b	0.006029492
120	0xbd820075	-0.063477434
121	0x3b609491	0.003426824
122	0x3aed8a19	0.0018122821
123	0xbc9c4c6e	-0.019079413
124	0x3d8d0d88	0.068873465
125	0x3d5f54c9	0.054524217
126	0x3c6f9b65	0.014624451
127	0xbd6c5520	-0.05769837
128	0xbceec4bf	-0.02914655
129	0xbc9121be	-0.017716285
130	0xbd1d4fdf	-0.03840625
131	0x3c81cd4d	0.015844965
132	0x3d24d218	0.040239424
133	0xbc405d32	-0.0117409695
134	0xbbdffef2	-0.006835812
135	0xbd69f472	-0.057117887
136	0xbbbd0e54	-0.0057695303
137	0xbd348fa7	-0.04408231
138	0xbd374717	-0.04474553
139	0xbd1ecb9c	-0.038768396
140	0x3d32f721	0.04369271
141	0x3ccfc336	0.025361639
142	0x3c0235b2	0.007947372
143	0x3e202131	0.15637662
144	0x3d131dab	0.035916965
145	0x3bf96dd5	0.00761197
146	0xbd075c6f	-0.033047136
147	0xbbeaa060	-0.0071602315
148	0x3d3ce530	0.046117008
149	0xbc04c0fd	-0.008102653
150	0xbc774c7d	-0.01509392
151	0xbd819cd5	-0.063287415
152	0xbcf7d7fb	-0.030254355
153	0xbd871431	-0.06595648
154	0xbc8c3c4d	-0.017118597
155	0xbca2ea72	-0.019887183
156	0xbd09bdd5	-0.033628304
157	0xbcde9623	-0.0271712
158	0xbd58367b	-0.05278633
159	0xbd03975f	-0.03212678
160	0x3d7e01a8	0.0620133
161	0xbd2b94fb	-0.041890126
162	0xbd2fcc3a	-0.042919375
163	0xbc4d358f	-0.012524976
164	0xbcc218e7	-0.023693515
165	0xbd4233a0	-0.047412515
166	0x3ea555f9	0.32292154
167	0xbc089d0b	-0.008338223
168	0xbd2f2fc0	-0.042770147
169	0xbd31e551	-0.043431584
170	0xbccabcb3	-0.024748182
171	0xbd0189e1	-0.031625632
172	0xbcbb06cb	-0.022830388
173	0x3b247364	0.0025093192
174	0xbc7ef5e7	-0.015561557
175	0xbc8d53d8	-0.017251894
176	0xbd3a099b	-0.045419317
177	0xbd07e436	-0.033176623
178	0xbcb752d2	-0.022378359
179	0xbd29149f	-0.04127943
180	0xbca74e84	-0.020423181
181	0xbcc27d02	-0.023741249
182	0xbc7838b7	-0.015150241
183	0x39efb7a3	0.00045722452
184	0xbc186662	-0.009301754
185	0x3be897d2	0.0070981765
186	0xbcb33a93	-0.021878516
187	0xbd573eff	-0.052550312
188	0xbce522dc	-0.027970724
189	0xbc5a986c	-0.013342004
190	0xbca18ef7	-0.019721491
191	0xbc4abc70	-0.012374029
192	0xbcadbdcb	-0.021208664
193	0x3ed9621d	0.42457667
194	0xbd13d6fb	-0.036093693
195	0xbc95154e	-0.018198635
196	0xbcb42c9a	-0.021993924
197	0xbd1ab7ae	-0.037772827
198	0xbc4602c9	-0.012085625
199	0xbccddabc	-0.025128715
