scripts/modelling/minimize_input.pt (torch, 459179 bytes, 33 tensors)

conv1.weight f4 [100, 27, 3]
-0.0033957958 -0.0028408938 0.0022337271 -0.00037140434 0.00027892442 0.0015689565 0.019159235 0.012108671
-0.001689918 0.017291518 0.00050871907 -7.637862e-05 0.016779613 0.0024565395 -0.0004925203 0.0023829723
0.01011489 -0.00029082436 0.018224878 -0.008617018 0.0013609811 0.012301011 0.0067614815 -0.0010966535
-0.00030569386 -0.021929616 0.0006933866 0.010202454 0.011426077 -0.0016524777 0.0142372595 0.0070563294
0.0015547049 -0.0016956048 -0.016753139 -0.00048277708 0.009497618 -0.015461507 -0.00086168275 0.010071375
-0.013191505 0.0005803751 0.008829261 -0.014037344 0.0018140336 0.01170938 0.010814485 0.0012794869
-0.0049084774 -0.010176266 0.0016789981 -0.00040275083 -0.008909921 0.0020946353 0.008285951 -0.0040772073
-0.0010378382 0.005691278 -0.01720659 -0.00032689516 0.002338046 -0.010882987 -0.00043191967 -0.00036855886
-0.01823082 0.00032929608 0.014992198 0.00021817155 0.0012801586 -0.0015800853 -0.020572454 -0.0009953259
-0.005457504 -0.015443101 0.0008584676 -0.001473993 0.008606806 0.00028765385 0.006078991 -0.001930871
0.002416649 0.0049811588 0.013367975 -0.0020135713 -0.01872973 0.007839221 -0.003490701 -0.01892153
0.013557646 -0.003040692 0.0016914869 -0.0065295915 -0.00265476 -0.0040013506 0.002604269 0.0018945773
-0.0020603063 -0.0010305746 -0.00778506 0.0027876322 0.013765794 -0.0027543835 -0.016562618 0.0071358033
-0.008076459 0.006421142 -0.0014113074 -0.006180436 -0.011028027 0.0059804334 0.0023451664 -0.011495661
0.0016517513 0.001723536 -0.0009734836 -0.006864173 -0.0074034384 -0.010056284 -0.0007993597 -0.002216069
0.0033129875 0.007911176 -0.0034123075 -0.0015391501 -0.005205994 0.0004854902 0.006242918 0.0056229336
0.0012231168 -0.012885693 -0.003464068 0.0005206785 -0.0043972447 0.008444109 -0.005982589 -0.013133111
0.0060804007 -0.0016826969 0.010785595 -0.004729589 -0.0059278407 -0.0031031568 0.009986285 -0.0023224086
-0.0077273184 0.004836626 -0.0027850242 -0.015785685 -0.0016565114 -0.007204245 0.008321327 -0.008949623
-0.0056611076 -0.00096220546 0.0041740956 -0.0018608974 0.012565319 -0.008627019 -0.008223247 0.0027691121
0.0058833994 -0.008813475 -0.0153451385 -0.04438222 0.12103016 -0.0015776395 0.0046716477 0.0407184
0.009712549 -0.014430865 -0.10381931 -0.002882689 -0.01704571 0.009909672 -0.012493642 -0.017125195
-0.020148048 0.011947397 -0.033110842 0.055121873 -0.017871281 -0.044708055 0.07252147 0.027353266
-0.04311746 -0.03758251 -0.023794949 -0.018076029 -0.06462345 0.004350257 0.016081696 0.11019603
0.0065946253 -0.0046781003 -0.0987023 -0.02039205 -0.035102002 -0.014204806 0.02752983 -0.018503303
-0.083308145 -0.026857756 -0.014326022 -0.041663654 -0.012828442 0.033753842 0.102688774 -0.00077447714
-0.009719386 0.06746841 0.028745923 -0.030607313 0.10423965 -0.025047291 0.01683497 0.09263661
0.012200244 -0.041523475 -0.065593414 0.022629809 -0.014260558 0.102461606 -0.023992889 -0.007480315
-0.10885884 0.004466652 0.027447406 0.04557639 -0.019433627 0.020549424 -0.04303193 -0.0077563263
-0.00018050821 0.10714137 0.03134976 -0.0014486118 -0.048398476 -0.028377477 0.026017511 0.07724379
-0.025074638 0.010070091 -0.038647834 0.13914078 -0.008688926 0.05553815 -0.060080417 -0.057633117
0.022792026 -0.12186515 0.012541053 0.06031212 -0.16666164 0.051513296 0.026364505 0.13002352
00000000: 008c 5ebb 4a2e 3abb b963 123b 0cb9 c2b9
00000010: 9a3c 9239 72a5 cd3a d4f3 9c3c 7263 463c
00000020: 3d80 ddba f1a6 8d3c 8f5b 053a 762d a0b8
00000030: 6675 893c e5fd 203b 7a1c 01ba a42b 1c3b
00000040: ecb8 253c c979 98b9 574c 953c 652e 0dbc
00000050: f362 b23a 2e8a 493c 6b8f dd3b 96bd 8fba
00000060: 8945 a0b9 bda5 b3bc 63c4 353a 3228 273c
00000070: 7134 3b3c f397 d8ba 6543 693c c838 e73b
00000080: 3dc7 cb3a 0e3f deba e13d 89bc 3e1d fdb9
00000090: e69b 1b3c 4352 7dbc 8de2 61ba 6902 253c
000000a0: 2f21 58bc 5024 183a 9ba8 103c e3fc 65bc
000000b0: dec4 ed3a b3d8 3f3c 3d2f 313c 75b4 a73a
000000c0: 4bd7 a0bb 5aba 26bc d411 dc3a 4d28 d3b9
000000d0: ebfa 11bc 2646 093b ccc1 073c 189a 85bb
000000e0: 1208 88ba e67d ba3b d6f4 8cbc 2063 abb9
000000f0: e739 193b 8e4e 32bc 4773 e2b9 223b c1b9
00000100: cd58 95bc 5fa5 ac39 d6a1 753c fbc4 6439
00000110: ffca a73a dd1a cfba 9087 a8bc 9875 82ba
00000120: ddd4 b2bb 0f05 7dbc c90a 613a ff32 c1ba
00000130: 9003 0d3c 3fd0 9639 4632 c73b 4815 fdba
00000140: a460 1e3b fd38 a33b 5a05 5b3c 1ff6 03bb
00000150: 176f 99bc 1370 003c 3fc4 64bb 5301 9bbc
00000160: e420 5e3c 5946 47bb e2b4 dd3a 2ff6 d5bb
00000170: 7bfb 2dbb c31d 83bb 62ac 2a3b 7753 f83a
00000180: 3406 07bb 5814 87ba d119 ffbb b5b0 363b
00000190: ed89 613c e382 34bb 54ae 87bc 75d3 e93b
000001a0: 2053 04bc 7168 d23b 9efb b8ba 4185 cabb
000001b0: e6ae 34bc 83f7 c33b 5db1 193b 4c58 3cbc
000001c0: 947f d83a 46e8 e13a 6131 7fba dbec e0bb
000001d0: 8b98 f2bb 1dc3 24bc 1f8c 51ba 783b 11bb
000001e0: b51e 593b e19d 013c 05a1 5fbb 4fbd c9ba
000001f0: 0b97 aabb 6489 fe39 6491 cc3b 9640 b83b
00000200: fd50 a03a 841e 53bc 6b05 63bb 257e 083a
00000210: c316 90bb 2959 0a3c 9809 c4bb 432c 57bc
00000220: 193e c73b f08d dcba 10b6 303c abfa 9abb
00000230: 553e c2bb 555e 4bbb 849d 233c 8d33 18bb
00000240: 7235 fdbb 8f7c 9e3b f484 36bb fb50 81bc
00000250: 4d1f d9ba 9611 ecbb 2d56 083c 71a1 12bc
00000260: d080 b9bb 843c 7cba dac6 883b 5be9 f3ba
00000270: c5de 4d3c 5758 0dbc ccba 06bc fe79 353b
00000280: 88c9 c03b 6566 10bc 2d6a 7bbc 21ca 35bd
00000290: a9de f73d ccc8 ceba 9f14 993b 56c8 263d
000002a0: 6221 1f3c 6f6f 6cbc 389f d4bd 7feb 3cbb
000002b0: 72a3 8bbc 2d5c 223c 22b2 4cbc 234a 8cbc
000002c0: 850d a5bc 04bf 433c 3c9f 07bd 79c7 613d
000002d0: cb66 92bc cb1f 37bd 2386 943d f513 e03c
000002e0: ef9b 30bd 1ef0 19bd a0ed c2bc 2e14 94bc
000002f0: 4d59 84bd 9a8c 8e3b c3bd 833c 75ae e13d
00000300: ba17 d83b c04a 99bb 6e24 cabd 3a0d a7bc
00000310: 1ec7 0fbd 46bb 68bc 3d86 e13c 3d94 97bc
00000320: 769d aabd cc04 dcbc b1b7 6abc 82a7 2abd
00000330: 632e 52bc 7841 0a3d 7e4e d23d 4806 4bba
00000340: 0f3e 1fbc e12c 8a3d 927c eb3c 30bc fabc
00000350: 997b d53d fa2f cdbc 7ee9 893c 43b8 bd3d
00000360: 88e3 473c 8514 2abd d755 86bd 2662 b93c
00000370: 1ea5 69bc 64d7 d13d bc8c c4bc 6e1d f5bb
00000380: 62f1 debd fe5c 923b 62d9 e03c 4fae 3a3d
00000390: 4533 9fbc 4457 a83c 4042 30bd c828 febb
000003a0: ce46 3db9 ef6c db3d 9b68 003d 59df bdba
000003b0: 7b3d 46bd e277 e8bc ad22 d53c fe31 9e3d
000003c0: 5469 cdbc 06fd 243c 314d 1ebd ec7a 0e3e
000003d0: ff5b 0ebc f97b 633d e216 76bd b410 6cbd
000003e0: 58b6 ba3c 7094 f9bd fd78 4d3c d709 773d
000003f0: 59a9 2abe 9bff 523d 60fa d73c e324 053e

conv1.bias f4 [100]
-0.0029785316 0.03375231 0.0041880654 0.0051220586 -0.001407156 0.007667258 0.0057422295 0.011253642
-0.009506402 0.010467562 0.0010678071 0.009694258 -0.0025432783 -0.0019678944 0.0046229684 -0.003047098
0.0010596862 0.0049076043 -0.0019613774 -0.0034693065 0.001605748 -0.00024480987 -0.0056051183 -0.0021347902
0.008119493 -0.0039709113 0.0048940363 0.022098275 -0.0033472728 0.0029739738 0.00060666166 0.009669435
-0.0055717793 -0.011283638 -0.03297056 -0.004114086 -0.001810339 0.011306195 0.0027389368 0.0050385636
-0.006289474 -0.00027777845 -0.00011151051 -0.0033341234 -0.0025515482 -0.0087462645 -0.0014141332 0.009847564
0.009081458 -0.0040811403 -5.679857e-05 -0.0015273881 0.004875794 0.0032524054 0.005520904 0.008496269
-0.002536604 -1.5179539e-05 0.0022173473 0.00227448 0.010801464 -0.0054586395 -0.003830596 0.025260743
-0.0011591006 0.0040569706 -0.0006696063 -0.0007063805 0.0028464452 0.0068484223 0.0014577977 1.3688092e-05
-5.5109485e-05 -0.00015919459 0.00075558055 -0.0007677445 -0.005164835 0.0008411572 0.0061840606 0.01053246
-0.0053389715 0.0037749554 0.0011667392 -0.003236921 0.010426063 -0.0013541594 0.0063098576 0.011956421
-0.0055825235 -0.0027837006 6.0831408e-05 0.0055504446 -0.003041076 0.005432191 -0.007452936 0.0025248113
0.0005372386 0.035180774 -0.0021514536 -0.0029199047
00000000: 7833 43bb dd3f 0a3d 0a3c 893b f1d6 a73b
00000010: 5270 b8ba 9f3d fb3b 5029 bc3b 3261 383c
00000020: bdc0 1bbc 2380 2b3c a9f5 8b3a aad4 1e3c
00000030: 21ad 26bb caf7 00bb 457c 973b d2b1 47bb
00000040: 2be5 8a3a f8cf a03b 748a 00bb 4e5d 63bb
00000050: f677 d23a d359 80b9 24ab b7bb d6e7 0bbb
00000060: 9f07 053c 6b1e 82bb 275e a03b 7107 b53c
00000070: eb5d 5bbb 00e7 423b 6008 1f3a 8d6c 1e3c
00000080: 7993 b6bb 02df 38bc 230c 07bd 74cf 86bb
00000090: e648 edba 9e3d 393c bc7f 333b 891a a53b
000000a0: ef17 cebb cba2 91b9 c0da e9b8 4f81 5abb
000000b0: e037 27bb 7e4c 0fbc 705a b9ba ad57 213c
000000c0: 65ca 143c 16bb 85bb 003b 6eb8 a432 c8ba
000000d0: 20c5 9f3b 4f26 553b b3e8 b43b ef33 0b3c
000000e0: 273d 26bb a0ab 7eb7 ea50 113b 710f 153b
000000f0: a0f8 303c 63de b2bb bd0a 7bbb 9eef ce3c
00000100: f6ec 97ba 56f0 843b 8588 2fba 652c 39ba
00000110: 6d8b 3a3b bb68 e03b 9313 bf3a e8a5 6537
00000120: 5c25 67b8 79ed 26b9 2712 463a 7642 49ba
00000130: c73d a9bb 1b81 5c3a a9a3 ca3b 5790 2c3c
00000140: 8af2 aebb 3e65 773b 45ed 983a 8622 54bb
00000150: 14d2 2a3c 0d7e b1ba ecc2 ce3b dde4 433c
00000160: 9aed b6bb bf6e 36bb 3a25 7f38 81e0 b53b
00000170: ca4c 47bb 8500 b23b c237 f4bb 4e77 253b
00000180: 79d5 0c3a b719 103d 67ff 0cbb df5b 3fbb

conv2.weight f4 [100, 100, 3]
0.014572413 0.004252909 0.0155456625 -4.496151e-05 -0.0034347787 -0.0019545332 0.0027365168 0.0046051545
0.0041875383 0.012019372 -0.0025524653 -0.0071455715 0.012877066 -0.00012167246 -0.010700077 0.02688142
-0.0035919144 0.0039710677 -0.004141596 0.016505122 0.0037916184 0.062031507 -0.0008644131 -0.025670806
-0.0031770896 -0.006914956 -0.0007121694 -0.0018415164 -0.0059125386 0.0077126673 0.011709262 0.014988797
0.015113254 0.001686729 0.001253344 0.0030424816 0.004628297 0.0020265547 0.012546738 0.02871308
-0.0016141313 -0.0354211 -0.01769318 5.53473e-05 0.001571806 -0.023494808 0.0017686827 -0.0001460035
-0.020407889 0.0022099211 0.014831595 -0.0014883957 0.011182916 0.0045815483 -0.010166683 -0.011766196
0.0010076667 0.0005993287 0.0020790135 0.028211288 0.0054232087 0.008796187 0.017702812 0.027310431
-0.011537035 -0.0035515365 0.005279705 0.0071074893 0.015125255 0.0007828333 0.0075764903 -0.005189201
0.009334663 0.00036465147 0.028015452 0.009765533 -0.0005432582 0.00019901675 -0.0024507998 -0.023260305
0.0028193945 -0.0076681958 0.0047458597 0.004608204 -0.021714864 -0.010964544 0.009134481 0.010786462
0.0014243245 0.02044031 -0.0017907785 -0.0387138 -0.0031424908 -0.0051708347 -0.022591019 0.00059811765
0.05490769 -0.0011027887 0.008011402 0.012616426 -0.008003276 -0.003567871 0.021950675 -0.0012539164
0.018326424 0.027978225 0.003059378 -0.005746434 0.0057171285 0.004139331 0.00017587311 -0.0044447966
-0.005357444 -0.0015471716 -0.022861296 -0.005160631 -0.0034682876 -0.008157717 -0.0024281065 -0.0013689245
0.0059029805 0.009847491 0.0105856685 -0.004350192 0.029710697 -0.0069538956 -0.03597908 -0.0023912722
0.0025190036 0.008046414 0.0005780037 0.0042410074 -0.00043073518 0.01244543 -0.0010264714 -0.0004331806
0.0007269917 -0.0009198833 -0.037145562 -0.001232355 0.014017594 0.00988226 0.0064929016 -0.0052793724
-0.06971094 -0.012871715 0.021205662 0.023707688 -0.0080035 0.0063355835 0.005627752 -0.0032250946
0.006223361 0.0026119752 0.0066306675 0.005988911 -0.011941419 0.0072513185 -0.008397158 0.03480454
0.011091105 0.00071724766 0.07024511 -0.00034854878 0.0030494053 -0.0087980125 0.0046370015 0.008096698
0.0020402288 0.009348245 0.00041221385 -0.0053032786 -0.007888239 -0.007041626 0.035907097 0.00062109926
0.0071171364 -0.031329367 0.009192186 -0.0015064019 -0.008444722 0.010403243 0.0086846305 -0.005235633
0.0006344148 -0.006889012 0.008467223 -0.0027267572 0.0158396 0.0012865209 0.018161377 0.018216657
-0.0007152646 0.0023311486 0.0041079298 0.0036568788 -0.0036452343 0.014886892 -0.009184562 -0.0028948495
0.0028499756 0.014934578 0.0014816583 0.0028826436 -0.0011185057 0.019340739 0.0065179598 -0.055934325
0.004498863 -0.0022202474 0.051038638 0.004853024 -0.02362979 0.050360903 0.0055881357 -0.0049413815
-0.0009144783 -0.029026823 0.0035201898 -0.015537642 0.0077303206 0.0071482896 -0.0035555738 0.0019445949
0.008777569 -0.007447864 0.009831333 -0.0069605 0.0008991583 0.002941896 0.000656978 -0.0035020825
0.0144299045 0.0074190963 0.009565843 -0.009123247 0.015588836 -0.015250437 0.029329961 0.0033503713
-0.02134941 -0.0068897214 -0.000855587 -0.0025004353 0.006976677 -0.006174757 0.02939271 0.00081215793
0.0028057208 0.01952374 -0.009135501 -0.013135728 0.006352703 -0.0017306857 -0.005020071 -0.008509991
00000000: 21c1 6e3c fd5b 8b3b 3cb3 7e3c 0e95 3cb8
00000010: 061a 61bb a017 00bb 2257 333b d6e6 963b
00000020: 9e37 893b e6ec 443c 4347 27bb 6625 eabb
00000030: 54fa 523c 682a ffb8 604f 2fbc 6c36 dc3c
00000040: 5366 6bbb bb1f 823b 3ab6 87bb c035 873c
00000050: cd7c 783b c014 7e3d c899 62ba 954b d2bc
00000060: b836 50bb db96 e2bb e1b0 3aba 095f f1ba
00000070: f8bd c1bb 8bba fc3b 34d8 3f3c 9293 753c
00000080: 959d 773c 3c15 dd3a 3f47 a43a 5f64 473b
00000090: f8a8 973b f2cf 043b d590 4d3c b137 eb3c
000000a0: 4291 d3ba b715 11bd 4af1 90bc b624 6838
000000b0: 0f05 ce3a 2f78 c0bc 25d3 e73a 8418 19b9
000000c0: 722e a7bc 53d4 103b 3800 733c 4616 c3ba
000000d0: 8d38 373c d020 963b 2992 26bc 01c7 40bc
000000e0: af13 843a 451c 1d3a 0f40 083b 5c1b e73c
000000f0: 2cb5 b13b e21d 103c 7d05 913c 20ba df3c
00000100: d505 3dbc e5c0 68bb 6001 ad3b f1e5 e83b
00000110: ebcf 773c 0e37 4d3a 3544 f83b 2c0a aabb
00000120: 6af0 183c b12e bf39 a980 e53c 9dff 1f3c
00000130: 7169 0eba 27af 5039 999d 20bb 658c bebc
00000140: 97c5 383b 7d45 fbbb 2883 9b3b 6b00 973b
00000150: 5fe3 b1bc a1a4 33bc caa8 153c b3b9 303c
00000160: 66b0 ba3a 7072 a73c 8eb8 eaba 5d92 1ebd
00000170: 3ff2 4dbb 1b70 a9bb cd10 b9bc ffca 1c3a
00000180: e3e6 603d 738b 90ba 4142 033c 20b5 4e3c
00000190: 2c20 03bc f1d2 69bb e7d1 b33c 745a a4ba
000001a0: 4c21 963c 9732 e53c d87f 483b 954c bcbb
000001b0: c056 bb3b 3aa3 873b 946a 3839 a8a5 91bb
000001c0: 7f8d afbb 77ca caba 9d47 bbbc 831a a9bb
000001d0: 364c 63bb f2a7 05bc de20 1fbb 7c6d b3ba
000001e0: ca6d c13b 5f57 213c 836f 2d3c 0e8c 8ebb
000001f0: d963 f33c 81dd e3bb cd5e 13bd e4b6 1cbb
00000200: de15 253b 1bd5 033c 2c85 173a 26f8 8a3b
00000210: 4cd4 e1b9 ebe7 4b3c aa8a 86ba 841c e3b9
00000220: 9693 3e3a 5324 71ba f225 18bd f986 a1ba
00000230: 0daa 653c 34e9 213c 68c2 d43b 96fe acbb
00000240: 9cc4 8ebd e3e3 52bc 7fb7 ad3c a036 c23c
00000250: 1d21 03bc ba9a cf3b 0169 b83b 1c5c 53bb
00000260: 56ed cb3b ac2d 2b3b 1246 d93b a03e c43b
00000270: f1a5 43bc 789c ed3b 3c94 09bc 358f 0e3d
00000280: 77b7 353c ad05 3c3a abdc 8f3d 6dbd b6b9
00000290: 88d8 473b 8a25 10bc fdf1 973b 03a8 043c
000002a0: 5cb5 053b 6229 193c 681e d839 20c7 adbb
000002b0: ac3d 01bc 71bd e6bb 5213 133d 44d1 223a
000002c0: de36 e93b 3953 00bd d39a 163c 7672 c5ba
000002d0: bb5b 0abc 5d72 2a3c fb49 0e3c ac8f abbb
000002e0: db4e 263a 39bd e1bb 1bba 0a3c 65b3 32bb
000002f0: 0cc2 813c 7aa0 a83a 2bc7 943c 193b 953c
00000300: 9880 3bba 2fc6 183b d09b 863b 3fa8 6f3b
00000310: e2e4 6ebb 27e8 733c d87a 16bc 84b7 3dbb
00000320: a8c6 3a3b 29b0 743c 3434 c23a bcea 3c3b
00000330: d39a 92ba 7870 9e3c 9c94 d53b 641b 65bd
00000340: 336b 933b 9281 11bb e40d 513d 1e06 9f3b
00000350: 4393 c1bc 3c47 4e3d ae1c b73b 50eb a1bb
00000360: 9ab9 6fba a9c9 edbc fcb2 663b 9891 7ebc
00000370: a14e fd3b 333c ea3b a104 69bb c7e1 fe3a
00000380: cbcf 0f3c 360d f4bb 9913 213c e814 e4bb
00000390: 7eb5 6b3a d3cc 403b 0c39 2c3a 3283 65bb
000003a0: 686b 6c3c e41b f33b 0eba 1c3c ac79 15bc
000003b0: 5168 7f3c f8dc 79bc 6345 f03c e791 5b3b
000003c0: f5e4 aebc 2cc3 e1bb 7949 60ba 58de 23bb
000003d0: 9c9c e43b 9e55 cabb fbc8 f03c ffe6 543a
000003e0: 2fe0 373b 40f0 9f3c 12ad 15bc 3d37 57bc
000003f0: 562a d03b 2dd8 e2ba 687f a4bb 7d6d 0bbc

conv2.bias f4 [100]
0.0052790577 -0.0011096973 0.007351766 -0.0019620208 0.005374521 -0.009868075 -0.010240867 0.0023602727
0.0013619941 -0.0007324106 0.003211503 8.497684e-05 -0.00228142 0.0012631641 0.00056215294 0.0044666594
0.0031747578 0.006177609 0.0026099337 -0.0019065022 0.0012774667 0.0019458194 0.0020741369 0.00644483
-0.0031173346 0.0046252855 -0.007429051 -0.001263686 -0.0017952916 0.0015506617 -0.004310199 -0.006332445
-0.0071063577 -0.0013687916 0.0008698604 0.0047691725 0.0007098658 0.0015399646 0.0037839857 -0.0042081107
0.0012818944 0.00083701836 0.0030347859 0.0018372245 -0.003797052 -0.008424314 0.0027572769 0.002432692
0.0009958886 -0.0057477625 5.3789303e-05 -0.0043406864 0.0061163036 0.0024641384 0.0020664847 0.0057683666
0.0024754116 -0.0120689 0.0001316076 0.005640812 0.0029856774 -0.004673018 0.0007767596 -0.001336425
-0.0009207353 0.002989899 0.008621449 -2.0921143e-05 -0.001287415 -0.0032558506 0.00016856562 0.0014860369
-0.00122617 -9.3563525e-05 0.00080761866 -0.0001469704 2.0424159e-05 0.005971906 9.304044e-05 0.0029863154
-0.0004407767 0.014204612 0.008454458 -0.00042204824 0.0049758744 -9.4128685e-05 0.001542515 -0.0012120107
-0.0028633683 0.0001650196 0.0012531584 -0.00035433756 0.0016784751 -0.0016628649 0.0035861225 0.0006385861
-9.53542e-05 0.00015100515 0.004211763 0.000949353
00000000: f2fb ac3b 4373 91ba 15e7 f03b 3f95 00bb
00000010: c01c b03b b5ad 21bc 4fc9 27bc ceae 1a3b
00000020: f084 b23a 3eff 3fba 1478 523b 9835 b238
00000030: e083 15bb c190 a53a 725d 133a 0e5d 923b
00000040: 990f 503b 8a6d ca3b 6c0b 2b3b 99e3 f9ba
00000050: ab70 a73a dd0a ff3a 3eee 073b 272f d33b
00000060: 324c 4cbb b58f 973b 666f f3bb 44a2 a5ba
00000070: fd4f ebba 933f cb3a 923c 8dbb 6680 cfbb
00000080: 73dc e8bb 0669 b3ba 5807 643a b846 9c3b
00000090: 4a16 3a3a a3d8 c93a bffc 773b 31e4 89bb
000000a0: 3d05 a83a 5a6b 5b3a 42e3 463b 06cf f03a
000000b0: f6d7 78bb 2206 0abc 6eb3 343b cd6d 1f3b
000000c0: 7a88 823a ba57 bcbb d39b 6138 513c 8ebb
000000d0: 466b c83b 627d 213b dc6d 073b 9104 bd3b
000000e0: 843a 223b a3bc 45bc 2500 0a39 90d6 b83b
000000f0: 5bab 433b 1e20 99bb 749f 4b3a fb2a afba
00000100: 805d 71ba 2ef2 433b fa40 0d3c d07f afb7
00000110: 7bbe a8ba 1c60 55bb fdc0 3039 20c7 c23a
00000120: 70b7 a0ba 8937 c4b8 5fb6 533a 111c 1ab9
00000130: 8c54 ab37 faaf c33b b51e c338 0fb6 433b
00000140: 0c18 e7b9 76ba 683c 9184 0a3c 5b46 ddb9
00000150: a90c a33b f466 c5b8 372e ca3a 55dc 9eba
00000160: 59a7 3bbb 1d09 2d39 0541 a43a 62c6 b9b9
00000170: 4700 dc3a 7df4 d9ba 2705 6b3b ca66 273a
00000180: e5f8 c7b8 2357 1e39 d402 8a3b 00de 783a

rnn1.weight_ih_l0 f4 [200, 100]
0.03368077 0.01406976 0.010279904 -0.012368178 0.0031974385 -0.0062465207 -0.0038059405 0.018063383
-0.023770956 0.031316552 0.0039196736 0.023934472 0.013166369 -0.009988832 -0.029684713 0.00046220925
-0.019119104 0.017764859 0.013391061 -0.009320733 0.0060865204 0.040066168 -0.0044314596 0.020854618
0.01745358 0.015619307 0.0072916057 -0.024285821 -0.0010659813 0.015714532 -0.018769715 0.04790798
-0.0022957372 0.012783936 -0.021221157 -0.00036700658 -0.022319322 -0.0042049745 0.0075488347 -0.019544471
-0.012517301 0.037863303 0.004071596 -0.05634437 -0.008690151 -0.02984134 0.0292332 0.0022207536
-0.0077604493 -0.027154166 -0.018884342 -0.014487859 -0.014639358 -0.006168812 -0.010293617 0.0029891862
0.040968623 -0.009077156 -0.0058994256 0.039069183 0.02745589 -0.003133929 -0.021868788 0.022483949
-0.03366234 -0.01305122 -0.028787145 0.029928422 0.014912631 -0.00993109 -0.009171167 -0.042691063
-0.029593293 0.017985603 0.034596477 -0.017797299 -0.04425923 0.03218285 -0.005928166 0.015180961
0.027405508 -0.029105725 0.03382725 0.016849255 -0.020139866 -0.0380545 -0.02009558 0.003197616
-0.011673483 0.031183569 -0.0028867777 -0.024455056 -0.00085940294 -0.011381843 -0.010170719 0.0051157363
-0.011042856 0.022209981 0.027878718 -0.032657824 -0.014381806 0.0028415364 0.02070535 -0.015256869
-0.0058854907 -0.022196908 0.018994208 -0.009445783 0.017841032 -0.009058926 -0.016596816 -0.0044128266
0.013391906 -0.036440082 -0.030648954 -0.014154742 0.0152408555 -0.018123964 -0.030742567 0.0009830549
0.0074008396 -0.013207947 0.01244028 -0.0123581365 -0.012844819 -0.0058736866 0.028983695 0.030569846
-0.023897914 -0.006962686 0.024443867 0.006025896 -0.0076004243 -0.0062404606 -0.00392584 0.0029600067
0.013760479 -0.028780835 0.0011015248 -0.012334843 -0.027829852 -0.01746441 0.034635156 0.017218512
0.010596867 -0.024156203 -0.005154561 -0.017274598 -0.02151903 -0.012246216 0.022508886 -0.01160066
0.030551888 0.012483834 -0.027600069 0.03498952 -0.002174778 -0.03910689 -0.039890125 0.01709215
0.014148151 -0.012928884 -0.010822812 -0.009443577 0.052785367 0.016703973 -0.03484923 -0.011386957
-0.002861047 0.009649824 0.0055075167 -0.007910415 0.003666281 0.017921029 0.0004709297 -0.030429963
0.0129449265 -0.013321471 0.020185383 -0.04177198 0.010262287 0.014736848 0.030369269 -0.00015332093
-0.028249715 0.015702186 -0.0016395878 0.0009418024 -0.0066300645 -0.019753117 0.026125183 -0.034858346
0.02243304 -0.0018150593 -0.013809792 -0.002774472 -0.053907078 0.004338812 0.0026493848 -0.01524821
-0.0010527851 0.018985441 0.019079031 0.024167335 0.030836202 0.014444007 -0.0004065842 -0.010336907
0.02631788 0.012066884 -0.0007834009 -0.0070004 -0.006216103 0.017771529 -0.0028353082 -0.039665043
0.08336445 -0.010259717 -0.011298362 -0.00687601 -0.030953828 -0.0023004059 0.021114083 0.016649125
0.025328951 0.007962489 0.0032371096 -0.010785658 -0.016276332 0.008631081 0.010179244 -0.007598255
0.017363423 0.009360491 0.02287273 -0.037002843 0.010963578 0.018444661 -0.008380399 -0.032123826
-0.010334407 0.008704492 0.013274387 0.030072974 0.024909612 0.014911543 0.002892907 -0.01156485
0.019081581 -0.0013395331 0.007430624 -0.02707977 -0.0026789324 -0.013481125 -0.006716307 0.009064771
00000000: d9f4 093d da84 663c 0b6d 283c e6a3 4abc
00000010: 1e8c 513b 9daf ccbb 166d 79bb a9f9 933c
00000020: 4fbb c2bc c945 003d 9b70 803b 3a12 c43c
00000030: c1b7 573c 33a8 23bc 5b2d f3bc ad54 f239
00000040: ab9f 9cbc 9c87 913c 2e66 5b3c fdb5 18bc
00000050: 6f71 c73b 6c1c 243d c735 91bb 4ed7 aa3c
00000060: cffa 8e3c 1fe8 7f3c 6cee ee3b 0ff3 c6bc
00000070: 66b8 8bba c3bb 803c f2c2 99bc 283b 443d
00000080: 1474 16bb b773 513c fed7 adbc ca6a c0b9
00000090: 03d7 b6bc e2c9 89bb 375c f73b ba1b a0bc
000000a0: 5e15 4dbc 8d16 1b3d 066b 853b 5bc9 66bd
000000b0: 2361 0ebc d375 f4bc 777a ef3c 108a 113b
000000c0: 5e4b febb 6a72 debc 56b3 9abc 7c5e 6dbc
000000d0: ebd9 6fbc bf23 cabb 8fa6 28bc 39e6 433b
000000e0: b7ce 273d 5ab8 14bc f84f c1bb 0207 203d
000000f0: 2deb e03c 9b62 4dbb 2c26 b3bc 4230 b83c
00000100: 86e1 09bd c9d4 55bc 05d3 ebbc 732c f53c
00000110: 1c54 743c 03b6 22bc aa42 16bc d3dc 2ebd
00000120: a26d f2bc 8b56 933c 09b5 0d3d a4cb 91bc
00000130: 2b49 35bd 2ad2 033d 1041 c2bb 91b9 783c
00000140: 8481 e03c 216f eebc 718e 0a3d 7307 8a3c
00000150: 5cfc a4bc 09df 1bbd 7c9f a4bc 188f 513b
00000160: 2342 3fbc af74 ff3c 1830 3dbb f855 c8bc
00000170: 8e49 61ba e97a 3abc 16a3 26bc e8a1 a73b
00000180: 18ed 34bc b5f1 b53c e961 e43c 36c4 05bd
00000190: aba1 6bbc 1239 3a3b 449e a93c f2f7 79bc
000001a0: 13db c0bb 4ad6 b5bc be99 9b3c 7cc2 1abc
000001b0: 5b27 923c e46b 14bc 0cf6 87bc 7999 90bb
000001c0: ba69 5b3c 3242 15bd 8413 fbbc 4ae9 67bc
000001d0: c8b4 793c b578 94bc d6d7 fbbc d9d9 803a
000001e0: be82 f23b 2566 58bc 51d2 4b3c c879 4abc
000001f0: 1373 52bc 0e78 c0bb 376f ed3c 9d6d fa3c
00000200: 8fc5 c3bc 3e27 e4bb 813e c83c e174 c53b
00000210: fb0c f9bb c77c ccbb 55a4 80bb acfc 413b
00000220: a273 613c c9c5 ebbc 0a61 903a 1518 4abc
00000230: 6efb e3bc 8611 8fbc 98dd 0d3d d60d 8d3c
00000240: 7b9e 2d3c 3be3 c5bc 97e7 a8bb 7583 8dbc
00000250: ad48 b0bc 5aa4 48bc 8e64 b83c b210 3ebc
00000260: f447 fa3c ff88 4c3c 8a19 e2bc 2c51 0f3d
00000270: b886 0ebb 8c2e 20bd d463 23bd d604 8c3c
00000280: a5cd 673c abd3 53bc 2a52 31bc 3cb9 1abc
00000290: 7835 583d c5d6 883c 11be 0ebd 5c90 3abc
000002a0: 6780 3bbb 4c1a 1e3c 6678 b43b af9a 01bc
000002b0: fd45 703b 1fcf 923c 1de7 f639 4248 f9bc
000002c0: f516 543c 4d42 5abc d15b a53c 1819 2bbd
000002d0: 2723 283c d272 713c f9c8 f83c c6c4 20b9
000002e0: f26b e7bc dfa1 803c 70e7 d6ba 4ae3 763a
000002f0: 0341 d9bb 4ad1 a1bc 7b04 d63c a0c7 0ebd
00000300: 7fc5 b73c 49e7 edba 7742 62bc ebd3 35bb
00000310: abcd 5cbd 982c 8e3b 4da1 2d3b a1d3 79bc
00000320: 9bfd 89ba 5b87 9b3c a14b 9c3c 93fa c53c
00000330: 349c fc3c 8ea6 6c3c cf2a d5b9 215c 29bc
00000340: 9898 d73c 2eb4 453c 255d 4dba 9d63 e5bb
00000350: 74b0 cbbb 9995 913c 94d0 39bb d077 22bd
00000360: fbba aa3d 5f18 28bc c41c 39bc 2750 e1bb
00000370: e292 fdbc 68c2 16bb 71f7 ac3c bf63 883c
00000380: a97e cf3c 1975 023c b025 543b 54b6 30bc
00000390: f155 85bc 6169 0d3c d8c6 263c c8fa f8bb
000003a0: bd3d 8e3c bf5c 193c 975f bb3c 4b90 17bd
000003b0: 94a0 333c 4219 973c f14d 09bc 4694 03bd
000003c0: a551 29bc 499d 0e3c d17c 593c 995b f63c
000003d0: 3e0f cc3c 8b4f 743c ed96 3d3b 7f7a 3dbc
000003e0: fa50 9c3c 4693 afba 987c f33b 65d6 ddbc
000003f0: 0791 2fbb f0df 5cbc 7714 dcbb 6884 143c

rnn1.weight_hh_l0 f4 [200, 50]
0.0002135493 9.8481294e-05 4.6502013e-05 -0.00012985927 -7.264106e-05 0.00012748959 -0.00010955873 9.551653e-05
6.2653155e-05 0.00023670384 -6.510489e-05 0.00014626248 -0.00011155623 0.00035841213 -0.00011731517 0.00017184671
0.0001766892 -0.00028278326 4.4947537e-05 0.0004664114 0.0001341368 -8.643715e-05 -4.6455066e-06 -0.00011511887
-0.0003437809 2.2095588e-05 -0.00013347044 -0.000129105 -8.16367e-05 7.6285214e-05 -0.000254425 0.00022068764
2.6761254e-05 -0.00010231649 -0.00025796826 0.00011695949 0.00034043926 2.630218e-05 -0.00026743655 0.00029838976
-9.0499365e-05 0.0002453144 9.455864e-05 3.107455e-06 -7.737117e-05 -0.0002576645 0.00016075763 -0.000156982
0.00014023046 -9.463124e-05 -0.000335768 0.0003300306 0.00034405277 0.0011439143 -0.00042987897 0.0007430995
-0.0005105013 -0.0007946675 -2.6188092e-05 -0.00093606097 0.0010286052 1.0845462e-05 0.0008207944 -0.00074081146
-7.7797304e-05 0.00094608584 -0.00031130566 -0.00036181152 -0.0006077786 -0.00033211688 0.00045880268 0.0002868345
-8.668382e-05 0.00021460559 4.801764e-05 -0.00031785274 0.00034613692 -0.0002602535 0.00054599193 -0.00015865252
0.0001215661 -0.00067570695 0.0009971589 -0.00053301075 0.00037889538 -0.0006532546 -0.000346168 0.00067965133
0.00040690674 -0.001201686 7.670529e-05 -0.000608978 -0.00033559155 7.142341e-05 -0.00018721062 0.00093847635
0.00063513534 0.00071886904 -0.0005922654 0.00018692315 -9.7487755e-06 2.5495438e-06 -3.4831777e-05 0.0001554725
0.00011397017 0.00010152372 0.00017528332 5.331437e-05 7.532632e-06 -1.2308894e-05 -0.00026138392 -5.463476e-05
-7.690135e-05 -8.9663474e-05 -1.623406e-05 -8.679976e-05 0.00010277432 -1.1445828e-05 2.007904e-05 -9.885387e-05
-6.0588745e-06 -4.0588788e-05 -3.5254143e-05 -0.00015999548 0.0002544519 2.1747317e-05 3.149911e-05 3.3463784e-05
8.704472e-05 2.1561284e-05 0.00012046689 2.2786524e-05 6.0756243e-05 1.586951e-05 -9.723264e-05 6.555673e-05
-5.34975e-07 1.298321e-06 -0.00019183019 6.782877e-05 0.00017521599 -1.3984951e-05 -3.283636e-05 -5.5996006e-05
0.00011795964 0.00016379617 0.0001269438 -3.1609154e-05 6.375258e-05 3.3003435e-06 1.5122037e-06 -0.0002775088
-0.0002446772 0.00012832483 9.625448e-05 -0.0006257138 -8.339217e-05 -0.00030400773 -0.00015481378 -0.00028777725
-0.00010709802 -0.0003396335 3.1776457e-05 -0.0001501334 0.00043875104 -0.0005692787 -0.0002326883 -1.6876713e-05
-0.00013050964 -0.00029536133 0.00011752916 6.765086e-05 0.00015509714 -0.00047552344 0.00023677999 -0.00021749553
0.00026527254 -0.00060597283 0.00012443497 -0.000280921 0.00063895114 -0.0004967897 0.0005191481 0.00018060532
0.00033980032 -4.8285758e-05 -0.00056655676 -0.00025318956 -6.22855e-05 3.2238295e-05 0.00015901217 -0.00021207264
-0.00014774593 -0.00021288428 0.00023114501 0.0001485569 0.0002127295 -0.00053456204 -1.5719936e-05 0.000144748
-3.295014e-05 -2.0589969e-05 -0.00011238439 -0.00015607389 -8.053752e-05 -7.516818e-05 -0.0001524952 3.864002e-05
9.3533374e-05 -1.5651889e-05 -0.00023863558 -5.2937456e-05 0.00025960105 -0.00019775677 8.9960355e-05 -0.0003423094
-0.00013284208 0.00013827647 -7.6599514e-05 0.00015519776 3.141422e-05 0.00021162424 -0.00011157394 -0.0004659925
7.0191556e-05 -3.2728884e-05 0.000149857 -7.177355e-05 -6.8226334e-05 -0.00019147692 0.00021521565 -1.494889e-05
0.00016967312 2.5021931e-05 -0.0003370431 0.00015012473 -0.00032218016 0.00016383037 -0.0002471978 -0.0001281038
0.00041331595 1.33367685e-05 0.00010185419 -0.000692537 0.000108816166 6.20195e-05 4.901484e-05 0.00010500297
1.5430385e-05 -8.992143e-05 -0.00026425038 -0.0008479915 -0.00016478075 0.00029039528 -6.4703156e-05 -0.0009775705
00000000: 34ec 5f39 be87 ce38 280b 4338 d52a 08b9
00000010: df56 98b8 baae 0539 e5c2 e5b8 0c50 c838
00000020: a864 8338 b433 7839 ec88 88b8 095e 1939
00000030: 4cf3 e9b8 43e9 bb39 1a07 f6b8 c031 3439
00000040: a545 3939 8742 94b9 0d86 3c38 ae88 f439
00000050: 13a7 0c39 9745 b5b8 99e0 9bb6 f96b f1b8
00000060: 7e3d b4b9 ea59 b937 33f4 0bb9 5c60 07b9
00000070: 5f34 abb8 50fb 9f38 5864 85b9 6368 6739
00000080: 5b7d e037 bf92 d6b8 ea3f 87b9 2648 f538
00000090: fc7c b239 80a3 dc37 ba36 8cb9 3271 9c39
000000a0: 7aca bdb8 8b9d 8039 c94d c638 ac89 5036
000000b0: 5542 a2b8 2517 87b9 0c91 2839 899b 24b9
000000c0: d40a 1339 c374 c6b8 050a b0b9 f507 ad39
000000d0: fb61 b439 65ef 953a 6161 e1b9 90cc 423a
000000e0: 2ad3 05ba 3c51 50ba 80ae dbb7 fd61 75ba
000000f0: 43d2 863a e8f4 3537 942a 573a 0433 42ba
00000100: 1c27 a3b8 bf02 783a bd36 a3b9 85b1 bdb9
00000110: 5553 1fba f91f aeb9 748b f039 4662 9639
00000120: 06ca b5b8 c007 6139 8c66 4938 79a5 a6b9
00000130: b679 b539 a272 88b9 e620 0f3a f65b 26b9
00000140: 4ef1 fe38 ed21 31ba 1ab3 823a bfb9 0bba
00000150: 7aa6 c639 2d3f 2bba e27d b5b9 a12a 323a
00000160: 1956 d539 e481 9dba d7dc a038 d2a3 1fba
00000170: 56f2 afb9 27c9 9538 f84d 44b9 1504 763a
00000180: 367f 263a 7c72 3c3a 4242 1bba cd00 4439
00000190: ac8e 23b7 d418 2b36 5618 12b8 5506 2339
000001a0: 4503 ef38 22e9 d438 42cc 3739 de9d 5f38
000001b0: d1c0 fc36 4c82 4eb7 5b0a 89b9 a027 65b8
000001c0: 1946 a1b8 b609 bcb8 612e 88b7 4408 b6b8
000001d0: 8b88 d738 7507 40b7 696f a837 c44f cfb8
000001e0: 564d cbb6 e13d 2ab8 d9dd 13b8 76c4 27b9
000001f0: f567 8539 026e b637 e91d 0438 775b 0c38
00000200: c78b b638 81de b437 2ba3 fc38 b025 bf37
00000210: 85d4 7e38 831f 8537 60e9 cbb8 807b 8938
00000220: 349b 0fb5 f841 ae35 0626 49b9 4b3f 8e38
00000230: 2fba 3739 e8a0 6ab7 c6b9 09b8 41dd 6ab8
00000240: 1961 f738 b3c0 2b39 381c 0539 1294 04b8
00000250: e8b2 8538 787b 5d36 ecf6 ca35 9a7e 91b9
00000260: 0548 80b9 ef8e 0639 3bdc c938 f106 24ba
00000270: d5e2 aeb8 3a63 9fb9 8255 22b9 cfe0 96b9
00000280: d099 e0b8 d610 b2b9 b647 0538 216d 1db9
00000290: 2b08 e639 a63b 15ba cafd 73b9 7792 8db7
000002a0: 6ad9 08b9 bada 9ab9 fd79 f638 c7df 8d38
000002b0: 92a1 2239 ad4f f9b9 2548 7839 830f 64b9
000002c0: 4714 8b39 26da 1eba c27a 0239 9448 93b9
000002d0: 497f 273a fe3a 02ba 7017 083a df60 3d39
000002e0: 3a27 b239 7086 4ab8 fb84 14ba 87be 84b9
000002f0: 469f 82b8 9b37 0738 81bc 2639 d15f 5eb9
00000300: 3fec 1ab9 b039 5fb9 845f 7239 f0c5 1b39
00000310: 2410 5f39 da21 0cba 4ede 83b7 7fc7 1739
00000320: f233 0ab8 9fb8 acb7 e9af ebb8 c4a7 23b9
00000330: 40e6 a8b8 9ca3 9db8 1ee7 1fb9 6811 2238
00000340: 5927 c438 2d4c 83b7 403a 7ab9 2909 5eb8
00000350: 101b 8839 ee5c 4fb9 19a9 bc38 fd77 b3b9
00000360: 864b 0bb9 4ffe 1039 0da4 a0b8 95bc 2239
00000370: c3c2 0338 73e7 5d39 cefc e9b8 7450 f4b9
00000380: ce33 9338 5f46 09b8 ef22 1d39 2285 96b8
00000390: bc14 8fb8 32c7 48b9 83ab 6139 fecc 7ab7
000003a0: 48ea 3139 30e6 d137 29b5 b0b9 cd6a 1d39
000003b0: 4aea a8b9 e1c9 2b39 549a 81b9 9a53 06b9
000003c0: 54b2 d839 fcc0 5f37 8d9a d538 5f8b 35ba
000003d0: 3c34 e438 7710 8238 4995 4d38 0a35 dc38
000003e0: 8070 8137 3394 bcb8 168b 8ab9 bf4b 5eba
000003f0: ffc8 2cb9 3240 9839 3eb1 87b8 d321 80ba

rnn1.bias_ih_l0 f4 [200]
0.0003202555 -0.0009446724 -0.00033734852 0.0003646798 0.0011965751 0.0012480626 0.00086970517 -0.00010164761
0.00018957662 -0.00014830985 -0.0003560323 0.000587336 -0.0010648727 -0.0019920433 -0.00025870063 0.0044099204
-0.001018129 -0.0007599637 0.00048203126 0.0003549321 0.0006113759 0.00062258006 -0.00016253121 0.00047671472
-3.4057728e-05 0.0011940132 -0.0011304847 -0.0019019546 0.0010677491 -0.00030272506 -0.0018038129 0.0011672428
0.00032627597 0.0006551565 -0.00041412454 -0.00013283544 -0.00037538516 0.002492737 -0.0012858504 -0.0007602894
0.00021451322 0.0013902843 -0.00018056331 0.0012494514 8.632848e-05 -0.00020912784 0.00027574672 0.00078365527
6.0496e-05 0.0010620466 0.0019331382 0.0013602842 -0.0004838751 -0.003592108 0.0002802398 -0.005757726
0.0011471797 0.0035929373 0.0010716615 0.0014827239 -0.0005821642 0.003706909 0.0033776152 -0.00097229826
0.0010798093 -0.00034877125 -0.00025227637 0.0056421 0.00027825622 -0.0010463753 0.00056549767 -0.0002718569
-0.00063102564 0.00028725836 -0.002921482 -0.0010135269 0.002388095 -0.00058383594 0.0027725075 0.0013928148
0.007360261 0.00081891904 -0.0020657 -0.0009814327 0.0017278086 -0.0005599963 0.0012288796 -0.0022585632
-0.0010408338 -0.0001258892 -0.0009942598 -0.0045292717 0.00093162694 0.005289666 0.00044594333 0.0028833158
-0.0013879531 0.0030312203 -0.0003341919 -0.00022737616 -0.017516242 0.05228007 0.015736977 0.005625668
-0.0037101961 0.06329764 0.02656486 -0.0010315533 -0.029580181 -0.023992058 0.06096727 -0.01695053
-0.015284129 -0.007052964 0.008339037 -0.11123263 0.034683112 -0.0125646535 -0.014506293 -0.007164618
-0.033704035 -0.0056099743 -0.0005438667 -0.026838161 0.049127523 -0.011375851 0.027381463 0.025811013
0.050003525 -0.009830971 0.029246235 0.008127381 -0.03974138 -0.053500332 0.0661634 -0.059005268
-0.035016093 0.011929173 -0.05846748 0.029709656 0.020921094 -0.05926006 -0.0048471405 0.022372248
-0.011568127 -0.029275686 -0.059864722 -0.06415966 0.013849456 -0.009431018 0.00029200534 -0.0001053748
0.00045484776 1.4962956e-05 0.0010431882 -0.0007296994 -8.189357e-05 -0.00065956084 -0.00084429013 -0.00023762159
-0.0003377964 0.0009060022 -0.00019224804 0.00032366428 -0.00028348572 -0.013491501 -0.0006843669 0.00015553935
0.00023046645 -0.0003192393 0.0003265751 0.0004991171 1.4444828e-05 -0.0005139045 -4.1512245e-05 0.00034627118
-7.352542e-05 0.0024150654 2.8234823e-05 -0.00022626428 0.0005628743 0.00042318483 0.00013360335 0.00028942688
0.00021040524 -0.00016470338 9.585332e-05 0.00013301923 -0.00027688974 -0.00029082317 -0.00021453928 -0.00033547072
0.00083109 -3.949273e-05 -4.6796067e-05 -0.00071860384 0.00012161765 -1.7868426e-05 -0.00024264274 0.00022337506
00000000: f7e7 a739 e4a3 77ba 27de b0b9 7f32 bf39
00000010: 66d6 9c3a 0896 a33a edfc 633a a52b d5b8
00000020: 16c9 4639 9f83 1bb9 d9a9 bab9 74f7 193a
00000030: 3393 8bba f18c 02bb 36a2 87b9 1881 903b
00000040: be72 85ba 4d38 47ba 24b9 fc39 2e16 ba39
00000050: be44 203a a434 233a 246d 2ab9 91ef f939
00000060: 35d9 0eb8 6f80 9c3a c62c 94ba 024b f9ba
00000070: b7f3 8b3a 12b7 9eb9 eb6d ecba 2bfe 983a
00000080: 0510 ab39 cfbe 2b3a db1e d9b9 be49 0bb9
00000090: 58cf c4b9 305d 233b fb89 a8ba 284e 47ba
000000a0: f4ee 6039 333a b63a 9855 3db9 a2c4 a33a
000000b0: 400b b538 5449 5bb9 1992 9039 376e 4d3a
000000c0: 16bd 7d38 5f34 8b3a 5b61 fd3a 904b b23a
000000d0: 9eb0 fdb9 9269 6bbb 26ed 9239 4eab bcbb
000000e0: f75c 963a 7c77 6b3b fe76 8c3a f557 c23a
000000f0: 619c 18ba 9def 723b fb5a 5d3b d5e1 7eba
00000100: 6388 8d3a 49db b6b9 f643 84b9 5de1 b83b
00000110: ebe2 9139 8726 89ba e83d 143a 0488 8eb9
00000120: 6a6b 25ba 2a9b 9639 5676 3fbb 52d8 84ba
00000130: 9681 1c3b 910c 19ba f5b2 353b 1c8f b63a
00000140: 582e f13b baac 563a b260 07bb 6ba3 80ba
00000150: a377 e23a b7cc 12ba 5b12 a13a 6704 14bb
00000160: 966c 88ba 2001 04b9 d351 82ba 496a 94bb
00000170: 6d38 743a ef54 ad3b 80cd e939 03f6 3c3b
00000180: faeb b5ba 70a7 463b 7a36 afb9 d36b 6eb9
00000190: 397e 8fbc a023 563d d5ea 803c 8657 b83b
000001a0: c326 73bb 31a2 813d 8d9e d93c 2f35 87ba
000001b0: 2352 f2bc fe8a c4bc d1b8 793d d6db 8abc
000001c0: 496a 7abc 8d1c e7bb 75a0 083c efcd e3bd
000001d0: e10f 0e3d fadb 4dbc ceab 6dbc 2cc5 eabb
000001e0: 3e0d 0abd e0d3 b7bb 4792 0eba b4db dbbc
000001f0: f139 493d c761 3abc 174f e03c 9e71 d33c
00000200: 7fd0 4c3d 1512 21bc cd95 ef3c b528 053c
00000210: dbc7 22bd 2a23 5bbd ad80 873d 82af 71bd
00000220: 096d 0fbd 9472 433c 997b 6fbd aa61 f33c
00000230: b762 ab3c adba 72bd c3d4 9ebb 0146 b73c
00000240: 3e88 3dbc 90d3 efbc b634 75bd 2466 83bd
00000250: d4e8 623c 8e84 1abc 4b18 9939 aafc dcb8
00000260: a278 ee39 6809 7b37 96bb 883a 4c49 3fba
00000270: 47be abb8 61e6 2cba 5a53 5dba 0f2a 79b9
00000280: 441a b1b9 c780 6d3a 3196 49b9 7cb1 a939
00000290: cfa0 94b9 750b 5dbc 1667 33ba 4718 2339
000002a0: 5ea9 7139 935f a7b9 2b38 ab39 2ed7 023a
000002b0: 1058 7237 8cb7 06ba 6f1d 2eb8 bb8b b539
000002c0: a931 9ab8 1346 1e3b d2d9 ec37 5b41 6db9
000002d0: db8d 133a e8de dd39 e017 0c39 38be 9739
000002e0: 3aa0 5c39 3ab4 2cb9 dc04 c938 147b 0b39
000002f0: 832b 91b9 a079 98b9 f3f5 60b9 1ee2 afb9
00000300: 81dd 593a ffa4 25b8 e546 44b8 b060 3cba
00000310: fb0c ff38 27e4 95b7 ea6d 7eb9 c939 6a39

rnn1.bias_hh_l0 f4 [200]
0.00040218967 -0.00017034209 -0.00010651704 0.0005757052 0.0008996269 0.0012352576 0.0008403049 -0.0003458016
0.00031012506 -0.00046434868 -0.00039348195 0.00050747267 -0.0010692229 0.0005315336 -0.00011906808 -0.006437608
-0.0015263968 -0.00066545967 0.0007885182 0.00042086266 0.000505572 0.0005710658 6.850755e-05 0.00047973954
3.5780336e-05 0.00033989406 -0.0011232336 -0.001740674 0.0011141591 -0.0002371217 0.0011589684 0.0012396275
0.0004255166 0.00038689387 -0.00075298484 -0.00014721813 -0.000375023 -0.0007507268 -0.0010028096 -0.0005865803
0.00019153356 0.0013918546 -0.00010298159 -0.0009882658 1.535104e-05 -0.0005496074 0.00023827972 0.0014233654
-0.00036021494 -0.0015653392 -0.0041042035 0.0014929187 -0.000540442 -0.003143552 0.0012298628 -0.00022998484
0.0011830361 -0.0035325848 0.0010716001 0.0015073502 -0.000579764 0.0037537697 -0.0012836311 -0.0011744117
0.0010881223 -0.0028794687 -0.0012571339 0.006002532 0.00027868053 -0.0010470969 2.1552289e-05 0.0012535491
-0.0006415314 9.492575e-05 -0.0029205163 0.002320378 0.0023907674 -0.0005762021 0.0023775154 0.00016305351
0.009609445 0.000819938 -0.0020794778 -0.0006478483 0.0016297542 -0.0004727665 0.001242941 -0.0018364568
-0.0021635958 -0.00013247781 -0.0009929776 -0.00421986 -0.0011200373 -0.0035166289 -0.0009844713 0.0029476038
-0.0014032446 0.002999977 -0.0002970004 2.183628e-05 -0.0053913407 0.0040912097 0.030981919 -0.023725346
0.0062229806 0.018861262 0.049083147 0.059284355 -0.08945375 0.00083821436 0.03188053 0.012223339
-0.0324409 -0.018522574 -0.04521469 0.012636134 0.00833311 0.08489611 -0.009825703 0.06219286
-0.00962352 -0.0106454035 -0.03364071 0.028855994 0.019824319 0.027662637 0.071120135 0.035933
0.048157908 -0.008399728 0.032955438 -0.041723255 0.014282209 -0.06763091 -0.02742465 -0.016494853
-0.0075912224 -0.015802478 -0.0717148 0.012636013 0.036034282 -0.05198372 0.01141962 -0.029424397
0.008008857 0.03707319 -0.009232486 0.012028479 0.04584075 0.012668601 0.00073613104 -0.0029531864
0.0003849858 0.00013815383 -0.00045923772 -0.0011497091 0.00055197167 -0.0004280716 -0.0008323145 -0.00022599626
-0.00024690136 0.00084228325 -0.0001823257 0.00013146613 0.00047414942 -0.0074513773 -0.0008695983 -0.0027720528
0.00022318038 -0.00023635426 -0.0006713106 -0.00034637254 -2.4401015e-05 -0.00048522296 0.00029232743 0.00032697406
-6.414724e-05 -0.00036435906 -5.8981117e-05 -0.0002809104 0.0010013076 0.00031012078 8.947665e-05 0.00027685254
0.00013135005 -0.00029581078 0.00022716598 0.0006393349 -0.00020755621 -0.00029151354 0.00071096706 -0.00035891772
0.000652145 -0.00087087246 -2.7037193e-05 -0.00073091674 0.00011965286 -5.2321917e-05 -0.00012509916 4.900044e-05
00000000: fcdc d239 db9d 32b9 e761 dfb8 ecea 163a
00000010: f0d4 6b3a 5ee8 a13a e847 5c3a b54c b5b9
00000020: 4898 a239 d373 f3b9 414c ceb9 ea07 053a
00000030: 2b25 8cba 9e56 0b3a 30b4 f9b8 92f2 d2bb
00000040: 6111 c8ba 3e72 2eba 90b4 4e3a 3ba7 dc39
00000050: 5d88 043a 94b3 153a b6ab 8f38 8d85 fb39
00000060: d812 1638 cf33 b239 7739 93ba 5427 e4ba
00000070: fa08 923a dfa3 78b9 87e8 973a ff7a a23a
00000080: df17 df39 04d8 ca39 f563 45ba 915e 1ab9
00000090: bc9e c4b9 6ccc 44ba b570 83ba bdc4 19ba
000000a0: 66d6 4839 e46e b63a d2f7 d7b8 b388 81ba
000000b0: 1bc6 8037 8713 10ba bada 7939 3890 ba3a
000000c0: 3bdb bcb9 112c cdba 8e7c 86bb 0aae c33a
000000d0: 73ac 0dba 0d04 4ebb 5933 a13a 1628 71b9
000000e0: 1b10 9b3a f082 67bb ef74 8c3a 4892 c53a
000000f0: 4efb 17ba ce01 763b 833f a8ba b8ee 99ba
00000100: 539f 8e3a 78b5 3cbb 6ac6 a4ba e3b0 c43b
00000110: de1b 9239 be3e 89ba 30cb b437 214e a43a
00000120: 722c 28ba e012 c738 2266 3fbb 7c11 183b
00000130: 6cae 1c3b 450c 17ba 17d0 1b3b 58f9 2a39
00000140: ef70 1d3c 1cf1 563a d947 08bb 5dd4 29ba
00000150: 7a9d d53a a5dd f7b9 2eea a23a 44b5 f0ba
00000160: 1dcb 0dbb bee9 0ab9 cd26 82ba c046 8abb
00000170: 37ce 92ba 3e77 66bb 6009 81ba 962c 413b
00000180: 13ed b7ba 439b 443b b8b6 9bb9 0e2d b737
00000190: d8a9 b0bb 8e0f 863b cbcd fd3c a85b c2bc
000001a0: 25ea cb3b ef82 9a3c 690b 493d 27d4 723d
000001b0: 8733 b7bd 9dbb 5b3a 2995 023d 6644 483c
000001c0: c0e0 04bd a7bc 97bc 0a33 39bd ca07 4f3c
000001d0: 9987 083c 03de ad3d fcfb 20bc f1bd 7e3d
000001e0: f8ab 1dbc 0f6a 2ebc d7ca 09bd 6863 ec3c
000001f0: 9c66 a23c c19c e23c 6fa7 913d 7b2e 133d
00000200: 3a41 453d 039f 09bc 48fc 063d 01e6 2abd
00000210: edff 693c 1382 8abd a9a9 e0bc 3720 87bc
00000220: cabf f8bb 3374 81bc 36df 92bd 4807 4f3c
00000230: af98 133d e2ec 54bd 5c19 3b3c 6f0b f1bc
00000240: 9537 033c 0fda 173d da43 17bc 1913 453c
00000250: 83c3 3b3d f78f 4f3c ebf8 403a 3f8a 41bb
00000260: ebd7 c939 63dd 1039 d8c5 f0b9 d6b1 96ba
00000270: 31b2 103a cc6e e0b9 ae2f 5aba 69f9 6cb9
00000280: 8a72 81b9 accc 5c3a af2e 3fb9 2cda 0939
00000290: 4297 f839 af2a f4bb c1f5 63ba 54ab 35bb
000002a0: 8705 6a39 ddd5 77b9 e4fa 2fba 5699 b5b9
000002b0: c8b0 ccb7 8665 feb9 8643 9939 b76d ab39
000002c0: ca86 86b8 7207 bfb9 7e62 77b8 2847 93b9
000002d0: 4f3e 833a b597 a239 69a5 bb38 8526 9139
000002e0: 03bb 0939 0d17 9bb9 6733 6e39 0a99 273a
000002f0: 72a3 59b9 49d6 98b9 3160 3a3a 1f2d bcb9
00000300: b6f4 2a3a 434b 64ba eecd e2b7 fe9a 3fba
00000310: 24ee fa38 3b74 5bb8 0d2d 03b9 d285 4d38

rnn1.weight_ih_l0_reverse f4 [200, 100]
0.0069373418 -0.01332171 -0.006699668 0.023415634 -0.012055919 0.0032600504 -0.01127248 0.011355353
0.042102344 0.037180096 0.011060289 -0.0027955126 -0.01262247 0.006824591 0.035177633 2.5348154e-05
-0.05155583 0.015440644 0.0055305474 -0.019327413 0.0034004925 0.003808983 0.00026499352 -0.06771303
0.0033800749 -0.00047435975 -0.021160753 -0.004169995 0.0012926343 -0.009013446 -0.010427378 0.028237382
0.011091312 -0.014012472 0.020300524 -0.0023822286 0.027631579 -0.0019456687 0.018857202 -0.009895253
0.0053476924 0.0025936542 0.002045163 0.004151756 0.031544626 0.005452946 -0.0054185768 -4.7855407e-05
-0.018936198 -0.00037992524 -0.014259868 -0.004813772 -0.001480583 0.011414273 0.010958423 0.0092332885
0.019594163 -0.0045114905 -0.023767756 0.0156139275 -0.015523063 -0.018718576 0.0042356458 -0.017616048
0.008269149 0.033799656 0.007967784 0.009226181 0.015790991 0.016441276 -0.005227111 -0.0119221555
-0.014757067 0.023828208 -0.014040252 -0.010176203 -0.002924681 0.036534566 0.060540415 -0.013063039
0.008990772 -0.0072918106 -0.0003087643 0.01392863 0.03056057 -0.008208463 0.010492027 -0.02098631
0.007908104 0.0045302254 -0.010607995 0.013766834 0.012156429 -0.024087146 0.009652331 0.0013873122
0.0059752525 -0.009265643 0.028816221 -0.012783282 0.004072488 -0.0093157515 -0.009530011 -0.0064373654
-0.0043931194 -0.0011097006 -0.0028062882 -0.0023928967 -0.0026682438 -0.0006290993 -0.015418671 -0.0017885877
-0.008685245 0.0070865853 0.018568868 0.0028863337 -0.008994974 -0.0049819015 -0.0025788888 -0.003478385
0.0022976212 -0.0025528444 -0.02307574 0.015636202 0.00264754 0.0063750315 -0.002061144 0.0027715585
-0.00114717 -0.00024124957 -0.0061828727 0.008021373 0.00179892 -0.0023002408 -0.0068328003 0.008951642
0.0031137366 -0.0071633346 -0.0008585422 -0.008454499 -0.006731329 0.0012795767 -0.0012001122 0.007188647
-0.0029199938 0.0015479373 0.008872505 -0.014235073 -0.007695641 0.0005637292 0.0037399137 -0.0048597795
-0.016559867 -0.0037328117 -0.0038154223 0.004364568 -0.0038366239 -0.000689887 -0.00549996 -0.006782221
0.006076587 -0.008372721 0.0054569114 -0.0083903065 0.009525641 -0.0033399782 -0.0013134843 0.0048767608
0.0022071614 -5.493134e-05 0.0014357716 0.0021902847 0.008770593 -0.0077806124 -0.002110945 0.002113235
-0.012861471 -0.012498239 -0.0023035796 0.001093073 -0.0016381257 -0.006900548 0.002269572 -0.005888501
-0.0043669175 -0.0019830884 0.00030506897 0.0009535512 -0.011345253 -0.0030189261 -0.0026603101 -0.001994636
0.006145114 -0.008499141 -0.0020045626 0.0054565216 -0.002618115 -0.003620091 -0.0017965852 0.0010513439
0.008261313 0.023964252 -0.0033745002 0.0031732596 0.0016180554 0.014913741 -0.012238952 -0.0072352164
0.013007153 0.010501123 0.032857455 -0.01031599 -0.0033262107 -0.010165184 -5.3062216e-05 -0.016249144
-0.040501155 0.014222308 0.0057436945 0.019623179 -0.0063095945 -0.0020274848 -0.033836666 -0.0032485493
0.012201026 0.006074388 -0.0044926424 0.0016660412 0.0074725007 -0.003205369 0.008055617 0.015886886
0.014960037 0.00012635373 -0.0068086414 -0.007640643 -0.021900201 -0.004391237 0.012521601 0.016418701
-0.028971585 -8.007415e-05 -0.00946646 -0.00096357655 0.028584298 0.008547976 -0.009144715 -0.017079607
-0.014102677 -0.023123657 -0.011022523 -0.024602722 0.0035380386 -0.0065121353 -0.010346121 0.023596842
00000000: a452 e33b 4d43 5abc e388 dbbb 25d2 bf3c
00000010: 3086 45bc 92a6 553b 35b0 38bc cd0b 3a3c
00000020: 8273 2c3d 284a 183d 3736 353c eb34 37bb
00000030: 7ace 4ebc d2a0 df3b 6c16 103d bfa2 d437
00000040: 352c 53bd c1fa 7c3c 9839 b53b 8654 9ebc
00000050: ccda 5e3b 21a0 793b d4ee 8a39 21ad 8abd
00000060: 3f84 5d3b 7db3 f8b9 5159 adbc 74a4 88bb
00000070: 9c6d a93a 22ad 13bc 98d7 2abc 1552 e73c
00000080: 56b8 353c 9194 65bc 494d a63c 2a1f 1cbb
00000090: 9f5b e23c cf05 ffba 6b7a 9a3c b31f 22bc
000000a0: b23b af3b 4cfa 293b 2408 063b 740b 883b
000000b0: f034 013d a0ae b23b 518e b1bb 5ab8 48b8
000000c0: 1620 9bbc b430 c7b9 39a2 69bc d9bc 9dbb
000000d0: 1f10 c2ba ee02 3b3c f58a 333c 3847 173c
000000e0: f083 a03c 20d5 93bb 99b4 c2bc 8fd1 7f3c
000000f0: 7254 7ebc b357 99bc 2ccb 8a3b 884f 90bc
00000100: 537b 073c 8271 0a3d 4f8b 023c 6829 173c
00000110: 1c5c 813c dbaf 863c 2f48 abbb 2555 43bc
00000120: a0c7 71bc 6033 c33c 1609 66bc 17ba 26bc
00000130: 01ac 3fbb 45a5 153d 3af9 773d 5b06 56bc
00000140: 084e 133c 24f0 eebb a5e1 a1b9 e934 643c
00000150: 295a fa3c ca7c 06bc c0e6 2b3c 7beb abbc
00000160: fe90 013c 4972 943b 28cd 2dbc 498e 613c
00000170: c22b 473c 6852 c5bc cf24 1e3c 79d6 b53a
00000180: 0dcc c33b ecce 17bc ff0f ec3c f970 51bc
00000190: 8172 853b 18a1 18bc c323 1cbc 89f0 d2bb
000001a0: 28f4 8fbb 6073 91ba b4e9 37bb 25d2 1cbb
000001b0: b4dd 2ebb 24ea 24ba 989e 7cbc 0b6f eaba
000001c0: 8f4c 0ebc 9636 e83b bd1d 983c a528 3d3b
000001d0: a85f 13bc 383f a3bb 9302 29bb 9ef5 63bb
000001e0: b093 163b 9f4d 27bb 5609 bdbc 7e17 803c
000001f0: 5a82 2d3b a4e5 d03b 4214 07bb 09a3 353b
00000200: a35c 96ba f0f7 7cb9 b299 cabb 146c 033c
00000210: bdc9 eb3a a3bf 16bb afe5 dfbb e8a9 123c
00000220: d50f 4c3b 68ba eabb cb0f 61ba bd84 0abc
00000230: 7b92 dcbb 78b7 a73a 154d 9dba be8e eb3b
00000240: 5e5d 3fbb 28e4 ca3a fc5d 113c 393a 69bc
00000250: b72b fcbb 3ac7 133a 5719 753b c93e 9fbb
00000260: 8fa8 87bc 30a2 74bb 2a0c 7abb a604 8f3b
00000270: de6f 7bbb 88d9 34ba 0239 b4bb 653d debb
00000280: 1b1e c73b bd2d 09bc e4cf b23b 7f77 09bc
00000290: 6f11 1c3c 89e3 5abb 3829 acba 3ccd 9f3b
000002a0: 06a6 103b 1466 66b8 8030 bc3a e18a 0f3b
000002b0: 89b2 0f3c 82f4 febb c857 0abb 337e 0a3b
000002c0: ebb8 52bc 6ac5 4cbc a7f7 16bb 7245 8f3a
000002d0: 61b6 d6ba fe1d e2bb 1abd 143b 54f4 c0bb
000002e0: 5c18 8fbb b4f6 01bb aaf1 9f39 bdf7 793a
000002f0: 71e1 39bc 2dd9 45bb 9958 2ebb 70b8 02bb
00000300: f45c c93b fb3f 0bbc fb5e 03bb 9fcc b23b
00000310: ae94 2bbb 0c3f 6dbb 657b ebba 3fcd 893a
00000320: 755a 073c ae50 c43c b826 5dbb 76f6 4f3b
00000330: ee14 d43a c358 743c e385 48bc 6515 edbb
00000340: f41b 553c e70c 2c3c 8a95 063d 6604 29bc
00000350: 8efc 59bb df8b 26bc 1f8f 5eb8 ed1c 85bc
00000360: 8ae4 25bd af04 693c 9a35 bc3b cac0 a03c
00000370: b7c0 cebb 8ddf 04bb 5198 0abd 9de5 54bb
00000380: d0e6 473c a90b c73b 0437 93bb 115f da3a
00000390: e1db f43b 2b11 52bb b5fb 033c 3725 823c
000003a0: f11a 753c d27d 0439 061b dfbb 5c5e fabb
000003b0: 0d68 b3bc 5ee4 8fbb 6727 4d3c 8380 863c
000003c0: d155 edbc 7bed a7b8 3619 1bbc 8798 7cba
000003d0: 9e29 ea3c cf0c 0c3c b7d3 15bc 88ea 8bbc
000003e0: ea0e 67bc d36d bdbc d097 34bc a68b c9bc
000003f0: 70de 673b c063 d5bb c782 29bc 2a4e c13c
