scripts/early_stopping_state.pt (torch, 422211 bytes, 49 tensors)

conv1.weight f4 [100, 7, 3]
000000 5c 1d e3 3d 3e ed 89 3d 71 c7 19 be 7f 14 51 be
       0.11089584 0.067347035 -0.15017487 -0.20417975
000010 84 20 71 bd 43 14 62 bd 64 79 75 3d 97 ad 0c 3e
       -0.0588689 -0.055195104 0.05993022 0.13738094
000020 55 a2 07 bd af 7c 9b bc a6 76 0d 3d 1e df de bd
       -0.033113796 -0.018980352 0.03453698 -0.108824
000030 b6 10 3e be 69 15 25 3e eb ef ef bd e8 8c 33 bd
       -0.18561062 0.16121449 -0.117156826 -0.04383555
000040 d5 ea 9d be be 2c 03 bd f0 ca 62 3d 84 d1 a4 bd
       -0.30843225 -0.03202509 0.055369318 -0.080477744
000050 37 84 42 be cf e7 5f be 63 e6 5b 3d 54 5a 09 3e
       -0.18995748 -0.21865772 0.05368651 0.13413364
000060 65 ea 87 be 93 e2 2a 3c 4d d9 0e be 34 49 c4 bd
       -0.26546016 0.010429996 -0.13950081 -0.09584275
000070 b5 69 92 3e 54 da b3 bd fd 22 7d bd 43 34 1b 3e
       0.28596273 -0.08781877 -0.061800946 0.15156655
000080 6e 8f a0 3d f7 97 ed 3d 2f fc 06 3e f2 e9 e0 bc
       0.07839857 0.116012506 0.13182138 -0.027455304
000090 52 c1 81 bd 78 d1 3b be 6e ad 85 3e e5 85 b6 3c
       -0.06335701 -0.18341625 0.2610888 0.022280643
0000a0 dd eb f4 3d bf 2a 24 3e 4a 73 44 be 84 06 21 3e
       0.1195905 0.16031931 -0.19184604 0.15725142
0000b0 7a ff 52 3d 16 3d f7 3c 6b 5f 2b 3e 80 5a 74 3d
       0.051513173 0.030180495 0.16735618 0.05965662
0000c0 3e e4 06 be c3 ba 40 be ad a2 e1 bb e0 90 1f 3e
       -0.13173005 -0.18821244 -0.0068858475 0.15582609
0000d0 52 14 73 be b9 21 9b 3e c0 3b f5 3d 9f 06 4b 3e
       -0.2373822 0.30299166 0.11974287 0.19826744
0000e0 cb af ac bd c9 0a cf bb 8e f1 56 3d ed fd 69 be
       -0.08431967 -0.0063184244 0.05247646 -0.22850771
0000f0 6b 8d 28 3c fa 1d 54 be 4e 5b d9 3d e5 b4 d5 bd
       0.010287623 -0.2071456 0.10613118 -0.104348935
000100 a1 87 86 bd 2a de 85 3e 2e 77 e4 3d 7e cd ac bd
       -0.06568838 0.2614606 0.11155544 -0.08437632
000110 d7 4a 7c be bc be ab 3d 51 4b 91 3e 3c 17 95 3e
       -0.24637924 0.08385989 0.28377774 0.2911929
000120 9b a8 2a 3d dc 82 72 3e 08 aa 02 3e c4 54 0d bd
       0.0416647 0.23682731 0.12760174 -0.034504667
000130 65 72 13 be 12 11 c6 bd d2 10 3f bc e8 89 17 be
       -0.14399107 -0.09671225 -0.011661725 -0.14798701
000140 d5 8e 01 be 35 dc a7 3c e8 a3 3e 3e 00 3f 6f bc
       -0.12652142 0.020490745 0.18617213 -0.014602423
000150 73 da 87 3e c1 3f fc bc d4 55 cb bd 4e 01 14 3e
       0.2653385 -0.030792119 -0.0992848 0.14453623
000160 b2 44 55 3d 6a 9d dc bd f9 7c f9 bd 25 46 a1 3d
       0.052067466 -0.10772212 -0.1218204 0.07874707
000170 a5 88 97 3d e7 e3 91 be 77 98 ba 3d c3 0c 16 be
       0.0739911 -0.28494188 0.091111116 -0.14653306
000180 36 1f 1c be f6 40 bb bd 24 35 24 3e 5c 59 7c be
       -0.15246281 -0.0914325 0.16035897 -0.24643463
000190 d1 3f ea 3d 4d 5d f9 bd c1 2d 86 3e e3 f7 ff bd
       0.11437953 -0.12175999 0.26206782 -0.124984525
0001a0 ee ea 02 be cc a8 aa bd 57 96 5d bd d6 2b ce bc
       -0.12784931 -0.08332977 -0.054098453 -0.025167387
0001b0 72 c5 52 be b1 ed ae 3e a6 4e e6 3d 3b b0 b4 bd
       -0.20583132 0.3416572 0.1124547 -0.08822676
0001c0 f5 1d 02 3e ac cb 52 bc 39 7f 79 bc 0e c9 c4 3e
       0.1270674 -0.012865942 -0.015228086 0.38434643
0001d0 d3 21 2c be a0 08 c9 3d 1f f9 36 3d 21 73 82 3d
       -0.16809778 0.09816098 0.044671174 0.06369615
0001e0 5c dd 1d be f0 4b 1e 3e 50 34 04 be 61 6a 8c 3e
       -0.15416473 0.15458655 -0.1291058 0.2742491
0001f0 ab 75 c0 3d 24 6a 44 be 7d 9d 3c 3d 6c b1 34 be
       0.093974434 -0.19181114 0.04604863 -0.17645806
000200 b0 c3 f0 bb 35 2a c7 3d 47 33 4c bc 7e 60 43 3e
       -0.0073475465 0.09724847 -0.012463397 0.19079778
000210 f7 c0 e1 bd f3 43 86 be 72 09 8e 3e 1a 63 f3 3d
       -0.11023133 -0.26223716 0.2774158 0.118841365
000220 98 04 3d be 7b 3f 82 3d 62 bb 69 3d 50 65 65 3d
       -0.18458784 0.06359764 0.057063468 0.056004822
000230 b0 89 40 3d da ce 9e 3e 85 f0 3e be 00 6d 0e be
       0.04700631 0.3101719 -0.18646438 -0.13908768
000240 85 d8 0c 3e f7 cd 50 3e 05 11 6f bd d7 59 f5 3d
       0.1375447 0.2039107 -0.05836584 0.11980026
000250 69 ff 0b be 07 8b d5 bd 32 cb cc 3e 63 6a 8c be
       -0.1367165 -0.10426908 0.39998776 -0.27424917
000260 c0 b8 63 be 64 65 48 3a 4a 9f 33 3e a2 9c 4c be
       -0.22238445 0.0007644503 0.17541233 -0.19981626
000270 8b b0 28 3e 0d a3 48 be d9 24 ab 3d ab 63 62 bd
       0.16473596 -0.19593449 0.083566375 -0.055270832
000280 ed 02 fb bb bc 3a 70 3e a2 74 47 3e 0d 13 17 3b
       -0.007660261 0.23459905 0.19478086 0.0023052127
000290 04 b9 4c 3e 55 95 9a 3e 8a 28 34 bc 21 6a 9a 3d
       0.19992453 0.30192056 -0.010995993 0.07539774
0002a0 8a 12 8a 3c 1c 19 0d be f2 72 40 be 0f 03 0d bc
       0.016854543 -0.1377911 -0.18793848 -0.008606686
0002b0 ae 5a 19 3e 9e cc b9 bd 30 06 85 3e 1a 08 c0 3d
       0.14975998 -0.09072231 0.25981283 0.09376545
0002c0 da c6 7a be 0e ad 34 be 6f fd 32 be 1e c7 42 bb
       -0.24489918 -0.1764414 -0.1747949 -0.0029720734
0002d0 46 0c b2 3b ad c4 84 3e 06 dd 8f bd 3a ad 88 be
       0.005433592 0.25931302 -0.07024579 -0.2669466
0002e0 cc bd 39 be fd 53 7d 3d dd 94 73 bc a4 18 9c 3d
       -0.18138808 0.061847676 -0.014867035 0.07621887
0002f0 0a b4 23 3e 56 d8 8d 3e 12 e7 8c bc 80 f5 98 3c
       0.15986648 0.27704114 -0.017200027 0.018671751
000300 d4 24 51 be 51 5a 03 be 72 65 54 bd b5 b5 71 3e
       -0.20424205 -0.12827422 -0.05185456 0.23604472
000310 77 da 1b 3e f0 e0 85 3b 92 13 b0 be 37 1a 97 be
       0.15220056 0.0040856525 -0.3438993 -0.29512188
000320 eb 79 26 3e c9 03 2a be 77 0b 6b be d8 1c 47 3e
       0.16257446 -0.16603006 -0.22953592 0.19444597
000330 aa be 98 be b5 76 88 be e4 d6 89 38 2c e9 f0 bd
       -0.29832965 -0.26653066 6.5726956e-05 -0.11763224
000340 d4 22 f4 3d 05 7c 54 be f9 cc ed 3d 3b e8 dd 3d
       0.119207054 -0.20750435 0.11611361 0.1083531
000350 52 78 28 3e 88 57 ea bd 65 c0 0e 3e d4 cf fc bd
       0.16452149 -0.114424765 0.1394058 -0.123443276
000360 30 7b a1 bd 0b 8d ce bd b9 a2 8b 3e ed 20 6d 3d
       -0.07884824 -0.100854956 0.27272585 0.05789273
000370 61 a2 df 3c ab 6f b9 bd d0 a2 2d be 9b 68 be 3d
       0.027299108 -0.09054502 -0.1695664 0.09297296
000380 72 b5 83 3e fe 71 98 bd be 61 8d 3e 31 a2 31 be
       0.2572437 -0.07443617 0.27613634 -0.17347027
000390 a2 d2 a8 be 4f da 19 be aa 63 ab 3d e5 da 65 ba
       -0.329732 -0.15024684 0.08368619 -0.00087682746
0003a0 68 dc 4a 3e ab 33 9e 3d e5 fe 22 be 73 9c c7 3c
       0.19810641 0.07724699 -0.15917547 0.024366593
0003b0 92 e5 d7 3d 88 a7 bc 3d 33 6e 64 3e 31 b4 ea 3d
       0.10541834 0.092116416 0.22307663 0.1146015
0003c0 d1 13 71 bd 71 32 79 3c 32 2c fa bd 9f 17 08 bd
       -0.05885679 0.01520978 -0.12215461 -0.03322565
0003d0 0c 74 94 3d d5 dc 18 3e 6c 0f 48 be 0a 8f 62 bd
       0.07248697 0.1492799 -0.19537133 -0.055312194
0003e0 6c 21 f1 3d 14 a0 94 3e b3 7c 17 3e 69 47 85 be
       0.11773953 0.2902838 0.14793663 -0.26031044
0003f0 b2 5e 68 be e3 57 9e bb b5 e1 81 be 8d 06 c0 3a
       -0.22692373 -0.0048322543 -0.25367513 0.001465039

conv1.bias f4 [100]
000000 98 58 e0 bb 50 49 df bd 31 d8 26 be 5f bc a4 bd
       -0.0068464987 -0.10902655 -0.16293408 -0.080437414
000010 e9 34 fd bd da c8 da bd bf c3 4d be 78 83 b1 bd
       -0.123636074 -0.10682841 -0.20094202 -0.08667654
000020 e6 da bf ba 1f 06 24 be e7 f0 84 bd 5b 14 37 bd
       -0.001463738 -0.1601796 -0.06491261 -0.044697147
000030 5b 24 f5 bd b6 e3 13 3d 67 9c b1 bd 7f 63 9b bc
       -0.11969825 0.036105834 -0.086724095 -0.018968342
000040 c2 87 64 be 3c 22 3c be cc 08 45 bd d5 13 b3 bc
       -0.22317412 -0.18372434 -0.048104092 -0.021860043
000050 1a 3b 36 bd 03 f4 1c bc 31 cf 0c be 7c 0f 9e bc
       -0.044489957 -0.009579661 -0.13750912 -0.019294493
000060 ad 1f a7 bc 04 fc 35 3d 22 39 8a 3c b5 74 65 3b
       -0.020400846 0.044429794 0.016872946 0.003501219
000070 bc 84 71 be cd 5a 6a bd 3a 92 99 3d 7a 4c 1d bd
       -0.2358579 -0.0572155 0.07498594 -0.03840301
000080 81 9c 8d bc 91 b6 2c bc 59 bf a7 bc 26 cd 08 be
       -0.017286541 -0.010541574 -0.020476984 -0.13359508
000090 de 51 1a 3d d4 da 52 be 96 84 35 be b4 8a 25 bd
       0.03767573 -0.20591289 -0.17726359 -0.04041548
0000a0 35 89 8e bc 04 6b a4 bd b3 06 46 bd 33 62 a9 be
       -0.01739941 -0.08028224 -0.048346233 -0.33082733
0000b0 f7 1c f4 bc 8b e1 92 be eb 85 47 bd 1e e1 ae bc
       -0.029798968 -0.286877 -0.0487117 -0.021347579
0000c0 c9 53 a3 bc 61 cf 27 bd 54 94 f6 bb 47 53 0a be
       -0.019937413 -0.040969256 -0.0075250063 -0.1350833
0000d0 e1 a9 a2 3c c1 0b d4 bd 87 9c bf bd ab 94 af 3d
       0.019856395 -0.103538044 -0.09356027 0.08573278
0000e0 b8 94 59 3d c8 cc ba bd ef a7 b3 bd a1 ee b9 bc
       0.053120345 -0.0912109 -0.08772265 -0.022696795
0000f0 fc 5b 30 3c 9b 25 90 bd 73 73 2f be 12 5c 8a bc
       0.010764118 -0.07038423 -0.17133884 -0.016889606
000100 ea 84 5f be 0f 32 8b be 0c 75 41 bd 8b b0 41 be
       -0.21828046 -0.2718663 -0.047230765 -0.18915002
000110 b2 6c 9c bd bf f9 d5 bd e8 a4 87 bd 3b 14 64 bc
       -0.076379195 -0.10448026 -0.0662325 -0.013920839
000120 9f 1d 5e bd 86 7d 2e be bc 81 17 be 9c 2f 02 be
       -0.054227468 -0.17040071 -0.14795583 -0.12713474
000130 0d 7a 81 3d e8 7a 0d be 95 48 d9 bc df 08 90 bb
       0.063221075 -0.13816416 -0.026523868 -0.0043955888
000140 1f f6 25 be 28 7c 18 be 3e 8b 64 3c 10 79 eb bd
       -0.16207169 -0.14891112 0.013949214 -0.114977
000150 77 f6 a6 bd f9 c4 35 3d 58 04 f6 bd 38 b4 10 bd
       -0.08152478 0.0443773 -0.12012547 -0.03532812
000160 41 02 02 be 95 f1 5a be ee c7 0f bd 77 4b c8 bd
       -0.12696172 -0.21381219 -0.035102777 -0.09780019
000170 08 e3 43 bd 60 09 fa bd 69 c4 8b bd db b5 f8 bd
       -0.047823936 -0.122088194 -0.06824572 -0.12144061
000180 ca cf b9 3c 7f d5 87 3d f2 0b 48 bd 2f 58 f8 bd
       0.02268209 0.06632518 -0.048839517 -0.12126195

conv2.weight f4 [100, 100, 3]
000000 ee 7f 01 bb 6c 56 ad 3b a1 8f 8e bd 2d 72 a7 bd
       -0.001976009 0.0052898433 -0.06960989 -0.08176074
000010 c0 e6 77 3c 1a 95 92 3a 72 80 c3 bb 37 85 94 bc
       0.015130699 0.0011183352 -0.0059662396 -0.018129928
000020 e3 f8 ca 39 9d dc 19 3d 87 d2 e4 3d 09 e3 3f bd
       0.00038713877 0.03756391 0.111729674 -0.046847377
000030 a3 15 7c 3c 15 a4 0c bc 96 b6 7b bc 10 9e ce bc
       0.015386018 -0.008584042 -0.015363356 -0.025221854
000040 0c 17 1c 3d d9 c5 cf 3c 7d 52 2a 3d 97 1b 4e 3c
       0.038107917 0.025362896 0.041582573 0.01257982
000050 86 44 98 bc 15 99 1b 3d 5f 16 98 bd 91 89 95 bc
       -0.018587362 0.037987787 -0.07426142 -0.018254073
000060 80 82 90 3c a0 07 45 3c 3c 6e 75 bd 69 1e ae 3d
       0.017640352 0.012025744 -0.05991958 0.08501894
000070 a6 61 8e bd 86 dc 49 3a 67 86 60 3c df f6 ab 3d
       -0.06952219 0.0007700402 0.013703919 0.08396696
000080 27 b2 1b 3d 38 a4 2d 3c 0b dc ad bd c2 39 0b 3d
       0.038011696 0.010598235 -0.084892355 0.03399063
000090 20 00 2b 3a 47 eb 83 3b 68 d0 04 3d 1e 1a 71 3d
       0.0006523151 0.00402585 0.032425314 0.058862798
0000a0 e6 ab 6b 3c cd bd 49 bd 85 29 17 bc fa 28 76 bc
       0.0143842455 -0.049253274 -0.009226208 -0.015024418
0000b0 07 e1 b2 bd f5 e9 de 3c 6a cd 56 bc 86 86 92 3c
       -0.08734327 0.027211169 -0.013110498 0.017886411
0000c0 af 2b 81 3d 97 3b 01 3d 9a 82 1b bd 9a 3a 34 be
       0.0630716 0.03155097 -0.03796635 -0.1760048
0000d0 a5 91 a0 3d 2f d3 13 bc 1e 86 09 3d fd f5 82 bd
       0.078402795 -0.009022518 0.03357517 -0.06394575
0000e0 5b 20 0c 3d 1e 6e 2e 3d 90 b1 9d bd 61 97 11 3d
       0.034210544 0.042585485 -0.07699883 0.035544757
0000f0 c0 60 00 3d 46 1d e9 3c 07 0d 1d bd d8 da 63 bd
       0.031342268 0.028456341 -0.038342502 -0.055628628
000100 38 a3 42 3d 34 7c 75 bc 78 d4 d6 bd 2e e2 c6 bd
       0.04751894 -0.014983226 -0.10489744 -0.09711109
000110 02 63 8e bb 25 69 e9 3c 2f 0b 60 ba 92 c2 34 3d
       -0.0043452987 0.02849252 -0.00085465884 0.04413087
000120 b5 e8 11 3d a0 99 81 3b da 90 12 bc 02 d7 f6 bc
       0.035622317 0.003955081 -0.008945668 -0.03013182
000130 bd 88 c4 bc e0 3f a3 bc c5 73 3d bd 22 36 83 bc
       -0.023990983 -0.019927919 -0.046252985 -0.016017023
000140 08 d9 eb b9 1a 65 82 bd e6 e6 35 bd 26 48 b3 3d
       -0.00044984394 -0.0636694 -0.044409655 0.087539956
000150 9e a2 f6 3a 67 01 0b bd cb 57 4c 3c 43 58 8b bd
       0.0018816774 -0.033936884 0.012472103 -0.06803944
000160 f8 5b 1b 3c bd 7a 33 3b 9e ed eb bd 07 c4 d6 3c
       0.009482376 0.002738639 -0.11519931 0.02621652
000170 c1 2f 31 3d b3 9a 44 3d 9a f3 39 bc 4c 47 68 3c
       0.043258432 0.047999095 -0.011349583 0.014177155
000180 5b 63 02 3d aa 5d a4 3c c6 50 87 bd 08 52 4a 3d
       0.031833034 0.020064194 -0.06607203 0.049394637
000190 09 71 1d bd 41 ce 12 bd e2 07 36 bb 6d 37 49 bc
       -0.038437877 -0.03584123 -0.0027775695 -0.012281281
0001a0 05 5e ae bb 43 3d 81 bc 9a a6 98 3c 9e ad 62 bc
       -0.0053212666 -0.015776282 0.01863413 -0.013835339
0001b0 11 63 69 3c 73 1f f7 bc 12 e3 0d bc 53 aa b0 bd
       0.014244811 -0.030166363 -0.008660095 -0.08626237
0001c0 13 bd 44 3d f6 1a e0 3d 43 3a cf 3d 8e fe ce 3b
       0.048031878 0.109426424 0.101185344 0.0063169664
0001d0 ce a5 d1 bc 67 06 d7 bd 2a 9f 6f bd 25 97 98 bc
       -0.025591757 -0.10499268 -0.0585014 -0.018626759
0001e0 9f d8 48 bd 38 9e 81 3d 17 93 0d bd 2f a5 87 3c
       -0.04903471 0.06329006 -0.034564104 0.016558258
0001f0 58 39 00 3d 12 99 26 bd 08 e2 67 3b 50 a2 af 3d
       0.031304687 -0.040673323 0.0035382528 0.085758805
000200 86 59 7b bd f6 58 c4 3a df e8 ff bc ab 48 0b bc
       -0.061364673 0.0014980126 -0.031238971 -0.008501212
000210 9a 1e 3a 3d 4d fa af bd 45 e5 af 3b e4 13 35 bd
       0.04543934 -0.08592663 0.005367907 -0.044208422
000220 9b 1a 39 3d 72 cd 9a 3d e2 0b 0f 3d aa f1 07 bc
       0.04519139 0.07558717 0.03492344 -0.008297363
000230 77 b9 ac bd ab d1 28 3b 4a 3c 20 3d 88 c0 6f 3d
       -0.08433812 0.0025759737 0.039119996 0.05853322
000240 75 cb a2 3c 64 87 2d bd 24 59 ac bc a3 18 de bc
       0.019872406 -0.042365447 -0.0210386 -0.027111357
000250 a8 d4 99 bd 5f ff 74 bc 37 b5 e6 bc fd 36 5c 3d
       -0.07511264 -0.014953463 -0.028162582 0.05376338
000260 6d 30 b3 3a 12 ce 80 bd a1 2b 93 bb 9d 95 21 3d
       0.0013671048 -0.06289305 -0.004491285 0.039449323
000270 b8 42 c3 3b f7 f6 ca bc 91 85 f5 bb c0 0c c2 3c
       0.005958881 -0.024775965 -0.007492729 0.02368772
000280 f6 18 99 bd c2 4d 82 3c 3a 45 cb 3b fb 39 da 3a
       -0.07475464 0.015906218 0.006203321 0.001664936
000290 df 63 94 bc d9 6b 98 bc d5 d0 a5 bd 54 cf 8f bd
       -0.018114028 -0.018606113 -0.08096472 -0.070219666
0002a0 94 47 48 bd 5a b1 02 3d 5e 99 b7 3b f0 e5 96 bd
       -0.048896387 0.031907417 0.0056029996 -0.07368076
0002b0 cf 99 c6 3c 07 26 44 3d dc 64 3b 3c b4 50 1e bb
       0.024243264 0.04788783 0.011437621 -0.002415699
0002c0 c7 70 18 bd 71 0e 7f bd 48 2d 38 bd ca 52 90 bc
       -0.037216928 -0.06226963 -0.04496506 -0.017617602
0002d0 48 9a a9 3d 1d 87 be 3c 08 4c 11 bd 9c 9e 48 3d
       0.0828138 0.023257786 -0.0354729 0.048979387
0002e0 13 a6 ad bc 54 01 17 bd 3c 1f 04 3d 9e 36 7e 3d
       -0.021197354 -0.0368665 0.03225635 0.062063806
0002f0 6f 92 24 bd 33 0e 6c bd 83 ca b8 3b f9 53 9e 3c
       -0.040178712 -0.05763073 0.0056393757 0.01932715
000300 4e 47 92 bd 79 63 d9 bc ff 45 09 3d 6f 20 cc 3c
       -0.071425065 -0.02653669 0.03351402 0.02491781
000310 ec ab 03 be 91 dc ed bd c6 2e af bd 2d 3f 1e bc
       -0.12858552 -0.11614335 -0.08553843 -0.009658617
000320 91 39 28 bc e3 3a 16 3c 17 7a 8e 3d 7d a7 86 3c
       -0.010267631 0.009169313 0.069568805 0.016437287
000330 24 e3 2f 3d 24 77 2e 3d 91 82 0c 3d b6 b3 e3 bb
       0.042941228 0.04259409 0.034304205 -0.0069489134
000340 e2 d6 1b bd 53 f2 32 bd 0d 21 ae bb f8 29 da 3c
       -0.038046725 -0.04368813 -0.0053139986 0.02663134
000350 c2 85 ad 3c a0 8c 90 3c 34 46 a3 3c f0 77 bc bc
       0.021181945 0.01764518 0.019930936 -0.02300641
000360 c1 ac ad 3c 7d e4 0a 3d 2d 79 26 3d b1 9a 7e 3c
       0.02120054 0.03390931 0.040642906 0.015539811
000370 b9 51 61 3d 5e 83 46 bd 1a a6 4e bd 51 44 e8 bd
       0.055009577 -0.048465125 -0.050451376 -0.11341155
000380 bd ba c6 bc e0 ab 90 b9 e8 ab 59 3d 34 65 ae bc
       -0.024258966 -0.00027593877 0.05314246 -0.021288492
000390 e5 70 92 3d 04 d6 75 bd 5a 2d e0 bb 5a 2c e9 bc
       0.07150439 -0.060018554 -0.006841344 -0.028463531
0003a0 d8 da b2 3d 27 fb 88 3c 90 7c 9b bc 56 01 7a bc
       0.087331474 0.016721321 -0.018980294 -0.015259108
0003b0 a5 16 fb bc 1e d4 08 bc d5 45 15 be 4b cc 81 bb
       -0.030650446 -0.008351354 -0.1457742 -0.003961121
0003c0 ef 8a 54 bd 86 b9 7d bb 1b 52 9c bd b4 ed 81 3d
       -0.05189031 -0.0038715317 -0.07632848 0.063441664
0003d0 60 e4 6f 3d 99 c1 47 bc b0 d5 8b bd 02 f3 3f 3c
       0.058567405 -0.012192153 -0.06827867 0.011715652
0003e0 73 a6 31 3d 6d 53 16 bc a3 7a b3 bc 93 dc 18 3b
       0.04337163 -0.009175164 -0.021909064 0.0023324832
0003f0 59 cb 6b bd a8 a8 95 bd 9c ed 44 bd 23 6c f6 3c
       -0.057566974 -0.07307559 -0.048078164 0.03008086

conv2.bias f4 [100]
000000 c8 33 06 3c 12 c5 ba 3c e5 5b ae bb 5a b8 b3 bd
       0.008191057 0.022799049 -0.0053210133 -0.08775397
000010 62 65 fd bc c6 e6 b5 bc c6 d0 26 bc 5e 2a 3f bd
       -0.030932132 -0.022204768 -0.010181611 -0.046671264
000020 af 66 d5 bd 06 68 89 bd 63 92 26 bb 6b cc fa bd
       -0.10419976 -0.06709294 -0.0025416843 -0.12246021
000030 a9 2c 0e 3d 83 75 bb bc dc 8d cd b8 3d f8 42 3c
       0.03471056 -0.022883182 -9.801585e-05 0.011900005
000040 22 1d 58 bd 34 9c 35 bc bd b9 dc bc a6 81 08 bd
       -0.05276216 -0.011084605 -0.026944036 -0.033326767
000050 29 85 29 bd 46 27 5d 3c f2 4c 7c bd 28 c8 47 bd
       -0.041386757 0.013498133 -0.06159682 -0.04877487
000060 02 36 ac ba 4a 97 a3 bd 18 75 03 3d ce ed fa bb
       -0.0013138654 -0.079878405 0.03209409 -0.007657743
000070 9a 42 1e bd 83 a4 71 bc ae 9c 15 3c fe d5 f6 3c
       -0.038637735 -0.014748695 0.009131594 0.030131336
000080 c6 4c 01 bd 17 9d a0 bc 55 56 e2 3b ed de 70 bc
       -0.031567357 -0.019606156 0.0069072642 -0.014701587
000090 9c d1 9d bd 2a 3b 85 bd 3c 51 3d 3c 44 c6 9c bc
       -0.077059954 -0.06505425 0.011555012 -0.01913751
0000a0 98 e3 47 bd 0c e2 ea bc 11 ad ce bc 27 eb a5 bc
       -0.048801035 -0.02867224 -0.025229009 -0.020253731
0000b0 48 f0 ce bb d1 69 32 bc 10 b9 32 bd 57 45 9d bc
       -0.006315265 -0.010889486 -0.04363352 -0.019198103
0000c0 a2 28 79 3d d4 fe a5 bd 6a 79 fd bc c1 dc fd 3b
       0.060829766 -0.08105245 -0.030941684 0.007747263
0000d0 d6 42 81 bd 87 5a 74 bd df 16 fe bc fd 7a 9b bc
       -0.06311576 -0.059656646 -0.031016765 -0.018979544
0000e0 78 3b ab 3c 0d ef f6 3c ba 8f 67 bd 35 c4 ee bc
       0.02090238 0.030143285 -0.056533553 -0.029146293
0000f0 54 d5 68 bc 1b 03 d1 bc d7 d6 2a bd 93 dd 77 bd
       -0.014211018 -0.025514176 -0.041708793 -0.060514044
000100 74 f2 39 bc 64 b2 20 bd 55 fe 41 bc a2 94 a7 3c
       -0.011349309 -0.039232627 -0.011840423 0.020456616
000110 5b 99 42 bd 61 b8 b8 bb 50 3d ab bd 10 aa e8 bd
       -0.047509532 -0.005637214 -0.08361304 -0.11360562
000120 c1 ea 60 3a 5c 37 08 bc 2b 88 b4 3c 93 98 a1 ba
       0.0008579903 -0.00831398 0.022037586 -0.0012328796
000130 d9 1a 8e bd d7 11 6e bd 21 2d eb bb 58 28 31 bd
       -0.069387145 -0.058122482 -0.0071770106 -0.043251365
000140 37 f8 9e bb 1c ff 0e bd d1 67 14 bc b5 d6 6c bd
       -0.004851367 -0.03491126 -0.009057955 -0.057821948
000150 02 58 14 bc c5 6b 56 bc 7f e4 46 3d 22 e9 21 bd
       -0.009054186 -0.013087218 0.048557755 -0.039528973
000160 30 1d 82 bc 14 3a 0f bd e6 a3 39 bb e7 c8 ff bc
       -0.015883058 -0.034967497 -0.002832645 -0.031223727
000170 ca f2 11 bd 33 ab 88 3c 8b 66 8c bd 87 83 ee 3c
       -0.035631932 0.016683197 -0.06855496 0.029115451
000180 f0 7e 3a bd 84 4e 48 bd aa 93 0e 3c a3 90 fb bc
       -0.045531213 -0.048903003 0.008702198 -0.030708617

rnn1.weight_ih_l0 f4 [104, 100]
000000 79 3e 61 bc c2 44 a5 bb 04 6f 1e 3c 08 1d d7 3c
       -0.013747805 -0.005043597 0.009670023 0.02625896
000010 16 4c 78 3b 8a 9d ab 3b e8 32 cb 3b 99 9b cc 3c
       0.0037887148 0.005237286 0.006201137 0.024976538
000020 97 b7 46 3c 10 4b 38 bc fa da 4d 3b 77 69 1f bc
       0.012128732 -0.011248365 0.0031411038 -0.009729735
000030 ac 23 a1 3b 1c 82 05 bc 0b 05 0e 3c c1 11 88 bc
       0.0049175825 -0.008148696 0.0086681945 -0.016610028
000040 c7 e0 2f 3c bb 99 57 bb a0 d0 5f bc a9 c8 cc 3b
       0.010734743 -0.0032898027 -0.01366058 0.0062495065
000050 92 19 1a ba a5 c1 44 bb fe a4 68 3c 0b 6e ad 3b
       -0.0005878444 -0.0030022648 0.014199493 0.005292659
000060 30 24 8e 3c 52 04 59 39 76 e7 ee 3b 01 48 ea 3b
       0.01735124 0.00020696342 0.007290776 0.007149697
000070 87 f7 85 ba 6f ea 71 3c 6a e8 a3 3b 90 11 46 bc
       -0.0010220864 0.014765366 0.005002071 -0.012089148
000080 ac 94 7c bc 38 d0 de 3a d1 c4 40 bc f4 32 30 3b
       -0.0154163055 0.001699931 -0.011765675 0.002688584
000090 f5 4e 18 3c 74 ad b4 3b 02 c3 ca 3b 2a f7 85 ba
       0.009296169 0.0055138413 0.0061877975 -0.0010220755
0000a0 f7 2b 0e 3c 74 7d 23 3c 24 1a 25 3c b7 90 60 3c
       0.008677474 0.009978641 0.010077033 0.013706378
0000b0 d4 93 33 3c 05 96 41 bc ee 03 9b bb b0 eb c5 3b
       0.010960538 -0.011815553 -0.004730693 0.006040059
0000c0 d0 b8 21 b8 f4 28 8e ba 29 8f 33 3c 42 f8 3e 3c
       -3.855751e-05 -0.0010845945 0.010959425 0.011655869
0000d0 0c 59 25 3b 5e 99 88 3c d9 9b 64 3c ac d4 1b bb
       0.0025230078 0.016674694 0.013953173 -0.0023777885
0000e0 08 bf 49 bc 5d 0f 04 bc 25 c4 3a 3c 41 72 9c bc
       -0.012313612 -0.0080603035 0.011399304 -0.01909745
0000f0 75 d2 71 bb 88 95 68 3c ae 1a 56 3b 2f 38 5f 3c
       -0.0036899124 0.014195807 0.003266971 0.013624235
000100 bf 72 21 3c 13 07 07 bb d4 d7 3d bc 81 db c8 3c
       0.009854018 -0.0020603582 -0.011587102 0.02451873
000110 2b d4 83 bb 3f 74 3d 3c c3 d6 40 3c 14 5f 4e 3c
       -0.004023095 0.01156336 0.011769953 0.012595911
000120 bd 30 5a bc 92 fb 00 bc 51 e8 20 3c 1b f1 63 3a
       -0.013317284 -0.007872479 0.009821014 0.00086952903
000130 89 0a 1c 3c 68 3b 3f bc eb 50 b0 3a 3a d7 6e 3c
       0.009523996 -0.011671878 0.001345185 0.014577681
000140 ea 28 b3 3c 58 f0 9d 3a f0 1a 2f 3c 09 43 dd bb
       0.021870095 0.0012049777 0.010687575 -0.006752376
000150 18 e8 85 3c 89 f3 cf bb d2 61 17 3c ea a6 7a bb
       0.016346022 -0.0063461703 0.009239631 -0.0038246461
000160 5b 21 86 3c c2 c9 58 bc 7b 56 01 3c 93 0e 69 3c
       0.016373327 -0.013231697 0.007894154 0.014224666
000170 fc c3 ec 3b 0d dd c3 ba 68 9b 77 3c 61 03 98 bc
       0.0072255116 -0.0014943198 0.015112735 -0.018556299
000180 22 71 59 3c 61 e8 61 3c 1e 2e 3b 3c 79 82 d9 bb
       0.013271602 0.013788314 0.011424569 -0.006637868
000190 9c 8f 67 3c 71 0a e3 3b b3 e0 e5 bc 1f 54 16 3d
       0.01413336 0.006928735 -0.028061246 0.036701318
0001a0 85 56 2b bc b5 4f 0f 3d be 39 46 bc ce 6d 12 3d
       -0.01045764 0.034988124 -0.012098728 0.03574925
0001b0 ce 52 57 3c 35 d5 7a 3b c8 70 93 3c 3c 11 91 bc
       0.013142301 0.0038274054 0.017998114 -0.017708413
0001c0 6a 09 05 bb 70 b0 a9 bc 9f 6a 8a bc 99 1f b1 bc
       -0.00202998 -0.020714015 -0.016896544 -0.021621512
0001d0 9b 6a 98 bb ad c2 02 bd f6 2b 49 39 0d f9 49 3b
       -0.0046513802 -0.03192394 0.0001918523 0.0030818612
0001e0 ec 0b 34 bc c0 13 d2 3a 79 9b 14 3c c1 d3 6a 3b
       -0.0109891705 0.0016027614 0.009070271 0.0035831782
0001f0 3a c7 9a 3c 8d a7 f1 3b 13 76 20 3c 36 94 93 ba
       0.018893827 0.00737471 0.009793776 -0.001125938
000200 bf 3b e9 bc ca 67 1d bc 20 4e 17 bc f5 5d 4f bc
       -0.028470872 -0.009607265 -0.009234935 -0.012656678
000210 c4 f9 87 bc df 44 34 3d b8 4b 04 bd 54 cd 8a bc
       -0.01659859 0.044010993 -0.032298774 -0.016943611
000220 dc cb ce ba 10 3a c2 bc b9 11 f7 bc 58 cd b5 3b
       -0.0015777308 -0.023709327 -0.030159818 0.0055481605
000230 32 b6 81 3c 3d 3a b8 3c 44 2c 03 bd d0 9f 8e 3c
       0.015833948 0.022488708 -0.032024637 0.017410189
000240 b5 e8 34 bc db 2b 37 bd b7 86 2c ba 76 06 e0 bb
       -0.01104181 -0.04471956 -0.00065813534 -0.0068367077
000250 61 4f 99 3c 89 23 b7 b9 77 35 c9 bb 28 99 14 bb
       0.018714609 -0.00034930956 -0.0061404067 -0.0022674296
000260 b2 c0 bc ba ba 5a 92 bc 76 f5 04 3c 5a 7f c6 3b
       -0.0014400689 -0.017865527 0.008115163 0.006057662
000270 52 b3 1c 3c 60 80 80 bb 25 c2 db bb 4e b9 9e bc
       0.009564238 -0.0039215535 -0.0067064934 -0.01937547
000280 cb 22 5d 3c d2 c1 d3 bc 92 11 18 3c 69 20 42 bc
       0.013497065 -0.025849257 0.009281533 -0.0118485475
000290 2f c6 de bb 30 1f 87 3b 71 24 a0 bc e5 3c af 3a
       -0.0067985277 0.004123591 -0.019548627 0.0013369588
0002a0 4e 7e 30 bc 13 fe 3c 3c 54 76 39 bc cc 61 84 3b
       -0.010772301 0.011535185 -0.0113197155 0.0040399786
0002b0 c2 1b 8a 3c 74 a6 dd 3b c7 b7 16 bc 31 d2 fa ba
       0.01685894 0.0067642275 -0.009199089 -0.0019136128
0002c0 e9 5f 95 bc d8 2b ef ba 15 6e 68 bc 6c d0 34 bd
       -0.01823421 -0.0018247319 -0.014186402 -0.04414408
0002d0 79 8c 1c 3d 37 13 96 3c e7 b6 6d 3c b1 b6 a0 bc
       0.038219903 0.01831971 0.014508939 -0.019618364
0002e0 7b c4 b3 3b 20 1e 53 3a 39 2a 30 bc b1 12 db bb
       0.005486069 0.00080535 -0.010752254 -0.006685578
0002f0 8c aa db bc 64 11 87 3c 8f 1b f4 3b 01 a9 42 bc
       -0.026814722 0.016487785 0.0074495743 -0.011881114
000300 5f 86 a7 3c ee 67 43 bc 62 63 b9 3c 0c f5 af bc
       0.020449815 -0.011926634 0.022630397 -0.021479152
000310 ed 8a 80 bb de d7 9c bc fc ae b9 bc bc 47 4b 3c
       -0.0039228112 -0.019145902 -0.022666447 0.0124072395
000320 e0 24 0d 3c 04 31 43 3c f4 dc a5 3b 59 13 2f 3c
       0.008614749 0.011913542 0.00506174 0.010685765
000330 20 08 b1 bc 9d 54 42 bc 73 dd 97 bc 11 fd 7d 3c
       -0.02161032 -0.011860994 -0.018538212 0.01550223
000340 a9 56 c9 bc 0d 97 42 bc 2e 0f 73 3b 47 d6 85 3c
       -0.024577456 -0.011876834 0.0037087905 0.016337527
000350 0b 38 66 bc db 24 85 bb d1 a8 94 ba 81 46 28 3c
       -0.014051448 -0.0040632314 -0.0011341815 0.010270716
000360 b8 d0 c5 ba e9 0b 93 3b 77 34 86 bc 61 f2 1a bc
       -0.001509211 0.004487504 -0.016382439 -0.009457202
000370 aa 85 9d 3c b8 0a 66 3c bb 24 77 3c 0b fd 5a 3b
       0.019228775 0.0140406415 0.015084441 0.0033414986
000380 34 b8 56 3c 4f 16 ad bc d4 8a c1 bc 70 29 d6 3c
       0.013105441 -0.021128802 -0.023625769 0.026142806
000390 10 ee 00 3b 55 c5 9d 3c 9c 3e 9a b9 c0 c9 d0 bb
       0.0019673146 0.019259134 -0.00029419817 -0.0063717067
0003a0 52 de 2e bc cf b8 03 3b 95 d3 d6 3a e9 10 32 3b
       -0.0106731225 0.0020099168 0.0016389961 0.0027170724
0003b0 25 69 23 3c a0 95 06 3d 6f fb 7c bc a5 9e bb bb
       0.009973799 0.032857537 -0.015440806 -0.005725699
0003c0 0b 4e 42 3c 6a e9 b6 bb 3b 2f 0e 3c f6 c6 1c 3b
       0.011859427 -0.0055820243 0.008678253 0.00239223
0003d0 2b 86 a9 3b e9 25 f8 bb 02 cb 8e bc 93 c0 01 3d
       0.005173465 -0.0075728786 -0.017430786 0.031677794
0003e0 f1 fc c4 bc 43 b7 6f 3a dc 8a 96 3b cb 7f af 3c
       -0.024046393 0.00091444346 0.00459419 0.021423241
0003f0 ec a7 53 ba 21 a3 25 bc 69 0c c1 bc d1 13 94 bb
       -0.00080740335 -0.010109694 -0.023565488 -0.004518964

rnn1.weight_hh_l0 f4 [104, 26]
000000 b5 33 c3 ba 49 9c 17 3b 1f e1 3d bb c4 0f c8 b9
       -0.0014892729 0.0023133925 -0.0028973294 -0.0003815872
000010 5f 93 91 b9 c9 53 a9 b9 9c 94 dd ba 60 0e 3b 3a
       -0.00027766355 -0.00032296617 -0.0016905251 0.0007135626
000020 6d 5b 62 b9 f2 23 b8 3b ad 06 98 ba 83 bb ea bb
       -0.00021587098 0.0056195194 -0.0011598669 -0.0071634664
000030 94 f0 03 bb f0 5a 35 3b 4c fe 27 bb ec c0 26 3a
       -0.002013241 0.0027672611 -0.002563375 0.0006361145
000040 83 54 a7 39 27 e4 4f 3b 4f f5 fb 39 c5 58 30 ba
       0.00031915688 0.0031721683 0.0004805722 -0.0006727095
000050 a3 f1 09 bb 1e 71 65 b9 c1 ed 92 bb ba 8a f3 ba
       -0.0021048568 -0.00021881281 -0.004483909 -0.0018580772
000060 4d a2 1d 3b b0 32 a9 3a 45 35 8d 39 47 b3 06 3b
       0.0024053038 0.0012908783 0.00026933305 0.0020553635
000070 a3 32 b0 b8 df 06 8b b9 0a f1 ee 3a 4b 57 bf 3a
       -8.401766e-05 -0.00026517265 0.0018229794 0.0014598159
000080 da 84 56 ba 07 af a9 3a 7b e7 4e 3a 47 a9 65 3b
       -0.00081832486 0.0012945839 0.00078927696 0.0035043524
000090 c3 94 9d ba 18 7a 94 bb ec 37 1c 39 1c 8b dd 3a
       -0.0012022484 -0.0045311563 0.00014898152 0.001690242
0000a0 29 b1 75 ba 6c e7 1f 3b ca bc 65 b9 03 d9 88 3a
       -0.0009372407 0.0024399413 -0.00021909471 0.0010440651
0000b0 ae e2 56 3a ff 4c 04 ba 90 58 ba b8 c9 cc 54 39
       0.000819723 -0.00050468737 -8.885667e-05 0.00020294184
0000c0 a0 c5 62 3b e6 49 fe b9 ae 07 53 3a ce 21 8d 3a
       0.0034602657 -0.00048501714 0.00080501556 0.0010767521
0000d0 0b 1a 47 ba 9e da 9e ba 47 77 fc 3a 65 22 ca 3a
       -0.0007595128 -0.0012119596 0.0019261622 0.0015421627
0000e0 34 fd 2b 3b 0a 7e 0d 3b 48 b5 f3 b7 46 cc 0f bb
       0.002624345 0.0021590018 -2.9052273e-05 -0.0021941825
0000f0 01 28 a9 ba 35 6e c0 bb 8c 64 5c ba 86 3d c9 3b
       -0.0012905599 -0.0058725127 -0.00084073166 0.0061413674
000100 8a 6e f8 3a f1 37 21 3b 7b 18 14 3a 60 23 37 3b
       0.0018953842 0.0024599994 0.00056494 0.002794467
000110 fe e7 6d 3a 95 aa 7b bb e8 6d 78 3b 67 35 ba ba
       0.0009075402 -0.0038401235 0.0037907306 -0.0014206589
000120 8a 73 9f ba 35 58 fe ba 74 9d 0f bb 54 00 81 38
       -0.0012165171 -0.001940495 -0.0021913918 6.1512605e-05
000130 1c 9e ae ba 93 93 92 bb 2a 96 ee 3a d2 59 dd ba
       -0.0013322267 -0.0044731586 0.0018202711 -0.001688773
000140 9b 32 bd 3a 37 b6 7b ba ba 6f 36 ba 5d 40 7c 39
       0.0014434637 -0.0009602042 -0.00069593976 0.0002405657
000150 28 71 08 bb c3 11 c9 ba e1 e5 a8 ba ff 09 4d 3c
       -0.00208194 -0.0015340376 -0.0012885892 0.01251459
000160 20 73 a7 3a ba 6d 43 bc c2 a0 85 38 b4 8a 5e 3a
       0.0012775399 -0.011928016 6.371878e-05 0.00084892963
000170 4d ae 35 ba 9b fe 08 bb de e5 b6 3a 52 19 14 3b
       -0.0006930575 -0.002090371 0.0013954004 0.00225981
000180 88 cb 95 ba ee cb 05 3a 58 34 f3 3a ec 12 0a 3b
       -0.0011428455 0.0005103935 0.0018555028 0.0021068407
000190 0a cb 0a 3c db 6e 2c 3b da 6f a4 b8 14 f1 f6 38
       0.00847126 0.0026311192 -7.8409634e-05 0.000117750984
0001a0 62 ae d2 39 b6 8e 21 37 46 b4 76 3a 49 27 22 ba
       0.00040184247 9.629575e-06 0.0009411018 -0.00061856635
0001b0 e9 5d 84 b9 fe 5c 84 b9 c2 45 81 ba bd 1e 83 ba
       -0.0002524697 -0.00025246287 -0.0009862708 -0.0010003668
0001c0 e1 b5 19 b9 1c 54 38 ba 79 c9 d7 39 f6 aa a0 39
       -0.00014658972 -0.0007031576 0.00041158104 0.00030644954
0001d0 66 f7 33 3a 45 55 ab ba 79 63 69 39 ba ca b6 3a
       0.00068651733 -0.0013071677 0.00022257668 0.0013945915
0001e0 c5 60 7f ba 05 53 61 b9 95 05 7f ba 0b 9b 5e 39
       -0.0009741898 -0.000214886 -0.000972831 0.00021229328
0001f0 3c 9b 6b ba cb 73 f0 3a 1a b8 8d 3a 5b a2 9f 39
       -0.00089876703 0.0018345056 0.0010812313 0.00030447808
000200 22 0e 5f b8 28 54 4d ba fc 2b 43 39 d0 06 ef ba
       -5.3180505e-05 -0.00078326697 0.00018613035 -0.0018236283
000210 0c e4 82 3a 68 c7 ec ba 1f 50 88 bb c8 ff e1 ba
       0.0009986176 -0.0018064799 -0.004159942 -0.0017242366
000220 43 1e f3 ba 1b ef a7 3b 1e 1f f6 3b 7b 91 b8 bb
       -0.0018548447 0.005124939 0.0075110337 -0.005632577
000230 30 06 8a bb 6f 0f 13 3c a2 83 24 39 a0 79 88 bb
       -0.0042121634 0.008975848 0.00015689296 -0.0041648895
000240 40 6d f5 3a 86 37 32 bb 86 51 2c bc 27 39 cd bb
       0.0018724576 -0.002719374 -0.010517484 -0.0062629166
000250 34 62 79 3a 86 ab 6a bb 36 7d 7f 39 87 f8 6f 3a
       0.00095132296 -0.0035807802 0.0002436534 0.000915416
000260 df 52 91 bb 84 e6 98 39 4d 97 57 ba 2a 61 a2 bb
       -0.004434928 0.00029163447 -0.00082241447 -0.0049554305
000270 19 03 5a 3a 35 3a e3 38 c2 e2 5a ba 23 87 8a b9
       0.00083165016 0.000108350454 -0.00083498296 -0.00026422096
000280 1a 30 fc b9 4f 7f 5b 3a 67 5a 84 3a a7 ff 0b ba
       -0.00048101024 0.00083731575 0.0010097743 -0.00053405244
000290 ae d7 03 3a a0 c3 2e bb d7 0b 67 ba 22 ef 6d 3b
       0.0005029392 -0.0026666895 -0.0008813715 0.0036305864
0002a0 45 63 88 ba 28 64 e1 b9 b8 64 50 ba 3b b3 0a 3a
       -0.0010405561 -0.00042989966 -0.00079495786 0.00052909896
0002b0 b2 38 6f 3a ea 07 71 3a 8f 50 b5 37 ba 4b 5b 3a
       0.0009125575 0.00091945997 2.1614394e-05 0.0008365471
0002c0 43 c1 33 3a 3b 8b 30 ba 8f d8 f9 ba f3 db 5f 39
       0.00068571063 -0.0006734614 -0.0019061732 0.00021348875
0002d0 23 a8 49 3a 8d 00 3f 3a 2a 8a 16 3b 86 1f fc 3b
       0.0007692596 0.0007286154 0.0022970536 0.0076941876
0002e0 a3 9e a5 bb 96 88 ba bb c8 84 41 bb 13 72 04 bc
       -0.0050543114 -0.005692552 -0.0029528607 -0.008083838
0002f0 27 cc 29 bc 21 f5 42 3b c6 e6 a8 bb 85 ff 83 3c
       -0.010363615 0.002974816 -0.0051544635 0.016113052
000300 89 44 bd 3b 35 1b 47 bc 63 bb 06 bc 76 71 e0 3a
       0.0057759923 -0.012152483 -0.008223387 0.0017123658
000310 b2 f9 25 bb db 3c 13 bb f5 63 c9 bb bc d5 59 3c
       -0.0025325832 -0.0022466693 -0.006145949 0.013295587
000320 c6 87 cf bb 7d 33 06 bc 39 cc 20 bc 22 54 0f 3c
       -0.006333324 -0.008190987 -0.0098143155 0.008748086
000330 e0 fe 1a ba 52 81 67 bb 7e 96 28 3b b7 51 92 3b
       -0.0005912613 -0.0035324884 0.0025724466 0.0044653076
000340 e9 6a 2c 3c 8f cc 0b bc 84 00 81 3c dd 5e c6 3b
       0.010523536 -0.008532657 0.015747316 0.006053789
000350 f3 06 5e 3a 21 6f 8f ba dc 7a 27 3c 7c a2 42 3c
       0.00084696634 -0.0010943153 0.010222163 0.01187956
000360 ff 7e 1a bc 50 4f b7 3d cb a9 43 bc 1a 2c c2 bd
       -0.009429692 0.089506745 -0.011942337 -0.09481068
000370 ee d1 5f 3c 5d b7 22 bb 40 44 83 3c 1c 0b b0 bc
       0.013660891 -0.0024828531 0.016023755 -0.021489672
000380 26 5e e2 ba cf bb 0c bd b9 bf ad 3b bb f7 28 3b
       -0.001727049 -0.034358796 0.005302396 0.0025782424
000390 78 63 dc 3c 0c 97 89 3b 02 f9 c9 3c b5 25 4a 3b
       0.0269029 0.0041989144 0.024654869 0.003084523
0003a0 76 9a 8e bc 78 89 ac bc d4 a3 60 3b 8f 34 cd 3c
       -0.017407637 -0.021061644 0.0034277337 0.025049476
0003b0 46 2c 16 bc c3 e5 a8 ba ac 9f 26 3c 74 42 99 3c
       -0.009165829 -0.0012885857 0.010169905 0.018708445
0003c0 35 f8 af 3b 23 86 8d 3c 12 0f c2 3c 46 c6 e6 3c
       0.0053701648 0.017275875 0.023688827 0.028170716
0003d0 62 0f 57 bc 72 0a 2d bc ea c4 fd bc d0 94 6b 3c
       -0.013126226 -0.010561572 -0.030977685 0.014378741
0003e0 e1 2a 8b bc bf 2b 40 bc dc 10 42 3c 15 ed 34 bc
       -0.01698822 -0.01172918 0.01184484 -0.011042853
0003f0 95 c7 bd 3c f0 7c 06 bc 6e 3d da 39 5a d0 4d 3c
       0.023166457 -0.008208498 0.0004162597 0.012561882

rnn1.bias_ih_l0 f4 [104]
000000 7b 9f 18 bc e1 b2 82 bc b4 93 b5 bb d8 f5 27 bc
       -0.009315367 -0.015954437 -0.005541289 -0.010251485
000010 4f e5 aa bb 59 ca 17 3c 98 e7 a8 3b df 13 00 bd
       -0.005215324 0.009264552 0.0051545613 -0.03126895
000020 21 76 9d bc 86 cc ce bd f2 23 dc bb 86 7e dc bd
       -0.019221367 -0.100976035 -0.006718152 -0.1076632
000030 d7 d9 b0 3c 04 db 98 39 3e 47 ba 3c 5b 28 e5 bb
       0.02158825 0.0002915488 0.022739049 -0.006993336
000040 23 db 95 3c 71 fa 22 bc e4 2b 02 3d 22 63 06 bc
       0.01829297 -0.009947405 0.03178014 -0.008202346
000050 0f b8 ac bc 8a 8e 9e b9 c1 a3 d5 bc bc 2c 8c 3b
       -0.02108386 -0.00030242308 -0.02607906 0.0042777937
000060 2b a4 02 3c 0d 2d 9a 3c 27 72 10 bc 73 41 0a 39
       0.007973711 0.01882031 -0.008816279 0.00013185087
000070 c5 2b 46 3c 43 72 ed 3b 94 5b 8c bb b0 0e b1 3c
       0.012095396 0.007246287 -0.004283378 0.021613449
000080 ba c4 99 3b 7c 1b bc 3b b2 d3 ab 3d 91 20 3c 3e
       0.004692641 0.005740581 0.08389987 0.18371798
000090 98 00 b0 3b 8f 9f 6e 3e 2c a7 aa 3b 82 65 7a 3b
       0.0053711645 0.23303054 0.0052079167 0.0038207476
0000a0 b9 8a b1 3c 09 ed b0 ba bf 9a 0c 3d 8f ac 7e 3c
       0.021672593 -0.0013498376 0.034327265 0.015544071
0000b0 4b 42 3f bb 1e 61 af ba c7 e2 ec 3c 85 b9 8e 3b
       -0.00291838 -0.0013380384 0.02891673 0.0043556117
0000c0 fa 47 17 3e ff ac 06 3c f5 6c 2c 3d c7 c4 81 3c
       0.1477355 0.008219956 0.042096097 0.015840901
0000d0 bd ac bb bc 30 b0 7a bd ee 5f 71 bb 44 b2 1c 3d
       -0.022909516 -0.06120318 -0.003683086 0.038255945
0000e0 1e 55 e0 3b a2 09 68 3b 48 f3 76 3d 8b 61 d7 bd
       0.0068460843 0.0035406132 0.060290605 -0.10516652
0000f0 2c 85 b4 bd c7 7b b1 3d d1 5c 3a bd 20 8d be bd
       -0.08814463 0.08666187 -0.045498673 -0.09304261
000100 4c 74 fd 3d 1d 81 38 bc eb 76 0c bc fb 9e 23 3d
       0.123756975 -0.011261252 -0.008573274 0.039946537
000110 6d ed 7a 3d 01 b1 55 3d 2f 37 e7 3c 45 45 a4 3c
       0.061261583 0.052170757 0.028224556 0.020052562
000120 61 06 a9 3d 39 0d 6c bd dc d8 f7 bc ca 47 db 3c
       0.0825317 -0.057629798 -0.030254774 0.02676763
000130 cc e3 a0 bc c6 91 bd 3d b2 15 2a bc 62 fd 6d 3b
       -0.019639872 0.0925632 -0.010381149 0.0036314358
000140 c7 f2 27 3c 7d b0 82 bc da f2 88 39 63 df bd 3b
       0.010250754 -0.015953297 0.0002612088 0.005794452
000150 f0 f5 0f 3c b2 c5 b6 ba 76 96 58 bd 1e d0 8f 3d
       0.008786663 -0.0013944416 -0.052877866 0.07022117
000160 7d d3 d9 3b 3e 57 02 3e 39 16 14 3d 60 7c f2 3a
       0.006647526 0.12728593 0.036154006 0.0018500201
000170 54 19 ea 3c d0 c1 0b 3c bb 27 e5 3c a8 05 4d 3d
       0.02857653 0.008530095 0.027973047 0.050054222
000180 94 0d f2 3b d8 86 1f bc bf 51 94 bc 2d a6 29 bc
       0.0073868725 -0.009736739 -0.018105386 -0.010354561
000190 93 6b 22 3d e5 2c 58 3b bd 75 29 3c 78 72 86 3c
       0.039653372 0.0032985744 0.010343012 0.016412005

rnn1.bias_hh_l0 f4 [104]
000000 e8 1c 96 bb 33 a9 45 bc 37 1a 33 3c 8a 2f 03 bc
       -0.0045810826 -0.012064266 0.010931543 -0.00800694
000010 a0 0c 4d 39 f0 95 47 3c 00 f5 15 3c 97 57 b4 bc
       0.00019555027 0.012181744 0.009152651 -0.022014422
000020 9c c2 42 3c 83 9d 0e be 89 04 a5 bc f2 85 0d be
       0.011887219 -0.13927273 -0.020143764 -0.13820627
000030 af 66 c8 3c 34 9f 18 3c 1a d2 95 3c f0 91 82 bb
       0.024463026 0.009315301 0.01828866 -0.0039846823
000040 bb 74 c0 3c e9 e9 d9 3c e0 ef ee 3c e8 64 6f bb
       0.023493161 0.026600795 0.029167116 -0.003652865
000050 f8 a6 c3 bc 33 82 70 ba cc 18 8f 3b 40 81 93 3b
       -0.023883328 -0.00091746746 0.0043669697 0.004501492
000060 40 35 b0 3b d5 74 19 3c 17 94 0d bc 01 fb b9 b9
       0.0053774416 0.009366234 -0.008641264 -0.00035472962
000070 c3 a9 7b 3c bb 9f d8 3b 85 33 32 bb ba 19 10 3d
       0.015360299 0.006610838 -0.0027191353 0.035180785
000080 9a 08 d1 3a 11 39 fa 3b 89 20 dd 3d 89 22 22 3e
       0.0015947998 0.0076361974 0.10797221 0.15833487
000090 93 fd 50 bb d1 da 43 3e 79 fe 65 3c f0 4a ae 3b
       -0.0031889423 0.1912644 0.014037722 0.005318992
0000a0 e7 a7 99 3c 88 19 01 bb fd a0 2b 3d 37 1d 84 3c
       0.01875682 -0.0019699056 0.041901577 0.016127212
0000b0 04 0e 2c 3c 31 5d 83 bb e9 4c c9 3c ae 6b 44 3b
       0.010501388 -0.004008912 0.024572806 0.0029971409
0000c0 8f f6 1e 3e 04 9f 00 3c 49 8a 00 3d 04 d9 23 3c
       0.15523742 0.007850412 0.03138188 0.010000471
0000d0 4d 3e dd 3c be 25 67 bd 31 7f a6 bc a5 4e 8e 3d
       0.027007246 -0.056432478 -0.020324321 0.06948594
0000e0 88 af 15 bd 5f 52 6b 3d 63 47 6e 3c 70 5c f4 3c
       -0.036544353 0.057451602 0.014543387 0.029829234
0000f0 54 74 3d be f9 33 e3 bd 74 8d 40 bd 09 d6 b9 bd
       -0.18501407 -0.11093897 -0.0470099 -0.09074027
000100 28 94 13 bd 47 fa 88 bc 8b 68 6d bd 78 85 9d bc
       -0.036029965 -0.016720904 -0.057961028 -0.019228682
000110 47 0c c0 3d 38 a1 84 bd 21 19 bb bd ce 97 99 3c
       0.09377342 -0.064760625 -0.09135652 0.018749144
000120 d3 40 fa 3c f6 86 a1 bd a7 49 9f bd 57 c7 82 bd
       0.030548489 -0.0788707 -0.0777772 -0.06385677
000130 c0 9d 83 3d b7 21 2c bd 0b cf b4 bb d4 2b 18 bb
       0.06426573 -0.04202434 -0.0055178455 -0.0023219483
000140 ae 68 8b bb 00 86 95 bc 36 9a 35 3b 9e a0 71 3c
       -0.004254422 -0.018252373 0.0027710325 0.014747767
000150 2d 68 64 3c d2 e6 13 bc 69 6a 3f 3b b4 d9 9d 3d
       0.013940853 -0.0090272 0.0029207713 0.07707539
000160 70 fd 65 3c 43 1f 44 3d c6 8c fe 3c 87 e3 94 bb
       0.014037475 0.047881376 0.031072985 -0.004543725
000170 ac 1d 1d 3c 9f e3 98 38 21 6b ab 3c ff f7 f5 3c
       0.009589594 7.2903225e-05 0.020925106 0.03002548
000180 71 17 40 3d df 21 09 bc e5 30 88 3b 09 22 a6 ba
       0.046897355 -0.008369892 0.0041562193 -0.0012674938
000190 90 e9 7a 3d 7d 37 24 3c 3a bb 2f ba 6a e2 99 3c
       0.0612579 0.010022995 -0.0006703619 0.01878472

rnn1.weight_ih_l0_reverse f4 [104, 100]
000000 02 be 20 3c 6d a9 52 bb b7 c0 92 3c c3 6a d0 bc
       0.009810926 -0.0032144443 0.01791416 -0.025441533
000010 47 5e d3 3b 23 9f fc bc 6f 72 89 3c 13 bc 7b bc
       0.0064504477 -0.030837601 0.016778199 -0.015364665
000020 58 b3 10 bd 2c 8d ae bc 56 4b f7 3a 36 97 04 bd
       -0.035327286 -0.02130755 0.0018867056 -0.03237077
000030 11 7a 8b 3c 8a 55 e9 ba 0d b9 00 3c 72 91 fe 3a
       0.01702598 -0.0017801982 0.00785662 0.0019422008
000040 ae 2c 75 bc 93 52 d0 bc 20 b0 87 bc 65 9f 97 3c
       -0.014964266 -0.02543 -0.016563475 0.018508622
000050 c1 0c 4f bc 31 ea 49 bc 69 fa 2a 3c 89 2a c7 bb
       -0.012637318 -0.012323902 0.010435679 -0.0060780686
000060 05 17 82 bc da d7 92 bb 71 cc 2d 3c 7b d8 89 3c
       -0.015880117 -0.004481298 0.010607825 0.016826859
000070 9b 01 ae 3b 01 9b 87 bc 68 ad c7 3c e1 e1 80 bb
       0.00531025 -0.016553404 0.024374679 -0.003933177
000080 a6 39 f0 3c 0a ba ac 3c 09 7e d4 bc a6 12 68 3c
       0.029324364 0.021084804 -0.025939004 0.014164602
000090 fa c6 57 3c 41 3b 90 bc ea 5b 3a bc f6 2b 58 3c
       0.013169998 -0.01760638 -0.011374453 0.013194075
0000a0 d4 14 40 3c c5 fa e7 3c 2e 9d 02 bd 98 3b 8a bc
       0.011723716 0.028317818 -0.03188818 -0.01687412
0000b0 0b 07 c3 bc da ba 12 3c 1d 3d cf 3b 9b 88 7d bc
       -0.02380707 0.008955682 0.006324424 -0.015474464
0000c0 fe 65 44 bc 89 c8 1b bc 60 25 23 bc 24 1f 8f bb
       -0.011987207 -0.0095082605 -0.009957641 -0.004367726
0000d0 b2 40 36 bb 26 67 16 bc 6a 2a 5f bc 3a 4f 8f 3b
       -0.0027809558 -0.009179866 -0.013620952 0.004373458
0000e0 9b 18 0e bc f7 8a ec bc 22 22 53 3b c9 8c 35 3b
       -0.008672859 -0.028874857 0.003221639 0.0027702323
0000f0 86 61 ce ba 4f aa 2d 3b 8d d1 eb 3c fe 9c fb bc
       -0.0015745617 0.0026499217 0.028786445 -0.030714508
000100 21 fb bd bc 89 22 8d bb bd e8 6f 3b 42 1d a4 bc
       -0.023191037 -0.0043070954 0.0036607229 -0.020033482
000110 a9 85 c8 bc bf c1 4d 3c d2 b5 44 bc ff 88 7c bc
       -0.024477797 0.0125584 -0.01200624 -0.015413522
000120 a1 51 06 3d 35 96 9b 3c ee fa bf 3c e5 b2 b4 bc
       0.03279269 0.018992523 0.023435082 -0.02205796
000130 c3 43 18 bc 32 d8 c3 3c 81 52 04 bc b0 0e d6 bc
       -0.009293499 0.0239068 -0.008076311 -0.02613005
000140 9f fc a5 bc 6c 29 31 b9 5a 0e e3 bb ab 41 ea 3b
       -0.02026206 -0.00016895466 -0.006929201 0.0071489415
000150 00 9c 0d bd a4 a5 9b 3b da 50 c2 3c 8f 1d 74 3a
       -0.0345726 0.0047499705 0.023720194 0.0009312266
000160 e3 4d ab bc 97 0e 71 bb 17 6d bf bb c3 c4 a4 bc
       -0.020911163 -0.0036782378 -0.005841862 -0.020113355
000170 2e f1 a7 3b 32 b4 ff 3b 37 a0 89 3b 31 0d 9f 3c
       0.0051251864 0.0078034634 0.0042000073 0.01941547
000180 a1 7b bc bc 38 32 44 3c bc 9e cf 3c 0b 74 1a bc
       -0.02300817 0.011974864 0.025344245 -0.009427081
000190 e5 b6 1b 3b dc 4b 39 3c 17 e6 39 3c c0 43 c8 3c
       0.0023760137 0.01130959 0.011346362 0.024446368
0001a0 6f 9f 38 bd e8 6f 16 bc 6e d1 ec 3c aa b6 cd bb
       -0.045073923 -0.009181954 0.028908458 -0.006277879
0001b0 1e c9 13 3d 6e de d5 3c a8 c6 0d 3d f2 fd 38 3d
       0.036080472 0.02610704 0.03461328 0.045164056
0001c0 ca 11 89 bc 92 4d 65 bc d0 bb ef bb 4d 44 8e 3c
       -0.016732115 -0.013995545 -0.00731609 0.017366553
0001d0 21 53 a9 3c cc 2b f4 bc 80 a4 14 bb b9 a1 f1 bb
       0.020669522 -0.02980604 -0.0022681057 -0.007374015
0001e0 51 7d fe 3c d8 77 8e bb cb b9 cf 3c d3 e0 b8 3c
       0.031065615 -0.0043477826 0.025357148 0.022568142
0001f0 4e 55 0f ba bc ae dd bc 28 b6 0e 3d e0 84 dd bc
       -0.00054677285 -0.027060859 0.034841686 -0.027040899
000200 11 f7 b1 3c a2 b3 a5 3c bb e9 03 3d 53 cf 64 3c
       0.021724256 0.020227257 0.032205325 0.013965446
000210 3f 3c f8 bc de dc 67 3c d2 5a d4 3c 69 4c 85 bc
       -0.030302165 0.01415178 0.025922213 -0.016271787
000220 51 3a 64 bc 75 5d a8 bb f5 82 bc 3c 71 78 c4 bc
       -0.013929919 -0.005138094 0.023011664 -0.023983212
000230 df 1e ba bc 67 49 a6 bc 32 39 6a 3c 99 a7 d3 ba
       -0.022719799 -0.020298673 0.014295863 -0.001614797
000240 17 cc 0f 3d 46 7c 40 3c c4 a8 49 3c 35 e9 7a 3d
       0.035106745 0.011748379 0.012308303 0.06125756
000250 65 3e 14 bd 70 7e e6 3c a6 78 98 3c e5 2b 82 3c
       -0.036192317 0.028136462 0.018612217 0.015890071
000260 97 13 cf bc 5b ab a5 3c 43 70 57 3b a1 a8 9a 3c
       -0.025277896 0.02022331 0.003287331 0.018879237
000270 41 84 47 bd df 49 d0 bc c0 c3 41 3c 47 61 d2 3a
       -0.04871011 -0.02542585 0.011826456 0.001605072
000280 2d 69 a2 3c 9a ce a6 bc 61 b4 df 3b 16 b6 f6 bb
       0.019825542 -0.020362187 0.0068269228 -0.0075290306
000290 6e 38 2f bd 25 98 df 3b 8e 92 32 3c 19 44 17 bd
       -0.042778425 0.006823557 0.010899199 -0.036930177
0002a0 97 b9 0f bd 18 65 97 3a f8 e2 96 3c 7c 8d 7b 3a
       -0.0350891 0.0011550514 0.018418774 0.0009595973
0002b0 50 72 14 bc e5 7f 4f 3d f4 a2 ff bc 4f ae 29 3c
       -0.009060457 0.05065908 -0.031205632 0.0103565
0002c0 67 d4 81 bc 94 c2 b0 bb c9 54 a0 bc 8b 9f ab 3c
       -0.015848352 -0.0053942893 -0.019571679 0.0209501
0002d0 02 37 67 3c 5f 69 ae 3c ec 46 bd bc b3 93 42 bc
       0.014112236 0.02129048 -0.023105107 -0.011876035
0002e0 37 41 07 3d da 9e de bc fa 54 21 bd c5 2c d0 bc
       0.033021178 -0.027175356 -0.03938768 -0.025411973
0002f0 61 1e 00 bd 97 20 15 3d c6 81 a0 3b 52 86 02 3d
       -0.03127897 0.036408033 0.0048982827 0.03186638
000300 b0 0f 04 3d 6a 71 e3 bc b5 9c a8 3c cd 82 4d bd
       0.032241523 -0.027764041 0.020582536 -0.05017357
000310 93 6a dc bb a8 2c fa bc dd 6a 78 3c a5 d6 84 3c
       -0.006726572 -0.030538872 0.015162197 0.016215632
000320 69 97 ba b9 4e 8c 65 3c f6 9c b1 3c a4 72 c7 3c
       -0.00035589494 0.014010502 0.02168129 0.024346657
000330 1f 23 80 3c a9 65 1f bd 02 a8 a9 bb 79 71 39 bd
       0.015641747 -0.03891531 -0.005177499 -0.04527423
000340 23 db db 3b 0c a5 63 3c 2f 0c 80 3c 88 0a 14 3d
       0.0067094727 0.013894331 0.01563081 0.036142856
000350 40 f9 5b bd ad 64 19 bd 00 84 a2 bb f0 6c 8a 3c
       -0.0537045 -0.037449528 -0.0049595833 0.016897649
000360 fd 35 c3 bc be 2e 6a bc 94 13 d9 bb cb c8 19 bc
       -0.023829455 -0.014293371 -0.0066246483 -0.009386252
000370 65 03 95 3c 6f e8 4b 3c 0d 4c 77 3c ec 03 61 bc
       0.018190095 0.012445553 0.0150938155 -0.013733845
000380 a4 b2 d7 3a 8b a9 b4 bc 40 7c 13 bd 23 ab b3 bc
       0.0016456437 -0.0220535 -0.036007166 -0.02193219
000390 a4 b7 b9 bc 1a 7a 67 bc 8a 6c 14 bc 41 55 f7 bc
       -0.022670574 -0.014128232 -0.009059081 -0.03019202
0003a0 07 a5 64 3c 11 91 26 3d 3c e4 bd bc f8 f1 d3 3b
       0.013955361 0.04066569 -0.02318012 0.006468054
0003b0 2f 97 91 3b 71 49 4a bd bd 7c 45 3a a7 7f 4b bc
       0.0044430713 -0.049386445 0.0007533541 -0.012420571
0003c0 70 b1 76 3c d8 83 ea bc 3a b1 9c 3b c0 58 de bb
       0.015056953 -0.028627321 0.0047818692 -0.006785482
0003d0 33 0f a4 3c 60 b2 63 bb ed 96 7b 3c 0c bd 70 3c
       0.020026779 -0.003474377 0.015355808 0.01469351
0003e0 c1 85 d7 3c f1 4e 61 bc ff 16 17 bb 8d 90 9b bb
       0.026308896 -0.013751731 -0.0023054478 -0.0047474564
0003f0 a0 b6 8e bc e3 d0 00 bc f2 7a 57 bc fa df 67 bb
       -0.017421067 -0.0078623025 -0.013151871 -0.0035381303
