scripts/early_stopping_state.pt (torch, 432843 bytes, 49 tensors)

conv1.weight f4 [100, 20, 3]
0	0x3e235746	0.15951261
1	0x3e05a9ca	0.1305305
2	0x3df658b9	0.12028641
3	0x3e2b350f	0.16719459
4	0x3e216210	0.15760064
5	0xbd061d29	-0.032742653
6	0x3bec052a	0.007202764
7	0x3e1f0f2b	0.1553313
8	0x3c3cc641	0.011521877
9	0xbdf766c3	-0.12080147
10	0x3cbc245e	0.02296656
11	0x3e517873	0.20456104
12	0xbe313a2b	-0.17307346
13	0x3c1f665d	0.009728995
14	0x3d53f391	0.051745955
15	0xbde68d79	-0.112574525
16	0xbe00e0d9	-0.12585773
17	0xbd921933	-0.071337126
18	0x3ae4e48c	0.0017463132
19	0xbb904c58	-0.004403632
20	0x3e426c18	0.18986547
21	0x3cdf5ff0	0.027267426
22	0x3e451264	0.19245297
23	0xbd44af41	-0.048018698
24	0x3c1cd9b1	0.009573386
25	0xbdfe2492	-0.12409319
26	0x3e42d55c	0.19026703
27	0xbd4a3028	-0.04936233
28	0xbcf35cb1	-0.029707285
29	0xbdd986e8	-0.106214345
30	0xbdbe8c26	-0.09304075
31	0x3e4daa23	0.20084433
32	0x3c8b9dd9	0.017043041
33	0x3e017d51	0.1264546
34	0xbd977db2	-0.07397021
35	0xbdda5c1c	-0.106621
36	0x3e81e28c	0.25368154
37	0x3e24f861	0.16110374
38	0xbdb90865	-0.09034804
39	0x3df66e9a	0.12032814
40	0x3e46e631	0.19423749
41	0xbe06a70e	-0.13149664
42	0xbd1570cc	-0.036484525
43	0xbda6523d	-0.081211545
44	0xbd3dee1f	-0.046369668
45	0xbe617de2	-0.22020677
46	0x3e3a65db	0.18202917
47	0x3e7300d3	0.23730783
48	0x3e2b07f5	0.16702254
49	0xbdf5885c	-0.11988899
50	0xbdf9115e	-0.12161516
51	0xbdf9dfe7	-0.12200909
52	0x3de7eede	0.11324857
53	0x3e59727d	0.2123508
54	0xbcb3fc79	-0.021970974
55	0x3d9b29d2	0.07576336
56	0xbdae89f5	-0.08522407
57	0xbd5db35f	-0.05412614
58	0xbdc42ee7	-0.095792584
59	0x3dfba143	0.122866176
60	0xbe29ccaf	-0.16581987
61	0x3dd98c34	0.10622445
62	0xbe284ed9	-0.16436328
63	0x3e121a5c	0.14267868
64	0x3e8f9557	0.28043625
65	0x3c00797b	0.007841463
66	0xbe09234d	-0.13392372
67	0x3df650b0	0.12027109
68	0x3de139df	0.10997366
69	0xbd80fe8c	-0.06298551
70	0x3d492255	0.049105007
71	0x3da1cd56	0.07900493
72	0xbc2278ca	-0.009916494
73	0xbe110a22	-0.14164022
74	0xbde03f90	-0.109496236
75	0x3e1475ae	0.14498016
76	0x3e3dcb4d	0.18534584
77	0xbde1a075	-0.11016933
78	0x3d8e59a6	0.06950693
79	0xbdc4251b	-0.0957739
80	0xbc9a85fa	-0.018862713
81	0x3e2d97ff	0.16952513
82	0x3e1db0a9	0.15399422
83	0x3deefd5d	0.11669419
84	0xbe0bc83c	-0.13650602
85	0x3dd0187e	0.101609215
86	0x3c1fc014	0.009750385
87	0xbde5816a	-0.112063244
88	0xbe3da884	-0.18521315
89	0x3d847366	0.06467323
90	0xbdd62183	-0.104556106
91	0xbbb02e11	-0.0053765853
92	0x3db42dda	0.08797808
93	0xbd877219	-0.06613559
94	0xbde26032	-0.11053504
95	0x3dbbb9cb	0.091662966
96	0xbe48d5d4	-0.19612819
97	0x3e3432e9	0.17597546
98	0x3d1c38c2	0.038140066
99	0xbc3a461b	-0.0113692535
100	0xbe33c32c	-0.17554921
101	0x3df00d67	0.11721306
102	0x3dacae2d	0.08431659
103	0xbdddc9b4	-0.108294874
104	0xbe408dfd	-0.18804164
105	0x3d8eba7d	0.069691636
106	0xbe1700b1	-0.14746358
107	0x3e15f475	0.14644034
108	0x3e6e31e4	0.2326122
109	0xbd07e992	-0.033181734
110	0x3e1e8fc9	0.15484537
111	0xbdcb54d3	-0.09928288
112	0xbdfd328e	-0.12363158
113	0x3da7863a	0.081798986
114	0x3e5a8bbf	0.21342371
115	0x3e83fc15	0.2577826
116	0x3b1ef124	0.0024252618
117	0xbe2165cc	-0.15761489
118	0x3d78b364	0.060717955
119	0x3daad562	0.08341481
120	0x3d9eb250	0.07748854
121	0x3dd01c3b	0.101616345
122	0x3c85baa9	0.016324358
123	0x3d40009b	0.046875577
124	0x3e884630	0.2661605
125	0x3e460a59	0.19339885
126	0xbdc60ba0	-0.09670186
127	0x3cfb658c	0.03068807
128	0x3e47d1a5	0.19513567
129	0xbd21b38e	-0.039477877
130	0xbe0eac35	-0.1393288
131	0x3b87f478	0.004149016
132	0x3e5c18e8	0.21493876
133	0xbe1dd04d	-0.15411492
134	0x3e057389	0.13032354
135	0x3e0e48e9	0.13895
136	0xbc61e838	-0.013788275
137	0xbdc72e26	-0.09725599
138	0x3e29324c	0.16523093
139	0x3d755b67	0.05990162
140	0xbdadf339	-0.08493657
141	0xbd5859bd	-0.052819956
142	0x3e5caedd	0.2155108
143	0x3d862e28	0.06551772
144	0x3e0df545	0.13863094
145	0x3e6f0889	0.233431
146	0x3c818dc9	0.015814679
147	0x3e2f52db	0.1712145
148	0x3e27901c	0.16363567
149	0xbdd82763	-0.105543874
150	0xbd615c42	-0.055019625
151	0x3ce95c2c	0.028486334
152	0xbd270dbb	-0.04078458
153	0x3da51b85	0.080618896
154	0xbe06d63a	-0.13167658
155	0x3d7a280b	0.061073344
156	0xbdb0e3e8	-0.0863722
157	0x3e8f9d87	0.2804987
158	0x3e277227	0.1635214
159	0x3df02ec9	0.117276736
160	0xbc6c6aa9	-0.014429727
161	0x3dd1e4dc	0.102487296
162	0xbdf3e0c0	-0.11908102
163	0xbdecfb77	-0.115714006
164	0xbcd2cd2c	-0.0257326
165	0xbe4ce1fe	-0.20008084
166	0xbe1aae0d	-0.15105458
167	0xbd26ac58	-0.040691704
168	0xbd56187e	-0.05226945
169	0x3dec5820	0.11540246
170	0x3d616bad	0.05503433
171	0xbe0c6c3b	-0.13713162
172	0x3e2b8156	0.16748556
173	0xbdfbac04	-0.12288669
174	0x3d8d87fb	0.06910702
175	0x3e52a929	0.20572342
176	0xbd23b8d6	-0.039971195
177	0x3e0813ed	0.13288851
178	0xbd1890a2	-0.037247308
179	0xbc4ede71	-0.012626276
180	0xbd96eedc	-0.073697776
181	0xbdbc225e	-0.091862425
182	0x3d782ad2	0.06058771
183	0x3e2295ac	0.15877408
184	0xbdd0e1e4	-0.10199335
185	0xbc847af0	-0.016171902
186	0xbdf3dae8	-0.119069874
187	0x3d8a3c2b	0.067497574
188	0xbb88da1a	-0.0041763904
189	0xbe157894	-0.14596778
190	0x3e555cc5	0.2083617
191	0xbe1149cb	-0.14188306
192	0x3e48499f	0.19559334
193	0xbb1f76fd	-0.0024332397
194	0x3e21ff66	0.15820083
195	0x3b11c090	0.002224002
196	0xbde64e1f	-0.11245369
197	0x3e249ec0	0.16076183
198	0xbdacc617	-0.0843622
199	0xbd9fe597	-0.07807463
200	0x3cc0028e	0.023438718
201	0xbc31b37c	-0.010846015
202	0x3da09ed5	0.07842795
203	0xbd21f1d6	-0.039537273
204	0xbdfc6c4a	-0.12325342
205	0x3d5a52f1	0.053301755
206	0xbd3b44c5	-0.04571988
207	0xbdc2770e	-0.09495364
208	0x3e209be7	0.15684472
209	0xbe29aebe	-0.16570565
210	0xbcd8a588	-0.026446119
211	0xbd991a4e	-0.0747572
212	0xbddbe5c6	-0.10737185
213	0x3e4f26c3	0.2022963
214	0x3e980fb8	0.29699492
215	0x3d94bc14	0.072624356
216	0x3d830880	0.063981056
217	0x3d9e8a5b	0.07741233
218	0x3e8d2327	0.27565882
219	0xbcfafa67	-0.03063698
220	0x3e3a97c4	0.18221956
221	0x3e09f30d	0.13471623
222	0x3e13b30f	0.14423774
223	0x3e23e733	0.16006164
224	0xbd819224	-0.06326702
225	0x3d856069	0.065125294
226	0x3c824a2e	0.015904512
227	0x3ddcb371	0.10776413
228	0x3e0fb182	0.14032558
229	0x3e5e3a19	0.2170185
230	0xbe2d0b37	-0.1689881
231	0x3e1d8f82	0.15386775
232	0xbdba801b	-0.091064654
233	0x3e069806	0.1314393
234	0x3e5b239d	0.21400304
235	0x3e507e84	0.20360762
236	0x3d869a43	0.06572392
237	0xbc8dc853	-0.017307436
238	0xbdd044f3	-0.10169401
239	0x3dbe346b	0.09287342
240	0x3e373ce8	0.17894328
241	0xbe24f0a8	-0.16107428
242	0xbd388e53	-0.045057606
243	0xbd6809f8	-0.056650132
244	0xbcdca7f5	-0.026935557
245	0x3e18fc57	0.1494001
246	0x3e577136	0.2103928
247	0xbe391e24	-0.18077904
248	0xbe18bb52	-0.14915207
249	0xbd864146	-0.06555419
250	0xbdfa5d77	-0.12224858
251	0x3b853357	0.004064958
252	0xbe003c65	-0.12523039
253	0x3d945b4c	0.07243976
254	0xbde47d1e	-0.11156677
255	0xbe47b1ce	-0.19501421

conv1.bias f4 [100]
0	0xbbeac4ab	-0.007164558
1	0xbd235a1d	-0.03988086
2	0xbcdc1fc1	-0.02687061
3	0xbd6ccd83	-0.05781318
4	0xbd468d24	-0.048474446
5	0x3ca2da8d	0.019879604
6	0x3d33f433	0.04393406
7	0xbba1731e	-0.004927053
8	0xbaf6ae42	-0.0018820243
9	0xbda1d347	-0.07901626
10	0x3d62c0ad	0.05535953
11	0x3d19fdc5	0.03759553
12	0x3d7c64e5	0.061619658
13	0x3d57c83b	0.05268119
14	0xbc5bed7d	-0.013423321
15	0xbd97df66	-0.07415657
16	0x3c88468a	0.016635198
17	0x3d9bbfba	0.07604928
18	0xbde72cdc	-0.11287853
19	0xbd432649	-0.047643933
20	0xbbcc5919	-0.006236207
21	0x3ca46d15	0.020071546
22	0x3bebf1a9	0.007200439
23	0x3c99db85	0.018781433
24	0xbcf65d38	-0.030073747
25	0xbdb73505	-0.089456595
26	0xbd1f8438	-0.038944453
27	0x3c9aa493	0.018877303
28	0xbd22863b	-0.039678793
29	0xbd6d69ff	-0.057962414
30	0xbb90951e	-0.0044123074
31	0x3cc20085	0.023681888
32	0x3ccce7c0	0.02501285
33	0xbc932897	-0.01796369
34	0xbced61a5	-0.028977225
35	0xb6020d00	-1.9379077e-06
36	0xbc06739e	-0.008206276
37	0xbdcd6044	-0.10028127
38	0x3d6a8c94	0.057262972
39	0x3d868ddf	0.065700285
40	0x3c8bec41	0.017080428
41	0xbdb2f96d	-0.087389804
42	0xbc70ba80	-0.014692903
43	0x3cbdc69f	0.023165999
44	0x3b4ef951	0.003158171
45	0x3d4aae86	0.049482845
46	0xbc8af883	-0.016964203
47	0x3d6fd647	0.05855396
48	0x3b62218d	0.003450486
49	0x3d521abd	0.05129503
50	0x3cce5f80	0.025192022
51	0x3ccc656f	0.024950711
52	0x3d2ad395	0.041705687
53	0x3cd54b6a	0.026036937
54	0x3cde9817	0.027172131
55	0xbd69398a	-0.05693964
56	0x3c1b6c42	0.00948626
57	0x3d038acf	0.0321148
58	0x3cef4f08	0.02921249
59	0x3ce5ea76	0.028065901
60	0x3cdfd997	0.027325435
61	0xb7abdb46	-2.0486896e-05
62	0xbd63b6c7	-0.055594232
63	0xbdcde5f5	-0.100536264
64	0xbce77972	-0.028256152
65	0xbb886f39	-0.0041636494
66	0xbda89a2a	-0.082325295
67	0x3cb31bfc	0.02186393
68	0xbd02ca8c	-0.031931445
69	0xbca36c65	-0.019949147
70	0xbd172d41	-0.036908392
71	0x3d4d1b26	0.05007472
72	0xbc1dc79d	-0.009630111
73	0x3d9ed79e	0.077559695
74	0xbe152476	-0.1456469
75	0xbd110576	-0.0354056
76	0xbdcd5ff7	-0.100280695
77	0xbbde8142	-0.006790311
78	0xbc5a5f87	-0.01332844
79	0xbd46c4e6	-0.04852762
80	0xbd214c4f	-0.039379414
81	0xbd383c44	-0.04497935
82	0xbcc8f660	-0.024531543
83	0x3cbf1a53	0.023327982
84	0x3d5cd0da	0.053910114
85	0xbb4e4e17	-0.003147965
86	0xbda378fd	-0.07982061
87	0xbd688f62	-0.056777366
88	0xbd8109e5	-0.06300715
89	0xbdac3d3e	-0.084101185
90	0x3d7f6fe2	0.06236256
91	0x3d1572b4	0.036486343
92	0xbcf361f9	-0.029709803
93	0x3da87120	0.08224702
94	0xbc811eeb	-0.015761813
95	0xbe04a068	-0.12951815
96	0xbcc80efa	-0.024421204
97	0xbdb56de2	-0.08858849
98	0xbdaa948b	-0.083291136
99	0xbcaeca13	-0.02133659

conv2.weight f4 [100, 100, 3]
0	0x3ca4ccb1	0.020117136
1	0x3ce91b73	0.028455472
2	0x3d9feb26	0.07808523
3	0xbc382ae1	-0.011240692
4	0x3e231c9b	0.15928881
5	0xbcbb2c13	-0.022848165
6	0xbd9b79fc	-0.07591626
7	0x3ddcbca2	0.10778166
8	0x3c75d472	0.015004264
9	0x3d09b808	0.03362277
10	0x3b106aec	0.0022036387
11	0x3d8967b8	0.06709236
12	0xbca987bb	-0.020694604
13	0x3ca0bcab	0.019621214
14	0x3df24487	0.11829477
15	0xbd4934f7	-0.049122777
16	0x3d538662	0.05164183
17	0x3deb1fad	0.11480651
18	0x3d1f60c5	0.038910646
19	0xbc3fb5ed	-0.011701089
20	0x3d94843b	0.072517835
21	0xbd711c1f	-0.05886471
22	0x3c994f97	0.01871471
23	0x3db958c7	0.09050136
24	0xbca27af8	-0.019834027
25	0x3d9c21c9	0.076236315
26	0xbd87d8da	-0.06633158
27	0x3d97e672	0.07417001
28	0x3d26391d	0.04058181
29	0x3d7ab73f	0.061209913
30	0xbc8c999b	-0.017163089
31	0xbdaae7bb	-0.0834498
32	0xbc505114	-0.012714643
33	0xbde41e71	-0.11138619
34	0xbc01c439	-0.007920318
35	0xbd417358	-0.04722914
36	0xbc4fc823	-0.012681994
37	0x3c18230a	0.009285698
38	0x3d3b904a	0.0457919
39	0xbd0afbe0	-0.033931613
40	0x3c19ee03	0.009395125
41	0xbd00bc3a	-0.031429507
42	0x3d007657	0.031362858
43	0x3cf6683f	0.030079005
44	0xbd831b6d	-0.064017154
45	0xbb3988ef	-0.0028310379
46	0x3d218a4a	0.039438523
47	0xbd8ad6c5	-0.06779245
48	0x3d914626	0.07093458
49	0xbc72a276	-0.0148092415
50	0x3a00aa5c	0.0004908198
51	0xbd7af024	-0.061264172
52	0xbd06544b	-0.03279523
53	0x3c202f60	0.00977692
54	0xbd2e8dec	-0.042615816
55	0xbccdaadc	-0.025105886
56	0x3dac3e5a	0.0841033
57	0xbc8ff52e	-0.017572965
58	0xbc8e356e	-0.017359462
59	0x3cdfbb43	0.027310973
60	0x3c5ca19b	0.013466264
61	0x3e128d2a	0.14311662
62	0x3d9c4753	0.076307915
63	0x3d635ab7	0.055506434
64	0x3dcf5efd	0.101255395
65	0x3cce3aca	0.025174517
66	0x3d934f3e	0.071928486
67	0x3d6deabe	0.058085196
68	0xbdb032c4	-0.08603433
69	0xbd4341cb	-0.047670167
70	0xbd982f35	-0.07430879
71	0xbcbfb1b5	-0.023400167
72	0x3d9f7468	0.077858746
73	0x3e03079e	0.12795874
74	0xbb8fb7b4	-0.004385913
75	0xbd81cd31	-0.06337965
76	0x3cc7a7d5	0.02437202
77	0xbcc0f73a	-0.023555387
78	0x3d26f099	0.040756796
79	0xbdc819eb	-0.097705685
80	0x3afcfb1d	0.0019300912
81	0xbd64f596	-0.05589827
82	0xbce9507e	-0.028480764
83	0xbda5dda1	-0.08098913
84	0x3df06ea3	0.11739852
85	0x3d65c3bb	0.056094866
86	0xbcfac12a	-0.030609686
87	0x3dbd27bb	0.092360936
88	0x3d5b5617	0.0535489
89	0x3d1614c7	0.03664091
90	0xbc501bb1	-0.012701915
91	0x3ce540b1	0.027984949
92	0x3e240f64	0.16021496
93	0xbba7e665	-0.0051239007
94	0xbc92cdbf	-0.017920373
95	0x3db2a461	0.08722759
96	0xbdd31285	-0.10306267
97	0x3d1a412b	0.037659805
98	0x3dad5be9	0.08464796
99	0xbd91e10f	-0.07123005
100	0x3ca79e07	0.020461095
101	0x3e1667b4	0.14687997
102	0x3ceb1aec	0.02869936
103	0xb90bd350	-0.00013334793
104	0xbd826e10	-0.06368649
105	0xbc3bbd78	-0.011458747
106	0x3d53bf01	0.051695827
107	0x3c8fe2e7	0.01756425
108	0xbde0392f	-0.10948407
109	0x3cbb9b72	0.02290127
110	0x3cd52f47	0.02602352
111	0xbc689e79	-0.014197939
112	0xbcfb7cea	-0.030699212
113	0x3dca6ca4	0.09884003
114	0xbd6face1	-0.05851448
115	0x3d5a6749	0.053321157
116	0x3d805dd9	0.062679
117	0xbd1c2dbd	-0.038129557
118	0xbc6968b5	-0.0142461555
119	0x3d58f61d	0.052969087
120	0x3c005fe5	0.007835363
121	0x3d2f531e	0.042803876
122	0xbb92bba8	-0.004477937
123	0x3ca2049d	0.01977759
124	0xbc2baf3b	-0.01047879
125	0x3c0e24e7	0.00867579
126	0x3cdc307e	0.026878592
127	0x3d43ea21	0.047830705
128	0x3c8fe225	0.017563889
129	0xbdc1b0a2	-0.09457518
130	0x3db81eae	0.08990227
131	0x3d810e01	0.06301499
132	0x3d303912	0.043023176
133	0xbd115565	-0.03548183
134	0x3dcc7847	0.099838786
135	0x3d5960cf	0.05307084
136	0xbd18f4d1	-0.03734285
137	0xbc54b7c8	-0.01298327
138	0xbcc7c97d	-0.02438807
139	0xbd937c9f	-0.07201504
140	0xbd8dbeb2	-0.06921138
141	0xbd2391eb	-0.03993408
142	0x3d8c1e1b	0.0684168
143	0xbd8fe64a	-0.07026346
144	0x3dae8894	0.08522144
145	0xbe1a7883	-0.15085034
146	0x3cc1909b	0.023628524
147	0x3d83044b	0.06397303
148	0xbd7b3ed2	-0.061339207
149	0x3d9d098c	0.076678365
150	0xbcdf900f	-0.027290372
151	0x3cfac3e2	0.030610982
152	0xbd1e9526	-0.038716458
153	0xbc91e85b	-0.017810991
154	0x3df4ba92	0.11949648
155	0xbd700420	-0.058597684
156	0xbcc63f49	-0.024200099
157	0x3cfe5d00	0.031050205
158	0x3c2a9a7d	0.010412809
159	0x3e19ea12	0.15030697
160	0x3aff0800	0.001945734
161	0xbd5aa29c	-0.053377733
162	0xbde6b15f	-0.112642996
163	0xbd82eef0	-0.0639323
164	0xbcb97bcb	-0.022642037
165	0xbdc7baf7	-0.097524576
166	0x3d976d29	0.073938675
167	0x3d27c6c0	0.040961027
168	0x3d556d95	0.05210646
169	0x3d9a552b	0.07535776
170	0xbd814cd2	-0.063134804
171	0xbbe0281e	-0.00684072
172	0x3c40aab9	0.011759453
173	0x3c9549a0	0.018223584
174	0xbdc692cc	-0.09695968
175	0x3dc65ce9	0.0968569
176	0xbd0a0119	-0.033692453
177	0x3c97d65a	0.018534828
178	0xbc5321a1	-0.012886436
179	0xbcfc1b6f	-0.0307748
180	0xbad67848	-0.0016362751
181	0x3be2e567	0.0069243195
182	0x3c98f391	0.018670829
183	0x3ce8dca8	0.02842553
184	0xbd00efe9	-0.031478796
185	0xbdac702e	-0.08419834
186	0xbd46c7dc	-0.048530445
187	0xbd05c3fe	-0.032657616
188	0xbd874938	-0.06605762
189	0xbce61cc4	-0.028089888
190	0x3d805610	0.06266415
191	0x3d9d59eb	0.07683166
192	0x3cff2513	0.031145608
193	0xbdbf01d3	-0.0932652
194	0xbcb23ca5	-0.021757433
195	0x3d5f90cf	0.05458146
196	0x3c7ecdfe	0.015552042
197	0x3b8ba14c	0.0042611714
198	0xbd4fcc9e	-0.050732248
199	0xbcaa30c2	-0.020775203
200	0xbda1cfab	-0.07900938
201	0xbcbecff0	-0.023292512
202	0xbd0c6642	-0.03427721
203	0xbd4c1fad	-0.049834896
204	0x3bb9e0e6	0.005672562
205	0x3c9f9a5e	0.019482788
206	0x3c7a4b01	0.015276671
207	0x3d95656e	0.07294737
208	0x3d6ff738	0.058585376
209	0x3b2258bc	0.0024772128
210	0x3daffabc	0.08592746
211	0xbc8f7d8d	-0.017515922
212	0x3d1cc0bb	0.03826974
213	0xbcca22f7	-0.024674876
214	0x3c02be33	0.007979917
215	0xbda6ba8a	-0.08141048
216	0xbcf25c43	-0.02958501
217	0xbcdcba3e	-0.026944276
218	0x3ce9b09c	0.028526597
219	0x3d973dde	0.07384847
220	0x3cdc73c1	0.026910665
221	0x3d1f103b	0.038833838
222	0xbd8dda94	-0.06926456
223	0xbd87aa76	-0.0662431
224	0xbc86edc8	-0.016470805
225	0x3cdb1eb7	0.026748044
226	0xbd3ed390	-0.04658848
227	0xbd9a0139	-0.075197645
228	0xbd4a6d93	-0.049420904
229	0xbd9e1a1c	-0.07719824
230	0xbcbcf7ca	-0.023067374
231	0x3d212782	0.03934432
232	0xbd994eba	-0.07485719
233	0x3dc437fc	0.09580991
234	0x3d67da07	0.05660441
235	0x3d341827	0.043968346
236	0xbd27b9a3	-0.04094852
237	0x3d3849e4	0.044992343
238	0xbcbda49e	-0.023149785
239	0x3dd3c740	0.10340738
240	0xbcf75059	-0.03018968
241	0x3c4c80d1	0.012481884
242	0x3cd10fab	0.025520166
243	0xbd6f07b7	-0.058356967
244	0xbc975bbb	-0.018476358
245	0x3dd6cca1	0.104882486
246	0xbbf3575b	-0.007426185
247	0xbdaaf3e9	-0.083473034
248	0xbdc9ba2a	-0.09849961
249	0xbc97f4a2	-0.018549267
250	0xbd8a579d	-0.06754992
251	0xbd52bd60	-0.051450133
252	0x3ca12ecc	0.019675635
253	0x3d4c3452	0.049854584
254	0xbda0ef9b	-0.07858201
255	0x3db84776	0.08998005

conv2.bias f4 [100]
0	0x3ba37cba	0.004989234
1	0xbc927d8d	-0.017882133
2	0xbcd599d9	-0.026074337
3	0xbbe1ba7d	-0.006888686
4	0x3cea601a	0.028610278
5	0x3ca27e18	0.019835517
6	0x3b96dffd	0.004604338
7	0x3bfdd10c	0.0077458676
8	0xbcf31f44	-0.029677995
9	0xbb135f59	-0.0022487252
10	0xba8a04ac	-0.0010529957
11	0x3ce50475	0.027956227
12	0x3aa2c706	0.0012418933
13	0xbd227c6b	-0.039669435
14	0xbd2b873a	-0.04187701
15	0xbd0c4287	-0.034243133
16	0xbae4b110	-0.0017447788
17	0x3c0060fa	0.007835621
18	0xbbfc4135	-0.007698203
19	0xbcb6235a	-0.022233654
20	0xbbae0955	-0.005311171
21	0x3cf0e246	0.02940477
22	0xbd027fa4	-0.03186001
23	0xbc60f95f	-0.01373133
24	0xbca2e33f	-0.01988375
25	0x3c95bb3b	0.018277755
26	0x3acd91d7	0.0015683722
27	0x3cf6617e	0.030075785
28	0xbb2be3ed	-0.0026228384
29	0x3aba3772	0.0014207198
30	0xbc671c84	-0.01410592
31	0xbd12d409	-0.035846744
32	0xbc31542f	-0.010823294
33	0xbd04c5c2	-0.03241516
34	0xbc3f51ec	-0.011677247
35	0xbad81c4c	-0.0016487925
36	0xbca38d34	-0.019964792
37	0xbd7b42b3	-0.061342906
38	0xbd5193ad	-0.051166225
39	0xbd3742c6	-0.044741414
40	0x3b5af7b3	0.00334118
41	0xbc5ca970	-0.013468131
42	0x3c148bf2	0.009066569
43	0xbcedc4a5	-0.029024431
44	0xbc9a5552	-0.018839512
45	0x3cc4ef89	0.02404
46	0xbd837453	-0.064186715
47	0x3d5d7f47	0.05407646
48	0xbcb8aa6a	-0.022542197
49	0xbcaad677	-0.020854218
50	0xba7de173	-0.00096847786
51	0xbd8a1fb2	-0.06744327
52	0xbc14aaed	-0.009073955
53	0xbc0c04e5	-0.008546089
54	0x3cc6ace4	0.024252363
55	0x3b3ca489	0.0028784594
56	0xbcd06e8b	-0.025443336
57	0x3bd17d7b	0.0063931323
58	0x3d5025a2	0.05081714
59	0x3b903f4b	0.0044020764
60	0x3d91ad30	0.07113111
61	0x3c355397	0.011067293
62	0x3cb1e0f4	0.021713711
63	0xbbd3a6c7	-0.0064590904
64	0x3b975e97	0.0046194303
65	0xbc90de38	-0.017684087
66	0xbd24ddd4	-0.040250614
67	0xbc0205bc	-0.0079359375
68	0x3bf80ff2	0.00757026
69	0xbc6b21df	-0.014351337
70	0x3cf20e9a	0.029547978
71	0x3d57c9ae	0.05268257
72	0x3c2b769d	0.010465291
73	0x3c0b5e8b	0.0085064275
74	0xbcb4feb8	-0.022094116
75	0xbd358d8e	-0.04432445
76	0xbd120a60	-0.035654426
77	0xbac547c1	-0.0015051292
78	0xbc56bb6c	-0.013106208
79	0x3ba57202	0.005048991
80	0xbc8ee407	-0.017442716
81	0xbc4131df	-0.011791675
82	0xbd086755	-0.03330167
83	0xbd9c392c	-0.07628092
84	0x3a0eb44a	0.0005443735
85	0xbd13e2fb	-0.036105137
86	0xbd97e51f	-0.07416748
87	0x3c8f2566	0.017473888
88	0xbc9fd004	-0.01950837
89	0xbd627186	-0.055284046
90	0xbd402699	-0.04691181
91	0xbc5a945f	-0.0133410385
92	0xbd95f68c	-0.07322416
93	0x3c207c71	0.009795294
94	0xbc807a8d	-0.015683437
95	0xbb3a65d3	-0.002844204
96	0xbcab8b51	-0.020940455
97	0xbcfb0448	-0.03064169
98	0xbce81f60	-0.028335273
99	0xbcaf3602	-0.021388058

rnn1.weight_ih_l0 f4 [104, 100]
0	0xbb7361f0	-0.0037137233
1	0xbcd18f5c	-0.025581054
2	0xbd5db2b6	-0.05412551
3	0xbc09ca8d	-0.008410108
4	0x3db42899	0.08796806
5	0x3da7408c	0.08166608
6	0xbba5f3dd	-0.005064471
7	0x3cb952ff	0.022622583
8	0xbc4ea38b	-0.012612234
9	0x3ca59180	0.020210981
10	0x3befc425	0.0073170834
11	0x3d775725	0.060385842
12	0xbd42c364	-0.04754962
13	0x3c54eb7e	0.012995599
14	0x3d0cc08f	0.034363326
15	0xbc8b10bd	-0.016975755
16	0xbd37b498	-0.044849962
17	0xbd50e5b3	-0.05100031
18	0xbbd74a1e	-0.0065701148
19	0xbd7fa0ee	-0.062409334
20	0x3d7d4c0e	0.06184011
21	0x3ce066e2	0.027392808
22	0x3b1a971b	0.00235886
23	0xbb304a7d	-0.0026899867
24	0x3d685bb7	0.05672809
25	0xbd857716	-0.065168545
26	0xbbccaa9f	-0.0062459256
27	0xbdaaac3c	-0.08333632
28	0xbd932fb2	-0.071868315
29	0x3cc6f094	0.024284638
30	0xbd1210e0	-0.035660625
31	0xbca08fbd	-0.01959979
32	0x3d02fc3b	0.031978827
33	0xbc8aef2e	-0.016959753
34	0x3d8cd3d2	0.06876339
35	0x3c165b0c	0.009176981
36	0xbbcd89d4	-0.006272534
37	0x3d288a33	0.041147422
38	0x3cc65236	0.024209123
39	0x3d06eb92	0.0329395
40	0x3d66f98f	0.05639034
41	0x3cf918ba	0.030407298
42	0x3d97b90e	0.07408343
43	0x3c37b170	0.011211738
44	0xbd55e793	-0.0522228
45	0x3ce0b5a8	0.02743037
46	0x3d021396	0.03175696
47	0xba66cab9	-0.0008804012
48	0x3d281709	0.041037593
49	0x3d427093	0.04747064
50	0xbdaaaba7	-0.08333521
51	0x3ceb979a	0.028758813
52	0x3d34ac3f	0.04410958
53	0x3d422d6a	0.04740659
54	0x3d1c24bf	0.03812098
55	0x3d476f63	0.04869021
56	0xbd19560c	-0.037435576
57	0x3d93fe1c	0.07226202
58	0xbc88f792	-0.016719613
59	0x3d55351d	0.052052606
60	0x3b8359ce	0.0040085083
61	0xbd6eb70a	-0.05828003
62	0x3d8bac0b	0.06819924
63	0xbd957df7	-0.072994165
64	0x3dbd9cd9	0.09258432
65	0xbdafe7e1	-0.08589149
66	0x3b1bf966	0.0023799776
67	0x3cc6c53d	0.024263972
68	0xbd16fbbb	-0.036861163
69	0x3c4ae33e	0.01238328
70	0xbcc812ed	-0.024423087
71	0xbc7c8a1a	-0.015413785
72	0x3d8b7b1e	0.06810592
73	0xbaaefb29	-0.0013349998
74	0x3d2dd1d5	0.04243644
75	0x3c72cada	0.014818871
76	0x3b7f7fbb	0.0038986045
77	0xbda67aea	-0.08128913
78	0x3b7087e1	0.0036702084
79	0xbdd12666	-0.10212402
80	0x3c0f6554	0.008752186
81	0x3d3f8c9d	0.04676496
82	0xbd3f78bc	-0.046746
83	0x3d67435a	0.056460716
84	0xbd9c5482	-0.07633306
85	0x3befbf3d	0.0073164986
86	0xbc8afd93	-0.016966617
87	0x3d31d208	0.043413192
88	0x3d975997	0.07390135
89	0x3cedae7f	0.02901387
90	0x3a99681b	0.0011704
91	0xbc8691e3	-0.016426986
92	0x3dbd8369	0.0925358
93	0x3d9d6c14	0.0768663
94	0x3d6a9fc1	0.05728126
95	0x3dae09c6	0.08497958
96	0xbd7f414f	-0.062318143
97	0xbc938e12	-0.01801208
98	0x3d8077e2	0.06272866
99	0x3b28a3bc	0.002573236
100	0x3d0571a4	0.03257908
101	0xbd401972	-0.046899267
102	0xbcc7030e	-0.024293449
103	0x3ceac046	0.028656136
104	0x3d38c43f	0.04510903
105	0xbd4c2ea9	-0.049849186
106	0xbd10ef37	-0.035384383
107	0xbca21594	-0.01978568
108	0x3c12efd9	0.008968317
109	0xbce8c1f9	-0.028412806
110	0x3d5cf14b	0.053941052
111	0xbb039d00	-0.0020082593
112	0x3cf659f0	0.030072182
113	0xbde115a4	-0.10990456
114	0x3d1b1bc4	0.037868276
115	0x3d58a048	0.05288723
116	0x3d69a353	0.057040524
117	0xbc8ce558	-0.017199203
118	0xbdab32ed	-0.08359323
119	0xbd82679b	-0.063674174
120	0xbdb1199a	-0.08647461
121	0xbb9e878d	-0.0048379363
122	0xbca6412a	-0.020294745
123	0x3d4aaab6	0.04947921
124	0xbd438ab5	-0.047739703
125	0xbd4d6685	-0.0501466
126	0xbcd2e4c6	-0.025743853
127	0xbd2c5ff3	-0.04208369
128	0xbd9dcd03	-0.077051185
129	0xbd8294bf	-0.06376027
130	0x3da17f37	0.078855924
131	0xbcce65f7	-0.025195105
132	0xbd282433	-0.041050147
133	0x3ce3c762	0.027805034
134	0x3bd2b2c9	0.0064300043
135	0xbcc3498e	-0.023838785
136	0x3ccb50ea	0.024818856
137	0xbe23ae24	-0.15984398
138	0x3dfe33da	0.12412234
139	0x3c5a5717	0.013326428
140	0xbcca1c54	-0.024671711
141	0x3dab1311	0.08353246
142	0x3d82c7ac	0.06385741
143	0xbe16e16f	-0.14734434
144	0xbd557472	-0.052113004
145	0xbd103148	-0.03520325
146	0x3c955982	0.018231157
147	0xbdb4d1be	-0.08829068
148	0xbd535dd1	-0.051603142
149	0xbcc63711	-0.02419618
150	0x3c85d50d	0.016336942
151	0x3c40215a	0.011726702
152	0x3d8e6f6e	0.06954847
153	0xbda3225b	-0.07965537
154	0x3ce21ce1	0.027601661
155	0xbd22ad5e	-0.039716117
156	0x3de75079	0.11294646
157	0x3d8e8972	0.06959809
158	0x3ca24e3c	0.019812696
159	0x3c113544	0.008862797
160	0xbd701e63	-0.05862273
161	0xbda3ff28	-0.080076516
162	0x3d85e053	0.06536927
163	0xbd859ed0	-0.06524432
164	0xbc8f471d	-0.017489964
165	0x3d8ed9c6	0.06975131
166	0x3cb5e11c	0.022202067
167	0xbddc3ca8	-0.10753757
168	0xbdf81219	-0.12112827
169	0xbd4804f6	-0.048832856
170	0xbcec77a6	-0.028865647
171	0xbd5d6af3	-0.054057073
172	0x3d91d47d	0.07120607
173	0x3cc9acf6	0.024618607
174	0xbcb0592b	-0.021526894
175	0xbc2bf0e4	-0.0104944445
176	0xbcf24b0f	-0.029576806
177	0xbdaabb12	-0.08336462
178	0xbcd695f5	-0.026194552
179	0x3c92c269	0.017914968
180	0x3da38dc0	0.07986021
181	0xbd146297	-0.036226835
182	0x3dec89eb	0.11549743
183	0xbd76cf57	-0.06025633
184	0xbd48663d	-0.048925627
185	0x3cdc2162	0.026871387
186	0x3d27c15e	0.040955894
187	0xbde51fe8	-0.11187726
188	0x3d3679ac	0.04454963
189	0x3d09b2c0	0.033617735
190	0xbc3ad0f1	-0.011402355
191	0x3d037f5d	0.032103885
192	0x3bfec6e4	0.0077751745
193	0x3d5dc20e	0.054140143
194	0xbd882931	-0.06648482
195	0xbcc02f60	-0.02346009
196	0x3d305890	0.04305321
197	0xbcf38231	-0.029725166
198	0xbcf3341d	-0.029687935
199	0x3d58d1ec	0.052934572
200	0xbd5d3340	-0.054003954
201	0xbda65806	-0.08122258
202	0x3d41d919	0.04732618
203	0x3d122659	0.035681102
204	0xbd7cb9c6	-0.061700605
205	0xbd860d39	-0.06545491
206	0xbd5c2282	-0.053743847
207	0xbd1cb5f0	-0.038259447
208	0x3d994bc4	0.07485154
209	0x3d0bebb1	0.03416032
210	0x3d17c335	0.0370514
211	0x3cda8261	0.026673498
212	0x3cccd86c	0.025005542
213	0xbcf7a6d1	-0.030230911
214	0x3c81f59c	0.015864186
215	0x3dc46494	0.09589496
216	0xbd150ffb	-0.036392193
217	0xbbbf9f58	-0.0058478527
218	0xbc907c7d	-0.017637486
219	0x3b72e31e	0.0037061642
220	0xbd37cd48	-0.044873506
221	0xbd01b91e	-0.031670682
222	0xbd7f9cfc	-0.06240557
223	0xbcb03ab5	-0.021512369
224	0x3c9395a4	0.01801569
225	0x3d177bfe	0.036983483
226	0xbb1777a8	-0.0023112092
227	0xbd395dcd	-0.04525547
228	0x3c81e71f	0.015857277
229	0xbab9273b	-0.0014126071
230	0xbd1b8b02	-0.037974365
231	0xbc781b6b	-0.015143256
232	0x3d8263ce	0.063666925
233	0x3be92b37	0.0071157473
234	0x3ca7b235	0.020470718
235	0x3c4d52df	0.012531965
236	0xbc1d996d	-0.009619099
237	0xbd05a685	-0.03262951
238	0xbc85f0f8	-0.016350254
239	0xbbb9b2b0	-0.005667053
240	0xba68ac92	-0.00088758126
241	0x3d7a269c	0.061071977
242	0xbd02805b	-0.03186069
243	0x3d0f45e8	0.034978777
244	0xbd1a8836	-0.037727557
245	0x3b808b9c	0.0039228927
246	0x3d84261a	0.0645258
247	0x3cc3bc62	0.023893539
248	0xbd060c0f	-0.032726344
249	0x3d5ce247	0.053926732
250	0x3d5bd517	0.053670015
251	0xbd0db1d9	-0.034593437
252	0xbcef481e	-0.029209193
253	0x3d61d9b2	0.05513925
254	0x3d567bd1	0.052364174
255	0x3c9d71e5	0.019219348

rnn1.weight_hh_l0 f4 [104, 26]
0	0x3b0c5524	0.0021413052
1	0x3c339caf	0.010962649
2	0x3b012f49	0.0019712022
3	0xbb1d93b2	-0.0024044332
4	0xbb308c87	-0.002693923
5	0x39ddd89b	0.00042313788
6	0x3bf8bbb2	0.0075907344
7	0x3c315766	0.01082406
8	0x3becdd4d	0.0072285295
9	0xbb9eba58	-0.0048439912
10	0x3bdf0f32	0.0068072313
11	0xbbdda6af	-0.006764255
12	0x3c128156	0.008941969
13	0xbb10011e	-0.0021973322
14	0xba3a1a4b	-0.0007099255
15	0x3a0fe776	0.00054895075
16	0x3b97799e	0.004622652
17	0x3bec05c9	0.007202838
18	0xba2db068	-0.0006625713
19	0xbba92fbe	-0.005163162
20	0xbc5ab51e	-0.013348846
21	0x3b038aaf	0.0020071676
22	0x3a75eedd	0.00093816017
23	0x3c413253	0.011791783
24	0xb996405a	-0.00028658175
25	0xbc850a3c	-0.016240232
26	0x3b8bf6e2	0.004271374
27	0x3c424c48	0.011859007
28	0x3c82fe92	0.01599053
29	0x3c40edc1	0.011775435
30	0xbc3e4533	-0.011613178
31	0x3c8c68d0	0.017139822
32	0x3b49bab5	0.0030781452
33	0xb9b5a8e1	-0.00034648835
34	0x3cb218a7	0.02174027
35	0xbca64f03	-0.020301348
36	0x3c07a2a4	0.008278523
37	0xbbd05dfe	-0.006358861
38	0x3c87f1ef	0.016594855
39	0xbb039bb4	-0.002008182
40	0xbb7700e6	-0.0037689744
41	0xbc28c292	-0.010300295
42	0xbb7ec358	-0.0038873758
43	0xbcc4b518	-0.024012133
44	0xbbed96d0	-0.0072506443
45	0xbb4e0406	-0.0031435504
46	0x3953f77b	0.00020214722
47	0x3c26b71b	0.010175492
48	0x3c3047e6	0.010759329
49	0xbbb00532	-0.005371713
50	0xbc365dbd	-0.011130747
51	0xbce53eff	-0.02798414
52	0x3baccd94	0.0052735303
53	0xba674a77	-0.0008823047
54	0x3ab9c0b3	0.0014171809
55	0xb95f1b17	-0.00021277029
56	0xbc436b9f	-0.011927514
57	0xbb56112d	-0.0032664046
58	0x3b9edde7	0.00484823
59	0x3b7c3e52	0.0038489294
60	0xba9d341f	-0.0011993683
61	0xbb54b330	-0.0032455437
62	0x3b8d36bc	0.0043095034
63	0x3bf924a9	0.007603247
64	0x3bea3679	0.007147607
65	0x3b8b4963	0.0042506917
66	0xbc2bb212	-0.010479467
67	0xbbe948ee	-0.0071192896
68	0x3bacb723	0.005270855
69	0x3c26f6bc	0.010190662
70	0x3afce1c7	0.0019293361
71	0xbbc1d17c	-0.005914865
72	0xbc1957a9	-0.009359279
73	0xbbe00cea	-0.006837477
74	0xbb2338db	-0.0024905715
75	0x3bf2a5d3	0.0074050217
76	0x3bc1df13	0.005916485
77	0xbbd8e9f4	-0.0066196863
78	0x3c06f974	0.008238185
79	0x3c320fa4	0.010867987
80	0x3c2b18c0	0.010442913
81	0x3be2f72f	0.0069264392
82	0xbc7b1d75	-0.015326847
83	0x3baceeb2	0.005277478
84	0x3b3547ad	0.002766113
85	0x3b2a8dbd	0.0026024424
86	0x3c32beb3	0.010909724
87	0xba8bf839	-0.0010678835
88	0xbc23a2d6	-0.009987554
89	0xbb0e7f26	-0.0021743267
90	0x3c0cd754	0.00859626
91	0xbbd2815b	-0.006424112
92	0xbbe46090	-0.006969519
93	0x3b4348ed	0.0029798106
94	0x3bbf7225	0.0058424645
95	0x3b8ed902	0.0043593654
96	0xbb80ac7d	-0.003926812
97	0xbb9d6c63	-0.0048041805
98	0xbc13a41e	-0.009011297
99	0xba2d5feb	-0.0006613719
100	0xbb76671f	-0.0037598086
101	0x3b37a2eb	0.002802069
102	0x3c09f44e	0.008420063
103	0xbc30e1a4	-0.010795984
104	0x3c395bd7	0.0113134
105	0x3cf02179	0.029312836
106	0x3bd96efd	0.0066355453
107	0x3c6289c6	0.013826793
108	0xbcd3c47f	-0.025850533
109	0x3c5d3c54	0.013503153
110	0x3c0f9d89	0.008765587
111	0x3c8093f5	0.015695551
112	0x3c648919	0.013948702
113	0xbb59bc71	-0.0033223892
114	0x3c35dde6	0.011100268
115	0xbc4da064	-0.012550447
116	0x3d5504d9	0.052006576
117	0xbc1a1334	-0.009403992
118	0x3bcbd33e	0.0062202504
119	0x3c8d2a00	0.017231941
120	0xbb484795	-0.0030560244
121	0xbc6c63a0	-0.014428049
122	0x3a3cf6e4	0.00072084204
123	0x3b5641cc	0.0032693027
124	0xbd42827c	-0.04748772
125	0xbc525f38	-0.012840085
126	0x3cbe7d1b	0.023253014
127	0x3bb4e41a	0.005520356
128	0x3d1940e7	0.03741541
129	0xbc9b75c6	-0.018977057
130	0x3c07a6ed	0.008279544
131	0x3c025741	0.007955373
132	0x3b86c5c0	0.004112929
133	0x3bd70e75	0.0065630027
134	0xbcc787d4	-0.02435676
135	0x3b107701	0.0022043588
136	0x3c468170	0.012115821
137	0x3b16210f	0.0022907888
138	0x3b86db92	0.0041155303
139	0xba417262	-0.000737941
140	0xbaab7451	-0.001308093
141	0xbb955523	-0.004557268
142	0x3c66a778	0.014078014
143	0xbba2bec4	-0.0049665887
144	0x3b856126	0.004070419
145	0xbb6cf5f7	-0.0036157349
146	0x3af64401	0.0018788577
147	0x3c2fcb9d	0.0107296975
148	0xbb87f93b	-0.0041495836
149	0xb9eee85b	-0.00045568016
150	0xbcb5dd09	-0.022200124
151	0xbc371f94	-0.011176962
152	0xbb4a0ef1	-0.003083166
153	0x3c174b86	0.009234315
154	0x3cc7729d	0.024346644
155	0xbc464e72	-0.012103664
156	0x3ad56590	0.0016280878
157	0xbb1aec6d	-0.0023639456
158	0xba83b848	-0.0010049427
159	0x3a604fc0	0.00085568056
160	0xbbac6b50	-0.005261816
161	0x3ac8129d	0.0015264336
162	0xbae8c3ea	-0.0017758582
163	0x3aba6fbc	0.0014223973
164	0xbb954307	-0.0045551094
165	0x3a267edc	0.0006351301
166	0x3b865b81	0.0041002636
167	0x3abec78b	0.0014555318
168	0x3b9ae7c2	0.0047273347
169	0xbbbfa03f	-0.0058479602
170	0x3a81cd41	0.0009903089
171	0x3aac5cea	0.0013150249
172	0x3a8868b6	0.0010407183
173	0x3812c164	3.498922e-05
174	0x3bd0a714	0.0063675735
175	0x3c113562	0.008862825
176	0x3a54c887	0.0008117039
177	0xbbc428b8	-0.0059862994
178	0xbb910cc9	-0.004426573
179	0x3bd82145	0.006595763
180	0x3bc6f4e0	0.006071672
181	0xbbfc671b	-0.007702721
182	0xbb81a21f	-0.003956094
183	0xbaa37cec	-0.0012473143
184	0xbbbbcccc	-0.005731201
185	0x3b3df663	0.002898597
186	0x3c9fbebb	0.019500127
187	0x390c8894	0.0001340232
188	0x3be184dc	0.006882293
189	0xbb4fa6b3	-0.0031685054
190	0xbb89d1a7	-0.0042059007
191	0x3b258625	0.0025256958
192	0x3b86033f	0.0040897424
193	0x3aa06767	0.0012237848
194	0xbc52fa47	-0.012877054
195	0x39dc446e	0.00042012654
196	0xbbea5d77	-0.007152255
197	0xb9b108ce	-0.0003376663
198	0xbbcc5f06	-0.0062369136
199	0xbc0fcc5f	-0.008776753
200	0x3c4ec947	0.01262123
201	0xbaf4afbf	-0.0018668099
202	0x3c0fc1ce	0.008774234
203	0x3c0f30bd	0.008739647
204	0x3ac9f2c0	0.0015407428
205	0xbb08c34e	-0.0020868364
206	0xbca455f9	-0.020060526
207	0xbb3a5e19	-0.0028437434
208	0xbb5c0040	-0.0033569485
209	0xba3fcb79	-0.00073163916
210	0xbb594b5f	-0.0033156497
211	0x3a8baca4	0.0010656309
212	0xb95904cc	-0.0002069652
213	0xba3f114d	-0.000728865
214	0xbbe403df	-0.0069584693
215	0x3b7dedb9	0.003874643
216	0xbc0fd8d6	-0.008779725
217	0x3a502921	0.0007940699
218	0x3c29727f	0.010342239
219	0xbbc0732d	-0.005873105
220	0xbbad104f	-0.005281485
221	0xbadfb454	-0.0017067292
222	0x3bb18436	0.005417372
223	0x3a01b54a	0.00049479736
224	0x3b33c8eb	0.002743299
225	0xbb8926f5	-0.0041855522
226	0xbaf5bd93	-0.0018748514
227	0xba3ddcd8	-0.0007242686
228	0x3ba7dad6	0.005122523
229	0x3c119a81	0.008886934
230	0xbad0c65f	-0.001592826
231	0xbb88ed17	-0.004178654
232	0xbb3223ab	-0.0027181904
233	0xbb76153f	-0.0037549285
234	0xbc787e21	-0.01516679
235	0x3b420c28	0.0029609296
236	0x3c3d0325	0.011536394
237	0xba4e3095	-0.00078655157
238	0x3bfe2902	0.0077563534
239	0xbb669996	-0.003518676
240	0xbc4a468a	-0.012345919
241	0x3b4f1b2b	0.0031601887
242	0x3acd6c85	0.00156726
243	0xbce5a9cb	-0.028035065
244	0x3ad9a608	0.0016605267
245	0x3c0abcb7	0.008467845
246	0x3a432966	0.00074448285
247	0x3c0f1ef2	0.008735405
248	0x3c3a53b5	0.011372496
249	0xbbab4b74	-0.0052275006
250	0x3b2614d0	0.0025341995
251	0xbc96ab12	-0.01839212
252	0x3bfc85ba	0.007706371
253	0xbc6651d4	-0.014057595
254	0xbb7e9ee3	-0.0038852028
255	0xbbde9ed1	-0.0067938347

rnn1.bias_ih_l0 f4 [104]
0	0xbca84a94	-0.020543374
1	0xbccec96e	-0.025242534
2	0xbcb5c0a4	-0.022186585
3	0x3d7f5e92	0.06234605
4	0x3d421695	0.047384817
5	0xbd08f348	-0.033435136
6	0x3d84a96e	0.06477629
7	0x3c349a23	0.011023077
8	0xbcafc872	-0.021457884
9	0x3d754524	0.05988039
10	0x3d90d4ff	0.07071876
11	0xbd42368f	-0.047415312
12	0xba1fc56b	-0.0006094786
13	0xbc62287f	-0.0138036
14	0x3c080d4f	0.008303954
15	0x3d29503e	0.04133629
16	0x3a29748e	0.00064642064
17	0xbc833229	-0.01601513
18	0x3caaa554	0.020830788
19	0x3d2175c1	0.03941894
20	0xbc589407	-0.013218886
21	0x3d2631ac	0.040574715
22	0x3d82a7b1	0.06379641
23	0x3cdc1536	0.026865583
24	0xbcb8ad57	-0.022543592
25	0xbce96783	-0.028491741
26	0xbc198126	-0.00936917
27	0x3d9a959f	0.07548069
28	0xbd00036c	-0.031253263
29	0x3d3752ee	0.044756822
30	0x3d8a1d86	0.067439124
31	0xbba08ce2	-0.004899607
32	0x3dedfc20	0.11620355
33	0xbd66596b	-0.05623762
34	0xbd102221	-0.035188798
35	0x3d333ffc	0.043762192
36	0x3d8dfad3	0.069326065
37	0xbc0a729c	-0.008450177
38	0x3d93bd4a	0.072138384
39	0x3cf2b88c	0.029629014
40	0xbbc8b845	-0.0061254823
41	0xbcb49718	-0.022044703
42	0xbc9e08b7	-0.019291265
43	0x3d4752e3	0.04866303
44	0xbccd860d	-0.025088334
45	0xbc20df76	-0.009818902
46	0x3dbac153	0.09118905
47	0x3e53739c	0.2064957
48	0x3c0168f6	0.00789856
49	0x3c83d0c1	0.016090753
50	0x3e227c4d	0.1586773
51	0x3d3a0c23	0.04542173
52	0xbe0d0b31	-0.137738
53	0xbd6f6421	-0.0584451
54	0xbc5f34c3	-0.013623419
55	0x3d986307	0.07440763
56	0xbe15ce5a	-0.14629498
57	0x3dbe5a34	0.09294549
58	0x3caa7ad3	0.02081052
59	0xbdd9d26a	-0.106358364
60	0x3e0f620a	0.14002243
61	0x3d5736b8	0.05254242
62	0xbd1d1856	-0.038353287
63	0x3bb10246	0.0054018823
64	0x3ca4ea64	0.020131297
65	0x3d266a17	0.04062852
66	0xbda36045	-0.07977346
67	0xbbd4eeb8	-0.006498184
68	0x3c63fbb9	0.013914996
69	0x3df00589	0.11719806
70	0x3d044201	0.03228951
71	0xbdecc67f	-0.115612976
72	0xbdfff02c	-0.12496981
73	0xbdb681b1	-0.089114554
74	0xbc94d8f4	-0.018169858
75	0x3d52d54f	0.05147296
76	0x3e59d156	0.21271262
77	0xbdee7309	-0.11643035
78	0xbc26e97f	-0.010187506
79	0x3cc5b0a8	0.024132088
80	0xbd1ff7e4	-0.039054766
81	0x3ce68bf8	0.028142914
82	0x3d6c4ee6	0.05769243
83	0x3cddcb07	0.02707435
84	0xbd017f7d	-0.031615723
85	0x3d4a4e2a	0.04939095
86	0x3c887ad7	0.016660137
87	0x3d81cdb8	0.06338066
88	0x3e0b893c	0.1362657
89	0xbd42ec50	-0.047588646
90	0xbd066852	-0.03281433
91	0x3d734794	0.059394434
92	0xbcce4749	-0.025180476
93	0xbce1744e	-0.027521279
94	0x3cfccbcf	0.030858902
95	0x3c44e9bb	0.012018616
96	0xbcea9fdf	-0.028640686
97	0x3d1fa496	0.03897532
98	0x3d497e98	0.049192995
99	0xbcc5b129	-0.024132328
100	0x3d832e57	0.06405323
101	0x3c2c871f	0.010530262
102	0x3e0bc29e	0.1364846
103	0x3ce136b0	0.027491897

rnn1.bias_hh_l0 f4 [104]
0	0x3b29aec8	0.0025891531
1	0x3d11ef2e	0.03562849
2	0xbd0bf8d4	-0.034172848
3	0x3b0fd96f	0.002194967
4	0x3d915053	0.07095399
5	0xbd0369e6	-0.032083414
6	0x3daa33a7	0.08310633
7	0x3c90488f	0.017612724
8	0x3ca12830	0.019672483
9	0x3d246bfb	0.04014204
10	0x3c56fbf4	0.013121594
11	0xbc979b0b	-0.018506547
12	0x3d8d3173	0.06894197
13	0xbd7263db	-0.05917726
14	0xbd1bdae1	-0.038050536
15	0xbc9a64bf	-0.018846868
16	0xbbc9a30f	-0.0061534713
17	0x3d56f266	0.052477263
18	0x3b9ea672	0.004841619
19	0x3bda5b42	0.006663711
20	0x3b918050	0.004440345
21	0xbd8ebf51	-0.069700845
22	0x3c38e090	0.011284009
23	0xbd172743	-0.036902677
24	0xbacef31d	-0.0015789006
25	0x3b27d772	0.0025610593
26	0x3cfa5a84	0.03056074
27	0x3da3d8b4	0.08000317
28	0xbc3369bf	-0.010950505
29	0x3d635518	0.055501074
30	0x3d903ad6	0.07042472
31	0xbcc5ccd0	-0.024145514
32	0x3baeb8c8	0.0053320862
33	0xbd985f89	-0.07440097
34	0xbcd484ce	-0.025942232
35	0x39fa7f6a	0.00047778647
36	0x3e4a640a	0.19764724
37	0xbd45e461	-0.048313502
38	0x3d128898	0.035774797
39	0x3cd3da82	0.025861029
40	0xbbba58af	-0.0056868414
41	0x3d05a201	0.032625202
42	0x3d11985e	0.0355457
43	0x3d8fad6d	0.070155
44	0xbcedb1e9	-0.029015498
45	0x3c85574f	0.016276984
46	0x3dc8cd58	0.09804791
47	0x3db037f3	0.086044215
48	0x3d703319	0.05864248
49	0x3d944d54	0.07241312
50	0x3dda20f6	0.10650818
51	0xbc14de3e	-0.00908619
52	0xbc6e83d1	-0.014557795
53	0x3c75ad81	0.01499498
54	0x3d450f54	0.04811032
55	0xbd58b1d6	-0.052903973
56	0x3d89e7ad	0.06733642
57	0x3d84def8	0.064878404
58	0x3dff9dc3	0.124812625
59	0xbd1634a7	-0.036671307
60	0x3d9082f4	0.07056227
61	0xbdce429e	-0.100713
62	0xbc6574dd	-0.014004913
63	0x3d851eda	0.06500025
64	0x3e3b1069	0.18267979
65	0xbcc1a8bf	-0.023640035
66	0x3dc48a3c	0.095966786
67	0xbdae0f51	-0.08499015
68	0xbc900b45	-0.017583499
69	0xbe0da285	-0.13831528
70	0x3cc6e8e5	0.024280975
71	0xbdb75354	-0.089514405
72	0xbd638860	-0.05554998
73	0xbd6007d1	-0.054694954
74	0xbc9c6610	-0.019091636
75	0xbd372d35	-0.044720847
76	0x3e15c4ba	0.14625826
77	0xbbd17dd0	-0.006393172
78	0x3d841ba5	0.06450585
79	0xbca8119d	-0.020516211
80	0xbbb09e9b	-0.005390001
81	0xbbcf364b	-0.006323611
82	0x3e3ca285	0.18421371
83	0x3d56c347	0.052432325
84	0x3d3d14d5	0.046162445
85	0x3d7d7e1b	0.06188784
86	0xbc93128c	-0.01795318
87	0xbd25e5c2	-0.040502317
88	0x3e275a39	0.16343011
89	0xbc9c6f57	-0.01909606
90	0x3df3ab96	0.11897962
91	0x3ca15528	0.019693926
92	0x3a6f3499	0.0009124964
93	0x3d0685a4	0.032842293
94	0xbdaef109	-0.085420676
95	0x3dc898e1	0.09794784
96	0x3c4526d3	0.012033182
97	0xbd269177	-0.04066607
98	0x3d3e4190	0.046449244
99	0x3dd84180	0.10559368
100	0xbd16e973	-0.03684373
101	0x3da477ed	0.080306865
102	0x3e1867b9	0.14883317
103	0x3bf4228d	0.007450408

rnn1.weight_ih_l0_reverse f4 [104, 100]
0	0xbb5df2f4	-0.0033866735
1	0x3d71687e	0.058937542
2	0xbcaf5938	-0.021404848
3	0xbd106aed	-0.035258222
4	0x3c0900b2	0.008361982
5	0x3b0a3035	0.0021085863
6	0xbd049ccb	-0.032376092
7	0xbd0974b6	-0.03355857
8	0xbd18d23e	-0.037309878
9	0x3d43ea0d	0.04783063
10	0xbb7bae42	-0.0038403426
11	0x3cd7ca34	0.026341535
12	0xbd1cc0bc	-0.038269743
13	0xbcef369f	-0.02920085
14	0x3bee3452	0.0072694207
15	0x3c009ef2	0.0078503955
16	0x3d33cb9f	0.04389536
17	0xbbef66e5	-0.007305967
18	0x3c553fc5	0.013015692
19	0xbd47baa5	-0.048761982
20	0x3cabfbfa	0.020994175
21	0xbacf35ce	-0.0015808882
22	0xbbee0b42	-0.0072645256
23	0xbc9a87d5	-0.018863598
24	0x3baf40a8	0.005348284
25	0xbd0afd8b	-0.033933204
26	0xbd6bf88b	-0.057610076
27	0x3c51d4cf	0.012807085
28	0xbd9d626f	-0.0768479
29	0xbd916fab	-0.07101377
30	0xbcd05ade	-0.025433954
31	0x3cd4318b	0.02590253
32	0x3ba1cdbf	0.004937857
33	0x3d18ef48	0.03733757
34	0x3d781ea5	0.0605761
35	0x3c1a7f7e	0.009429811
36	0xbd5bb889	-0.053642783
37	0xbce5e4fb	-0.028063288
38	0x3d729790	0.059226573
39	0x3d3ebbe6	0.046565913
40	0xbd7c4a44	-0.061594263
41	0xbb885856	-0.004160921
42	0xbd347cf0	-0.044064462
43	0xbd1b0183	-0.03784324
44	0xbd93b8ee	-0.07213007
45	0xbbb6f5a1	-0.0055834805
46	0x3c5257bb	0.012838299
47	0x3d8fc35e	0.07019685
48	0x3d866b23	0.065634035
49	0xbd016489	-0.03159002
50	0xbc9b2be1	-0.018941822
51	0xbac464f1	-0.0014983696
52	0x3cf16a0f	0.029469518
53	0xbd2d627d	-0.042330254
54	0xbca00a23	-0.019536084
55	0x3c4f3c0c	0.012648594
56	0x3d2a25a4	0.041539803
57	0x3c5b78bd	0.0133954855
58	0xbcb79390	-0.02240923
59	0xbbe7c765	-0.00707333
60	0x3cb636d7	0.022242947
61	0x3d2a051e	0.041508786
62	0x3c5779d4	0.013151605
63	0x3d474c0b	0.048656505
64	0xbd8e67b6	-0.06953375
65	0x3d50a890	0.050942004
66	0xbd09b456	-0.033619247
67	0xbce728cc	-0.028217696
68	0x3be72bab	0.007054766
69	0xbd299e41	-0.04141069
70	0x3a2c77e4	0.00065791444
71	0x3cf985e1	0.030459346
72	0x3d89d0e4	0.06729296
73	0x3c423cf8	0.011855356
74	0xbc983fe7	-0.018585159
75	0x3cbfe5b3	0.023424959
76	0x3d175c7d	0.036953438
77	0x3c85cbb4	0.016332485
78	0xbd23baff	-0.039973255
79	0xbae8bce1	-0.0017756486
80	0x3b29f5ff	0.0025933979
81	0xbc9782ad	-0.018494928
82	0xbd2cc0df	-0.042176124
83	0xbcf59c4c	-0.029981755
84	0x3d1277e5	0.03575887
85	0x3cff8c56	0.031194847
86	0x3dabff71	0.08398331
87	0xbce9987c	-0.028515093
88	0xbc626e04	-0.013820175
89	0x3d3acca0	0.0456053
90	0x3d6e1725	0.05812754
91	0x3d16326f	0.03666919
92	0x3c8ff7ba	0.01757418
93	0xbd04fa3e	-0.032465212
94	0x3d3142d7	0.043276634
95	0xbd1c0f66	-0.038100623
96	0x3bcc22ba	0.0062297257
97	0x3d30e97e	0.043191426
98	0x3cab1ade	0.020886835
99	0x3d572797	0.05252799
100	0x3d70a464	0.058750525
101	0xbcfe4b2d	-0.031041706
102	0x3d99da22	0.07512309
103	0x3d6873f9	0.056751225
104	0xbd8f7ea8	-0.0700658
105	0xbc86f0de	-0.016472276
106	0xb9c659ff	-0.00037832555
107	0x3c02e418	0.007988952
108	0x3d8536eb	0.065046154
109	0xbc417a9d	-0.011809018
110	0x3cfa9744	0.030589707
111	0xbc8314cf	-0.016001133
112	0xbd290542	-0.04126478
113	0x3b07baa1	0.0020710605
114	0x3d2de223	0.04245199
115	0x3d6d9071	0.05799908
116	0xbc9cd388	-0.019143835
117	0xbc87fa90	-0.01659897
118	0x3d34033c	0.043948397
119	0xbd19bab8	-0.037531585
120	0x3cd38055	0.02581803
121	0x3cc0f0df	0.023552356
122	0xbdb1a840	-0.08674669
123	0xbc9829fa	-0.018574703
124	0x3cd1b12f	0.025597183
125	0xbc24531c	-0.01002958
126	0x3d856168	0.065127194
127	0x3d008081	0.03137255
128	0xbcfb3a3c	-0.030667417
129	0x3d9262a7	0.07147723
130	0x3b76e64e	0.0037673893
131	0x3d3acd61	0.04560602
132	0xbc69cf31	-0.01427059
133	0xbd7ebc72	-0.062191434
134	0xbd41ce56	-0.047315918
135	0xbcf6e0cc	-0.030136488
136	0xbad6b652	-0.001638124
137	0x3b8feab9	0.004391995
138	0x3c5a36ce	0.0133187305
139	0x3cfa8f8a	0.030586023
140	0xbc1d6546	-0.009606665
141	0xbd0c54e9	-0.034260664
142	0x3d6af55c	0.0573629
143	0x3cfae5af	0.0306271
144	0xba4fd25d	-0.000792777
145	0x3c3ef619	0.011655354
146	0xbbd99962	-0.006640599
147	0xbd386453	-0.04501755
148	0x3cc5f6cd	0.024165535
149	0xbd9e1dfe	-0.07720564
150	0xbb50ae09	-0.0031842014
151	0xbc0078d7	-0.00784131
152	0xbd0e5f44	-0.03475882
153	0x3d42cac1	0.047556642
154	0xbd41a53f	-0.04727673
155	0x3c372d62	0.011180254
156	0x3d1cbead	0.03826778
157	0xbd87456e	-0.066050395
158	0x3d28e61e	0.04123508
159	0xbd29e68f	-0.041479643
160	0xbd739f7f	-0.05947828
161	0x3bccf49e	0.0062547466
162	0xbd6bf7cb	-0.05760936
163	0x3b28ccd4	0.0025756853
164	0xbd3af114	-0.045640066
165	0xbd20e373	-0.039279412
166	0xbccb43a8	-0.024812534
167	0xbd22cf21	-0.039748315
168	0xbd080728	-0.03320995
169	0x3cde8683	0.02716375
170	0xbcda5b0a	-0.026654739
171	0x3d8f0723	0.06983783
172	0xbd8081a2	-0.062747255
173	0x3d38c036	0.04510518
174	0x3d8080ca	0.062745646
175	0xbbad41f3	-0.005287403
176	0xbc33b81d	-0.010969189
177	0xbd763888	-0.060112506
178	0x3da6eea5	0.081509866
179	0x3cf20151	0.029541643
180	0xbccb07b4	-0.024783947
181	0x3b5150b9	0.0031938984
182	0xbdb3eefd	-0.08785818
183	0x3cb98672	0.022647116
184	0x3d266434	0.040622905
185	0xbc2ae81e	-0.010431318
186	0x3d6ab15b	0.057298046
187	0xbca6a0a6	-0.020340275
188	0xbd4cfb63	-0.05004443
189	0x3b2ecb50	0.0026671477
190	0x3cbf7ba6	0.02337439
191	0x3a52c211	0.00080397824
192	0x3c8e7aa8	0.017392471
193	0xbc1519d8	-0.0091004
194	0x3d92356c	0.07139096
195	0xbc24d4fe	-0.010060547
196	0x3d35a0cd	0.044342805
197	0x3d145bbc	0.036220297
198	0xbd82d56c	-0.06388363
199	0xbad1986e	-0.0015990862
200	0xbd16b6a6	-0.03679528
201	0xbcfa8785	-0.030582199
202	0xbd1dd5b7	-0.038533892
203	0x3d567781	0.05236006
204	0xbc07f7e7	-0.008298851
205	0x3cc7bac4	0.024381049
206	0x3d588f3a	0.052870966
207	0xbd65d68f	-0.056112822
208	0xbd296740	-0.041358232
209	0x3d1352f4	0.035967782
210	0x3d991e35	0.07476465
211	0xbd777795	-0.060416777
212	0x3d79c933	0.060982894
213	0x3d15693d	0.036477316
214	0x3c44a9cc	0.012003373
215	0xbdcac8e8	-0.09901601
216	0xbd3d4893	-0.04621179
217	0xbd630322	-0.05542291
218	0x3c9042d4	0.017609991
219	0x3dac839d	0.08423541
220	0x3c172da1	0.009227187
221	0xbd27fe22	-0.041013844
222	0x3cec0891	0.028812679
223	0xbd72b1eb	-0.059251707
224	0xbd97aa9e	-0.074055895
225	0xbc1f7a85	-0.009733801
226	0xbd60c68e	-0.054876857
227	0xbd20720c	-0.039171264
228	0x3bb46816	0.005505572
229	0x3d1ed355	0.03877576
230	0x3daecde0	0.08535361
231	0x3c8801b4	0.016602375
232	0x3d849dff	0.06475448
233	0xbc9d8a2e	-0.019230928
234	0xbc1228e0	-0.008920878
235	0xbc9f8d4a	-0.019476552
236	0x3d113046	0.035446428
237	0x3d05746c	0.03258173
238	0x3c9c2e3b	0.019065013
239	0xbd75da83	-0.060022842
240	0x3c220f8d	0.009891403
241	0x3c860f97	0.016364856
242	0x3d61e425	0.055149216
243	0xbbc51f63	-0.0060157045
244	0xbcf2f389	-0.029657142
245	0xbd101334	-0.035174564
246	0x3d359199	0.044328306
247	0xbbee406c	-0.0072708633
248	0x3bfa5df3	0.007640594
249	0x3d67251d	0.05643188
250	0xbcbf055f	-0.02331799
251	0xbd26c0eb	-0.040711325
252	0xbc8dc540	-0.01730597
253	0x3d917e43	0.07104161
254	0xbcb220ca	-0.02174415
255	0xbc1211fe	-0.0089154225
