scripts/early_stopping_state.pt (torch, 448203 bytes, 49 tensors)

conv1.weight f4 [100, 27, 3]
00000000: 8ea2 b33d 5fa9 953d c321 76bd e4f0 cfbb
00000010: a44a 3ebd 965a 203b 8996 7cbc 60f5 2d3d
00000020: 93c3 83bd ae15 e73c 5847 f53c ee52 81bd
00000030: af3f e9bd 936c 25bc 0d99 173e 89d5 0c3e
00000040: 749a 8abd 84c4 84bd f525 a8bc 16ec d8bc
00000050: 7abf 84bd 4960 233d 8902 d0bd 0b11 8bbc
00000060: f818 ecbc 49b8 7cbb 7e59 073c aec6 1abe
00000070: f57a 3d3c 48c6 c73c 1bd5 c8bc 14ca 623d
00000080: 2f3f cb3b a566 ef3d ba7e 053c b38c bfbc
00000090: 72f1 f0bd bd9f 8cbd 140b 46bd 7825 56bd
000000a0: f6cd 823d 49f5 8fbd aa53 e9bd 2473 b73d
000000b0: 1f60 703d e654 8bbd eecd 9bbd d85b 33bd
000000c0: 8659 c73d 1216 033d 3393 473d e91a a63b
000000d0: be57 783d dc0d 873d a1fd b93b b651 b03d
000000e0: 67c9 fa3d fe35 2fbd 07a8 9f3c 5408 6bbc
000000f0: 2b7a 203c feae 00bc de61 54bd 32fa f53c
00000100: a187 5a3d fbfc 81bd 9756 1bbc b7ed e3bd
00000110: eba7 abbc f277 97bc f21d 2dbe f783 a7bc
00000120: 2ad1 c5bc 9356 933d ab3c b9bc 7691 be3c
00000130: 205e d63c 72fd 92bd 4c11 2bbd 4758 e0bc
00000140: 759b 9bbd 2d93 273b b9b7 8239 3d18 acbd
00000150: aaa5 933d 4ca5 c7bb 148a a8bc ec25 d3bc
00000160: bc1a a8bd 9ba8 c63b 2acc a8bb df9a 08bd
00000170: 2529 bfb9 8958 353d a0f4 673c a6d2 86bd
00000180: e113 103d df4b 73bd 2f22 95b9 45d6 1a3e
00000190: 69e3 c33d ad0e 853c 9ec8 023e 5251 3b3d
000001a0: 2e30 a0bd a297 8abc ae46 a63d 0189 8cbd
000001b0: 44b3 183e e713 8e3d 4c9a 5d3d 2efd 81bd
000001c0: 7e3d 4dbd 4560 323b 6a04 be3c aa20 d83c
000001d0: aeb3 773d 85c7 8cbd 11ec cabc cb11 04bd
000001e0: 1b36 e8bb 6685 f2bc 5a1d 34bd 483e 13bd
000001f0: 3939 d13d b547 b93d a1da 5bbd b4be bf3d
00000200: 7163 983d 6bf3 11bd ac57 20bd 6ed5 20bb
00000210: c8f2 393c b3ed 9bbd 61f0 443e a83d 123d
00000220: 8fc3 06bd 0462 e73b 3c00 63bc 5905 503d
00000230: f8e6 a0bd c021 753b a05f 1d3c e76e fdbb
00000240: c591 753d e3da e63c 2341 81bd 9844 913b
00000250: 1774 0bbc 586f 853b 56e6 aebd 72e6 dc3c
00000260: 65de de3d 0f09 203d 465b 3dbd 1f03 7fbd
00000270: 331a 9e3d 715e 313e 3079 89bd 90ce d63d
00000280: 706e 04be e9f8 da3c 1df7 03bd 9cb5 b43d
00000290: daa0 003e 8ab3 d23c 0066 1abc 2c93 5f3d
000002a0: 1b70 52bc fba4 4cbd dadb 84bd 9d13 84bd
000002b0: 6f1d e13c 570a 0d3e 223a 2ebd 4a70 dbbb
000002c0: 0f73 84bd d8fa d7bd f633 8d3d deec d33d
000002d0: 55da 873c 8714 76bd b25f b63d 9093 613d
000002e0: 33e7 e43c a80d 5abc 81e0 763d 566a 643d
000002f0: 7642 8b3d 2767 a2bc 8efd 50bc 21ec a3bd
00000300: 99da e53d db36 f23c 372f 2a3d cc96 f23c
00000310: 852c 28bd f881 38bc ef41 ab3d a9c1 03be
00000320: 6777 0d3d 1857 db3d 900f 54bd bfd7 91bd
00000330: ccc3 c93d 1464 9bbb d2f7 aebd 6e7a c13d
00000340: 45f3 10be 0597 99bd 7c24 2c3d 5d7e 853d
00000350: c0d7 a63d 91a0 123e bbe2 a93d b241 e1bc
00000360: cf80 86bc 23bf 77bd ec2c 4ebd 505d e9bd
00000370: 12f2 6c3c 8d54 733d 9b66 433d 4049 973d
00000380: 53d8 db3d fb9f 9fbd dc2a 75bd 7154 eabc
00000390: d147 413d e335 3e3d bbb2 95bb 2c1b b1bb
000003a0: 717f 9c3d 3a50 b7bb ff51 51bd b61a 763d
000003b0: 0e94 3e3d 2ddf c23d 11f8 6cbd 40a0 60be
000003c0: 9f73 82bd 1b4f 7bbd 8a2e 1fbe 989b d33d
000003d0: cf12 233e 8d98 963d 1c00 ea3c 0fbe 5d3c
000003e0: 0d6e ed3c 72ae 253e 5fe8 6f3d 093a 883d
000003f0: 8897 5a3d 57c7 663d dfaf a93d 75b0 cdbd
0.08771239 0.073076956 -0.06009079 -0.006345855 -0.0464579 0.0024468056 -0.01541675 0.042470336
-0.06433787 0.02820858 0.029941246 -0.06314646 -0.113891 -0.010096687 0.14804478 0.13753332
-0.06767741 -0.06482795 -0.020525912 -0.026479762 -0.06481834 0.039886747 -0.101567335 -0.0169759
-0.0288205 -0.003856199 0.008261083 -0.15114853 0.01156496 0.02438654 -0.02451568 0.055368498
0.0062026004 0.116895 0.00814789 -0.02338252 -0.11764802 -0.06866405 -0.04835041 -0.052281827
0.0638694 -0.07029206 -0.11392911 0.08957508 0.05868542 -0.068033025 -0.07607637 -0.04378876
0.09733872 0.03200347 0.048724364 0.005069126 0.060630552 0.0659444 0.005675987 0.08609335
0.12245446 -0.0427761 0.019489301 -0.014345247 0.009794752 -0.007854221 -0.051851146 0.030026529
0.053352002 -0.0634708 -0.009481094 -0.11129325 -0.020954093 -0.018489812 -0.16905954 -0.020448668
-0.024147589 0.07194247 -0.022611937 0.02326272 0.02616793 -0.07177247 -0.041764542 -0.027385844
-0.075980105 0.0025569901 0.00024932416 -0.084030606 0.07209332 -0.006092703 -0.020573653 -0.025774918
-0.08208224 0.00606258 -0.0051512914 -0.03335082 -0.00036461014 0.044273887 0.014157444 -0.06583147
0.035175208 -0.05939853 -0.00028444963 0.151208 0.095648594 0.01624235 0.12771842 0.04573185
-0.078216895 -0.016918007 0.0811895 -0.06862069 0.14912134 0.0693739 0.054102227 -0.06347118
-0.05010747 0.0027218026 0.023195464 0.026382763 0.06047409 -0.06873993 -0.024770768 -0.03224353
-0.007086528 -0.029604625 -0.043973304 -0.035948068 0.102159925 0.0904688 -0.053675298 0.093625456
0.07440842 -0.035632532 -0.03914611 -0.0024541277 0.0113493875 -0.07613697 0.19232322 0.03570333
-0.032901343 0.007061245 -0.013855036 0.05078635 -0.07856554 0.003740415 0.009605318 -0.007734168
0.05995347 0.028180545 -0.06311252 0.004433226 -0.008511565 0.004072111 -0.08540027 0.026965354
0.10882262 0.03907114 -0.046229623 -0.062258836 0.07719841 0.17321183 -0.06712568 0.104886174
-0.12932754 0.026730018 -0.032218087 0.08823702 0.1256136 0.025720377 -0.009423733 0.054583713
-0.012844111 -0.049962025 -0.06487246 -0.064490534 0.027479855 0.13773476 -0.04253591 -0.0066967355
-0.06467258 -0.105458915 0.068946764 0.10347913 0.016583601 -0.06007817 0.08904971 0.055072367
0.027942276 -0.01330892 0.060272697 0.055765472 0.06799786 -0.019824577 -0.012755765 -0.080040224
0.11223335 0.029567173 0.041548934 0.029612921 -0.041058082 -0.011261456 0.08362185 -0.12866844
0.0345377 0.10709971 -0.051772654 -0.071212284 0.098517984 -0.004742155 -0.08543362 0.0944718
-0.141553 -0.07499508 0.04202698 0.065182425 0.0814662 0.14319064 0.082951985 -0.027497146
-0.016418843 -0.060485017 -0.05033581 -0.11394751 0.014462011 0.059406806 0.047705274 0.07387018
0.1073462 -0.07794186 -0.059855327 -0.028604718 0.04718763 0.04643811 -0.0045684255 -0.0054048505
0.07641495 -0.0055942805 -0.05110359 0.060084067 0.046527915 0.09515224 -0.057853762 -0.2193613
-0.06369709 -0.061354738 -0.15545097 0.103324115 0.15925144 0.073533155 0.028564505 0.013534083
0.02898314 0.16179827 0.058571216 0.06651694 0.053367168 0.05634245 0.08285498 -0.10043422

conv1.bias f4 [100]
00000000: 81ba 8cbd e216 193c dcc9 8cbd 1c53 79bc
00000010: 581a 173c 14c6 dfbd 4433 dbbb 946c 90ba
00000020: ae32 d5bc d0c8 3ebd 3479 9b3a d555 003d
00000030: 3083 92bb 694a d9b9 afe9 b83c a0e4 773d
00000040: cc73 41bd 69e8 aebc d878 a4bd a16b c8bd
00000050: 0629 6abd aafc 9abd 4a5d dabb 9fc0 90bd
00000060: 08df 8fbd 5f74 90bc 559e 593b 3a3a 803c
00000070: fbc5 31bd 8e41 613c 2c00 1d3a 3df6 e33d
00000080: fc6e 5abc f9f5 01bb c48b 62bd 79e8 33be
00000090: 1944 acbd 4905 933c 8d61 a0bd b8ac 28bd
000000a0: e10e a0bc 0928 d5bd 6f98 30bd 31db 083d
000000b0: 572c 71bd 8e39 00be f137 093d ffa5 b3bd
000000c0: b92e 813c 2b96 24bb c541 babd dda1 80bc
000000d0: 9a93 1fbd 1c17 853d 275f 443c 66c8 54bd
000000e0: 8ba5 1bbe a3bb b9bd 0351 adbd c5c7 72bd
000000f0: 5f20 6dbd 6ee1 87bd c508 51bb 2cfa 5e3a
00000100: ff58 74bb 2db9 553d a137 2ebd b7ed 36bd
00000110: 586a adbd 272a 9d3d a98f 223c 81c2 42bc
00000120: f34a 903d acc8 b53d f8f9 fcbc aeb2 51bc
00000130: b3a1 1fbe 2a8d 92bd 1d91 60bd 63cf c63c
00000140: 38b6 1ebc 6cdb 4abd 2ed5 79bd f30d 693c
00000150: c7b5 b13b 9c6f a9bd 1135 e0bd 346e 9cbc
00000160: 758f 383d 11fd 3ebd 39fa c5bc 51cb 133c
00000170: 0ed3 08be cc09 c2b9 2ed7 05bb 7044 6ebc
00000180: 65a3 85bc 2458 1ebe e161 87bc bbad 0cbd
-0.0687151 0.009343835 -0.06874439 -0.015217569 0.009222589 -0.10926452 -0.006689461 -0.0011018687
-0.026025143 -0.04657823 0.0011861683 0.031331856 -0.004471205 -0.00041444905 0.022572367 0.06052077
-0.047229573 -0.021351056 -0.080308616 -0.097861536 -0.05716803 -0.07567723 -0.006663953 -0.070679896
-0.07024962 -0.017633615 0.0033205946 0.015652765 -0.0434017 0.01374854 0.00059891003 0.111309506
-0.013332125 -0.001983045 -0.055309072 -0.1756915 -0.08411426 0.017946856 -0.07831106 -0.041180342
-0.019538345 -0.10408027 -0.043114122 0.033412162 -0.058880176 -0.12521955 0.033500616 -0.087718956
0.01576935 -0.002511392 -0.09094576 -0.015702182 -0.038959123 0.064985484 0.011985577 -0.051948927
-0.15199868 -0.09068992 -0.084627174 -0.059272546 -0.0578922 -0.06634794 -0.0031896096 0.00085059064
-0.003728449 0.05217855 -0.04253352 -0.044660296 -0.08467549 0.076740555 0.009921947 -0.011887194
0.070455454 0.08876166 -0.030880913 -0.012798948 -0.15589027 -0.07155831 -0.05482589 0.024268812
-0.009686999 -0.049525663 -0.06099432 0.014224517 0.005423281 -0.08273241 -0.109476216 -0.019095518
0.045058686 -0.04662806 -0.024167167 0.009020642 -0.13361761 -0.00037009863 -0.0020422447 -0.014542684
-0.016313264 -0.1546331 -0.016526164 -0.03434537

conv2.weight f4 [100, 100, 3]
00000000: 489f 8e3c e07d 163b a51b 823d 00bd 07bd
00000010: d489 4e3c 3fbe bdbc 4bd8 b83d cec9 e23c
00000020: 6e72 1b3c 9111 213b d73c 2ebd 781c 18bc
00000030: 22c1 11bd 7e2b 823d ad73 f3bb f6b2 57bd
00000040: 8e9a 273d e118 a63d 8ae5 003e 9801 613d
00000050: 0cad fb3c 4f10 1abb 0c05 8abc aec3 673c
00000060: 179c 8dbd 284e 063d da7d 723c 47a8 0abd
00000070: b5dd 43bd a763 533c 6b3f 1cbd 67aa ddbc
00000080: afd4 aebc 5663 90bc 2325 863c 4c65 29bd
00000090: d868 1f3d 7018 a3bc 12c3 f43c 9a81 413d
000000a0: ae01 59bc 393a 983c 5ca7 683d c5c8 8e3c
000000b0: cd5f 323d 6d0b 3fbc 9889 13bd 8e69 6a3d
000000c0: 96d9 e03c 51f1 2b3c 44f9 99bc c347 ad3c
000000d0: bef8 af3c 015e cbbc 8c8a 4a3d 2612 2d3d
000000e0: f178 023d b8c6 00bc 7532 03bd 3f84 66bb
000000f0: bd93 a63c 9d59 15bc e260 fe3c c4d6 c8bc
00000100: ede0 c13c 7392 c0bd e7ab 093d bda3 c4bc
00000110: 7185 41bd 7920 5cbb e87b 9f3d 12c3 aabd
00000120: 0a66 98bc d0f4 aa3b 5937 bcbd e887 3d3c
00000130: 2cd1 413d 80a7 87bd d3b3 acbc 2a4d 62bd
00000140: c766 653d c715 9dbd 1dcd 3d3d 3432 023e
00000150: ea4b 4b3d 0133 643d 20bf 243d 772e 25bd
00000160: d1c9 ab3c 8330 4ebd cd5e 86bb e4bd 2fbd
00000170: cda2 8cbd 5400 53bc 88a8 8b3d 5b6c 583d
00000180: 0c99 1fbd 6ee3 75bd fbc5 543d f0c4 1f3c
00000190: ac3f 82bd 420d f5bc 763c 2fbd 2b6c fb3c
000001a0: 52db 31bd f615 98bc 428e c23c 5b0f 123c
000001b0: 3db5 a8bd 6775 663d 15cb 073c 7f4e 503d
000001c0: e7d7 923d 9c83 cb3c dcf1 f33c 9f3f 883d
000001d0: 3dd8 5b3c b63e 9b3c 0c64 c73c 5ab9 c2bc
000001e0: 99e5 013c 9496 313d 123b 213d 5502 623c
000001f0: 0091 21bd c00c d13c 3c77 d63b 2b76 603d
00000200: 28ca 553d ce37 f83c 68c8 4bbd d337 393b
00000210: 6aa2 6fbd 1d2c b13c 8c16 08bd 43e7 6cbd
00000220: ef25 7ebd d02a 7a3b 25f9 b03b e011 143d
00000230: a11c 60bd cfdd 93bc 959a 283d 12c5 bc3d
00000240: e83e 4ebc 4d62 ffba fc59 0f3d ad7f 833d
00000250: 534b 6d3c aec0 7c3d f1c6 c4bc 591e 1f3d
00000260: 9b0a 93bd f876 a13b fa44 e9bc e03e 803d
00000270: c460 b6bc 0ec3 713d b08a 8cbd eb30 84bd
00000280: d02d d63c 57a1 873c 0c98 d03c ea72 52bd
00000290: 45f7 d23c acfc 8ebc f001 6abd 0434 2f3c
000002a0: 4e32 46bc 8a0d ce3c 9c02 033d 7d73 a8bd
000002b0: 6859 87bd cc91 fabc 51cd 84bd 75e9 d83c
000002c0: 1a77 3cbc 3db2 e53b e7f2 173c 6101 46bc
000002d0: ccd3 1ebd 1171 7a3d 3263 973d 0b83 57bd
000002e0: 0249 263d 5b15 61bb c690 16bc 33bd 3abd
000002f0: 3e31 4ebc 14aa 0fbc f451 1ebc 8a1d 803b
00000300: e8ac adbd a785 593d d442 f23c cb19 b93c
00000310: fa09 b63d 4367 bbbc c78c 983c 2fe5 5dbc
00000320: 86a0 98bd e23e 9b3b f546 4dbd 4e70 9bbd
00000330: e520 333d e6a2 95bd 9c2c beb8 1af5 abbd
00000340: a9a5 173a 9298 4ebc ae05 cd3c 861e cfbc
00000350: fef2 2abc 0b26 873c 2daf 993c 1c14 c6bc
00000360: fd8a c4bc 934f 073d ec76 2f3c ed54 b4bc
00000370: 5ee2 c2bc f56a 833d ec72 0fbc 23b9 8cbc
00000380: e758 53bd 6a9a d43b 585f 223c adc9 2c3d
00000390: ddc3 b13d b34f 43bc 7f72 2e3d 8551 863c
000003a0: 2a7f 113d c343 0d3e f4ff e3bc 1431 0cbd
000003b0: 5ace 903c 4099 8f3d 8094 1bba 158a 34bd
000003c0: e551 793d e360 0cbd b8b9 a5bc 79e5 1abd
000003d0: 2c95 b5bd f0d6 31bd c986 b3bc eab9 033d
000003e0: 5c11 afbb 9cfb 7cbd 4a97 18bc 9388 68bd
000003f0: 8a69 2a3d fe72 a3bd b9d8 c9bc 7e5b 5cbc
0.017409936 0.002296321 0.06352929 -0.03313923 0.012606103 -0.023162005 0.090256296 0.027684119
0.009487731 0.002457712 -0.04253849 -0.009284131 -0.035584576 0.06355952 -0.007429561 -0.052660905
0.04091888 0.08110214 0.12587562 0.05493316 0.030722164 -0.0023508256 -0.01684811 0.014145775
-0.069145374 0.03278938 0.014800513 -0.033851888 -0.04781886 0.012902177 -0.038146418 -0.027058793
-0.02134165 -0.017625492 0.01637513 -0.04135637 0.038918346 -0.019909114 0.029878173 0.04724274
-0.013245029 0.01858245 0.05680023 0.017429719 0.043548394 -0.011660439 -0.03601989 0.05722957
0.027447503 0.010494546 -0.018795617 0.021152383 0.021480914 -0.024825098 0.049448535 0.042253636
0.03185362 -0.007859878 -0.03203054 -0.003517404 0.020334119 -0.009115604 0.031052057 -0.02451647
0.023666823 -0.09402933 0.033611204 -0.024003858 -0.0472464 -0.003358869 0.07787305 -0.08337988
-0.018603344 0.005217172 -0.09190244 0.011568047 0.047318622 -0.06623745 -0.02108184 -0.05524937
0.05600622 -0.07670169 0.04633819 0.12714463 0.049632944 0.055712704 0.040221334 -0.040327515
0.020970257 -0.050339233 -0.0041006566 -0.042905703 -0.06866989 -0.012878496 0.06819254 0.05283771
-0.038964316 -0.060031347 0.05194662 0.009751543 -0.06359801 -0.029913548 -0.04278227 0.030691227
-0.04342205 -0.01856516 0.023749474 0.008914794 -0.082376935 0.056264307 0.008288165 0.05085611
0.07170086 0.02484303 0.029778413 0.0665276 0.013418254 0.018950801 0.024339698 -0.023770023
0.0079282755 0.043356493 0.039362974 0.013794501 -0.039444923 0.025518775 0.0065449756 0.054800194
0.052194744 0.030300047 -0.04975167 0.0028262034 -0.0585045 0.02162748 -0.033224627 -0.057837736
-0.062047895 0.003817249 0.005400794 0.03614986 -0.054714803 -0.018050103 0.041163046 0.09217276
-0.01258824 -0.0019484252 0.034997925 0.064208366 0.014483291 0.06170719 -0.024020644 0.0388473
-0.07179757 0.0049275123 -0.028475273 0.062619925 -0.022262938 0.05902391 -0.0686239 -0.06454643
0.026144892 0.016556425 0.025463127 -0.05137912 0.025752673 -0.017454468 -0.057130754 0.010693554
-0.0120969545 0.02515294 0.03198491 -0.08225153 -0.0660885 -0.0305871 -0.064844735 0.026478508
-0.011503005 0.007009773 0.009274221 -0.01208529 -0.038776204 0.061142985 0.07391967 -0.052615207
0.04059697 -0.0034345004 -0.00918979 -0.04559059 -0.012584982 -0.008768577 -0.009663094 0.0039097713
-0.08480245 0.053105976 0.029572882 0.022595307 0.08888622 -0.022876387 0.018621815 -0.013543411
-0.074524924 0.004737721 -0.050116498 -0.0758978 0.043732543 -0.07306461 -9.068215e-05 -0.08396359
0.0005784878 -0.012609618 0.025027122 -0.02528311 -0.01043391 0.016497632 0.018760288 -0.02417951
-0.023992056 0.033034872 0.0107095055 -0.022013152 -0.02378958 0.06416885 -0.008755427 -0.017178124
-0.051598456 0.006488134 0.009910427 0.04218452 0.08679936 -0.011920857 0.04258966 0.016396293
0.035521664 0.1379538 -0.027832009 -0.034226492 0.017676521 0.07011652 -0.0005934909 -0.044076998
0.060869116 -0.034272086 -0.02023016 -0.0378165 -0.08866343 -0.04341787 -0.021914857 0.032159723
-0.0053426456 -0.06176339 -0.009313414 -0.056770872 0.041604556 -0.079809174 -0.024639474 -0.013449548

conv2.bias f4 [100]
00000000: f658 8dbd 2a27 78bd 84bf 5cbc e7fa f7bd
00000010: d646 2b3d 756e b03d 3261 d33b a378 71bd
00000020: 2a9d 463b 13eb 1dbd d069 e8bb bb96 e93c
00000030: b8c1 9d3d ee41 86bd ba62 24bb 7d1e b8bd
00000040: 0f4f 233d 621d 0ebd 85ed 77bd 63d6 0d3d
00000050: cd06 1cbd cda3 babd f8c4 42bc 8e0e 21bd
00000060: 21cb 003d 267b 13bc b81f 54bd bd58 b7bc
00000070: 5474 c7bd 1465 b3bb 1830 c6bd 5e35 383d
00000080: 7063 37bc 9ba2 cf3c d9db b8bc cada 763c
00000090: 9888 d3bd 3788 2abe ef6c 61bc af4f 033d
000000a0: 519d be3c 9b97 423c f8a8 07bc 9bf7 77bd
000000b0: c050 2dbd 2d63 8a3c 4f88 153b 7446 d5bc
000000c0: 0017 443d dfb3 31be 4cca f0bb 8fcb 463c
000000d0: 40a9 d73c ebbd b7bd 849c 0cbd 5ed6 83bd
000000e0: 5d91 3dbd 46ec 1ebd 91bd 07be ab3b 133b
000000f0: 6d61 e73c 0000 4dbc b091 2fb8 2b51 54bc
00000100: e5ae c1ba e46f 15bd 783a 4bbc 079f 8abd
00000110: 6db5 0cbc 09e0 873c f1a3 19bd 8c97 ccbd
00000120: 589b 96bb 75d8 c23c 0106 37bd 8295 04be
00000130: e4b0 99bc d846 833c 5c51 13bd dd68 9f3d
00000140: 4755 453d 36f2 33bd fd25 a8bd dbf7 2b3d
00000150: f89d f53c a541 0fbc 79e6 c0bd 4a17 94bc
00000160: 5d86 22bc 02c2 f53c 6b9b 43bd 160d 82bd
00000170: c99a 473d d62c b5bc 3b6c 09bd 3b5a 73bd
00000180: cdda ff3c 0d2b 2bbc 5162 12be e554 cb3b
-0.069017336 -0.060584225 -0.013473395 -0.12108403 0.0418156 0.08614818 0.0064507956 -0.05895294
0.003030608 -0.038554262 -0.007092692 0.028514257 0.077029645 -0.06555544 -0.002508326 -0.0899019
0.039870318 -0.03469599 -0.06052925 0.034628283 -0.038092423 -0.09113274 -0.011887781 -0.03932052
0.03144372 -0.009001529 -0.05178806 -0.02238118 -0.09738985 -0.005474696 -0.09677142 0.04497277
-0.011193141 0.025346091 -0.022565769 0.015066812 -0.103287876 -0.16653524 -0.013758882 0.032058414
0.023268374 0.011876966 -0.008280031 -0.06053887 -0.042313337 0.016892994 0.0022816842 -0.026034571
0.047873497 -0.17353772 -0.0073483344 0.012133493 0.026325822 -0.08971771 -0.034328952 -0.06437372
-0.046281207 -0.038799547 -0.13255908 0.0022465985 0.028244698 -0.012512207 -4.1858933e-05 -0.012958805
-0.0014776854 -0.03648366 -0.012404077 -0.06768613 -0.008588177 0.01658632 -0.037509862 -0.09989843
-0.004596155 0.023784855 -0.04468346 -0.12947658 -0.018761106 0.016024992 -0.035966262 0.07783673
0.04817703 -0.043932162 -0.08210371 0.04198442 0.029982552 -0.008743678 -0.09418959 -0.018077511
-0.00991973 0.029999737 -0.04775564 -0.06350152 0.0487316 -0.022116106 -0.033550482 -0.059412222
0.031232262 -0.010447276 -0.14295317 0.0062051886

rnn1.weight_ih_l0 f4 [104, 100]
00000000: 62be 473c 45af 643c cb0d a6bb f035 17bc
00000010: 729c 33bb 8d3b f1bb 76e8 9abc 3be3 2d3b
00000020: 9ce4 85bc 3332 883c 3ade 89bb 53f5 ba3b
00000030: b33d c03b 6490 eebb 6457 20bc e309 6b3b
00000040: 60ea 86bb 820f f4b8 9462 d53b 9bd7 9a38
00000050: e952 3fbc 618e 883c 9e09 a1bb 7d0c f53b
00000060: f285 a23b edcf e83b 146e f3bb 5434 14bc
00000070: fc6f a0bb 7bb0 de3b 4457 beb8 2eeb 283c
00000080: 256a 67bb b1da 123c ea52 9ebb 33c5 04bc
00000090: 9a94 bbbc a712 76bc c0d1 f53a b4bb 12bd
000000a0: eb9d 3bbc a19f 903c b57a d0bb 9869 8cbc
000000b0: 0be9 5bbb 1dc3 f6bb 6339 cd3c f8e9 2e3b
000000c0: 5d73 0dbc 4f23 b3bc df15 b0bb 3f94 5abb
000000d0: 7258 ecbb 71ee 00bc 7894 dbbb 78ab d03b
000000e0: feb2 143c 7de2 223b 5767 aa3b 68e4 9c3c
000000f0: c8fa b43b 911c 5dbc 0008 e63b b86a a0bb
00000100: fd96 063b 40ae ebbb 9af9 cfbb db18 d03b
00000110: 7b27 f13b f68a c4bb 6efa 27bc 2f8c 6bbc
00000120: bc5a 7dbc eea1 373c 8e0c a73b 15b9 b03b
00000130: fe2a dabc 731d b13b c897 56bc d6f8 823b
00000140: d7af 2a3c 7ecc 1dbc 4033 f43a bf08 c93b
00000150: b50f 82bb 5855 88bc cdc0 083b 0539 5c3b
00000160: 5d44 dc3a 05a6 563c 1544 62bb e681 74bc
00000170: b095 04bb c0cf 03bc 89f6 633a 11ae 5c3b
00000180: b62c 94bc d206 143b 0fd7 693b ed97 41bc
00000190: 6bbe 05bc 63c9 f8bb 286c e03b d488 56ba
000001a0: 74ef 00bb f9dc f2bb 0628 673c 3ff7 debb
000001b0: faa5 313c 6a01 e63a 9386 d8ba 90e4 1eba
000001c0: 6241 113c 138d 82bc 48d4 74bc 9280 173c
000001d0: 409d a7bb c44f 35bc 483e e9bb 3c6b 68bc
000001e0: d1f0 9eba ffbb a2bc 36bc 153c c919 bfbb
000001f0: 7e18 89ba e9be cc3b 003b 5a3c b57b 863a
00000200: b427 20bc 8974 5e3a 5ee8 043c 3a86 0d3b
00000210: c320 d53b f40c eb3a d2ec 5e3b fdce 3f3b
00000220: 1dc6 83ba c25f 09bc 74e7 f03b 9573 e1bb
00000230: 2941 94bb b8e3 4439 f787 3e3c 83bc 983b
00000240: b5f5 263c eaa0 d73b 5b59 29bc 925f cdbb
00000250: dce7 28bc f3a1 17bc 594d 063c e7c1 b7bb
00000260: d8a1 523c 35f0 4c3c 7858 46ba 7d8e 8f3c
00000270: 551e a13a 6d32 c9bb e56f 4fbc c75c 903c
00000280: c365 893a 9e63 41bc fb9a b0bb 06b4 c2bb
00000290: bed0 803c 36bb 073b 27de 12bb a43d f43b
000002a0: b10b 61bb a61d 273c 7b75 cf3b 81f8 0b3c
000002b0: a298 b43a d430 683b 01e7 e539 9702 93bc
000002c0: ab75 3c3c 2a80 56bc a560 b83b fb88 b4bb
000002d0: 49da d23b 02eb 263c 79ba 113c 50c1 1cbb
000002e0: ed98 11bc 4914 133c 5467 94bb daf5 a33b
000002f0: c90d ca3b dac7 813b 8202 023c 7e73 01bc
00000300: 2db6 4a3c 10b3 a6bb 3341 40bc 81e7 973a
00000310: b2d1 3abc 7318 413c 70f9 2b3b da74 70bb
00000320: afc9 ffbb 041b b83c 5eed d73c 54f1 ab3c
00000330: 9051 67bb a6c1 e73a e7fe d73b 6c36 3b3d
00000340: b5c2 2fbc 7162 2fbb 0044 b5b8 cea4 cfbc
00000350: 3e61 cebc 1242 9fba 7665 b43b b55c e73c
00000360: 063e 013c 8c90 5e38 aa12 6f3b 9649 ccbb
00000370: 5f75 32bc 374f d93c 5e39 e03c 40fa 823c
00000380: df76 3bbb 6048 beb6 e741 d7bb 677e 05bb
00000390: ec72 85bb b623 c43a 1887 b2bb eda7 f1bc
000003a0: 462e f03c 6f43 463c 6ba0 1d3d f29b 23bd
000003b0: 6473 3f3c 7620 0b3d b522 d73c e7ff d6bc
000003c0: beac 363b 107b 083d 3f8b d93b 4f2a 063c
000003d0: a115 013d 5ec5 8bbb 33bb 383c 3526 4f3c
000003e0: ce6a 883c affd e23b c367 773c 0cd3 e13b
000003f0: a755 bd3b 97fe d8bc 18fc 863c ccde 3a3c
0.012191387 0.013957803 -0.005067562 -0.009229168 -0.002740648 -0.0073618353 -0.018909674 0.0026533145
-0.016344361 0.0166255 -0.0042073997 0.0057055145 0.00586673 -0.0072803963 -0.009786461 0.0035864047
-0.004117295 -0.00011637715 0.0065119956 7.383452e-05 -0.011677482 0.016669454 -0.0049144765 0.0074782954
0.004959815 0.007104865 -0.007428894 -0.009045679 -0.004896162 0.0067959405 -9.0761605e-05 0.010309977
-0.003531107 0.008963273 -0.0048316615 -0.008103657 -0.022898007 -0.0150190955 0.0018754527 -0.03582354
-0.011451225 0.017654242 -0.006362284 -0.017140195 -0.0033555652 -0.0075305835 0.025051778 0.002668975
-0.008633462 -0.021867422 -0.005373701 -0.0033352522 -0.007212692 -0.007869349 -0.0067010485 0.006368097
0.009075878 0.0024854236 0.0052003074 0.019151881 0.0055230595 -0.01349558 0.0070199966 -0.0048955344
0.0020536773 -0.007192403 -0.0063468935 0.0063506193 0.0073594428 -0.0059980107 -0.010252578 -0.014376684
-0.015463527 0.011208041 0.005097932 0.0053931572 -0.026631828 0.005405122 -0.013097711 0.0039969487
0.0104179 -0.009631274 0.0018630996 0.006135076 -0.0039691576 -0.016642258 0.0020866871 0.0033603322
0.0016805042 0.013101106 -0.0034525443 -0.014923548 -0.0020230822 -0.008045137 0.00086960994 0.0033673088
-0.018087726 0.0022587073 0.0035681163 -0.011816007 -0.008163075 -0.0075923665 0.0068488307 -0.0008183841
-0.0019673975 -0.007411596 0.014108663 -0.0068043764 0.010842795 0.0017548029 -0.0016519598 -0.000606128
0.008865686 -0.01593641 -0.01494319 0.009246962 -0.005115181 -0.011066381 -0.00711802 -0.014185723
-0.0012126212 -0.019865034 0.009139111 -0.0058319313 -0.001045957 0.006248344 0.013319731 0.0010260256
-0.009775091 0.0008485993 0.008112041 0.0021594898 0.0065041496 0.0017932937 0.0034015668 0.0029267662
-0.0010053549 -0.008384647 0.00735181 -0.0068802335 -0.0045243693 0.00018776848 0.011629096 0.004661144
0.010190417 0.0065804617 -0.010336245 -0.0062674964 -0.010309186 -0.00925492 0.008197152 -0.0056078318
0.012855969 0.012508442 -0.00075662835 0.017523998 0.0012292365 -0.0061400444 -0.012660955 0.017622365
0.0010482598 -0.011803536 -0.005389569 -0.0059418706 0.015724536 0.0020710952 -0.0022410245 0.007453637
-0.0034339244 0.01019994 0.0063311434 0.008543135 0.0013778398 0.0035429494 0.00043850395 -0.01794557
0.011502664 -0.01309208 0.0056267553 -0.0055094934 0.006434713 0.010187866 0.008894556 -0.0023918934
-0.008886558 0.008977004 -0.0045289192 0.005003673 0.006166194 0.0039605917 0.007935168 -0.007901071
0.012372536 -0.005087264 -0.011734295 0.0011589379 -0.011402534 0.011785614 0.0026241206 -0.0036690743
-0.007806025 0.02247382 0.026358303 0.020989098 -0.0035296418 0.0017681613 0.006591666 0.045706198
-0.010727574 -0.0026761557 -8.6434186e-05 -0.02534714 -0.025192853 -0.0012150428 0.005505259 0.028242448
0.007888323 5.3063544e-05 0.003647963 -0.006234358 -0.010892241 0.02652703 0.027371105 0.01598847
-0.0028604788 -5.670867e-06 -0.0065691355 -0.002036953 -0.0040725376 0.0014964256 -0.0054482333 -0.029499019
0.02931894 0.012101038 0.038483065 -0.039943643 0.011685226 0.033966504 0.026261667 -0.02624507
0.0027873958 0.033320487 0.006638914 0.008188798 0.031514768 -0.0042654714 0.0112751005 0.012643387
0.016652491 0.006927214 0.015100422 0.006891614 0.005778033 -0.026488585 0.01647763 0.011405658

rnn1.weight_hh_l0 f4 [104, 26]
00000000: 9b62 10ba 6c3e 8239 6aa2 bbb9 0c20 24ba
00000010: acef 183a f512 0bba a5f0 c5ba 14c9 d4b8
00000020: a4e3 bcb8 181a 623a 0527 c8ba 5f1f 8bbb
00000030: 476e 7c3a 7f02 29ba c28e 8b39 3419 77ba
00000040: 5e4f fdb8 a806 503b fa0a 5b3a 4540 a3bb
00000050: 28e2 f0bb 9c58 69ba ca0a 2a3a 106c 35ba
00000060: 2795 d33a 3433 e8ba 2014 0639 9cb7 063b
00000070: 792e 09bb c120 9139 d040 9f3a ac12 99b9
00000080: c396 8dba 3085 73b5 0954 8a3a 016a c339
00000090: 52af 22ba 0827 44bb b882 113b d175 f039
000000a0: b643 243a bcf7 403a 58bf a8ba 0322 9c3b
000000b0: d81e 2c3a 024b c6bb c76c 8cbb 7ce5 ebba
000000c0: 6795 3c39 d91a 16bb c440 ca3a 0d00 98ba
000000d0: 26dd c2bb 4a8b e8bb 25f3 c9bb 2aed db38
000000e0: cb91 cdba b60f 543b b745 f1bb f5dd c33b
000000f0: 822f 1eba f3f3 13bc f33e 17bc 6718 dabb
00000100: 8916 fa3b 8901 6dbb 4ba7 d43a 270a aa3b
00000110: 2433 58ba 0bd8 373c a51c 1abb 56d7 20bc
00000120: 4c12 87bc 05ac 78bc fd61 ab3b f4d6 51bc
00000130: 0449 a03a 81ee 87bb 3608 9cbb 6c32 f8ba
00000140: 257d e83b 4235 6fbb 9db2 343b c318 a33b
00000150: 73b2 57bc 5cc8 4a3b 7382 5d3b c0c8 f2bb
00000160: ef38 12bc ec0c 5cbc a842 b73a 421c a3bb
00000170: 9c70 503b 525c 463b 6c6f 12b9 7f53 623c
00000180: 6052 85ba 8d2e 89bc 3c61 95bc 72c3 3abc
00000190: 748c af3b e5ce 21bc aae6 00bb f316 82bb
000001a0: b069 973a b3b4 b73a 525d 18bb 768a 623a
000001b0: e6f1 40bb eb6a 00bb 8033 8c3b accc aeb8
000001c0: 7206 2ebb b471 703b 3310 193b 0f30 c0ba
000001d0: 2ebc 9bba e9b7 b93a 24fd 20ba 5a99 97bb
000001e0: f67d c038 c3e9 cfba a13c 983a 8271 0a3b
000001f0: 4ca9 733b 28e7 b33b 2029 fcba 7674 ac3b
00000200: 3afa 2a3b a774 79ba ba7c f1ba 5478 8338
00000210: f5b5 c239 7464 39bb f37e 1b39 e33c d938
00000220: e578 f539 b0c4 4eb6 e626 033b 1606 29ba
00000230: 9587 8eba 1b85 d43a 54d3 17ba 27ef 6fba
00000240: d4ac aaba 8478 b7b9 13ce 1b3a 5c78 dfba
00000250: be6e 083a 3948 233b 8e83 fa38 379f afba
00000260: 4569 ad3a 3fca 6dbb 4876 97ba 5285 27ba
00000270: bbab 6abc ae46 183b 3e6b 393c f4ed 84b8
00000280: f951 f73b 3209 063b e257 dabc a39f 5d3c
00000290: d308 393a d55d 4abc ec36 7fbc 2c20 06bd
000002a0: 9413 fdb9 ef64 43bc 6d10 853c bafc f23b
000002b0: cd81 9f3c 34bf 133d 40b8 0f3c 8ae0 12bd
000002c0: e363 2dbd c2d9 d8bc 7796 443c cbae 92bc
000002d0: a84c 7dbb be8f 4cbc 6be6 b4ba 7ae1 ffba
000002e0: fb66 6c3b 0512 12bb 39a2 ad39 8872 a33a
000002f0: 3ca7 86bb 4839 c739 bb6b e03a b845 6abb
00000300: 05b3 cbbb f0b4 69bb 554f 553a b703 3cbb
00000310: 741f 8d3a 242d 4c39 e31a dc3a 3fb1 883a
00000320: c30b c3ba e62e adba 6d23 7f3a 6109 69bb
00000330: 8323 043b d15c 88bb 4adc c6ba f4c4 a9ba
00000340: a779 1ebb 723a 54bb 5356 0d3b 2339 65bb
00000350: 84a2 93b8 876e 333b ff37 a7bb f64b 883a
00000360: f934 a23a 1413 7bbb b89f c9bb 9f2c b4bb
00000370: e9f6 263b 3549 3bbb 9a76 0c3b d74c 113b
00000380: bd8b a03a 2b51 a43b bf3e 12bb 970b f6bb
00000390: e730 afbb 4b90 bdbb 8cb8 1c3b 2fd3 d0bb
000003a0: b258 15bb 86fd 71ba f07e bbbb 2104 cab9
000003b0: ca27 093c 5d70 41bb 4ac1 ed39 7960 fb3a
000003c0: 5b2e 50bc fd08 173b 9963 a83b e05f 8bbb
000003d0: 816d 01bc f52b 16bc 0836 3f3a 6141 85bb
000003e0: 38de 053b 3f05 1a3b 2acc 593b 43ad 653c
000003f0: 82da 4a3b 89f1 4bbc 35ea 91bc ad46 35bc
-0.00055078574 0.0002484204 -0.00035788427 -0.0006260879 0.0005834054 -0.0005305254 -0.0015101625 -0.000101464015
-9.00694e-05 0.0008625104 -0.0015270418 -0.004245683 0.000962947 -0.00064472103 0.0002661851 -0.0009426058
-0.000120787634 0.0031742249 0.00083558226 -0.0049820268 -0.0073511787 -0.00089014485 0.0006486593 -0.00069207046
0.0016142473 -0.0017715455 0.00012786733 0.0020556217 -0.002093224 0.0002768096 0.0012150053 -0.00029196346
-0.0010802377 -9.071837e-07 0.0010553609 0.00037272277 -0.00062059343 -0.002993049 0.0022203159 0.00045864147
0.0006266193 0.0007361134 -0.0012874408 0.0047647967 0.00065658754 -0.006051422 -0.004285428 -0.0017997469
0.00017984734 -0.0022904186 0.0015430679 -0.0011596695 -0.005946773 -0.0070966827 -0.0061630183 0.00010486909
-0.0015683708 0.0032357997 -0.007363047 0.005977387 -0.0006034301 -0.00903033 -0.009231317 -0.006655741
0.007632081 -0.0036164245 0.0016224174 0.0051891985 -0.00082473666 0.011220942 -0.0023515609 -0.009816965
-0.016488217 -0.015177731 0.005230187 -0.0128075965 0.0012228792 -0.004148305 -0.004761721 -0.0018935925
0.0070949965 -0.003650025 0.0027572282 0.004977317 -0.013165104 0.0030942177 0.0033799678 -0.007409185
-0.008924707 -0.013430815 0.0013981657 -0.004977734 0.0031805402 0.003026743 -0.00013965153 0.013813852
-0.0010171644 -0.01674583 -0.018234842 -0.011399137 0.0053573195 -0.009875988 -0.0019668736 -0.003970021
0.0011551883 0.0014015645 -0.0023248983 0.0008641848 -0.0029441058 -0.0019594978 0.0042786 -8.33509e-05
-0.0026554135 0.0036688866 0.0023355603 -0.001466276 -0.0011881643 0.0014169189 -0.00061412365 -0.004626435
9.1787355e-05 -0.0015862513 0.0011614749 0.0021124785 0.0037179766 0.0054902025 -0.001923833 0.0052629067
0.0026089088 -0.0009515979 -0.0018424012 6.2689796e-05 0.00037138132 -0.0028288634 0.00014829244 0.000103587074
0.00046820115 -3.081088e-06 0.00200122 -0.0006447745 -0.0010874147 0.0016213985 -0.0005791683 -0.0009152763
-0.0013021477 -0.0003499427 0.0005943488 -0.001704942 0.000520449 0.0024914874 0.00011945433 -0.001339889
0.0013230225 -0.0036283878 -0.0011555636 -0.00063904107 -0.01432317 0.0023235488 0.011317072 -6.338573e-05
0.0075476137 0.0020452258 -0.026653234 0.01352683 0.0007058505 -0.012351473 -0.015577059 -0.032745525
-0.00048270507 -0.01192592 0.016243184 0.0074153813 0.019471074 0.036071017 0.008771956 -0.03585867
-0.042331588 -0.026471023 0.011998764 -0.017905613 -0.0038650427 -0.012485443 -0.001380158 -0.0019522153
0.0036072123 -0.0022288573 0.00033117997 0.0012470046 -0.0041092914 0.00037998916 0.001712195 -0.0035747122
-0.006216409 -0.0035660826 0.00081371266 -0.0028688738 0.001076682 0.00019471772 0.0016792681 0.00104288
-0.0014880825 -0.0013212829 0.0009732757 -0.0035558569 0.0020162768 -0.004161455 -0.0015171852 -0.0012952373
-0.0024181397 -0.003238347 0.0021566346 -0.0034976683 -7.039777e-05 0.0027379112 -0.005103111 0.0010398615
0.0012375406 -0.0038310932 -0.006153073 -0.0054984833 0.002547676 -0.002857757 0.0021432997 0.0022171044
0.0012248677 0.005014559 -0.0022315232 -0.007508706 -0.005346406 -0.0057850233 0.002391371 -0.0063728313
-0.0022788462 -0.00092311983 -0.0057219192 -0.0003853152 0.008371303 -0.0029516437 0.00045348174 0.0019178531
-0.0127063645 0.002304613 0.005138826 -0.0042533726 -0.007899643 -0.009165754 0.0007294123 -0.0040666317
0.0020426642 0.0023501662 0.0033233264 0.01401836 0.0030952995 -0.012447723 -0.017811874 -0.011064214

rnn1.bias_ih_l0 f4 [104]
00000000: c578 163c 4b12 803b 909e 1f3d 6ddf c73b
00000010: 25de c93b d160 4e3c 741d 803c 79ab 0abb
00000020: b769 4a3b b956 5b3c 7c53 163d 5cc7 4bbd
00000030: 2f71 763b 0e8e 723c 0a23 0439 401b 62b8
00000040: 9a94 bbbc 77d5 98bd 62c3 c3b9 164b 97bd
00000050: 4acc abbd a420 033c f5ad 603b 1523 b53c
00000060: 0da9 693c 168d eabb cfdc 9c3b b677 753b
00000070: 2c89 bc3c 9a36 5b3c 35ab b73b 3e52 863b
00000080: 7abc 1d3d 18b4 1a3b cb31 be3b dc79 2a3c
00000090: c5d4 853d 3ac4 d63d 22b5 613a f962 af3c
000000a0: 00f3 10bb 7081 453a 1f87 37bc 0ca8 ab3d
000000b0: cf4a 183b 83f9 123e 3f50 e23d d752 d43c
000000c0: 8f71 58bb e4a3 1f3d 215d ea3b 8ff3 5aba
000000d0: 1dfd 1a3d 77ad 21bb e447 4cbd b2dd 10bd
000000e0: 6ce0 513c 82a6 1e3d 4054 e13d e7ea 06bd
000000f0: 7478 a13c 80b8 e9bc 3012 10bc 72e3 1b3e
00000100: eb0c 23bd 27c9 953c b928 bb3a 2788 133c
00000110: e2f6 93bc b4dd 9fba dad1 923c 2d9f 873d
00000120: ea3a c5b8 dc34 f6bc ab33 1cbb 7f8b cebb
00000130: 2906 f13c c7f4 a5bc b640 213c 8617 ad3a
00000140: 0769 483d 582a 023c 9d52 ae3b 7ac6 433c
00000150: eac4 0d3d cd08 8aba a37a c83a 0ae3 ad3c
00000160: 5c66 583d 9bcd 3d3d 5a00 c03b ee7e c73c
00000170: 222c dd3b 5aaf 393a c167 69bc d05a 503d
00000180: d9f3 583b b548 c63d c281 5e3d cfdc 8d3c
00000190: 4eb0 9b3b 3e27 0d3d 850f 6f3c e717 d4bb
0.009184067 0.0039084307 0.038969576 0.0060996325 0.006160515 0.012596325 0.015639044 -0.0021159335
0.0030885765 0.0133873755 0.03670071 -0.04975067 0.0037604084 0.014804376 0.00012601554 -5.3907977e-05
-0.022898007 -0.0746259 -0.0003733887 -0.073873684 -0.083885744 0.008003388 0.0034283374 0.022111455
0.014261496 -0.007157932 0.0047870646 0.0037455386 0.023014627 0.013379717 0.0056051263 0.0040991595
0.038509823 0.002360588 0.0058042756 0.01040503 0.06534723 0.10486646 0.000861006 0.021409499
-0.0022117496 0.00075342413 -0.011201649 0.08381662 0.0023237949 0.14352994 0.11050462 0.025918407
-0.003302667 0.038974658 0.007152215 -0.0008352333 0.037839044 -0.0024670043 -0.049873248 -0.035367675
0.012809854 0.038733013 0.110023975 -0.032938864 0.019710757 -0.02853036 -0.008793399 0.15223482
-0.03980724 0.018284393 0.0014279104 0.009004629 -0.018062059 -0.001219681 0.01792233 0.06622157
-9.4046656e-05 -0.030054502 -0.0023834507 -0.0063032503 0.029421883 -0.02025832 0.009842088 0.0013205863
0.048928287 0.007944666 0.005319907 0.011949176 0.03461162 -0.0010531187 0.0015295338 0.021226425
0.052831993 0.04633866 0.005859417 0.024352517 0.006749646 0.00070833194 -0.014245928 0.050867856
0.003310433 0.096818365 0.054322965 0.017317204 0.0047512418 0.034461252 0.0145911025 -0.006472576

rnn1.bias_hh_l0 f4 [104]
00000000: c3a8 f53b 193a 243b 875e 253d 908d cd3b
00000010: 06ed 083c b86d 183c fbe2 c03b b889 bd39
00000020: 6ae0 383b fa72 513c e61c 0e3d 3efd 46bd
00000030: 7d9f 323b 3c8f 993c aa07 8b3a 3c78 0bb9
00000040: f982 dabc 34b7 a4bd 8e72 1339 f218 a7bd
00000050: 0bd8 b2bd cc99 073c 5712 463b b837 bb3c
00000060: 5f6d 5d3c 7871 9bbb cd6c b03b 789d 893b
00000070: 9c9c c63c 9ee9 443c f9a3 e23b 59fc 693b
00000080: 2d30 0c3d 3b67 253b 0ac9 b43b b63f 3e3c
00000090: a724 853d 8866 c83d 6634 7bba 10ae b53c
000000a0: 221f dfba 550e deb9 878a 41bc cd03 a33d
000000b0: 9d8c 113b 504f 083e 9623 ea3d 34db d33c
000000c0: 7617 39bb 0e03 203d 4d42 e43b ee39 cbba
000000d0: 59ae 35bd aa84 4bbd 3b12 2bbc fc7a b3bc
000000e0: 4977 d4ba 2268 d9bc 71a7 303d 25ee d9bc
000000f0: abc5 b0bc a833 b63d 7173 3c3d 0d22 11bd
00000100: 4c3e 14bb a1d0 353d a926 9f3c 83e5 f1bc
00000110: ec8a 7abd d13b 583d 4d7e c5bc dbbd e23d
00000120: 618f f93c 0c0f a43d b54e 863c 3b36 913c
00000130: 1b2d 45bc a9c1 d2ba ff31 0f3c 9f62 023a
00000140: d7d7 443d be5c fd3b 2e40 8f3b b110 4e3c
00000150: dd9f 0c3d cdd2 e23a b2cd 143b ba2e 9d3c
00000160: 4e8a 483d 1367 5a3d daa0 d43b d2ca bc3c
00000170: 4699 d83b 7e77 db3a fd5f 74bc 14f0 403d
00000180: 23b2 3d3b 7219 c03d 6dda 673d dea9 883c
00000190: b654 bc3b e1f2 123d 0a69 5c3c 1b9a b939
0.0074969246 0.0025059043 0.04037335 0.006272979 0.008357292 0.009303503 0.005886433 0.00036151498
0.0028209933 0.01278376 0.03469553 -0.048581354 0.0027255707 0.018745057 0.0010607142 -0.00013300864
-0.02667378 -0.08042756 0.00014061687 -0.08159055 -0.08732613 0.008276414 0.0030223334 0.022853717
0.013514846 -0.004743751 0.005384064 0.00419968 0.024244599 0.012018589 0.0069165197 0.003570339
0.03422563 0.0025238532 0.00551713 0.01161187 0.065011315 0.09785181 -0.0009582698 0.022177726
-0.0017022828 -0.00042353818 -0.011812813 0.07959709 0.0022209056 0.13311505 0.11432569 0.02586136
-0.0028242744 0.039065413 0.0069659115 -0.0015504935 -0.044355724 -0.049687065 -0.010441358 -0.02190923
-0.0016209866 -0.026538912 0.043128435 -0.026602814 -0.02157863 0.088965714 0.04600853 -0.035432864
-0.002262014 0.044388417 0.019427614 -0.029528385 -0.061167642 0.05279142 -0.024108076 0.11071368
0.030463876 0.080106825 0.016394952 0.017726054 -0.01203468 -0.0016079444 0.008739947 0.0004973802
0.048057403 0.007732003 0.0043716645 0.012577222 0.034332145 0.0017305255 0.0022705612 0.01918732
0.048960023 0.053320955 0.0064889016 0.023045931 0.0066100685 0.0016743985 -0.0149154635 0.047103956
0.002894529 0.09379853 0.05660479 0.016682561 0.005747403 0.03587616 0.013452778 0.00035400767

rnn1.weight_ih_l0_reverse f4 [104, 100]
00000000: cc3c 25bb 91c9 163c 55dc b2ba 91e0 ef3b
00000010: ca47 513b 67a9 623b 05c0 353c 85aa debb
00000020: 6bc8 e5bb 8ee8 68bb c090 7bba e779 95b9
00000030: 5b3d 133c 2ace 51b8 104c 803c 9648 03bc
00000040: b6a9 263b 00a4 01bc 9d8d ccba 3628 2bbc
00000050: 4c6f b93b 5a93 dfbb 7e2c 88bb 7ee6 4abc
00000060: b716 023b a401 40bc 8201 403b 1d99 d43b
00000070: c36d c539 b36d 36bc b510 41ba 0f8a 51bc
00000080: d85a 01bc 80ea 0f3c c0cc 05bc 1488 91bc
00000090: 523b 0f3b bc48 fc3a 357a 053c 828f 4dbb
000000a0: 0d98 0abc c721 d2ba 411b 9aba 15b2 82bb
000000b0: e25e 243b d29a 88ba 7cf8 0fbc deb0 9c3b
000000c0: cac2 8dbc 1483 103c a122 a938 dccf ee3b
000000d0: 0dff 48bc 165f b43a 1e67 b3bb 53fd fc3b
000000e0: f4b2 a33b 1bca 1b3a 0804 9dbb f3c4 84bb
000000f0: c801 233b 53bd 06bc 5a88 e53a 706e b53b
00000100: 0a19 553b 3530 43bc ea1c eaba d001 2c3b
00000110: c6dc 55bc 0ccb 0dbc 9c15 313b f9b6 663b
00000120: 4691 413c ca02 b33a 45bb c839 3f31 75bb
00000130: db8b 49bc 18f3 91bb e29f ba3a 7ffb 2cbc
00000140: 63d7 67bc fe83 e4bb b996 10bc 9c3f 17bb
00000150: 4478 a53b d892 253b 59d8 743b 368c 323c
00000160: d27a 4fba bcff 0b3c 3fbc 2dba 1244 2fbc
00000170: 39db 1b3c 4dfa df3b 2ab6 d33a 020a 093b
00000180: 7ba7 43bc bbb6 3bbc e200 253b 1007 49bc
00000190: 8977 8b3c 88ad 30bb 542d 423c 2e54 403c
000001a0: 165c bd3a 36d2 85bb 8cc7 64b9 c7b0 023c
000001b0: 18fc b8bb 159c 86bc f56a 01bc 2457 e2bb
000001c0: 9445 b8bc 3327 95bb 844a 813c ead0 bf38
000001d0: ddd1 ca3c c640 87bc 9c71 3c3a 3e91 73bc
000001e0: 564b 72bc e161 f13a 9a88 8db8 8310 e73b
000001f0: c003 2dbc d65c 37bc bc86 3e3c dfc8 5c3c
00000200: b5a0 993c 5087 a9bb 3dd3 57bc a903 cfbc
00000210: 816b 14bb de46 e13b 1e10 0abc d97d 46bc
00000220: df89 3fbc 93f3 5b3c d955 14bc 67c3 a63b
00000230: e35c 34bc 2c60 c83b b282 00bd e627 ab3a
00000240: 066f d9bb aead 14bb 57f6 b13a 3fbf e03c
00000250: 6974 89bb 240b 493c 349f e3bb bda7 433c
00000260: 3620 98bc 24b8 283c afe8 21bb 1857 b13b
00000270: cc69 9abb 9917 df39 f905 ea3b a3e3 55bb
00000280: 6a37 563a 13fb aaba f19e 9d3c 866c 3f3b
00000290: 9aa5 5f3c 221e adbc 96af fa3b e641 de3b
000002a0: 6cfa 66bb bce5 583b fd3a 4e3a 979c 083c
000002b0: 7c95 9b3a 17f6 513b ae69 673c e085 8d3c
000002c0: eb42 10bc bd2e af3b d006 04bc 1c98 99bc
000002d0: f385 9ebc e441 963c 5cfb afbc e65b 01bc
000002e0: ceec 8e3a 1b7e ffb9 60fd 6d3a 3816 753c
000002f0: adbc 5f3c 1e0b 983c 3893 b83b d1fa 41bc
00000300: 673f e2bb 7277 5b3c d6ab 113c daa3 233c
00000310: 2732 03bc 0def 793c 5aa6 413b ce06 c7bc
00000320: 129d 1b3d d408 17bc b044 a83b 8ad0 993c
00000330: e521 713c 5f8a 0b39 51ab 4cba bfe5 a23c
00000340: 362e 1f3c d0ee 10bd 7a33 abbc 25be f73b
00000350: 917c aabc f814 77bc c0bb 1c3d cb87 cd3a
00000360: 1618 a33c ee7f de3c a9f1 53bb b8d7 84bb
00000370: f553 4a3c f3d6 91bc a7d7 86bc ad55 aa3c
00000380: 039e dabc 2e64 c7bb 114a 9bbc f0ea 223c
00000390: f4ae dd3c b7b1 bb3b 42b3 a4ba f8b1 333c
000003a0: e601 393a 81f5 e5bc 220c 9fbc eba4 31bd
000003b0: f9af 98bc 698a db3c 2834 6dbc c0f0 19bc
000003c0: 4325 e9ba f7cd a03c a559 53bd 8de2 a1bb
000003d0: db77 48bc a143 3f3c a94f a03c da8c 823c
000003e0: 7930 0cbd d6fd 3d3c e079 c5bc 2ad7 ca3c
000003f0: 06b7 acbb e2c7 f7ba 543b 08bc c331 09bc
-0.002521324 0.009203331 -0.0013645986 0.0073204716 0.0031933659 0.0034585835 0.011093144 -0.00679523
-0.007012417 -0.0035539004 -0.00095964596 -0.0002851032 0.008986796 -5.002149e-05 0.01566127 -0.008012911
0.0025430745 -0.007912636 -0.0015606169 -0.010446599 0.0056590196 -0.0068229856 -0.0041556945 -0.012384055
0.0019849965 -0.011719141 0.0029297774 0.006487979 0.00037656547 -0.011134553 -0.0007364855 -0.012789263
-0.007895194 0.0087839365 -0.008166492 -0.017765082 0.0021855426 0.0019247751 0.008146812 -0.0031366055
-0.008459103 -0.0016031795 -0.001175739 -0.003988514 0.0025080969 -0.0010422117 -0.008787271 0.0047818264
-0.017304797 0.008820314 8.064998e-05 0.0072879624 -0.01226784 0.0013761248 -0.005474939 0.0077206283
0.004995698 0.0005942897 -0.0047917403 -0.0040517985 0.0024872888 -0.008223849 0.0017511949 0.005536847
0.0032516145 -0.011913349 -0.00178614 0.0026246198 -0.013053125 -0.008654367 0.0027020937 0.0035204275
0.011814421 0.0013657447 0.000382865 -0.0037413386 -0.012301411 -0.004454028 0.0014238323 -0.010558008
-0.014150473 -0.0069737425 -0.008824998 -0.0023078686 0.005049737 0.0025264528 0.0037360399 0.010897687
-0.0007914725 0.008544859 -0.0006627477 -0.010697382 0.009512716 0.006835258 0.0016152312 0.0020910506
-0.011941786 -0.011457141 0.0025177528 -0.01226975 0.017024772 -0.0026958901 0.011851627 0.01173882
0.0014446999 -0.004083897 -0.00021818111 0.007976717 -0.0056452863 -0.016431848 -0.007899036 -0.0069073606
-0.022494115 -0.004551792 0.015782602 9.146503e-05 0.024758274 -0.016510379 0.000718856 -0.014866171
-0.014788469 0.0018416011 -6.748848e-05 0.007051529 -0.010559976 -0.011191567 0.011628803 0.013475626
0.018753389 -0.005173601 -0.013172922 -0.0252703 -0.0022647085 0.006874903 -0.008426694 -0.012114965
-0.011690586 0.013424772 -0.009053671 0.0050892117 -0.011008474 0.00611498 -0.03137464 0.0013058155
-0.0066355495 -0.002268653 0.0013577443 0.027434943 -0.0041947854 0.012270723 -0.0069464687 0.011941847
-0.018570047 0.010297809 -0.002470534 0.0054119937 -0.004712319 0.00042551456 0.0071418253 -0.0032636903
0.00081717095 -0.0013044797 0.019240828 0.0029208972 0.013650322 -0.021132533 0.007650326 0.006782758
-0.0035244478 0.0033095917 0.00078670663 0.008338115 0.0011870111 0.003203755 0.014124317 0.01727575
-0.008805017 0.005346148 -0.008058265 -0.01874929 -0.019350981 0.018341966 -0.021482162 -0.007895445
0.0010904314 -0.00048731346 0.00090785883 0.014958911 0.013655824 0.018559989 0.005632784 -0.011839584
-0.006904531 0.013395177 0.008891067 0.009987796 -0.008007563 0.015254748 0.0029548616 -0.024295237
0.03799159 -0.009218413 0.0051351413 0.018776197 0.014717554 0.0001330762 -0.00078075106 0.019884942
0.009715607 -0.035384 -0.02089857 0.007560509 -0.020811351 -0.015080683 0.03826499 0.0015680728
0.019908946 0.027160611 -0.0032340086 -0.004054036 0.0123491185 -0.017802691 -0.016460253 0.020792807
-0.026686674 -0.0060849404 -0.018956216 0.009943709 0.027060963 0.0057279724 -0.001256563 0.010967724
0.0007057473 -0.028071167 -0.019414965 -0.04337017 -0.018638598 0.026799398 -0.014477767 -0.009395778
-0.0017787594 0.019629462 -0.051599164 -0.004940337 -0.012235607 0.011673839 0.019569235 0.015936304
-0.034225915 0.011596164 -0.024105966 0.024760801 -0.0052708415 -0.0018904174 -0.008314926 -0.0083736805

rnn1.weight_hh_l0_reverse f4 [104, 26]
00000000: 253f c23b aebb d8bb 523b 27bc 4048 96ba
00000010: 93fb 493b 4ede 14bc 7d4b 663c d254 62bb
00000020: 1e12 4abb 3899 f73b 8716 bebb aa42 0bbc
00000030: b034 f43b 297e b4bb 0da0 55bb 2c54 35ba
00000040: 201e bdbb bfcd ff3a b8c7 d4bb cc6f ac3a
00000050: e904 06bc 65f9 8e3b ea25 333c 5346 203b
00000060: 8e17 07bb a1e0 eb3b d8aa 133c fbc4 9cbb
00000070: 21ec 10bc a7ce 6ebb 48a4 a5b8 88e6 e2bb
00000080: ce32 253c c58f 46ba fbf7 e0ba f8af ac3b
00000090: 1bdf 1c3a 8b60 c5ba 463b 5f3a 9a22 a83b
000000a0: 96ab e9bb e41a c9bb 4f13 b93b 8c0a eb3b
000000b0: d267 38bc 0f4f 233b a44e 40bc b904 163b
000000c0: 7f7e e63b b9d9 3d3b d8a3 853b fe7d 8a3b
000000d0: 46dc 793c 0b8a 8ebc f9cc e0bc 8f95 29bb
000000e0: fd50 ee3a 5254 bfbc 32ce db3c b0e7 6bbb
000000f0: cbd9 4fbc a24f 733c 7600 01bc 841a 97bc
00000100: 2ec7 503c 5f58 5abc 96b5 b4bb d18c 45bc
00000110: dea9 25bc a5df 223c f149 a6bc f83a 1c3b
00000120: fcb4 d5bc 45ae 053c 5c37 d03c 9cef 9c3b
00000130: 08ed a53b 1b26 863c d95c 923a f159 04bb
00000140: 13a5 c8ba ed54 8a3a e280 b23a a924 14ba
00000150: 0d3c 113b 0bf6 9fba 8213 1cba eb52 063a
00000160: 0e31 cfb9 a7e2 203a 8638 7f3a 18a9 96ba
00000170: 5651 ec39 692e 173a 2453 07bb 7b45 83ba
00000180: ca02 a7b8 4053 4bb4 ad21 6339 d63c 62ba
00000190: e4ae 803a d5ff 9339 6e85 c93a eeaa a6ba
000001a0: 0cfd bb36 c5a6 913a 6aa5 083b 5cf3 823a
000001b0: 6e30 253a 4220 f23a 541c 8aba 8b82 883a
000001c0: 7c20 363b 00a6 d4ba 91bb cb3a 2d6e 153b
000001d0: 0b02 b9b9 a7c8 d23b 2494 0cbb 9f0a d0ba
000001e0: 7166 873b ef13 fd3a 6acb ad35 b5fa 0d3b
000001f0: 768e c03a ad8b a3ba 2ab3 9dba e093 d6ba
00000200: 63fa e03a d8ca 5f39 0fa2 893c a74f ddbb
00000210: 0f8c 97bc cad4 57ba b8c1 c13b 7e12 3dbc
00000220: 49c8 2b3c 5c84 65ba f67e b1bb 37d1 3c3c
00000230: 0b87 6eb9 e20d 88bb 1b82 3b3b 5171 8d3b
00000240: aa9c 33bc 4c68 4ebc 0ea0 923b 315c 0c3c
00000250: 458e acbc ea6c 7d3b d0a3 93bc 4a05 133c
00000260: e6f4 413c baaf 173c 6068 3e3c e57c eb3b
00000270: 1faf 1e3c 968f 523b 7ffe 89bb 1645 b0bb
00000280: f74b d83a f873 5e3b 7c0d c13b b6f4 213c
00000290: 88de f93b a464 6e3b 5617 c13b 7a7e 483c
000002a0: 44f4 02bc e7e0 e53c c7d2 91bc c4a0 f7ba
000002b0: 50a5 ab3c 4f3d 343c 635f 3fbc 9062 3b3c
000002c0: c94f e3bb 09c6 00bb 941c feba 9362 a93a
000002d0: e3b2 4c3c 23c1 57bb b4c6 e33a e353 a739
000002e0: 7d36 55ba d010 aab9 bdad 4bba d95a e53a
000002f0: ee4a d6b9 ab86 dd3a 2bf1 523b f3ee 34ba
00000300: 996e 843b d734 9d3b 22b3 0dbb 9c70 6e3c
00000310: 7743 62bb 61b4 c6ba a213 f93b e8d5 b63b
00000320: b602 86bb 311d ad3a 63de 40bb ff91 8e38
00000330: ea76 81ba fa78 313a 9e41 be3b 4063 18bb
00000340: ab70 4f3c 3d3f 68bc 1c72 9cbc 8532 e1bb
00000350: 1264 233b 2e43 9cbc b677 4d3c 1943 06bc
00000360: 258e 81bc 81ca 403c 7e2c 0dbc 0317 36bc
00000370: 3f98 463c 6ef9 b0ba 29b4 05bb f9e3 e9bb
00000380: 078e a4bb 06eb a83a 268a 98bc a14b 1abb
00000390: 31c4 b6bc 2f78 103c 7bfb 733c 913c 293c
000003a0: dbf8 223a e52b 0a3c e8fc 1d3c 9539 23bc
000003b0: 993f 86bc 6481 9bb9 f3d4 dd3a 752a 4bbc
000003c0: 5c8b 683c ca86 73bb e1eb d6bb ba46 003c
000003d0: d813 adbb 427f 59bc bd72 ce3b 9f52 05bc
000003e0: 3e8e 49bb f038 99bb dc0c d7bb 22b0 a03b
000003f0: 8223 24bc 413d fa3a 79cd 66bc f315 b03b
0.0059279376 -0.00661417 -0.010207014 -0.0011465624 0.0030820116 -0.009086205 0.014056084 -0.003453542
-0.0030833553 0.007556107 -0.0058010253 -0.008499781 0.00745257 -0.0055082035 -0.0032596618 -0.00069171446
-0.0057714134 0.0019516273 -0.006493535 0.0013155877 -0.008179882 0.0043632262 0.010934332 0.002445598
-0.0020613405 0.0071984087 0.0090129 -0.004784224 -0.00884536 -0.0036439092 -7.898413e-05 -0.006924454
0.010082914 -0.0007574524 -0.0017163748 0.0052700005 0.0005984173 -0.0015058679 0.00085156073 0.005131078
-0.0071310503 -0.006137239 0.0056480537 0.007172888 -0.011255221 0.0024918949 -0.011737499 0.0022890999
0.0070341225 0.0028968884 0.0040783696 0.004226445 0.015250271 -0.017399808 -0.027441489 -0.0025876497
0.0018182095 -0.023355637 0.02683172 -0.003599625 -0.012686203 0.014850529 -0.007873645 -0.01844526
0.012742801 -0.013326733 -0.005514811 -0.012057499 -0.0101113 0.009941016 -0.02029893 0.002383886
-0.026087277 0.008159225 0.025417022 0.004789306 0.0050636567 0.016375592 0.0011166587 -0.002019521
-0.0015307985 0.0010553874 0.0013618732 -0.0005651215 0.0022161037 -0.0012204064 -0.00059538346 0.000512405
-0.00039518665 0.00061372895 0.00097359007 -0.0011494486 0.00045074028 0.00057671085 -0.002064892 -0.0010015214
-7.9637e-05 -1.8936134e-07 0.00021660952 -0.0008630281 0.0009817746 0.00028228635 0.0015374848 -0.0012715736
5.602493e-06 0.0011112323 0.0020850548 0.000999074 0.0006301467 0.0018472748 -0.0010537007 0.0010414881
0.0027790358 -0.0016223788 0.001554357 0.0022801266 -0.00035287472 0.006432611 -0.0021450603 -0.0015872306
0.004132085 0.0019308309 1.2948706e-06 0.0021664326 0.0014690894 -0.001247754 -0.0012031544 -0.0016370974
0.0017164465 0.00021342502 0.016800908 -0.00675388 -0.018499402 -0.0008233307 0.0059129857 -0.011540053
0.010484763 -0.000875538 -0.0054167463 0.01152449 -0.00022747756 -0.0041520456 0.0028611484 0.004316487
-0.010962645 -0.0125981085 0.0044746464 0.008566902 -0.021063933 0.0038669654 -0.018022448 0.008973429
0.0118381735 0.009258205 0.011621565 0.0071865194 0.009685307 0.003212904 -0.0042112465 -0.0053793294
0.0016502131 0.0033943634 0.0058915 0.009885004 0.0076254047 0.0036375904 0.0058926744 0.012237186
-0.007992808 0.028061343 -0.017800702 -0.0018892516 0.02095285 0.011000945 -0.011680457 0.011437073
-0.0069370014 -0.0019649288 -0.0019387179 0.0012923054 0.012493822 -0.0032921515 0.0017377944 0.00031915223
-0.00081334246 -0.00032437453 -0.00077697245 0.0017498388 -0.00040873088 0.0016901096 0.0032187204 -0.0006902061
0.0040415046 0.0047975588 -0.0021621664 0.014553215 -0.0034525075 -0.0015159958 0.0076012174 0.005579699
-0.0040896786 0.0013207552 -0.0029429428 6.7982815e-05 -0.0009877358 0.0006770041 0.005806162 -0.0023252517
0.0126611395 -0.014175233 -0.01909738 -0.0068724775 0.0024931473 -0.019075003 0.012540748 -0.008194708
-0.01581485 0.011767031 -0.008616565 -0.011113885 0.012121259 -0.001350207 -0.0020401573 -0.007137772
-0.005021814 0.0012887425 -0.018620562 -0.0023543613 -0.022310348 0.0088177165 0.014891501 0.010329382
0.0006216892 0.008433317 0.009642817 -0.009962459 -0.016387748 -0.00029660307 0.0016924426 -0.012400259
0.014193382 -0.0037159198 -0.0065588807 0.0078293625 -0.0052819066 -0.0132749695 0.006300299 -0.008137374
-0.003075495 -0.004675977 -0.0065628123 0.004903809 -0.010018231 0.0019091741 -0.014087074 0.0053737103
