scripts/early_stopping_state.pt (torch, 434818 bytes, 49 tensors)

conv1.weight f4 [100, 20, 3]
00000000: 8c2c 643d 620b 8d3d 17b1 8ebd 4d54 4fbc
00000010: 89e1 003a 62b9 9d3d 03ed 303d 71a9 4fbc
00000020: 4097 d739 bcea ae3d 32c6 883d 3603 bd3c
00000030: db1c d03c 482d cdb9 c4ec 73ba 1f18 c4bc
00000040: 1fed 563d 8f84 f73c b8c0 5fbb 8104 6539
00000050: 6079 95bc 6a65 02bd da76 d43d 0c88 9b39
00000060: 1560 bc3d 1a40 7939 8822 b0bd ab5c 03bc
00000070: 4f49 a9b9 21b4 c13d 0f18 eb39 45c7 1a3d
00000080: 4832 1a3c 2608 be3d c935 a039 23b6 0c3d
00000090: c87a 123a b5f6 c53d a4c3 abba 11c1 5fbc
000000a0: 0b80 44ba 2467 0439 5e53 763d 2a59 ce3c
000000b0: c985 533b b52b 83ba 4004 9339 2af7 033d
000000c0: b1eb ef3c 6736 8d3d 426c d2bb 5591 ee3c
000000d0: a33c 29bc 2d65 debb 41a3 433a 3146 acba
000000e0: a791 d1bb dbc4 8abb 2fd9 71bd 97fd c53c
000000f0: 5a7d 1dbd e177 6ebc 5fc1 703c b7b1 f23c
00000100: ac37 b7b9 00d6 1d3d 94c9 903b d60e 38bc
00000110: 42cb c139 7b8b 233b 98e0 523c a8c2 76bd
00000120: 3e1b 4bbc 97f7 2b39 452c 1b3e 0cd7 23bd
00000130: 7b9b 5f3d bf2e 303d ea4f 023c 2212 0a3d
00000140: 1958 7c3c a5f5 3a3b 7713 4cb9 cff3 3f3c
00000150: 7ab3 ef3c 73de 99bb 8b63 d73b cc05 c03d
00000160: d9ea 19ba e2d5 a7ba b662 ac3b 4421 5d3c
00000170: fe38 823d ecbe 713d bd20 553d a33b ce3a
00000180: b550 62bc f31b a5bb e84d 1e3c 3767 323c
00000190: 376a 603c 1aed 793d 5964 393d 7cba 1abd
000001a0: 8f41 6a3c da15 373c f11c ac3c 24b1 003b
000001b0: 8c2b e83c bef0 c03b 7fed a2bc b03f 80bc
000001c0: 4cde db3d 60eb 13bc c7c9 b73c ab0a 47ba
000001d0: 47c9 49bc a7f7 c93b dde9 39bd 06c1 9fba
000001e0: daaf cbbc ef9d 883d 45b9 873d 4b12 c13d
000001f0: c5a2 9339 1ba6 453c 4e4e a13c 8330 d83b
00000200: 5431 7bbb 3c29 94ba 5d4a 8ebc 2293 10bd
00000210: 0c24 e1ba 85cb 9d3a 81ba de3d 3981 24bc
00000220: 0b7a d9bc dbce 30bc 0faf 3fbb f61d d23d
00000230: 23f7 273d 9057 b23d 35e7 58bb 7cc3 e93c
00000240: 86a6 a0bc e81e c43b 10b0 98bd 5a12 b73d
00000250: c8fd fe3c 24b4 95bc 6192 8abb 345d b6bb
00000260: 0714 b93c f2d3 f93d b70b 293c 7687 323a
00000270: ca16 05bd 28ed adba e869 6f3d d576 54ba
00000280: 6918 433d 40e0 e5bb c6a7 99bc 6352 273d
00000290: a18d 5bbd c517 dd3c cb3e 283d e4e5 82bd
000002a0: c432 303a ad77 cabb ee22 923d d088 d33c
000002b0: 4f01 57bc fad9 aebc d5c9 f4ba e66c 6939
000002c0: 9fcb 973a 0983 213c a659 49bd dc1b 1a3c
000002d0: 87a7 943d f828 423d e1b8 5bbc bb39 553d
000002e0: f767 6139 a9f9 aa39 98cc 793d 0fc7 a1bb
000002f0: d770 433a 1fbe a3ba ea43 11bc abdc 46bd
00000300: 9555 0cbb 6119 70bc 4323 34bd 7b6b c6bc
00000310: 8d17 ae3c 43be 86bc 6937 8c3a 4652 42bd
00000320: 6ae4 d8bb c0fe ca3c 2043 013a 6333 483c
00000330: 0036 563c 5d5c 03bc b9e7 25bb af18 c3bc
00000340: f562 443d 827b 59bc 5371 cd3a f5d2 a93c
00000350: f7cb f2bb 4665 28bd 9ca3 4e3b 8127 383c
00000360: 1f91 17bc 30b1 efba 3a1c 46bb 7b86 ed3c
00000370: fe8e 153b b3c9 2dbd 260e 73bc f97f 473d
00000380: 7411 ba3a 6bea 2db9 832b 80bb 7d17 073d
00000390: fbce 65bc a73b b33c ca33 c7bc 65cb 9b3b
000003a0: 5e48 f53a edd4 973d f979 fb39 4e27 9b3b
000003b0: 5a14 eb3b 23f1 703a e6bb 973d b96e 913b
000003c0: 354d 973d b7e8 6ebc 714a 2eba 41c9 2a3d
000003d0: 3df8 6139 5dd2 6a3d 0cfd 893c d3f0 3eba
000003e0: 89c6 0fba a878 ff39 5b10 253d 3399 713c
000003f0: 15f9 a2bc 7649 153a 07b5 f53c 4a76 373d
0.055706546 0.06886937 -0.06967371 -0.012654376 0.000491642 0.077013746 0.043194782 -0.012674675
0.00041120686 0.08540866 0.06678428 0.02307282 0.025404384 -0.00039134384 -0.0009304995 -0.023937283
0.05247223 0.030214576 -0.003414197 0.0002184082 -0.018246353 -0.031834997 0.10374232 0.00029665267
0.09198014 0.0002377037 -0.08600336 -0.008017699 -0.0003228881 0.09458185 0.00044840618 0.037787694
0.009411402 0.09278898 0.0003055765 0.034353387 0.0005587754 0.09666196 -0.001310457 -0.01365687
-0.00074958865 0.00012626924 0.0601381 0.025189001 0.0032275787 -0.0010007533 0.0002804119 0.032218136
0.029287191 0.06895142 -0.0064215967 0.029122034 -0.010329398 -0.0067869634 0.00074629864 -0.0013143477
-0.006395537 -0.004234893 -0.059045013 0.024168773 -0.038449623 -0.014554949 0.014694541 0.029625757
-0.0003494596 0.038534164 0.0044185612 -0.011234006 0.00036963267 0.0024954963 0.01287093 -0.060244232
-0.012396632 0.00016400065 0.15153606 -0.040000007 0.054591637 0.04301333 0.007953623 0.0337087
0.0154018635 0.0028527763 -0.00019462207 0.011715843 0.029260386 -0.0046957075 0.0065731457 0.09376106
-0.0005871482 -0.0012804831 0.0052607907 0.013496701 0.06358527 0.059019968 0.052033175 0.0015734326
-0.013813187 -0.005038732 0.009662129 0.010888866 0.013697199 0.061017133 0.045261715 -0.0377755
0.014297857 0.011174643 0.021009894 0.0019636834 0.028341077 0.0058880737 -0.019888638 -0.015655369
0.10735759 -0.009028286 0.022435082 -0.0007592837 -0.012316055 0.0061635557 -0.045389045 -0.0012188263
-0.024864126 0.066707484 0.06627134 0.09427317 0.00028159298 0.012063528 0.019690659 0.00659758
-0.0038328962 -0.0011303793 -0.017369444 -0.035296567 -0.001717688 0.0012038803 0.108754165 -0.010040575
-0.026547452 -0.010791506 -0.002924863 0.10259621 0.041007172 0.087081075 -0.0033096795 0.028535597
-0.019610655 0.0059851296 -0.07455456 0.08939047 0.031126872 -0.018274374 -0.0042288755 -0.00556531
0.022592558 0.121986285 0.010317734 0.00068103464 -0.032492436 -0.0013269531 0.05845061 -0.00081048656
0.0476307 -0.007015258 -0.018756758 0.040850054 -0.053601865 0.026988873 0.04107551 -0.063915044
0.0006721432 -0.0061788172 0.071355686 0.025822073 -0.013122871 -0.021344174 -0.0018675873 0.0002226118
0.001158107 0.009857901 -0.04915776 0.009406056 0.07258516 0.047402352 -0.013410778 0.05205701
0.00021496402 0.00032610938 0.06098613 -0.0049370597 0.0007455474 -0.0012492574 -0.00886629 -0.04855029
-0.0021413316 -0.014654488 -0.04397894 -0.024221173 0.021251464 -0.016448146 0.0010697666 -0.047441743
-0.006619026 0.024779677 0.0004930962 0.012219283 0.013074398 -0.008017627 -0.002531512 -0.023815481
0.047945935 -0.013274075 0.0015674032 0.020730475 -0.0074095684 -0.041112207 0.0031530624 0.011239887
-0.009250908 -0.0018287059 -0.0030229227 0.02899479 0.0022820826 -0.042428683 -0.014834916 0.04870603
0.0014195875 -0.00016585893 -0.003911437 0.032981385 -0.014026399 0.02187903 -0.024316687 0.004754471
0.0018713584 0.07413659 0.00047965327 0.00473491 0.007174057 0.00091912056 0.07408886 0.004438248
0.07387773 -0.014581851 -0.0006648666 0.041695837 0.00021550148 0.057329524 0.016844295 -0.00072838104
-0.0005484601 0.00048727286 0.0402988 0.014745998 -0.019894162 0.00056948455 0.029993547 0.044790544

conv1.bias f4 [100]
00000000: 5be1 27bb 6157 20bb f138 373a 8af6 b5bb
00000010: 601e 97bb f051 173c 68db 9f3c 976d fa3b
00000020: c593 203c 3065 d83b 3dc2 123c bfac 9cbb
00000030: 6e55 8b3c 5f8e 453a a325 8b3b e324 c83b
00000040: 55c1 273c 559d ec3b 9a23 243c 7242 b23b
00000050: f44a df3b 2e16 3bbb 0dce c83b f8b2 593c
00000060: f624 5f3a 9a02 313a c238 fb3b 8bb0 6f3b
00000070: 5ee5 003c 66fe a23b 6b39 ae3b 7eca 34bc
00000080: 8a80 7bbc 3447 8bbb 70e1 52bc 091a 18bb
00000090: 8282 e8bb 1c82 af3a d037 4abb 0343 dabb
000000a0: 7b44 f13b f0e4 18bc 88fc e137 e1dd 9a3a
000000b0: a57d 2c3b 1ef8 8bbb 48b9 8cbb 15dc 313a
000000c0: 28b8 b5bb bf14 603c e32b 543c f2f4 023c
000000d0: 214c 5cb9 9769 7b3b da0a d33a 8315 17bc
000000e0: 2bde 12bc 7767 393c 8beb 4bbb 51bb 063a
000000f0: 9b9c 63b8 1072 e73a 446a 1b3b 09e9 4f3b
00000100: 2272 5eba 5bd8 0a3b 7eb4 0bbb 07f9 9fbc
00000110: d184 4d3c 35a5 033c 4e5e 89bc 4814 38bb
00000120: 4333 a23b ae0b 8e3b 6fda cc3b d641 5bbc
00000130: e157 f93b 5cc2 d0bb 543d e2b9 6690 c4ba
00000140: ac7a 043c 477a 98b9 164d 113b a508 8abc
00000150: e18c a93c 6d13 323c 0e16 8fbb af67 243c
00000160: f917 8fbb 61b1 353b 8ade ae3a 32e9 bcbb
00000170: 8559 40bc 37f4 5dba 6a48 7a3a 3bdf 43bb
00000180: e087 94bb a37f c43c 4efa afbb a23b 47bb
-0.00256165 -0.0024466144 0.0006989381 -0.0055530714 -0.0046117753 0.009235844 0.0195138 0.0076424587
0.009800856 0.0066038594 0.008957443 -0.004781335 0.01700851 0.00075361686 0.00424643 0.006107913
0.010238965 0.007220904 0.010018254 0.00544005 0.006814355 -0.0028547156 0.006128079 0.013287298
0.00085122825 0.0006752402 0.007666678 0.0036573734 0.007867185 0.0049741743 0.0053169033 -0.011034606
-0.01535047 -0.0042504314 -0.012871131 -0.0023208878 -0.007095636 0.0013390216 -0.003085602 -0.0066608205
0.0073629 -0.009331927 2.6939684e-05 0.0011815393 0.0026320007 -0.0042715212 -0.004294548 0.0006784809
-0.005545635 0.013676821 0.0129499165 0.00799297 -0.00021009195 0.0038362497 0.0016101256 -0.009221437
-0.008964102 0.011316172 -0.0031115736 0.00051396067 -5.4266868e-05 0.0017657895 0.0023714462 0.0031724593
-0.0008485635 0.0021186087 -0.0021317299 -0.019527925 0.012543873 0.008034994 -0.0167686 -0.002808826
0.0049499585 0.0043348884 0.0062516253 -0.013382396 0.007609353 -0.0063708257 -0.00043151772 -0.0014996647
0.008085888 -0.00029082803 0.002217119 -0.016849825 0.02069706 0.010868889 -0.004366643 0.010034486
-0.0043668714 0.0027724134 0.0013341468 -0.0057651037 -0.011740093 -0.0008466872 0.00095475337 -0.0029887694
-0.004532799 0.023986643 -0.005370415 -0.0030400534

conv2.weight f4 [100, 100, 3]
00000000: 5840 493b fcb1 ac3c 3262 e1b9 3860 203c
00000010: b1da 013c 31ad 84bc f902 f3ba 7322 4dba
00000020: 745e b13b 0090 b43b 7f9c ebbb f8eb 88bb
00000030: 9b64 373b fbc7 33b9 216b 0aba bdc4 293b
00000040: 447d d7bb 8a4d 15bb d1e9 003c a14f 253b
00000050: c950 2c3c 0880 fe3b d8fd fb39 ffbf 39bc
00000060: a5bd 1cba 1c49 b4bb 5731 113c f043 e5bb
00000070: dfa4 db3a 5128 763b 0628 ae3b 3ce7 c83a
00000080: 7e94 b53c 5ad0 ab3a 8fa2 6abc 9b14 d23b
00000090: 8876 20b9 ade2 85bc 173b dbbc 7342 5d3c
000000a0: 24db 813c cc08 e2bb 9285 be3b 67f2 2bbb
000000b0: aa4d 5e3b 982b e9bb 60b2 9a38 5e33 a6ba
000000c0: 0af5 02bc d043 e53a 7f16 a8bb dd12 853b
000000d0: 2575 6b3a 7bc1 22bb d6cf 68bb 21b2 753c
000000e0: 5032 1cbc 4b7d f4bc c221 1d3c 0b5d 113a
000000f0: 631e b6bc 9001 90bc 279d 4bbc ee63 62bb
00000100: 7509 9abc 9071 b1bb f379 083c e9d9 323c
00000110: 065b 15ba 22d0 5cbb 8bd5 1f3a 0bb6 e4bc
00000120: 9ea5 86bb 2c80 da3b 0f0f c1bb f12d 193a
00000130: 192f 89bc 7b57 61bc 83ab e3bb 4e61 203a
00000140: 3026 d3bc 2425 9c3c 850c 6f3c 14a4 28bb
00000150: 3492 87ba 66ea 263c 46b9 8e3b 6f4e 12bb
00000160: 115f 9a3c e6fb 6dbb d704 1a3c 96f0 133c
00000170: 13b5 503c 6fa2 cebb f20c 0bbc fec4 473c
00000180: 3080 adbb 95d3 973b 9c81 093c db3b 3b3b
00000190: 7d85 80ba 9b87 f3bb 6168 713c 5765 333b
000001a0: aa2b f8bb d0b1 c33b 5e3e 36bc 63d2 00bc
000001b0: be13 ea3b 63cd 943c 0d68 e9b9 f0c2 82bb
000001c0: 197d 26bc f46c c83b 4b4d cb39 7297 2e3b
000001d0: bb74 97bc c997 803c e26b ed3b 916f 533c
000001e0: 91f9 313c 5771 303c f811 883b 189a 83bc
000001f0: 1e8c eb3b 3282 ccbc 13f7 5aba 8c3d cd3b
00000200: f513 a9bc 102b 573c e86f 953b 0f34 a4ba
00000210: b40c 02bc 98f1 bfbb 2bb9 a93c 41a6 47bc
00000220: 5f72 93bb 8ba3 b6bc e634 283b 739f bb3b
00000230: 157f 8e3c 3db0 68bb d7d2 823c 188c c0bb
00000240: 1344 f13a 1327 403b b0cf 003c 5485 77bb
00000250: e86f af3c fa83 d73a 6168 883a ebd9 65bc
00000260: 1b53 9ebc 743d 983c 7ce4 96bb d8c0 653b
00000270: b443 60bc 4b8b f7bb 6547 00bc 1095 8eba
00000280: 4d4a 13bc 8da3 6bbb 51ce 9fbb 60bc babb
00000290: f320 a53b f3c4 5bbc 4ae7 febb f4ae efbb
000002a0: d720 62bb 2a4c 543b 0164 95ba 9fe1 613b
000002b0: f854 16bb 5fdd 66bc 7e09 0a3c 5b07 e8ba
000002c0: bc0d 223c 0e2b 273c bd04 62bc 6690 d63c
000002d0: 84c3 883b db58 c5bb a754 d13c acea 9abb
000002e0: 8b45 f83c 0362 553a d396 ce3c 825e da3a
000002f0: da99 adbb 9331 57bb 5ee6 57bc 986f 9bbc
00000300: 5522 68bb de5b 2dbc 8770 603b e2f3 f93b
00000310: eee0 b8bb 566e d8bc f242 5bbb 9fa0 7cbc
00000320: 3bdd 8dba de5d 983b fdbb 4d36 e91a 05bb
00000330: 50df 77bb 9218 4cbc 52ea 2abc a8c3 063b
00000340: 401a b7bc 3544 1dbb c61b eb3a 1622 a2bb
00000350: 0b4b 79bc 567e 143c 915b 1dbb 86de ea39
00000360: 08f1 cf3b 5cfa 4fbb a7f7 4c3c bea9 21bc
00000370: 8a66 543a 9285 963c a846 cc3c fe58 043b
00000380: 56da 72bb a30d 7d3c d24b 6dbc 7a7c 003c
00000390: 2325 03bb 8345 033c a3b7 bc3b e472 73bc
000003a0: 3852 a9ba 53c5 863c 69bc 603c 366e 7dbc
000003b0: bf3c a33a 57b4 533b a170 63bc 1df1 c9ba
000003c0: dbc4 26bc eb43 54bb 3644 2dbc 4491 cf3b
000003d0: d41a 663a 1ed1 a53c 8541 28bc f65b 123b
000003e0: ceb6 84bc 4fcb 2e3a 4aa9 53bb 45db 8d3c
000003f0: 8feb 4ebb 4e7f ebbb 5233 06bc c6f8 ad3b
0.0030708518 0.021080963 -0.00042988505 0.009788565 0.007925675 -0.016195865 -0.0018540315 -0.0007825263
0.005412871 0.00551033 -0.0071902866 -0.0041785203 0.002798355 -0.00017145269 -0.00052802457 0.0025904619
-0.006576212 -0.0022781813 0.007868246 0.0025224464 0.010517308 0.0077667274 0.0004806358 -0.011337279
-0.0005979187 -0.0055018794 0.008861861 -0.006996624 0.001675751 0.0037560652 0.0053148298 0.0015327702
0.022165533 0.0013108358 -0.014320984 0.006411148 -0.00015302945 -0.016343439 -0.026761575 0.013504612
0.015851565 -0.0068980213 0.0058142627 -0.0026237012 0.0033920803 -0.0071157925 7.376517e-05 -0.0012680104
-0.007992992 0.0017491523 -0.005129635 0.0040610866 0.00089819945 -0.0024834562 -0.003552427 0.0149960825
-0.00953348 -0.0298449 0.009590568 0.00055451755 -0.022231286 -0.01757887 -0.012427605 -0.0034544426
-0.018803338 -0.005415149 0.008329856 0.010916212 -0.00056974625 -0.0033693393 0.0006097189 -0.027918836
-0.0041090986 0.0066681113 -0.0058916877 0.00058433326 -0.01674609 -0.013753767 -0.006947936 0.0006118015
-0.025775045 0.019060679 0.014590387 -0.0025732564 -0.0010343255 0.010187721 0.0043555824 -0.0022324582
0.01884416 -0.0036313473 0.009400568 0.009029528 0.012738484 -0.0063059847 -0.008486973 0.012192963
-0.005294822 0.004633377 0.008392718 0.0028569612 -0.0009805408 -0.007431937 0.0147343585 0.0027373636
-0.0075735645 0.0059721246 -0.011123268 -0.00786266 0.0071434667 0.018164342 -0.00044518747 -0.0039905235
-0.010161662 0.006116504 0.00038776765 0.0026640561 -0.018488279 0.015697377 0.0072455266 0.0129050175
0.010862724 0.01076921 0.0041525327 -0.016064689 0.007188334 -0.024964426 -0.0008352857 0.0062634405
-0.020639399 0.0131328255 0.0045604594 -0.0012527722 -0.007937599 -0.0058576576 0.020718178 -0.012185634
-0.004499718 -0.02229478 0.0025666296 0.005725795 0.017394582 -0.0035505437 0.015969677 -0.0058760755
0.0018407129 0.0029320165 0.007862017 -0.0037768679 0.021415666 0.001644253 0.0010407084 -0.0140290065
-0.019326737 0.01858399 -0.004604874 0.003505757 -0.013688017 -0.007554447 -0.007829522 -0.0010878164
-0.008989883 -0.0035955638 -0.0048768898 -0.0056987256 0.0050393282 -0.013413656 -0.0077790366 -0.007314557
-0.0034504437 0.003239403 -0.0011397601 0.0034466756 -0.002293883 -0.014090865 0.008425115 -0.0017702387
0.00989097 0.010203136 -0.013795075 0.026191901 0.004173698 -0.0060225553 0.02555306 -0.004727682
0.030306598 0.000813991 0.025218403 0.0016660246 -0.0052978816 -0.0032835945 -0.013177482 -0.01897411
-0.0035420854 -0.010580985 0.003424676 0.00762795 -0.005642048 -0.0264198 -0.003345665 -0.015419154
-0.0010823378 0.0046498617 3.0656804e-06 -0.002031023 -0.0037822314 -0.01245703 -0.010431843 0.0020563398
-0.022351384 -0.0023996953 0.0017937354 -0.004947911 -0.015215646 0.009063324 -0.0024010877 0.0004479775
0.006345872 -0.003173492 0.012510217 -0.00986713 0.0008102438 0.018374238 0.024936035 0.0020194645
-0.0037056408 0.015445146 -0.014483409 0.0078421775 -0.002001115 0.008012178 0.005759196 -0.014858935
-0.001291818 0.016451513 0.0137167955 -0.015468171 0.0012454017 0.0032303536 -0.013881833 -0.001540694
-0.01017877 -0.0032389115 -0.010575345 0.0063344557 0.00087778014 0.020241316 -0.010269527 0.0022332645
-0.01620045 0.00066678686 -0.003229695 0.01731647 -0.003157351 -0.0071868068 -0.008190947 0.005309197

conv2.bias f4 [100]
00000000: a230 bf3b 0326 933c 63c0 08bb 3806 353b
00000010: a4d2 a93b e0c1 183b 0517 edbc 87a4 28bc
00000020: bb23 1ebc 5814 28b9 7a2c 40bc 8811 cb3b
00000030: 78d9 d1bb 0991 a53b c2b1 663c 4275 153d
00000040: e4a2 bebb fd77 82bb ce86 ad3b d8e9 d63c
00000050: 6736 39b9 038a afb9 e0d4 3cbd f759 dc3b
00000060: 76d7 d23b ae32 c63c 28a3 94ba c58a ab39
00000070: 007d fd3b a839 0c3d 09d8 f73a fa9d debb
00000080: 6a8a 3ebc 470b 30bc 2964 203c 4fe4 acbc
00000090: 1376 093b 79ae 67bc 23d3 eab8 e732 a3b9
000000a0: 5266 313c bdb3 00bd 289b 15bd 5c9f ad3a
000000b0: 2694 433b 1b64 b23c c180 203c 9b16 873c
000000c0: 7fad e3bc 9a20 83bd 401d 2dbd 2e39 343b
000000d0: aaf1 203d 1860 51bd 1d32 ce3c a49d abba
000000e0: b2fd b4ba af59 05ba 2c9b 123c d86a 02bc
000000f0: 8a27 11bd 253b d13b a1c6 0dbc 8d53 fdbc
00000100: da4f bdbc 7e3d 73bb fe03 aabc b6d6 d9bc
00000110: cd2d d73b 0fbd f7bc d8a8 fabc c72d 42bc
00000120: 8eb2 cb3b e6d1 7fbb 98d2 c7bb fd25 34bc
00000130: 5723 c5bb 3456 e4bb bf1b 113c 0234 393c
00000140: 120d 4d3b 5270 ceba 7832 52bc c289 513b
00000150: 1b95 8aba dd5f 78bc 5d66 9ebc 4687 7e3c
00000160: 53d9 613b e43a 1fbc 07f7 a3bc c0c0 55bc
00000170: 516b 313b 949a 08bc ff60 053c 53e9 e5ba
00000180: 3670 563b 2611 9e3b 2968 843c 069e 803b
0.005834655 0.017962461 -0.0020866625 0.0027622115 0.005182581 0.0023308918 -0.02894164 -0.010293133
-0.0096520735 -0.00016029307 -0.011729354 0.0061971582 -0.006404098 0.00505269 0.014080467 0.03648878
-0.005817758 -0.003981589 0.005295611 0.026234552 -0.00017663241 -0.00033481428 -0.04610145 0.006724592
0.0064343764 0.024194088 -0.0011340128 0.00032719053 0.0077358484 0.034234673 0.0018908988 -0.0067937346
-0.01162968 -0.010744876 0.009789505 -0.02110496 0.0020974919 -0.014140719 -0.00011197317 -0.00031127708
0.010827618 -0.03142141 -0.03652492 0.0013246345 0.0029842942 0.02177625 0.009796322 0.016490271
-0.02779269 -0.06402703 -0.042264223 0.0027499902 0.03929297 -0.051117033 0.02517038 -0.0013093245
-0.0013808517 -0.0005086911 0.008948129 -0.007960044 -0.035438098 0.0063852244 -0.008653314 -0.03092363
-0.023109365 -0.003711551 -0.020753857 -0.02659164 0.006566739 -0.030241517 -0.03059809 -0.0118517345
0.0062163537 -0.0039035021 -0.006098103 -0.010995385 -0.0060161757 -0.006968284 0.008856713 0.011303904
0.0031288308 -0.0015750027 -0.0128294155 0.003197298 -0.0010573001 -0.015159574 -0.01933592 0.015535181
0.003446181 -0.00971863 -0.020015253 -0.013046443 0.0027072022 -0.008337636 0.008140801 -0.001754085
0.0032720692 0.0048238216 0.016162949 0.003925088

rnn1.weight_ih_l0 f4 [104, 100]
00000000: 4a9d 4fb8 499e 4139 ad54 b9b8 c69a d8b9
00000010: f164 3d3a b887 b438 501e 2539 88a1 1539
00000020: 8e36 bf35 7b24 d839 1942 84b8 4e80 4939
00000030: c744 50ba 9ae0 c338 f589 7939 3b78 a937
00000040: 1fb9 4fb7 d2f9 76b9 a002 ecb4 b516 61b9
00000050: 337a e039 af84 d636 18b5 8b39 b8a0 c3b9
00000060: ad3c a539 963a 2637 6c4d 35b9 1f27 f6b9
00000070: 6075 c9b8 ba17 b939 e8d6 a8b9 7d1a d2b9
00000080: 9ac3 de39 22ea 3bb9 300d 423a d557 2439
00000090: 35ae 9039 94f4 a139 24b5 d436 fe6a 5139
000000a0: 52d2 d639 6d9b 0539 5ba9 f838 1188 1439
000000b0: f006 9d36 ccec 103a 76fc 91b7 a635 7cb9
000000c0: 5a69 b538 c70c a838 c5fb 17b9 df49 a139
000000d0: 44c2 4639 8789 a739 62ba c839 25bf 0139
000000e0: 9b62 c8b9 204a d839 de2c 4638 e8c5 b739
000000f0: 8e2e f539 c240 c6b9 b43a 2439 b339 36ba
00000100: c319 b339 5c0e 96b9 08d2 87b9 ee61 223a
00000110: 82e6 9db9 5616 0d39 b73a bbb9 0f7f 5739
00000120: 57b4 6a39 e247 e3b9 3b25 3b3a f86a 8639
00000130: 0dd1 13b9 4b88 fab9 6a26 6139 cb8a 59b9
00000140: ac90 a4b9 20eb 593a 5a84 92b8 5a7d 2a3a
00000150: ea70 b5b8 1dd4 4ab7 0b5c 6dba 0d72 83b8
00000160: 1fd7 ba39 c41b dd38 e25e 1c37 bcfe 4f38
00000170: e109 b239 bc51 2c39 df7e 9c38 1e2c 6f39
00000180: 1edf 45b8 e2f9 0038 ff37 3b39 62a8 1339
00000190: 1114 b738 af95 c337 7e93 48b9 d993 7939
000001a0: ba52 dd39 b31a edb9 12e5 7e35 a601 3db8
000001b0: 0a49 94b8 4176 0ab9 a429 d039 d89b 9db3
000001c0: 2387 cd3a 52cd 90b9 6fa2 fc38 99cc 103a
000001d0: 9e09 673a c45f ab38 cb8f bab9 6829 87b9
000001e0: a375 1fb9 d58b dc39 f4c6 fbb8 2455 ca39
000001f0: 1d97 9eb9 7853 34b9 7dc0 c2ba 0bc3 ceb9
00000200: d5f2 38b9 446a 26ba 35ac 073a a336 1e39
00000210: c0ee 15ba b456 a338 2db3 c3b9 c197 7eb9
00000220: 581c 2db9 d5bb 61b9 5f9e 673a 6c11 7139
00000230: 280a a739 fef8 36b9 bf7b 7c3a 1bfd 87b9
00000240: cd6f 9138 77fc 173a 203a 40ba 7644 46ba
00000250: e1aa 00b9 c248 0239 df21 1239 865e ecb9
00000260: 39de d339 5f5f efb9 c34a 9d39 5870 1fb9
00000270: 2946 f13a ec94 0e39 04ec 1939 7f09 5ab8
00000280: da33 2db9 acc4 e8b9 14ab 1d3a b956 afb9
00000290: ae6f 4aba a625 f138 f5ba b3ba 139e 93ba
000002a0: 5e54 33ba 438c 57b9 0511 f939 7852 1db9
000002b0: 07e2 1f3a 8aae 0db7 d49b 27b9 2a98 9f39
000002c0: afe2 97ba 693f 05b9 3873 373a e7f2 9939
000002d0: 40c2 8439 78f5 91b9 0f96 ad39 625c b8b8
000002e0: 9e05 1db9 f9f1 8339 fd35 213a 3a42 d6ba
000002f0: a8ba 043a 3011 c7b8 d305 b938 0714 5a38
00000300: fe17 90b9 19c8 d639 907c 08ba cced b5b9
00000310: 69d8 b8b8 d55d e038 89c4 28b9 2da9 323a
00000320: 0e32 84b9 46ad 0eb9 994f 343a edc9 6d3a
00000330: a63f 10bb 6e5a b5ba 5c2e 7fbb 06e7 9938
00000340: 89b2 df3a 3fcd 0b3b 1dd6 233a 9bc5 0937
00000350: 55db 063a f856 d5b8 ffcb 32b9 be56 473b
00000360: d462 84ba cd4a 30b9 dc43 a1b9 cc08 c7b7
00000370: 9e08 8fba df46 bfb9 d1a6 c538 7e4e 85b9
00000380: 7a39 6f38 8013 d2b4 46da 43bb ebd3 21ba
00000390: 789d 11b7 10f8 0436 2a9c 54ba 0f0a 9836
000003a0: c2d5 ac39 3ede 7b3a 518c f239 0238 013a
000003b0: 3034 e0b9 8884 5239 bfcb 28ba 9432 6436
000003c0: fd39 4e3a 02a6 a43a 902e 83ba ae39 d438
000003d0: 9984 9ab9 8afd c5b8 fa3a 823a 940b ad37
000003e0: a313 64ba a463 903a b7ff 5d3a 334d b9ba
000003f0: c4d2 37ba ff99 033b b13b cd3a 3b9a 99b7
-4.9499133e-05 0.0001846488 -8.8372595e-05 -0.00041314046 0.0007224819 8.6083484e-05 0.00015746919 0.00014269922
1.4246486e-06 0.0004122591 -6.306562e-05 0.00019216651 -0.0007944819 9.34016e-05 0.00023797883 2.0202357e-05
-1.2381263e-05 -0.00023553454 -4.3960335e-07 -0.00021466131 0.00042815655 6.3931434e-06 0.0002664707 -0.00037313043
0.0003151646 9.908012e-06 -0.00017290347 -0.00046949924 -9.60629e-05 0.00035303627 -0.00032203575 -0.00040074057
0.00042488874 -0.00017920931 0.0007402478 0.00015672979 0.00027595615 0.00030890538 6.33918e-06 0.00019971651
0.00040973962 0.00012741769 0.000118571064 0.00014165069 4.6797722e-06 0.00055284495 -1.7402908e-05 -0.00024052578
8.650376e-05 8.013244e-05 -0.00014494274 0.0003076335 0.00018955121 0.00031955188 0.0003828584 0.00012373606
-0.0003822044 0.00041253958 4.7248664e-05 0.00035051932 0.00046764727 -0.0003781375 0.00015662127 -0.0006951347
0.00034160735 -0.00028620928 -0.00025905692 0.0006194402 -0.00030117115 0.00013455129 -0.00035711165 0.00020551331
0.00022383161 -0.0004335037 0.00071390317 0.0002563817 -0.0001409689 -0.00047785262 0.00021471982 -0.00020746437
-0.00031388307 0.00083129294 -6.986475e-05 0.0006503664 -8.6517844e-05 -1.2089525e-05 -0.0009054548 -6.2678104e-05
0.00035636962 0.00010543273 9.320416e-06 4.9589886e-05 0.00033958166 0.00016433647 7.462291e-05 0.00022809251
-4.7176254e-05 3.07503e-05 0.0001785457 0.0001408174 8.729858e-05 2.3315513e-05 -0.00019128431 0.00023801568
0.0004221404 -0.00045224055 9.4955715e-07 -4.5062647e-05 -7.0707945e-05 -0.00013204759 0.00039703876 -7.33923e-08
0.0015680533 -0.00027618796 0.00012046552 0.00055236515 0.0008813384 8.171753e-05 -0.0003558382 -0.00025780057
-0.00015207245 0.00042065853 -0.000120056706 0.00038591877 -0.00030248697 -0.00017197232 -0.0014858391 -0.000394367
-0.0001763807 -0.0006348232 0.0005175502 0.00015088408 -0.00057194754 7.7885954e-05 -0.00037326795 -0.0002427986
-0.00016509125 -0.00021527645 0.000883555 0.00022990041 0.0003186029 -0.0001744963 0.0009631477 -0.00025937785
6.934963e-05 0.0005797813 -0.000733288 -0.0007563302 -0.00012270689 0.0001242487 0.00013936263 -0.00045083853
0.00040410625 -0.0004565669 0.00030001075 -0.00015205273 0.001840775 0.00013597653 0.0001467914 -5.1984094e-05
-0.00016517882 -0.0004439702 0.00060145673 -0.00033443214 -0.000772233 0.00011498788 -0.0013712334 -0.001126232
-0.000684088 -0.0002055625 0.00047505661 -0.00015003409 0.00060990494 -8.444893e-06 -0.00015984412 0.00030440214
-0.0011587943 -0.0001270749 0.0006998065 0.0002936341 0.0002532173 -0.00027839444 0.00033108934 -8.791011e-05
-0.0001497478 0.0002516655 0.00061497075 -0.0016346641 0.00050632143 -9.492261e-05 8.822572e-05 5.1993902e-05
-0.00027483696 0.00040966345 -0.00052065495 -0.00034700183 -8.814113e-05 0.0001069863 -0.00016094944 0.000681537
-0.00025214296 -0.00013606725 0.0006878316 0.0009070922 -0.0022010594 -0.0013836154 -0.0038937544 7.33864e-05
0.0017066757 0.0021332053 0.0006249862 8.211845e-06 0.00051443774 -0.00010172831 -0.00017051397 0.0030416693
-0.0010100254 -0.00016812533 -0.00030758872 -2.3726745e-05 -0.0010912602 -0.00036483162 9.424764e-05 -0.00025426218
5.703557e-05 -3.9129736e-07 -0.002988474 -0.0006173241 -8.679337e-06 1.9813924e-06 -0.00081104285 4.531124e-06
0.00032965658 0.0009608007 0.0004626238 0.0004929305 -0.00042763492 0.00020076532 -0.0006439052 3.4004088e-06
0.00078669173 0.0012561681 -0.0010008384 0.000101196914 -0.00029471962 -9.440917e-05 0.0009935789 2.0628599e-05
-0.0008700436 0.0011016023 0.00084685854 -0.0014137387 -0.00070123025 0.0020080802 0.0015658048 -1.831084e-05

rnn1.weight_hh_l0 f4 [104, 26]
00000000: e1f9 bab7 f1d2 cfb4 7dae 9336 6c7a 7b36
00000010: 0a5b bb36 6fa0 9237 03a3 1c35 4f9b 1fb7
00000020: f168 2137 142f 2bb6 1c5d 8fb7 64d4 b736
00000030: 3611 a137 c141 a4b6 c43c 8db6 6e18 99b6
00000040: 7cc2 a3b7 0071 0ab8 6fc7 03b7 796c 73b7
00000050: 8154 7b36 0108 8d37 ee0a 06b7 0aba 79b7
00000060: 2d4e f436 cbb7 eeb6 8c08 ee36 0ffe 8135
00000070: 9019 03b5 8dc3 2db6 1fa9 0fb6 788f 82b6
00000080: 2a93 8b35 2875 b135 a7f6 64b6 3f38 a035
00000090: a012 8836 e62c e7b5 376c 57b6 9f5c 85b5
000000a0: e3da 9635 3b38 1435 4c7e 2735 2c58 a136
000000b0: 907a a735 7131 b836 3be4 f634 d061 ceb6
000000c0: 080f 0336 544f a436 28ca 9ab6 5c84 3935
000000d0: a647 86b7 a304 e7b5 a5f1 c536 9498 ab36
000000e0: 3ba0 0736 5ca3 7e37 3880 ac36 7b9c a8b6
000000f0: 9d65 3237 2505 1234 26b6 7eb7 409c b036
00000100: a919 2c37 8254 8c36 df8c 6fb6 ff7d 0ab7
00000110: 8b8e 3fb7 6c99 8cb7 de24 24b6 4265 beb7
00000120: 271e 3936 f4c0 9037 5ea9 e7b6 0ed7 32b7
00000130: 3821 a236 cd8c c235 c852 08b8 5fee 0cb7
00000140: b434 ea36 3f4d eb36 71eb 28b7 1ce8 a337
00000150: cc06 30b5 0d88 21b7 7d64 9d37 890b 11b7
00000160: 3e74 10b8 282d 8637 8e65 f537 efd8 8237
00000170: 0737 52b7 4b3b d7b7 bdcb 80b7 4f35 39b8
00000180: 7ffc 27b7 12a7 7cb8 f792 e536 107b 3738
00000190: f3b0 afb7 2812 16b8 4983 c837 0b6c 0a36
000001a0: c903 8538 455e 4737 e6fa 09b7 f384 d7b7
000001b0: 15ab 9837 05de 8ab7 0323 0735 e93e 5337
000001c0: 0843 e3b7 cb86 9c37 c289 1d38 7fe0 aab7
000001d0: f35a 1fb8 e596 7436 7f37 5236 5d9c 0536
000001e0: 4890 a137 e144 5d38 c1cd 9a37 63ae 0938
000001f0: a004 4ab5 c705 09b8 5263 7d36 f930 2038
00000200: 051a 18b8 0260 80b7 e587 3a37 1416 2536
00000210: 6b23 4934 a33c dcb6 3f1c 9034 f98d 65b7
00000220: cbd3 d0b5 a16c 8d36 cb66 74b6 bc4f 4f35
00000230: ef06 b536 4945 b1b6 5a56 05b7 b0c3 0937
00000240: 5301 9e34 d95e 4b35 fbcb 9535 685d dd36
00000250: b244 54b6 173d 3e37 3421 4636 7564 4fb7
00000260: 86b1 48b6 c482 f436 0544 00b7 9d59 47b4
00000270: b0a8 8637 266d cc35 ca6d aab6 0c14 40b7
00000280: ac4f 23b7 3e3d 7ab7 3e2b bfb6 002c bc36
00000290: 3102 05b7 1754 20b5 c5dd 4437 7214 57b6
000002a0: 7df6 04b7 71b1 2737 19dc 1a36 2c84 b3b4
000002b0: 1376 85b6 2ad9 7037 377d 74b6 7d9b bf37
000002c0: 6e8b 3236 fd6f c4b7 a121 d636 2ad8 3f37
000002d0: d2a8 2fb7 61b4 6636 4dbd ebb7 2b0c fab6
000002e0: fb56 01b5 ca60 00b5 4680 6337 4a0d b236
000002f0: 1142 ceb7 a501 0037 0b1c 5f33 3dc2 2ab7
00000300: c7ee 26b7 13b9 6636 de6f e037 d5f0 1738
00000310: 2ce6 e7b6 3fb1 62b7 5362 71b7 5e3d 2336
00000320: 1477 f4b6 1476 17b8 3466 4b37 8338 1238
00000330: 39ad 0d36 aef5 beb7 a91e 9e36 e79d 4eb7
00000340: 45c5 aab7 afc7 2db6 fdd0 09b6 d49e da36
00000350: 4d94 8fb6 ef70 1c37 aede 58b6 6a21 ffb5
00000360: 53dc 2837 1d6e 9eb6 2ae5 41b7 87df ab36
00000370: b15c 8c37 6f67 8e36 6bf5 01b6 fee9 42b6
00000380: 8ae1 fcb5 ec7f 6bb6 c0cc c6b6 9008 79b7
00000390: f50a 85b6 f3ad c237 e5e5 29b7 9154 75b7
000003a0: fc47 3737 5a96 5cb6 9894 c9b6 855b 3db4
000003b0: cf1f cb35 af18 7236 de5f c435 45f1 b136
000003c0: 2812 47b5 d072 94b5 2629 0136 4904 92b6
000003d0: 00b3 dcb6 1edd 1136 3f1c 2736 f08e 0eb6
000003e0: 8c9d e7b4 80ce 7cb5 6e22 9bb6 da0d 2ab7
000003f0: c59e 64b4 2621 87b6 cb11 07b5 76b3 cd36
-2.2289287e-05 -3.8710235e-07 4.4012545e-06 3.7473174e-06 5.5836326e-06 1.7479264e-05 5.835174e-07 -9.513299e-06
9.620781e-06 -2.5508389e-06 -1.7090286e-05 5.4785505e-06 1.920071e-05 -4.8952356e-06 -4.2092015e-06 -4.5625993e-06
-1.9521678e-05 -3.3007003e-05 -7.854643e-06 -1.4509184e-05 3.7451102e-06 1.6812237e-05 -7.989567e-06 -1.4884872e-05
7.2808675e-06 -7.114349e-06 7.0939477e-06 9.68519e-07 -4.88385e-07 -2.5892834e-06 -2.1407102e-06 -3.891004e-06
1.0399137e-06 1.3221625e-06 -3.4118218e-06 1.1937299e-06 4.055284e-06 -1.7223908e-06 -3.2100486e-06 -9.936228e-07
1.1239575e-06 5.521612e-07 6.2396134e-07 4.8084385e-06 1.247814e-06 5.489383e-06 4.598713e-07 -6.1506653e-06
1.952927e-06 4.896816e-06 -4.6130917e-06 6.911048e-07 -1.6007409e-05 -1.7212191e-06 5.8991886e-06 5.1139596e-06
2.0209834e-06 1.5177615e-05 5.140926e-06 -5.025007e-06 1.06332855e-05 1.3599181e-07 -1.51819895e-05 5.2633986e-06
1.0257973e-05 4.182163e-06 -3.5695773e-06 -8.254777e-06 -1.14176755e-05 -1.6760743e-05 -2.4459364e-06 -2.2696917e-05
2.75847e-06 1.7255988e-05 -6.9040534e-06 -1.0659698e-05 4.8318434e-06 1.4495105e-06 -3.2502023e-05 -8.40015e-06
6.979879e-06 7.0125384e-06 -1.0068398e-05 1.9539199e-05 -6.5575e-07 -9.628025e-06 1.8762652e-05 -8.645359e-06
-3.4440534e-05 1.5995072e-05 2.9253566e-05 1.5598225e-05 -1.2529787e-05 -2.5657608e-05 -1.5353662e-05 -4.4157085e-05
-1.00127645e-05 -6.023708e-05 6.841841e-06 4.374521e-05 -2.0944024e-05 -3.5779696e-05 2.3902992e-05 2.0626492e-06
6.342639e-05 1.1883273e-05 -8.224253e-06 -2.5691907e-05 1.8199478e-05 -1.6554268e-05 5.034237e-07 1.25912275e-05
-2.7091723e-05 1.8659417e-05 3.7560014e-05 -2.0370118e-05 -3.7993257e-05 3.6446665e-06 3.1324741e-06 1.990956e-06
1.9259882e-05 5.2754654e-05 1.8454042e-05 3.2825756e-05 -7.5257594e-07 -3.2668726e-05 3.775775e-06 3.8192582e-05
-3.6263857e-05 -1.5303496e-05 1.1118104e-05 2.4599767e-06 1.8732469e-07 -6.56357e-06 2.6842642e-07 -1.3682519e-05
-1.5558848e-06 4.2147735e-06 -3.6418667e-06 7.722954e-07 5.3950275e-06 -5.283077e-06 -7.947523e-06 8.211398e-06
2.9430757e-07 7.5761415e-07 1.1160731e-06 6.597187e-06 -3.1630448e-06 1.1339106e-05 2.9523626e-06 -1.2361551e-05
-2.9905655e-06 7.28699e-06 -7.645232e-06 -1.856592e-07 1.6052596e-05 1.5230951e-06 -5.079176e-06 -1.1448759e-05
-9.734107e-06 -1.491542e-05 -5.6972776e-06 5.607959e-06 -7.927928e-06 -5.972701e-07 1.1734145e-05 -3.2049397e-06
-7.925203e-06 9.9952895e-06 2.3075902e-06 -3.3437516e-07 -3.9774545e-06 1.4355677e-05 -3.6431718e-06 2.284138e-05
2.6605226e-06 -2.341717e-05 6.381612e-06 1.1434817e-05 -1.0470119e-05 3.4377665e-06 -2.8102333e-05 -7.451997e-06
-4.818282e-07 -4.782456e-07 1.356012e-05 5.3063604e-06 -2.4587878e-05 7.629777e-06 5.194674e-08 -1.0178014e-05
-9.949966e-06 3.4380398e-06 2.6754973e-05 3.6225498e-05 -6.911132e-06 -1.3511918e-05 -1.4387612e-05 2.4324613e-06
-7.285629e-06 -3.6111174e-05 1.2123539e-05 3.4861743e-05 2.1111466e-06 -2.2764169e-05 4.7123362e-06 -1.2315321e-05
-2.035744e-05 -2.589524e-06 -2.0536238e-06 6.5153963e-06 -4.2789966e-06 9.324619e-06 -3.2316125e-06 -1.9008705e-06
1.0064879e-05 -4.721586e-06 -1.1557053e-05 5.122219e-06 1.6732463e-05 4.243971e-06 -1.936535e-06 -2.9044454e-06
-1.8841104e-06 -3.509219e-06 -5.924696e-06 -1.484355e-05 -3.9649844e-06 2.3207604e-05 -1.01267115e-05 -1.4622828e-05
1.092441e-05 -3.287007e-06 -6.0075654e-06 -1.7635291e-07 1.5133936e-06 3.6075178e-06 1.4631039e-06 5.3030985e-06
-7.41597e-07 -1.1060274e-06 1.924645e-06 -4.351638e-06 -6.5773493e-06 2.173539e-06 2.490138e-06 -2.124285e-06
-4.3141733e-07 -9.417781e-07 -4.623368e-06 -1.0136015e-05 -2.1291915e-07 -4.0271725e-06 -5.031731e-07 6.130368e-06

rnn1.bias_ih_l0 f4 [104]
00000000: 9af1 4338 fa46 beb8 0e4b b238 bd8e 893a
00000010: fd00 7eba b6dc a438 e8e8 60b9 ff83 3a3a
00000020: bfcf 1f39 ae67 4438 1bd8 3f3a 2562 89b9
00000030: 662a 063c 863e 8238 d43b b9b8 95b8 33ba
00000040: c78e cc3a ae83 62ba 0659 e13a c260 bcb9
00000050: 550e d238 9e3a 273c d3d1 50b8 c75e 8639
00000060: 191c ddb9 55a1 273b 00e6 f2b8 fdc2 6438
00000070: ac30 db37 6689 4939 a98f 35b9 9e5f 9e39
00000080: 8276 fcb8 213f b7b9 8494 f6b8 1fde 22b8
00000090: 1eac 9ab9 23c7 a5b7 129d 2fba 7af4 ecba
000000a0: be26 c2b7 ac7b 8cb8 f44b b1b8 720f 16ba
000000b0: 923d 06ba 6b5d 1fba d235 8db9 8da3 5b3b
000000c0: 9094 9438 2e7b 253a f24b 16b9 81fe 75ba
000000d0: babd f8bc a47f fabb c599 073b ffb8 f73c
000000e0: 441c d5bc 3b25 f03c f77c 15bb 5497 9abc
000000f0: f141 be3c bf71 ab3c a231 92bc 0b55 943b
00000100: 92a8 1ebc b3d6 fa3a 048c 20bc 53fb fd3b
00000110: 53cf a6bb bc53 283d f01c fd3b 41ca 50bd
00000120: 3ed6 86bb f614 ef3c 07ee dbbb f0c6 e7bb
00000130: 9518 e53c 1e06 96bc 71f4 36b8 241b 89b8
00000140: b189 c337 ac42 733a c96f a1ba 1d9f 4939
00000150: e9d6 45ba 45ba 743a 6239 d639 ef9f e637
00000160: 47a0 f739 e3b7 abb9 d8a4 e53b 99e3 c33a
00000170: da56 ebb9 564e 97ba 384d 053b c83e 4b38
00000180: a289 d43a da80 d239 ff4d 5438 90ec d83b
00000190: 1553 9038 9da7 4039 62ed 8739 8b4a 323b
4.6716632e-05 -9.0731264e-05 8.5016814e-05 0.001049481 -0.00096894783 7.86124e-05 -0.00021449069 0.0007115006
0.00015240813 4.68266e-05 0.0007318274 -0.000262038 0.0081888195 6.210529e-05 -8.832631e-05 -0.0006855813
0.0015606516 -0.00086408376 0.0017192669 -0.00035930244 0.0001001625 0.0102068465 -4.978648e-05 0.00025629086
-0.0004217334 0.002557834 -0.000115823 5.4541033e-05 2.6129499e-05 0.00019220039 -0.00017315023 0.0003020735
-0.0001203837 -0.00034951515 -0.00011757857 -3.8830676e-05 -0.00029501406 -1.9762263e-05 -0.00066991255 -0.0018078231
-2.3144643e-05 -6.698756e-05 -8.454165e-05 -0.00057243474 -0.0005120869 -0.0006079289 -0.00026933715 0.0033514232
7.084862e-05 0.00063126057 -0.00014333407 -0.00093839323 -0.030363906 -0.0076446105 0.002069102 0.03023958
-0.026014455 0.029314628 -0.002281008 -0.018870987 0.023224803 0.020928262 -0.017845932 0.0045267395
-0.009683745 0.0019137472 -0.009799007 0.0077509074 -0.005090633 0.04109548 0.007724397 -0.050974134
-0.004114895 0.0291848 -0.0067117247 -0.0070732757 0.027965823 -0.018313464 -4.3619835e-05 -6.5377244e-05
2.3309929e-05 0.0009279649 -0.001231664 0.00019228128 -0.0007546978 0.00093356177 0.00040860014 2.7492611e-05
0.00047230927 -0.00032752668 0.0070081763 0.0014945149 -0.00044887402 -0.0011543732 0.0020340215 4.845744e-05
0.0016215334 0.00040150323 5.061738e-05 0.0066199973 6.88193e-05 0.00018372988 0.0002592607 0.0027205076

rnn1.bias_hh_l0 f4 [104]
00000000: bfda 9538 e861 89b8 2788 0138 f232 5a3a
00000010: f2cc 53ba 2a6d a938 a8e2 37b9 7db2 453a
00000020: a446 7b39 c8ef 1b38 612e 3b39 d4a7 65b9
00000030: bb53 063c 3f24 26ba 8f46 ebb8 fbc6 4bba
00000040: 99eb c03a 6dcb 933a 28b7 db3a dd2d 00ba
00000050: ca3b 0139 2eaa 1f3c 33b3 deb8 6ab2 1e39
00000060: e859 c1b9 6906 283b 29d2 d1b8 4e13 6938
00000070: a390 0138 45e0 6539 31a2 2bb9 11f9 7439
00000080: 47fa 70b9 f1b6 c5b9 be3a e7b8 8a33 d0b8
00000090: 6f44 cbb8 0979 a4b7 79d3 35ba 82e8 efba
000000a0: 4fa4 c1b7 b643 8fb7 7b11 2d3a f547 85b9
000000b0: 9202 08ba 2b36 1dba dc35 8db9 8de6 3c3a
000000c0: d819 9738 a919 543a e3e4 7eb9 b559 7bba
000000d0: b7ed 22bb 6d29 463b 3c6a f63b 0e08 413a
000000e0: 5985 173d 0b00 bc3c ddc9 d43c 1dc6 2a3a
000000f0: 31f3 143c 7224 1cbc e055 43bc 0774 2c3c
00000100: edcd fd3c 9d2c 92bc 48f0 ac3b 67c8 3bbc
00000110: 4d94 81bc 8e53 32bd 79df c93b e321 2ebd
00000120: 37e7 b23b 97d3 1e3d 35b6 e2bb ee94 ddbc
00000130: 89f8 343c 9382 c639 b5d0 063a ba42 46b9
00000140: 204a 0d39 dbce 473a f965 86b9 0f8a 9239
00000150: 5497 dcb8 0b63 863a a904 f638 aade c3b9
00000160: 17dc 4d3a 3b5d 71b9 6642 023c ba58 e739
00000170: d504 a5b9 bab1 fe38 5317 6a3a ff93 2a3b
00000180: ee8b de3a 14d6 78ba 8f45 3138 b886 2f3c
00000190: 2e4a 73ba 4f40 cf39 c411 cf39 310c 2f3b
7.145618e-05 -6.5509055e-05 3.08828e-05 0.00083236315 -0.00080795505 8.0788814e-05 -0.00017536676 0.00075415504
0.00023963541 3.7178193e-05 0.00017850987 -0.00021901663 0.008198674 -0.00063377985 -0.00011218816 -0.0007773486
0.0014718651 0.0011275836 0.0016762959 -0.00048896467 0.00012324672 0.009745164 -0.000106191634 0.00015134519
-0.00036878814 0.0025638586 -0.00010005042 5.5569508e-05 3.08907e-05 0.00021922689 -0.00016368252 0.00023362438
-0.00022981419 -0.0003771107 -0.0001102588 -9.927813e-05 -9.692541e-05 -1.9606685e-05 -0.0006936114 -0.0018303546
-2.3083905e-05 -1.7078459e-05 0.0006602031 -0.0002542135 -0.0005188371 -0.00059971464 -0.00026933744 0.00072059856
7.205055e-05 0.0008090982 -0.00024308595 -0.00095882575 -0.0024860927 0.0030237094 0.0075199883 0.0007363566
0.036992405 0.02294924 0.025975162 0.00065145065 0.0090911845 -0.009530174 -0.01192233 0.01052571
0.030981982 -0.017843539 0.005277667 -0.011461354 -0.015817786 -0.043536715 0.006160673 -0.042512786
0.005459692 0.038776007 -0.0069186934 -0.027048554 0.0110455835 0.00037862788 0.0005142794 -0.00018907609
0.00013474422 0.00076220714 -0.00025634447 0.00027950152 -0.000105186045 0.0010252906 0.00011731062 -0.00037359196
0.00078529253 -0.00023018282 0.007950401 0.0004412586 -0.00031474853 0.00012144768 0.0008929867 0.0026028154
0.0016978958 -0.00094923493 4.226487e-05 0.010713272 -0.0009280768 0.0003953003 0.00039495353 0.0026710148

rnn1.weight_ih_l0_reverse f4 [104, 100]
00000000: 987e 63ba ee37 0c3a 5344 083b 1f0a bfba
00000010: 9614 8f39 f9b5 b0bb 8897 b13b cd2c ec3b
00000020: 9753 fcba 3a49 363b bfa2 b73a 0138 8bbb
00000030: 7769 a6ba fb34 203b d6fa 32ba 8f98 dbbb
00000040: c221 983b 8ad5 9aba 67e4 6c3b b193 093a
00000050: e9fc 3abb b04e d239 7538 c93b 975f c839
00000060: fe56 a03a 0f78 f3ba 6a5c 5c3b a29a 23ba
00000070: 2afe 26bb dd4b f739 87f3 843a 0eb9 d13a
00000080: d062 41bb 1206 443b 6cd6 42bb bf1a c43b
00000090: d751 1bba f32a fc3b f8e9 6fba 9f4c b3ba
000000a0: 0179 c0bb 1e39 1b3c 0ddc f53b c164 b2ba
000000b0: 1a1b 1cba ad6c fc3a 0794 0dbb 30f6 2c3b
000000c0: 9b7a 163b 8581 d03b 55bd fd3b 4a27 f93a
000000d0: eaf8 02bb 6ccf 173c 7665 b1ba 5cbb 483a
000000e0: 1a4f 4fba 6907 3239 543c c2ba 5265 ec3a
000000f0: d5c5 f93a e12a 01bb 2153 a93b cbbd 123b
00000100: b0ff d43a 6e44 cf3b 36d0 a63b 8cc8 4c3b
00000110: 53b6 7139 16f7 f03b 4a43 c83b dac5 f239
00000120: 49ce 24ba 7f76 643a 2c5d 173b c009 543b
00000130: 7287 2d3b eec6 193b 6c23 64bb 8da3 d9ba
00000140: 63c1 d5ba da3c 233c 5ce6 4aba 2970 f638
00000150: e957 d4ba 3b7d d63a 01a4 70b9 d51b 9fbb
00000160: 7a84 91ba 6337 1839 e5eb c03b ead2 45ba
00000170: 1c45 a839 c41c 86bb e010 d03b 3b3b 2fbb
00000180: cc6d b1ba b949 91ba a20d 253b 124d 043c
00000190: 3864 bbba db83 353a 709c 053c 6243 69bb
000001a0: 2dcb eeba e24f b5bb 3364 4a3c ecb0 4c3c
000001b0: 9df1 9739 a5f8 ae3b 0b6b 263b 5213 50bb
000001c0: fd68 47bb 7d1e 2d3b e073 a0bb 49f1 04b9
000001d0: 43df d73a bcf2 04bb a337 8d3b 5c73 9fbb
000001e0: f192 3dbb a31a 853a 88b3 bd3b 25a5 a83a
000001f0: 3e66 deba 0133 8ebb f205 683b 7160 723a
00000200: 7d64 b1bb 7cb4 dd3b addc c83a a08b b03b
00000210: 4a2c 81bb 92fe 423a 7954 54bb 0a80 733b
00000220: 30be 22bb 2ebb 023c d642 c4b9 ecad 92b9
00000230: fcaa 28bc 0ff4 043c ecf9 be3b ef60 7eba
00000240: 78bf 7dba c5c3 fe3a fa80 6cbb 6ddb ab39
00000250: a015 c53b 4667 263c 9ec3 233c dbf9 1cbb
00000260: ea06 9fbb 7d7d 983c 51ef 0cbb 8f66 b137
00000270: 4bdf 0bbb ed45 f43a 5e3e 6e39 5c42 64bb
00000280: 66cf 4d3a 7132 62ba a7bc 0aba d100 383b
00000290: 6f46 edba b5b6 983b 7270 92ba 68ea 5e3b
000002a0: 7cf9 97b9 6742 453c 7b9b d83b 0589 2c3c
000002b0: 2004 193a 7ab3 923b 9e6f d93b 1a68 90b9
000002c0: 6bee b73b 7ba2 0c3b 0b54 94bb d070 27bb
000002d0: dbdf f7ba 67ed 363c c2cc bbbb fc12 513b
000002e0: 435e b3ba 4a42 2a3b 16a6 123c 9961 f8bb
000002f0: 260c e0b9 30de ebba 297a 083c ef74 35bb
00000300: 7d31 8239 4357 85bb 6ff5 033c 182d e0bb
00000310: 17d4 16bb e025 b8ba ac41 f1ba e83a ae3b
00000320: 4958 f53b 63d6 4ebb b725 1b3c d9d0 91bb
00000330: 6412 473a ea3d 96bb 1725 933c 114b 7e3c
00000340: 71b5 e93b d28b e33b 587d 803a 3f86 98bb
00000350: 679e 80ba 4f26 c53b 55b5 92ba 8bf2 29bc
00000360: 8361 743b 1f30 afbb be25 303c 02db 1fbb
00000370: b97b c1bb 5d5b 1c3b e0e3 5a3c 33cc d6ba
00000380: 5aad 42ba d9d6 f9ba 9efb 3a3b ccd7 33bb
00000390: bbcf 87b9 785b ac3b 73b0 ea3b 273e 433b
000003a0: eb3f 74bb b266 493c caa8 9bbb f1cf 803c
000003b0: c095 79bb e8a4 323c 5a06 83ba 806d 43bb
000003c0: 2339 f8bb 4763 9c3c 290c d93c 0d21 ebba
000003d0: ab1f 93ba f882 f4ba 25cb 06bb d66e 673c
000003e0: e743 113b d43d 4f3c 1588 3a3c 19fb 58bb
000003f0: ed9c 8d3a 02b3 8f3c 1ea0 43ba 8153 343b
-0.0008678227 0.00053489103 0.0020792678 -0.001457516 0.00027290423 -0.0053927866 0.0054196753 0.007207489
-0.0019250986 0.0027814643 0.0014010294 -0.0042486195 -0.0012696226 0.0024445641 -0.00068275386 -0.006701536
0.004642696 -0.0011812907 0.003614688 0.0005248143 -0.0028532094 0.00040112948 0.0061407634 0.00038218193
0.0012232957 -0.0018575209 0.003362442 -0.00062409986 -0.0025481083 0.00047168034 0.0010143378 0.0016000585
-0.002950836 0.0029910845 -0.0029729856 0.0059846337 -0.0005924976 0.0076955496 -0.00091519905 -0.0013679451
-0.0058738 0.009474067 0.0075030387 -0.0013610349 -0.0005954966 0.0019258462 -0.0021603124 0.0026391856
0.0022961262 0.006363096 0.0077435174 0.0019008901 -0.001998479 0.009265762 -0.0013534266 0.0007657313
-0.00079082104 0.00016978163 -0.0014819005 0.0018035567 0.0019056151 -0.0019709396 0.0051673804 0.0022390957
0.0016250517 0.006325296 0.0050907386 0.0031247465 0.00023051472 0.0073536737 0.006111537 0.00046305248
-0.00062868424 0.0008715167 0.0023096306 0.0032354444 0.0026478437 0.0023464519 -0.0034811152 -0.0016604528
-0.0016308244 0.009963239 -0.00077400147 0.000117510855 -0.0016200516 0.0016364226 -0.0002294928 -0.0048556128
-0.0011102103 0.00014516483 0.005887496 -0.0007546382 0.00032094948 -0.0040927846 0.006349668 -0.0026738185
-0.001353675 -0.0011084593 0.0025185128 0.008075016 -0.0014296835 0.000692425 0.008154973 -0.0035593142
-0.001821851 -0.0055332044 0.012352991 0.012493353 0.0002898098 0.0053396993 0.0025393392 -0.0031749797
-0.0030427568 0.0026415878 -0.004896626 -0.00012678387 0.0016469735 -0.0020286283 0.004309611 -0.004866047
-0.0028926695 0.0010155033 0.005789224 0.00128666 -0.0016967726 -0.0043395762 0.0035403934 0.0009245938
-0.0054135905 0.0067659 0.0015324556 0.0053877383 -0.0039420472 0.00074384466 -0.0032398982 0.0037155175
-0.00248326 0.007979197 -0.0003743383 -0.00027976872 -0.010294672 0.008114829 0.005828133 -0.0009703775
-0.0009679715 0.0019437006 -0.0036087618 0.00032779147 0.006014541 0.010156458 0.009995369 -0.0023952636
-0.004853119 0.018614525 -0.0021504948 2.1147802e-05 -0.002134281 0.0018636562 0.00022720682 -0.0034829592
0.0007851034 -0.0008628732 -0.00052923936 0.0028076658 -0.0018102656 0.0046604523 -0.0011172427 0.0034014229
-0.00028986845 0.012039757 0.0066103316 0.010530715 0.00058371015 0.0044769617 0.0066356203 -0.00027543382
0.0056131384 0.002145915 -0.0045266203 -0.002554942 -0.0018911319 0.011165 -0.005731196 0.0031902185
-0.0013684708 0.0025979453 0.008950731 -0.007579994 -0.0004273366 -0.0017995294 0.0083299065 -0.0027688106
0.00024832404 -0.0040692403 0.008054121 -0.006841313 -0.00230146 -0.0014049374 -0.0018406413 0.0053170808
0.007487331 -0.003156089 0.009469441 -0.0044499454 0.0007593988 -0.0045850175 0.017962022 0.015520827
0.007132225 0.006944158 0.000980298 -0.0046546753 -0.0009812833 0.0060165296 -0.0011192957 -0.010372768
0.0037289567 -0.0053463127 0.010751186 -0.0024392013 -0.0059046415 0.0023858168 0.013359994 -0.001638776
-0.0007426344 -0.0019061222 0.0028531323 -0.0027441857 -0.00025903978 0.0052599274 0.0071621477 0.0029791684
-0.0037269543 0.012292551 -0.004750346 0.015724154 -0.0038083643 0.0109035745 -0.00099964 -0.0029819906
-0.0075751706 0.019090308 0.026495056 -0.0017938927 -0.0011224648 -0.0018654754 -0.002056786 0.014125546
0.0022165717 0.012649018 0.011384984 -0.003310865 0.0010804214 0.017541412 -0.0007462519 0.0027515593
