scripts/modelling/stored_models/cdr_model.pt (torch, 59025 bytes, 25 tensors)

cdr1a_conv.weight f4 [20, 20, 3]
-0.1432826 0.16982229 0.22392833 0.13926229 0.34081504 0.35755995 0.15442857 0.066390835
-0.1558755 0.2621132 0.003841877 -0.20956978 0.20327067 -0.014573461 0.03899848 0.043838117
0.29026762 0.20450795 -0.030267633 -0.24059121 -0.017911151 -0.097879104 0.02335991 -0.10955259
0.13779819 -0.09868978 0.14552042 -0.1419459 0.111870185 0.085801244 -0.026410544 -0.081459366
0.13989939 0.2195439 -0.070715 -0.3120125 0.084480755 -0.12590063 -0.20704749 0.14135435
0.265698 0.15615919 0.038333286 0.10018339 0.38712558 0.23243964 0.3309247 -0.015862087
0.2031697 -0.16090284 -0.057841487 0.19689608 0.05407616 -0.038795598 -0.003690318 0.060119804
-0.018261455 -0.3623265 0.22274828 0.1918687 -0.31706166 -0.034665152 0.14625622 0.07005826
-0.10020198 -0.08582224 0.058432966 -0.13070421 0.050720874 0.18086442 0.17675385 0.024518466
-0.09040454 -0.23968555 -0.045538962 -0.14979424 -0.32195556 -0.2538132 0.15027194 0.23042779
0.1653126 -0.004427737 -0.12283761 -0.23753406 0.055285573 -0.06716161 -0.2867697 0.028684378
0.26827842 -0.24717541 -0.027251314 0.11462379 0.006682636 0.14356409 -0.103699274 0.20893335
-0.234066 0.09904343 0.29854444 -0.2377504 0.23583461 0.18611677 0.0004541435 -0.11825396
0.060892828 0.024881277 -0.23566322 -0.29609102 -0.22331631 0.06392699 0.010746875 -0.101239115
-0.1722233 0.11985007 0.07453581 0.044965465 0.13104418 0.030738736 -0.028351426 0.022642048
-0.124662094 -0.035833113 -0.3581006 0.28219506 -0.16103323 -0.49910054 -0.0051176995 -0.051141474
-0.15589035 0.21450505 0.11663154 0.08330506 0.008881741 -0.19477245 0.045754593 -0.22268346
-0.19133589 0.0168823 0.12771834 -0.104226075 0.116380006 0.0063132173 0.09683077 0.18270025
-0.24088168 -0.20892079 0.25524044 0.0028924705 -0.073397145 0.028381549 0.2715501 0.01607015
-0.18301365 -0.14870352 -0.1614325 -0.20598179 0.041424464 0.21111724 -0.17993377 0.25241843
-0.109044515 -0.06251763 0.04013204 -0.040630244 0.07515823 0.10741 0.113901205 -0.25905788
0.013821141 0.25936225 0.1080624 0.05553702 -0.03185042 0.23140691 0.02701169 -0.35081634
0.2700247 0.05348605 -0.08370127 -0.26634166 -0.06716397 -0.10118583 0.068323486 0.04722249
0.03009874 -0.049349904 -0.12035302 -0.33114538 -0.1260682 -0.26876834 -0.124114566 -0.04237325
-0.27153304 0.23129933 -0.22642766 -0.18356508 -0.081268966 -0.09114229 -0.22842284 0.25807834
0.26605725 -0.13620715 -0.089754224 0.16918701 0.0072357217 0.27795637 0.113626204 -0.13277406
-0.16052462 -0.024681639 0.14866687 -0.20461631 0.01581711 0.12843056 0.4339634 -0.107802436
-0.2175086 0.1963095 0.1633229 -0.14707261 -0.12484711 0.02372219 0.014972783 0.18695647
-0.31944758 -0.0434541 -0.18619674 -0.4498706 0.017194983 -0.22216697 -0.18908621 -0.4489553
-0.116286844 -0.041937597 0.34420392 0.017270355 0.18004496 -0.03538506 0.0880805 -0.29770604
-0.0054884553 0.023732804 0.10919763 -0.025926748 -0.34577048 -0.127984 -0.10389492 0.21917966
-0.2461547 -0.07609324 0.32834694 -0.31429312 0.088920526 -0.3445746 -0.23518384 0.22563432
00000000: adb8 12be e5e5 2d3e 784d 653e c69a 0e3e
00000010: 4f7f ae3e 1912 b73e 8622 1e3e ebf7 873d
00000020: d49d 1fbe b433 863e 00c8 7b3b 7699 56be
00000030: 3026 503e 87c5 6ebc dfbc 1f3d 998f 333d
00000040: f59d 943e 886a 513e d4f3 f7bc 8b5d 76be
00000050: 68ba 92bc d774 c8bd 485d bf3c 1c5d e0bd
00000060: f81a 0d3e de1d cabd 4e03 153e 445a 11be
00000070: 321c e53d 90b8 af3d ed5a d8bc 2bd4 a6bd
00000080: c941 0f3e 1ed0 603e 07d3 90bd 1ac0 9fbe
00000090: 3f04 ad3d 18ec 00be 4204 54be 32bf 103e
000000a0: 9109 883e 32e8 1f3e 5d03 1d3d f32c cd3d
000000b0: 5335 c63e a804 6e3e f66e a93e 35f1 81bc
000000c0: b80b 503e b7c3 24be 32eb 6cbd 209f 493e
000000d0: f77e 5d3d 22e8 1ebd 43d9 71bb 2f40 763d
000000e0: 0c99 95bc dc82 b9be 2018 643e 3a79 443e
000000f0: e855 a2be 0cfd 0dbd 31c4 153e b47a 8f3d
00000100: b236 cdbd 92c3 afbd 6857 6f3d 53d7 05be
00000110: b1c0 4f3d 8634 393e f6fe 343e f3da c83c
00000120: 0426 b9bd 2170 75be 1087 3abd a963 19be
00000130: 5cd7 a4be cef3 81be e3e0 193e 43f5 6b3e
00000140: b547 293e 8d16 91bb 4992 fbbd 213c 73be
00000150: 2073 623d 078c 89bd 7ad3 92be 80fb ea3c
00000160: ca5b 893e 8d1b 7dbe 263e dfbc e1bf ea3d
00000170: 04fa da3b 7702 133e 4960 d4bd a0f2 553e
00000180: ffae 6fbe 48d7 ca3d d1da 983e d774 73be
00000190: a17e 713e 6595 3e3e 1c1a ee39 222f f2bd
000001a0: c26a 793d d2d3 cb3c b351 71be 3e99 97be
000001b0: 08ad 64be 27ec 823d a913 303c 7456 cfbd
000001c0: 4e5b 30be f473 f53d 3ba6 983d b52d 383d
000001d0: 7230 063e cdcf fb3c 4041 e8bc d17b b93c
000001e0: d74e ffbd bec5 12bd f658 b7be df7b 903e
000001f0: e5e5 24be 1b8a ffbe 60b2 a7bb b979 51bd
00000200: b8a1 1fbe 36a7 5b3e 84dc ee3d d89b aa3d
00000210: b984 113c 6e72 47be 2b69 3b3d 2207 64be
00000220: 8eed 43be c04c 8a3c 99c8 023e 7b74 d5bd
00000230: a458 ee3d 1bdf ce3b 364f c63d c615 3b3e
00000240: b0a9 76be 55ef 55be e0ae 823e 9a8f 3d3b
00000250: 3e51 96bd 6c80 e83c 9d08 8b3e 8ca5 833c
00000260: ee67 3bbe bc45 18be 904e 25be e4ec 52be
00000270: b3ac 293d 1e2f 583e 8f40 38be fd3c 813e
00000280: bb52 dfbd 3e09 80bd 7e61 243d e66b 26bd
00000290: 8fec 993d c6f9 db3d 0945 e93d 3ca3 84be
000002a0: 1172 623c 21cb 843e d24f dd3d c97a 633d
000002b0: 9675 02bd eff5 6c3e 9f47 dd3c 339e b3be
000002c0: ad40 8a3e 3014 5b3d 926b abbd ef5d 88be
000002d0: 438d 89bd 843a cfbd 2fed 8b3d 5f6c 413d
000002e0: a291 f63c 2023 4abd a57b f6bd e38b a9be
000002f0: 0618 01be 019c 89be c72f febd 938f 2dbd
00000300: 6106 8bbe bbd9 6c3e a7dc 67be 7cf8 3bbe
00000310: 5870 a6bd cfa8 babd ade7 69be d822 843e
00000320: a838 883e e379 0bbe 10d1 b7bd 5c3f 2d3e
00000330: a219 ed3b 4c50 8e3e dbb4 e83d ecf5 07be
00000340: 9160 24be 2631 cabc 213c 183e f086 51be
00000350: e292 813c 4d83 033e 7330 de3e 86c7 dcbd
00000360: 93ba 5ebe 5c05 493e 1e3e 273e 349a 16be
00000370: d7af ffbd 0a55 c23c 6750 753c 8471 3f3e
00000380: a28e a3be edfc 31bd 5caa 3ebe 7055 e6be
00000390: 7edc 8c3c bd7f 63be d19f 41be 78dd e5be
000003a0: cc27 eebd c2c6 2bbd 7f3b b03e 8f7a 8d3c
000003b0: b55d 383e edef 10bd 8d63 b43d ed6c 98be
000003c0: 80d8 b3bb 4c6b c23c 02a3 df3d 5564 d4bc
000003d0: d408 b1be 3d0e 03be dcc6 d4bd a270 603e
000003e0: fa0f 7cbe c6d6 9bbd 171d a83e 07eb a0be
000003f0: f71b b63d 156c b0be 08d4 70be af0c 673e

cdr1a_conv.bias f4 [20]
-0.06522731 -0.041014068 -0.046701014 0.12665148 -0.04784798 -0.092435315 0.053666323 -0.0074569806
0.09883389 0.08066554 0.11860739 -0.09454721 0.08299331 0.108345255 -0.063753374 0.11866562
0.0967785 0.0014137924 0.062245607 -0.045135945
00000000: e595 85bd 5efe 27bd 9049 3fbd edb0 013e
00000010: 3efc 43bd ba4e bdbd 38d1 5b3d b059 f4bb
00000020: 6c69 ca3d fa33 a53d 6ee8 f23d f8a1 c1bd
00000030: 66f8 a93d 1ee4 dd3d 2191 82bd f606 f33d
00000040: ce33 c63d 004f b93a 40f5 7e3d 78e0 38bd

cdr2a_conv.weight f4 [20, 20, 3]
0.18633683 -0.04643382 0.022290321 -0.25749853 0.11743307 -0.055069398 -0.45694062 0.1355174
0.075936444 0.28501356 -0.07667844 0.16771106 -0.09131613 -0.19148122 0.16600358 0.33166224
-0.15561277 0.3864592 -0.35081986 0.14876558 0.1723964 0.012291229 -0.06367072 0.05380907
-0.16104282 -0.02258048 0.14378959 -0.012687956 -0.014874475 0.2683586 -0.033831246 -0.2299468
0.18232198 -0.02256165 -0.23223694 -0.19539243 0.0035870017 0.073054016 -0.04055527 0.030091912
-0.07512676 0.12876819 0.0909052 0.21625827 0.08144013 -0.03836313 0.08416094 -0.085897446
0.09960296 0.28439775 -0.015280821 -0.18160988 -0.0005733651 -0.28308925 0.029138984 0.16442908
0.10470693 0.4785776 -0.25573176 0.048901137 0.21605694 -0.041639846 -0.12923695 -0.043100137
-0.011833927 -0.23604824 0.1633117 0.1197228 -0.024774985 0.081229605 -0.32497692 0.2997969
-0.12388394 -0.15955421 0.16197412 0.067172684 -0.24960017 0.21807653 -0.014124547 -0.2645994
-0.30097812 0.19298035 -0.05505108 0.07771015 0.0355908 0.3609797 0.078438096 -0.19909614
-0.045732237 -0.03155177 0.23369265 -0.20616657 0.22574575 0.23014589 -0.09074179 -0.37794366
0.2861666 -0.070666015 0.12311483 0.12201246 -0.3739135 -0.09411444 -0.0031045543 -0.09625526
0.48594686 0.27543178 0.08710606 -0.014455978 -0.14201628 -0.15904473 0.12292825 -0.008545468
0.15411414 0.02470072 -0.11130716 0.12405682 0.11824854 0.044879284 0.017206557 -0.28567347
0.31426466 0.16168703 0.37897116 0.11301458 0.105127215 0.086148255 -0.0013577247 -0.05272513
-0.018806143 0.1360443 -0.05394223 -0.10904405 -0.16154869 0.13051212 0.07171618 0.15056436
-0.15664062 -0.14954403 -0.4047284 -0.061266392 -0.23366396 0.13336587 -0.008221339 0.3094129
-0.33535716 0.10837014 0.097643904 -0.15427814 -0.13648833 0.16848962 -0.10300531 -0.055775166
0.12347107 -0.042002432 -0.020415716 0.24046494 -0.31400603 -0.041980144 -0.2398066 -0.036215913
0.044397935 -0.17800908 0.0064772987 0.08398677 0.100356415 0.11265085 -0.3054161 -0.051647734
-0.069557644 0.19266422 0.25859827 -0.09679545 -0.2868086 -0.0064128083 -0.40402585 0.2006718
-0.08160719 -0.0380763 0.22434554 0.44185495 0.068393834 0.10799132 -0.26822636 -0.14064361
-0.09354382 -0.009702851 -0.015603041 -0.24746314 0.14982028 0.15093897 0.23559734 -0.4163
0.029288989 0.11229478 0.11726971 -0.1625257 0.27137408 -0.25775686 0.34113055 0.21747491
0.11628114 0.099219866 0.19553792 0.06911991 -0.21599075 0.21604244 -0.08737383 -0.22252698
0.027972225 -0.21592326 0.11734903 -0.018220419 0.27310136 -0.1150414 0.060982294 -0.035659645
-0.030594524 0.2022061 -0.0947473 0.034945704 -0.019872462 0.11526246 -0.010346164 -0.09703781
-0.060584962 0.28492525 -0.038869984 -0.072893724 -0.068150885 0.08984085 -0.29160312 0.3807312
0.07196193 0.057646308 -0.28460884 -0.01622865 -0.0054719257 -0.20523708 -0.114833675 -0.16924903
0.32246014 0.23635654 0.293675 -0.08773101 0.006455515 -0.3077859 -0.17153367 -0.07723804
-0.19885027 -0.10032085 0.22591132 -0.2534545 0.04098693 0.32154012 -0.13728957 0.18021718
00000000: 15cf 3e3e 6431 3ebd 319a b63c d9d6 83be
00000010: c080 f03d 7390 61bd 1ff4 e9be 13c5 0a3e
00000020: 9184 9b3d 4ced 913e 9609 9dbd 73bc 2b3e
00000030: f303 bbbd a713 44be d8fc 293e a2cf a93e
00000040: f458 1fbe fbdd c53e a99e b3be 0156 183e
00000050: af88 303e 2761 493c cb65 82bd e666 5c3d
00000060: 69e8 24be b3fa b8bc 943d 133e 25e1 4fbc
00000070: 12b4 73bc 4c66 893e a292 0abd 2d77 6bbe
00000080: 9db2 3a3e 36d3 b8bc 85cf 6dbe f414 48be
00000090: e713 6b3b 589d 953d 481d 26bd 5083 f63c
000000a0: 0fdc 99bd cfdb 033e 812c ba3d cf72 5d3e
000000b0: 15ca a63d a822 1dbd 925c ac3d 00eb afbd
000000c0: a3fc cb3d 959c 913e 695c 7abc f1f7 39be
000000d0: e14d 16ba 13f1 90be e1b4 ee3c 1960 283e
000000e0: 9670 d63d 2008 f53e 46ef 82be 8f4c 483d
000000f0: 083e 5d3e 8b8e 2abd b156 04be c589 30bd
00000100: 16e3 41bc a1b6 71be 2f3b 273e 3a31 f53d
00000110: e9f4 cabc b55b a63d 6063 a6be fb7e 993e
00000120: ddb6 fdbd 2e62 23be 8bdc 253e d591 893d
00000130: 3097 7fbe 744f 5f3e a56a 67bc 9379 87be
00000140: ce19 9abe a49c 453e 3e7d 61bd 8026 9f3d
00000150: a9c7 113d 55d2 b83e 27a4 a03d dcdf 4bbe
00000160: ba51 3bbd 6e3c 01bd 204d 6f3e 541d 53be
00000170: e529 673e 5dab 6b3e d5d6 b9bd d581 c1be
00000180: 6e84 923e 58b9 90bd a123 fc3d abe1 f93d
00000190: 9771 bfbe 12bf c0bd c775 4bbb 7a21 c5bd
000001a0: 07ce f83e 6505 8d3e a964 b23d c4d8 6cbc
000001b0: b76c 11be 9fdc 22be cec1 fb3d 4a02 0cbc
000001c0: 19d0 1d3e 2a59 ca3c 02f5 e3bd 8111 fe3d
000001d0: 4a2c f23d 57d3 373d c4f4 8c3c cb43 92be
000001e0: 4ce7 a03e 4991 253e 8208 c23e 3074 e73d
000001f0: f04c d73d 7f6e b03d aef5 b1ba 4ef6 57bd
00000200: 570f 9abc 324f 0b3e 87f2 5cbd 7d52 dfbd
00000210: 056d 25be f8a4 053e efdf 923d 8b2d 1a3e
00000220: 6666 20be 1222 19be 9038 cfbe 78f2 7abd
00000230: 9b45 6fbe 1091 083e ccb2 06bc 5e6b 9e3e
00000240: efb3 abbe 2af1 dd3d 87f9 c73d 17fb 1dbe
00000250: 99c3 0bbe 8b88 2c3e 73f4 d2bd 8074 64bd
00000260: 66de fc3d be0a 2cbd dc3e a7bc 713c 763e
00000270: 66c5 a0be 5ff3 2bbd dd8f 75be 2357 14bd
00000280: 9cda 353d 0348 36be 853f d43b 4101 ac3d
00000290: aa87 cd3d 7db5 e63d 805f 9cbe 938c 53bd
000002a0: 3d74 8ebd c549 453e fe66 843e b13c c6bd
000002b0: 94d8 92be 8922 d2bb 7adc cebe e97c 4d3e
000002c0: ac21 a7bd e5f5 1bbd d6ba 653e d03a e23e
000002d0: 1112 8c3d 8e2a dd3d f754 89be e104 10be
000002e0: e793 bfbd b5f8 1ebc e6a3 7fbc fa66 7dbe
000002f0: 7d6a 193e bf8f 1a3e 6e40 713e 4625 d5be
00000300: 76ef ef3c cefa e53d 1a2b f03d 236d 26be
00000310: 8bf1 8a3e b5f8 83be aaa8 ae3e beb1 5e3e
00000320: ce24 ee3d c933 cb3d 183b 483e bd8e 8d3d
00000330: ae2c 5dbe 3b3a 5d3e 0df1 b2bd 1dde 63be
00000340: 0226 e53c fd1a 5dbe b054 f03d fd42 95bc
00000350: f1d3 8b3e d39a ebbd 92c8 793d d90f 12bd
00000360: 5ea1 fabc 1e0f 4f3e df0a c2bd 3a23 0f3d
00000370: 93cb a2bc ba0e ec3d f582 29bc c2bb c6bd
00000380: f027 78bd b9e1 913e 2236 1fbd 4e49 95bd
00000390: b192 8bbd 7bfe b73d 014d 95be 33ef c23e
000003a0: c760 933d 891e 6c3d 40b8 91be f2f1 84bc
000003b0: d74d b3bb ab29 52be eb2d ebbd 9e4f 2dbe
000003c0: 7f19 a53e 7307 723e 925c 963e 51ac b3bd
000003d0: c988 d33b 1d96 9dbe 86a6 2fbe fa2e 9ebd
000003e0: 689f 4bbe 0575 cdbd 4c55 673e cac4 81be
000003f0: e9e1 273d e8a0 a43e a395 0cbe da8a 383e

cdr2a_conv.bias f4 [20]
-0.10265623 -0.08738331 0.014220908 0.045882568 0.10010308 0.107970506 -0.007424712 -0.016597956
0.02134037 -0.029988639 0.0043946505 -0.12226341 -0.1059787 0.088467 -0.07544012 0.10166393
0.014167845 0.031446666 0.11733559 -0.07180385
00000000: 6e3d d2bd 05f6 b2bd d0fe 683c 5cef 3b3d
00000010: d802 cd3d a41f dd3d 004b f3bb 70f8 87bc
00000020: 00d2 ae3c bcaa f5bc 0001 903b 3d65 fabd
00000030: 5c0b d9bd 302e b53d 5a80 9abd 2e35 d03d
00000040: 4020 683c 38ce 003d a44d f03d e60d 93bd

cdr3a_conv.weight f4 [20, 20, 3]
-0.06516288 0.12242732 -0.11021741 -0.062297694 -0.03015668 -0.13527058 -0.20448372 0.09452712
-0.104953274 -0.11551407 0.09946662 -0.007706758 0.0095863715 -0.12423997 0.07588936 -0.061874487
-0.00011330494 -0.08666312 -0.20057648 0.082119204 -0.06961914 0.13870248 -0.106983185 -0.09147827
-0.12495555 0.12877947 -0.075837374 0.064704195 -0.1747947 -0.09264175 0.17685848 -0.21467322
-0.020774731 0.04345566 0.035911888 0.021081576 -0.07407509 0.115256496 -0.010938485 -0.087177455
0.06811578 -0.10919068 -0.08890036 0.09346185 0.0951306 -0.10092406 0.3108942 0.05878822
0.06649247 0.12864904 0.14061716 0.25496745 -0.15256403 0.17170805 0.047316223 -0.07701162
-0.009910478 0.008641512 -0.036178138 0.12968616 -0.060927846 -0.082292415 -0.062147472 0.021239819
0.10651267 -0.056297384 0.18398413 -0.03765271 -0.023166869 0.025506515 0.01083109 -0.09941363
-0.016714253 0.07049993 -0.056838416 0.032553148 -0.09171872 0.024310198 0.12633605 -0.08933478
-0.041754957 -0.0332852 0.07260111 0.17236775 -0.005066137 -0.076755404 -0.011554499 -0.14253381
0.16695027 0.010256833 0.005965121 0.014353857 -0.081840806 0.13297975 -0.16388768 -0.0471759
-0.110135816 -0.061202403 0.011617247 0.061219044 -0.01935036 -0.092847586 -0.0025133155 0.032431938
-0.010775532 0.14474316 -0.20570508 -0.1067227 0.032871667 -0.101106375 -0.04267181 -0.071783744
0.019590428 0.21775961 -0.016016884 -0.062091544 -0.08652115 -0.0836246 -0.11436199 -0.028009405
-0.212289 -0.09682402 0.13351007 -0.01455169 -0.07485028 0.036072195 0.11778236 -0.004104583
0.07601594 0.019212754 0.04297713 0.06346448 -0.022378884 0.087303735 -0.0134565225 0.1273612
-0.10255272 -0.060721625 0.016267847 0.16402459 0.06847359 -0.13707413 0.001048967 0.0133123
-0.014806386 -0.011821836 0.16207343 -0.13271494 0.007686236 -0.024507327 -0.108741656 0.03029837
-0.100616924 0.049226407 -0.06981938 0.14241953 -0.11158448 -0.09621142 0.24564216 -0.062069066
-0.045717467 -0.0014218078 0.11441114 -0.06297746 0.13379751 0.08533564 -0.10779017 -0.02715793
0.16628022 -0.08938288 0.0073404256 -0.118903354 -6.955356e-05 -0.0005422632 -0.020852081 0.27264878
0.09435657 -0.046913948 0.121300265 0.04192601 -0.19836476 0.0055809584 0.10756651 0.0036247019
-0.14166307 0.089448206 0.229378 -0.11544223 -0.033167604 0.14010423 0.07048532 -0.004170694
0.09428069 -0.10838693 0.08116977 -0.15684903 -0.07471505 -0.06585205 0.24879663 0.073347166
-0.079694174 0.016388658 -0.023340942 0.048889384 0.0820906 0.29025757 -0.007609226 0.010903661
-0.15224229 -0.0040748175 0.09322066 -0.14210531 0.06390976 0.06482055 0.02944931 -0.043174673
0.021331219 0.2233134 0.04920971 -0.0003992305 0.1343078 0.048275784 0.08816554 0.23504585
0.041208625 -0.13027708 -0.002580632 -0.07603003 0.12700425 0.029927654 0.07614701 0.06474595
-0.04031869 0.04460903 -0.14281456 0.0821508 -0.0827488 0.056818742 0.17501295 0.014823919
0.1890736 0.09901569 0.031540014 0.11707731 0.08726816 0.018489424 0.009213149 -0.113367535
-0.09888718 0.12996277 0.09368379 0.010734381 0.1960307 -0.011213493 -0.08995045 -0.035106454
00000000: 1e74 85bd 2dbb fa3d aab9 e1bd de2b 7fbd
00000010: 240b f7bc 5f84 0abe 2e64 51be 6f97 c13d
00000020: bef1 d6bd a492 ecbd 28b5 cb3d f988 fcbb
00000030: 2810 1d3c 8771 febd e16b 9b3d 1a70 7dbd
00000040: 209e edb8 6f7c b1bd ec63 4dbe 1d2e a83d
00000050: 7b94 8ebd 0608 0e3e 001a dbbd f658 bbbd
00000060: b2e8 ffbd c4de 033e a050 9bbd a283 843d
00000070: 62fd 32be f5ba bdbd 641a 353e 4cd3 5bbe
00000080: c52f aabc 90fe 313d 5818 133d 45b3 ac3c
00000090: aeb4 97bd 990b ec3d 5537 33bc 188a b2bd
000000a0: 4980 8b3d 5d9f dfbd 6411 b6bd ed68 bf3d
000000b0: d5d3 c23d 46b1 cebd 862d 9f3e ebcb 703d
000000c0: 342d 883d 93bc 033e f2fd 0f3e 188b 823e
000000d0: bf39 1cbe 3cd4 2f3e a8ce 413d 45b8 9dbd
000000e0: 8f5f 22bc 2195 0d3c 872f 14bd 73cc 043e
000000f0: 7a8f 79bd ed88 a8bd 598e 7ebd 21ff ad3c
00000100: 5123 da3d 1698 66bd 5666 3c3e ba39 1abd
00000110: 72c8 bdbc 0af3 d03c e274 313c 6099 cbbd
00000120: 54ec 88bc 4462 903d 66cf 68bd 7356 053d
00000130: 06d7 bbbd 2e26 c73c 3d5e 013e 27f5 b6bd
00000140: 3f07 2bbd 1056 08bd e4af 943d 2c81 303e
00000150: d601 a6bb f031 9dbd 154f 3dbc 62f4 11be
00000160: 03f5 2a3e 470c 283c 1077 c33b 712c 6b3c
00000170: 279c a7bd d82b 083e 2cd2 27be 843b 41bd
00000180: e38e e1bd 5faf 7abd 4456 3e3c d2c0 7a3d
00000190: a584 9ebc e026 bebd 70b6 24bb 5ad7 043d
000001a0: db8b 30bc 8d37 143e 5aa4 52be 6e91 dabd
000001b0: 71a4 063d dc10 cfbd a3c8 2ebd 5b03 93bd
000001c0: 1b7c a03c 60fc 5e3e d735 83bc b453 7ebd
000001d0: 0032 b1bd 6043 abbd 9e36 eabd fb73 e5bc
000001e0: 4a62 59be ac4b c6bd ddb6 083e 366a 6ebc
000001f0: 1b4b 99bd 70c0 133d e137 f13d bd7f 86bb
00000200: 3fae 9b3d 1164 9d3c c908 303d aaf9 813d
00000210: ec53 b7bc 4dcc b23d bf78 5cbc f96a 023e
00000220: 2907 d2bd 3db7 78bd 2644 853c 10f6 273e
00000230: e23b 8c3d 295d 0cbe 7e7d 893a d51b 5a3c
00000240: 7c96 72bc 60b0 41bc 94f6 253e 6de6 07be
00000250: d2dc fb3b 97c3 c8bc f2b3 debd 4a34 f83c
00000260: 3f10 cebd a1a1 493d 77fd 8ebd 6dd6 113e
00000270: 6786 e4bd 7e0a c5bd 9e89 7b3e 223c 7ebd
00000280: 3d42 3bbd f45b baba 6350 ea3d 54fa 80bd
00000290: 3702 093e 74c4 ae3d 18c1 dcbd 4f7a debc
000002a0: 5d45 2a3e 5f0e b7bd f487 f03b 9a83 f3bd
000002b0: 48dd 91b8 ab26 0eba fcd1 aabc 9f98 8b3e
000002c0: 043e c13d d728 40bd 466c f83d 9cba 2b3d
000002d0: 2220 4bbe 79e0 b63b d54b dc3d 688c 6d3b
000002e0: 2010 11be 9f30 b73d 11e2 6a3e fa6c ecbd
000002f0: c1da 07bd 7c77 0f3e 9c5a 903d 51aa 88bb
00000300: 3c16 c13d f7f9 ddbd 563c a63d 089d 20be
00000310: 3404 99bd 71dd 86bd 8bc4 7e3e 0a37 963d
00000320: b336 a3bd 8241 863c 8135 bfbc 3c40 483d
00000330: 1e1f a83d a49c 943e d056 f9bb 45a5 323c
00000340: 67e5 1bbe 0c86 85bb 79ea be3d 0e84 11be
00000350: 1fe3 823d a3c0 843d ae3f f13c edd7 30bd
00000360: cfbe ae3c 45ac 643e 1f90 493d d04f d1b9
00000370: fc87 093e d4bc 453d 2290 b43d dcaf 703e
00000380: 60ca 283d 5b67 05be d21f 29bb a2b5 9bbd
00000390: 670d 023e d72a f53c f7f2 9b3d 8699 843d
000003a0: 3625 25bd f5b7 363d fb3d 12be ae3e a83d
000003b0: 3478 a9bd c5ba 683d 9836 333e 06e0 723c
000003c0: 839c 413e bdc8 ca3d 1a30 013d 3bc6 ef3d
000003d0: a6b9 b23d 2277 973c bff2 163c 3d2d e8bd
000003e0: 5d85 cabd f614 053e 49dd bf3d 42df 2f3c
000003f0: 46bc 483e ccb8 37bc f137 b8bd c9cb 0fbd

cdr3a_conv.bias f4 [20]
0.00426087 0.004948027 0.03578666 -0.017869188 0.04739433 0.012781173 0.018013403 0.011743411
0.045966607 0.012609 0.008306805 -0.06364145 -0.010970233 -0.0009748939 -0.00029764452 0.033961833
0.010925805 0.000488006 -0.026423834 0.045112066
00000000: c59e 8b3b 0f23 a23b 0895 123d 6762 92bc
00000010: 8f20 423d 2068 513c d890 933c 7067 403c
00000020: 7b47 3c3d fb95 4e3c 4419 083c 7356 82bd
00000030: 7ebc 33bc 0690 7fba 2c0d 9cb9 901b 0b3d
00000040: 2602 333c 0edb ff39 cc76 d8bc 6ec7 383d

cdr1b_conv.weight f4 [20, 20, 3]
0.06795285 -0.0369734 0.12975201 -0.008049741 -0.30537567 0.019069698 0.22571221 0.034425564
-0.043467004 0.32270467 0.2705129 -0.081657134 0.24376969 -0.039027017 -0.04791904 -0.04412547
0.22311236 -0.11061597 0.10079673 0.12295877 -0.10517178 0.2777891 -0.11298539 -0.11054008
-0.07278163 0.16916941 -0.0057846736 -0.019004177 -0.063440144 0.17661674 -0.19045967 -0.0075295432
-0.05926421 0.121972755 0.07593211 0.23229608 0.2856878 0.08886457 -0.27875194 -0.09144024
0.12661533 -0.008059084 0.07210933 0.05855127 -0.02417482 -0.22500429 0.16163781 -0.13076651
0.11204547 0.19329926 -0.19264764 0.1083209 -0.10439548 0.09585294 0.024477351 -0.18221982
0.12415894 0.013981691 -0.13800599 -0.12161058 -0.2004181 0.12553614 -0.07354447 0.23421557
-0.14861691 -0.325738 0.27617615 0.16033041 -0.24336185 0.12422552 -0.1573323 -0.043991625
0.12789255 0.020488376 -0.056713883 -0.019291457 -0.22214183 -0.12259221 0.07467862 0.3496936
0.45820126 -0.09981538 -0.25028268 0.13525398 -0.13082053 0.39980742 -0.105962716 -0.33125442
0.1372563 -0.29299256 0.2455666 -0.039913915 -0.2801918 -0.012309062 0.20416994 -0.09846134
-0.3443743 -0.044635326 -0.15307601 0.08213953 -0.08382319 0.04490908 -0.054219346 0.27956468
-0.10278047 -0.08909964 -0.05320199 0.016430719 0.042968005 0.28843838 0.16023673 -0.19696973
-0.0055257045 0.029542934 -0.16531801 0.0771205 0.23304996 0.3385595 -0.12523292 0.21007897
-0.08927952 -0.093751624 -0.018337518 0.12560712 0.103900164 -0.0022077952 -0.20471253 -0.057106677
0.094256446 -0.132502 -0.099023625 -0.1327013 -0.13369943 0.6823833 -0.28064525 -0.11927644
0.12517723 -0.22380222 0.0905613 -0.020088874 -0.056702457 0.2811108 -0.2334715 0.003275103
0.04137902 0.0052892817 -0.17268276 -0.05118124 -0.065575354 -0.20517173 -0.08688731 -0.13675994
0.09553665 -0.018497482 -0.25304022 -0.017202485 -0.13082935 -0.25790972 0.06795913 0.0407423
-0.11415833 -0.046718348 0.17974299 0.048085332 -0.17088012 0.23787864 0.29068142 0.44007996
0.027786942 -0.13548492 0.12222599 -0.19042435 0.19063932 0.1803749 0.2426055 0.2533979
0.052546535 0.080073394 0.08029082 0.10605716 -0.08642642 -0.24551858 0.090121195 0.019993732
0.13466133 -0.28365672 0.00089857355 0.16590324 -0.1706163 -0.12847146 -0.12366363 -0.30480763
0.054456383 -0.3125361 0.13131477 -0.028017309 -0.04465037 -0.17952465 -0.01633258 0.22639264
-0.05327174 0.22687396 -0.11655445 0.18409725 -0.14342837 -0.057624746 0.044535898 -0.017907832
0.10485775 0.1607632 0.1836198 -0.106100224 -0.25224295 0.18964133 0.3273462 -0.20220518
-0.20231861 0.15297577 0.07519943 0.1772996 0.30325386 -0.02830907 -0.015068344 0.1880301
-0.1022776 -0.2060067 0.24210131 -0.27077731 -0.24334265 -0.30131063 0.06280154 -0.23610526
-0.098241925 0.059076205 -0.1405696 -0.02775496 -0.030666681 0.20931537 -0.22306532 0.31761974
-0.35559663 -0.020988999 -0.04509687 -0.014579678 -0.26624176 0.016004004 -0.16057777 -0.08521317
0.14403465 0.31089908 0.20764256 -0.18941106 0.09208596 0.023065021 0.037080538 -0.13700426
00000000: dd2a 8b3d 6b71 17bd b6dd 043e 10e3 03bc
00000010: 335a 9cbe 0e38 9c3c 1a21 673e d201 0d3d
00000020: 750a 32bd 8c39 a53e ab80 8a3e db3b a7bd
00000030: c39e 793e cbda 1fbd c146 44bd e9bc 34bd
00000040: 9177 643e a08a e2bd 846e ce3d cfd1 fb3d
00000050: 4d64 d7bd 5f3a 8e3e e264 e7bd d662 e2bd
00000060: 890e 95bd bf3a 2d3e 5c8d bdbb a6ae 9bbc
00000070: e8ec 81bd 05db 343e dc07 43be 63ba f6bb
00000080: 07bf 72bd dacc f93d 4b82 9b3d 06df 6d3e
00000090: ac45 923e a1fe b53d 93b8 8ebe 0545 bbbd
000000a0: 73a7 013e 400a 04bc 0eae 933d 75d3 6f3d
000000b0: 460a c6bc 8667 66be 6284 253e a8e7 05be
000000c0: 1878 e53d 3ef0 453e 6c45 45be 59d7 dd3d
000000d0: 4ccd d5bd 8c4e c43d ba84 c83c d597 3abe
000000e0: 0b47 fe3d 7613 653c 7151 0dbe f80e f9bd
000000f0: 673a 4dbe 8c8c 003e 7c9e 96bd 35d6 6f3e
00000100: 082f 18be 22c7 a6be f666 8d3e a82d 243e
00000110: d933 79be f369 fe3d b81b 21be 9030 34bd
00000120: 44f6 023e 3dd7 a73c d14c 68bd 1e09 9ebc
00000130: 2679 63be a011 fbbd 1bf1 983d 0a0b b33e
00000140: 5b99 ea3e 026c ccbd 0d25 80be 0580 0a3e
00000150: d1f5 05be 8fb3 cc3e fb02 d9bd 2e9a a9be
00000160: ea8c 0c3e 1f03 96be d075 7b3e c67c 23bd
00000170: 4d75 8fbe f3ab 49bc ed11 513e 19a6 c9bd
00000180: d451 b0be 88d3 36bd f5bf 1cbe c538 a83d
00000190: 7eab abbd 95f2 373d 1b15 5ebd 1a23 8f3e
000001a0: 917e d2bd df79 b6bd 54ea 59bd b799 863c
000001b0: 38ff 2f3d 32ae 933e 1915 243e 6fb2 49be
000001c0: f810 b5bb 0604 f23c 2049 29be 5af1 9d3d
000001d0: a6a4 6e3e ac57 ad3e 0f3d 00be f11e 573e
000001e0: 2ed8 b6bd da00 c0bd 9038 96bc 279f 003e
000001f0: 9cc9 d43d a8b0 10bb 29a0 51be b1e8 69bd
00000200: 8609 c13d 9bae 07be e6cc cabd d9e2 07be
00000210: 81e8 08be acb0 2e3f bcb0 8fbe 3547 f4bd
00000220: 762e 003e 692c 65be 3478 b93d 6c91 a4bc
00000230: d640 68bd c1ed 8f3e 2713 6fbe 1ca3 563b
00000240: 0c7d 293d b651 ad3b c0d3 30be 6ba3 51bd
00000250: 5f4c 86bd 8a18 52be f9f1 b1bd cc0a 0cbe
00000260: b8a8 c33d 0888 97bc 7d8e 81be 3aec 8cbc
00000270: 21f8 05be be0c 84be 282e 8b3d 66e1 263d
00000280: d8cb e9bd bd5b 3fbd 8c0e 383e 20f5 443d
00000290: 33fb 2ebe 7596 733e 32d4 943e 2952 e13e
000002a0: 71a1 e33c 8fbc 0abe 9f51 fa3d 9afe 42be
000002b0: f436 433e 33b4 383e 946d 783e 5fbd 813e
000002c0: 093b 573d 85fd a33d 836f a43d 7f34 d93d
000002d0: 5600 b1bd 3969 7bbe 7691 b83d e5c9 a33c
000002e0: a9e4 093e 743b 91be 408e 6b3a 8ae2 293e
000002f0: 0ab6 2ebe 068e 03be 5b43 fdbd bf0f 9cbe
00000300: a80d 5f3d bb04 a0be 6177 063e 8e84 e5bc
00000310: 4ee3 36bd 4fd5 37be e7cb 85bc 79d3 673e
00000320: 7833 5abd a651 683e 19b4 eebd fd83 3c3e
00000330: e3de 12be ed07 6cbd 466b 363d 72b3 92bc
00000340: a9bf d63d 1c9f 243e d406 3c3e 134b d9bd
00000350: fd25 81be 5631 423e ec99 a73e e00e 4fbe
00000360: 9c2c 4fbe aea5 1c3e 2902 9a3d 078e 353e
00000370: 1744 9b3e 6ce8 e7bc 37e1 76bc f68a 403e
00000380: eb76 d1bd 6cf3 52be 68e9 773e 53a3 8abe
00000390: d12e 79be 6345 9abe 189e 803d 94c5 71be
000003a0: 1033 c9bd e4f9 713d 7af1 0fbe 5f5e e3bc
000003b0: b138 fbbc c556 563e 3c6b 64be 0e9f a23e
000003c0: c310 b6be 1ff1 abbc 7fb7 38bd 9adf 6ebc
000003d0: d750 88be d41a 833c 806e 24be 3e84 aebd
000003e0: d27d 133e 2a2e 9f3e 40a0 543e f9f4 41be
000003f0: 9097 bc3d dbf2 bc3c c3e1 173d d84a 0cbe

cdr1b_conv.bias f4 [20]
-0.0378585 0.047415778 0.0353951 0.03035532 0.10518263 0.020562261 0.085668236 -0.035993144
-0.116012685 0.07890041 0.05354172 0.108453155 0.049327984 0.0025800616 -0.09318447 -0.12239752
0.02590917 0.10531984 -0.010036096 -0.042116858
00000000: 8411 1bbd 0c37 423d 74fa 103d b8ab f83c
00000010: fe69 d73d 3072 a83c d472 af3d 8c6d 13bd
00000020: 0f98 edbd 8a96 a13d 904e 5b3d b01c de3d
00000030: 240c 4a3d 4016 293b 80d7 bebd 8dab fabd
00000040: 783f d43c eeb1 d73d 706e 24bc ba82 2cbd

cdr2b_conv.weight f4 [20, 20, 3]
0.3295143 -0.31396794 0.08745851 0.21496274 -0.060626995 -0.08600991 0.056164585 0.27526146
0.1093839 0.2664292 0.23714748 0.045596957 0.2503902 0.0021813933 0.040147115 0.24798326
0.07914682 -0.19234893 -0.11437121 -0.33296317 -0.03760909 -0.063149415 -0.035672285 -0.8381044
-0.022770373 0.08273601 0.13186198 -0.154447 -0.004993465 -0.019210238 0.16492356 0.12907924
-0.18543446 -0.15543965 0.10380639 0.039049953 0.29026985 -0.015373925 0.31288826 -0.1188859
-0.16145773 0.28762805 -0.053176627 -0.17983289 0.09189798 -0.34285587 -0.018039132 -0.13266082
-0.021901313 0.121898055 0.21855545 -0.0022002882 0.023743287 0.2857341 -0.17645358 0.030427333
-0.08244309 0.31632993 0.04595256 0.17423941 -0.2896159 -0.25382596 -0.23535527 -0.08078839
-0.004178632 -0.13939475 -0.11121644 -0.0705183 0.11289971 0.08566931 0.072206095 0.13751797
0.03909372 -0.018186098 0.06119376 -0.015463295 0.033451494 0.054295264 0.022423161 -0.1944561
-0.18869184 0.018213954 -0.10649416 -0.20578432 -0.10289142 0.36336425 -0.22750771 -0.10445951
0.11336097 -0.06945923 -0.11472305 -0.056382652 -0.0419837 0.15671241 -0.2806221 -0.2315699
0.30217466 0.1340134 -0.3879239 -0.08232811 0.21548344 0.008126889 -0.0050918455 -0.09820319
0.13738218 -0.266665 -0.15067933 0.10493536 -0.07405231 0.096721195 0.42018366 0.18309648
-0.04416274 -0.06383343 -0.14662611 -0.032913476 0.10943804 0.122939676 0.044306137 0.1637026
-0.22884433 0.06167005 0.20237197 -0.00219358 0.07410205 0.019805158 0.08852475 0.19172476
0.23380029 -0.38479114 -0.12466718 -0.08372272 0.30642948 -0.4118494 -0.15559809 -0.11748917
0.041016713 0.088624164 0.33765462 -0.0849647 0.080598004 0.12778257 -0.095942505 0.116580956
0.10440232 -0.13274251 -0.26931956 -0.09384004 -0.1043525 -0.031291667 0.05296644 0.01387468
0.1605571 0.47668543 0.108354 -0.01783491 -0.10209165 0.294064 0.2855585 -0.0726882
0.075691 0.020108005 -0.044879537 -0.08504734 0.26856256 0.061235815 0.046695754 -0.5672229
0.045092154 0.18701826 -0.038912144 0.035496917 0.07263672 0.19817409 0.4072275 -0.1921615
-0.037378095 -0.287149 0.3790536 -0.08885077 -0.37205282 0.082575664 0.014171646 0.12848035
-0.28581405 -0.16470169 0.16461074 -0.10021635 0.04549117 -0.09578979 0.06834123 0.0763067
-0.2042475 0.030835574 -0.1370407 0.17418216 -0.4854178 0.1213749 -0.017646816 -0.013549131
0.020349799 -0.15094866 -0.13022979 0.0073126093 -0.23959737 -0.15253644 0.02794588 -0.12321123
0.17541823 0.38922918 -0.036537558 0.03188049 0.046001904 0.22053646 0.15807188 -0.021018418
-0.3661008 0.1307177 -0.23865695 0.018726557 0.053879235 -0.2957805 -0.051119853 -0.41882822
-0.11357924 -0.18080793 -0.32036278 -0.036566466 -0.3006687 -0.10107187 0.16736843 -0.091216974
-0.27374908 0.14763547 -0.113735504 0.027809313 0.027829163 0.21065745 0.026185367 -0.08522567
-0.19016309 0.027915485 0.29761797 -0.09887557 0.13051742 -0.03977571 0.04654618 0.32660007
-0.032265443 -0.16738358 -0.16747923 -0.10376082 -0.14386885 -0.03717916 -0.1513271 0.14967331
00000000: 19b6 a83e 68c0 a0be 731d b33d 311f 5c3e
00000010: 0354 78bd f725 b0bd d60c 663d 12ef 8c3e
00000020: ab04 e03d 6869 883e cad6 723e e0c3 3a3d
00000030: 2533 803e b5f5 0e3b 4d71 243d 53ef 7d3e
00000040: ba17 a23d 1ef7 44be 743b eabd 267a aabe
00000050: fd0b 1abd 7b54 81bd 1a1d 12bd 038e 56bf
00000060: ef88 babc 7f71 a93d d406 073e 5b27 1ebe
00000070: 38a0 a3bb ca5e 9dbc b9e1 283e 592d 043e
00000080: 88e2 3dbe 922b 1fbe 7298 d43d d8f2 1f3d
00000090: 409e 943e eae2 7bbc e432 a03e 737a f3bd
000000a0: 2d55 25be fc43 933e bccf 59bd 1d26 38be
000000b0: 0235 bc3d ce8a afbe cdc6 93bc 3dd8 07be
000000c0: 626a b3bc b0a5 f93d 00cd 5f3e b632 10bb
000000d0: 4881 c23c bd4b 923e 3fb0 34be be42 f93c
000000e0: ecd7 a8bd fff5 a13e c038 3c3d d16b 323e
000000f0: 8948 94be 7af5 81be f900 71be 6274 a5bd
00000100: e8ec 88bb 7fbd 0ebe 72c5 e3bd e66b 90bd
00000110: f737 e73d 6473 af3d cae0 933d 83d1 0c3e
00000120: bd20 203d 03fb 94bc 4fa6 7a3d c359 7dbc
00000130: 6f04 093d b664 5e3d c7b0 b73c 801f 47be
00000140: 6f38 41be 6e35 953c 9c19 dabd 20b9 52be
00000150: bdb8 d2bd e10a ba3e c8f7 68be deee d5bd
00000160: cc29 e83d a440 8ebd ebf3 eabd 7ff1 66bd
00000170: 1af7 2bbd 3879 203e b3ad 8fbe a920 6dbe
00000180: a3b6 9a3e cf3a 093e f69d c6be a49b a8bd
00000190: b1a7 5c3e a526 053c 7fd9 a6bb c11e c9bd
000001a0: eaad 0c3e 5188 88be af4b 1abe 5ae8 d63d
000001b0: bda8 97bd c315 c63d 5022 d73e a57d 3b3e
000001c0: fde3 34bd 1abb 82bd 2825 16be 48d0 06bd
000001d0: 0d21 e03d ccc7 fb3d 5a7a 353d a8a1 273e
000001e0: 2b56 6abe bc99 7c3d 993a 4f3e 2ac2 0fbb
000001f0: d1c2 973d 6d3e a23c 774c b53d 7f53 443e
00000200: 5869 6f3e 5803 c5be 8251 ffbd d176 abbd
00000210: 53e4 9c3e eddd d2be 1b55 1fbe 299e f0bd
00000220: 2401 283d 9680 b53d 11e1 ac3e f901 aebd
00000230: 9110 a53d 6fd9 023e 817d c4bd ffc1 ee3d
00000240: e2d0 d53d a7ed 07be 41e4 89be 352f c0bd
00000250: c3b6 d5bd b12b 00bd 56f3 583d a052 633c
00000260: 1569 243e 1d10 f43e b4e8 dd3d 841a 92bc
00000270: 6d15 d1bd 8e8f 963e b934 923e 8ddd 94bd
00000280: e203 9b3d 8bb9 a43c 9bd3 37bd 4d2d aebd
00000290: 0881 893e 68d2 7a3d 0c44 3f3d 8535 11bf
000002a0: 8db2 383d b781 3f3e 5762 1fbd 3765 113d
000002b0: 90c2 943d 26ee 4a3e 1f80 d03e fcc5 44be
000002c0: c619 19bd 3205 93be 5013 c23e 64f7 b5bd
000002d0: b57d bebe 6e1d a93d 3130 683c 5a90 033e
000002e0: 3856 92be 8fa7 28be b88f 283e 3b3e cdbd
000002f0: f354 3a3d 702d c4bd 7df6 8b3d b046 9c3d
00000300: 4226 51be e39a fc3c 6654 0cbe cf5c 323e
00000310: af88 f8be 6793 f83d 0e90 90bc 2dfd 5dbc
00000320: 9fb4 a63c 4992 1abe f55a 05be 9d9e ef3b
00000330: 0359 75be 8332 1cbe c2ee e43c 2b56 fcbd
00000340: d6a0 333e 0c49 c73e 68a8 15bd 1e95 023d
00000350: 7e6c 3c3d 4fd4 613e 98dd 213e d12e acbc
00000360: 9071 bbbe dcda 053e 7d62 74be 7068 993c
00000370: 79b0 5c3d 8b70 97be 0d63 51bd a770 d6be
00000380: 3c9c e8bd b725 39be 9706 a4be b8c6 15bd
00000390: 3ff1 99be c5fe cebd a162 2b3e f7cf babd
000003a0: d728 8cbe c12d 173e 29ee e8bd 5bd0 e33c
000003b0: fcf9 e33c 96b6 573e b282 d63c cc8a aebd
000003c0: 1dba 42be 04af e43c 6261 983e 467f cabd
000003d0: 5ca6 053e dbeb 22bd 35a7 3e3d 2038 a73e
000003e0: c528 04bd 9a66 2bbe ad7f 2bbe 8e80 d4bd
000003f0: 5b52 13be 2d49 18bd 7ef5 1abe f643 193e

cdr2b_conv.bias f4 [20]
0.107761726 -0.02606079 -0.0017570704 -0.0689693 -0.12762885 0.029208139 -0.045996256 -0.07569678
0.10290672 0.02393949 -0.034615703 -0.11905364 -0.072674945 -0.042141356 0.054270193 -0.11766343
0.07455994 0.11743082 0.039949507 -0.12817948
00000000: 2eb2 dc3d 707d d5bc 804d e6ba c73f 8dbd
00000010: 23b1 02be e845 ef3c 9266 3cbd ea06 9bbd
00000020: c2c0 d23d c01c c43c 32c9 0dbd 65d2 f3bd
00000030: 9ad6 94bd 6a9c 2cbd 6c4a 5e3d 86f9 f0bd
00000040: e2b2 983d 927f f03d 18a2 233d 7b41 03be

cdr3b_conv.weight f4 [20, 20, 3]
-0.11134192 -0.054869007 0.0025739626 -0.09702273 -0.13708307 -0.064781 -0.027234111 0.13346869
0.1274878 0.24151151 -0.15729813 0.29467523 -0.10965589 -0.21075553 -0.026536424 0.041773632
0.20261882 -0.044865876 -0.047880992 -0.053064708 0.067446 -0.011485496 -0.09340928 0.05695433
0.17439364 -0.035788387 0.1750586 -0.032645136 -0.087570995 -0.088356614 -0.15334971 -0.039247658
0.011241746 0.03219445 0.098841354 0.16485317 0.18374003 -0.14150158 0.037112676 0.11156956
-0.13690796 0.036067765 0.11790704 -0.13353781 0.09702878 -0.09371478 -0.14328232 -0.044381022
-0.19558811 -0.12381956 -0.028048737 0.010290523 -0.13779894 -0.014124953 -0.05516606 -0.08313001
-0.06442368 0.0081400545 -0.12153739 -0.10791782 -0.08956198 0.045973446 -0.13703868 -0.09837705
-0.06399104 -0.015485143 0.2603473 -0.058005024 0.021792063 0.18556999 0.04289126 0.1793683
-0.07540866 -0.006071258 0.00011105591 -0.10337003 -2.9001472e-05 -0.047803514 0.008973489 0.17606452
0.011169681 -0.052283697 0.063983105 -0.043672618 -0.011570984 -0.042196166 0.08058343 0.10648374
-0.044058938 -0.1672511 -0.044972897 -0.03491699 -0.0051390384 -0.008834763 0.123807535 0.03922455
-0.03436873 0.006650948 -0.10691156 0.111495234 0.074551135 0.057312056 -0.04172859 0.039123677
-0.062422823 -0.09354918 0.113342255 -0.08221879 0.014923966 0.14894727 -0.10855561 -0.09395996
0.06854607 -0.14805998 -0.030392453 -0.06548705 0.1538638 -0.104286246 -0.052161224 0.09981287
0.059388626 0.0051629823 -0.07246861 0.031223135 0.029329367 -0.12896228 0.0071789785 0.059270427
-0.1677237 -0.11698791 -0.19300522 -0.03356129 -0.12714547 -0.031756405 -0.06800074 0.13679278
0.0024115946 -0.16306822 0.019773379 -0.12529853 0.087363094 -0.027376939 0.13527381 -0.12072193
0.040515758 -0.008786978 0.2847262 -0.11658832 0.05420931 -0.043255426 -0.048113924 0.3261507
-0.06811556 0.06247807 0.024973014 -0.064773954 0.0008262028 0.21913941 -0.08865859 0.108059905
-0.06604154 0.053640172 -0.03267758 -0.12728108 0.15165362 0.17548725 -0.15203853 -0.2026057
0.09020243 -0.0048116967 -0.07761864 0.011756279 0.121687144 -0.02994031 0.08107224 0.03840249
-0.05348198 -0.11433582 -0.12360322 0.02988657 -0.022190707 -0.105316855 0.37223032 -0.021068173
-0.06275918 -0.015007096 0.23557079 -0.060921766 0.0401421 0.21689777 -0.10414543 -0.22650321
-0.11651503 -0.018909331 -0.17899163 0.011990029 -0.060680043 0.16370085 -0.19087338 -0.02798985
-0.05038802 -0.08251193 0.0781114 -0.015553474 -0.10980881 -0.05950781 -0.18232442 -0.07753072
0.10619783 -0.028825002 -0.16262577 0.13835241 -0.102182895 0.10048271 -0.1614884 0.15823735
0.097229905 -0.06721941 0.06040061 -0.0625548 -0.0754701 -0.19638693 -0.13345788 -0.0001741146
-0.227805 -0.06635891 -0.12322341 0.0468178 -0.09402937 0.117030114 0.10146721 -0.059857946
0.13369751 -0.024539705 -0.12038147 0.14286919 0.05284311 -0.17386743 0.068637736 -0.21357922
-0.117284335 -0.10336155 0.2883006 -0.15825178 -0.11654036 -0.043883216 0.15267177 -0.16654076
-0.021864874 0.27826285 -0.117058724 -0.058857642 -0.05558458 0.03505847 -0.22852033 -0.17169246
00000000: 3c07 e4bd 53be 60bd edaf 283b dab3 c6bd
00000010: 815f 0cbe e7ab 84bd 121a dfbc 04ac 083e
00000020: 298c 023e cb4e 773e c312 21be acdf 963e
00000030: 4493 e0bd 4cd0 57be ea62 d9bc d41a 2b3d
00000040: 4f7b 4f3e 48c5 37bd dc1e 44bd 615a 59bd
00000050: 2121 8a3d a92d 3cbc 5d4d bfbd f248 693d
00000060: 3f94 323e d896 12bd 9042 333e e8b6 05bd
00000070: 6c58 b3bd 50f4 b4bd b507 1dbe 27c2 20bd
00000080: 4d2f 383c 54de 033d 566d ca3d 45cf 283e
00000090: 5926 3c3e cae5 10be 7603 183d 957e e43d
000000a0: 9a31 0cbe cbbb 133d 3f79 f13d 23be 08be
000000b0: 06b7 c63d 89ed bfbd 9ab8 12be e0c8 35bd
000000c0: 4048 48be 1c95 fdbd 77c6 e5bc 9599 283c
000000d0: 2a1b 0dbe 596c 67bc cef5 61bd 1140 aabd
000000e0: 90f0 83bd dd5d 053c 98e8 f8bd 0504 ddbd
000000f0: 456c b7bd a74e 3c3d de53 0cbe e879 c9bd
00000100: bc0d 83bd 66b5 7dbc 3e4c 853e ad96 6dbd
00000110: 4585 b23c 0f06 3e3e bfae 2f3d 53ac 373e
00000120: db6f 9abd 67f1 c6bb b0e6 e838 abb3 d3bd
00000130: 3048 f3b7 9ecd 43bd 8a05 133c 424a 343e
00000140: 0a01 373c 6e27 56bd 9309 833d 0fe2 32bd
00000150: 3994 3dbc e3d5 2cbd ed08 a53d 2614 da3d
00000160: 2577 34bd df43 2bbe 8035 38bd 1e05 0fbd
00000170: 6165 a8bb afbf 10bc ce8e fd3d eca9 203d
00000180: 3ac6 0cbd 32f0 d93b 73f4 dabd 9d57 e43d
00000190: 44ae 983d 0cc0 6a3d 99eb 2abd 2640 203d
000001a0: 13af 7fbd b696 bfbd fc1f e83d 5362 a8bd
000001b0: a683 743c a285 183e 6752 debd 146e c0bd
000001c0: e261 8c3d 099d 17be 98f9 f8bc 131e 86bd
000001d0: 798e 1d3e 0794 d5bd 02a7 55bd b16a cc3d
000001e0: 7d41 733d 3c2e a93b 6c6a 94bd a9c7 ff3c
000001f0: 2444 f03c b00e 04be a33d eb3b 8cc5 723d
00000200: c3bf 2bbe 5b97 efbd 29a3 45be 9077 09bd
00000210: 6c32 02be 0113 02bd f943 8bbd 6813 0c3e
00000220: d80b 1e3b 5bfb 26be c8fb a13c 424e 00be
00000230: 6ceb b23d 9a45 e0bc 3885 0a3e 0f3d f7bd
00000240: daf3 253d 42f7 0fbc a2c7 913e dbc5 eebd
00000250: 950a 5e3d 9a2c 31bd 1b13 45bd 39fd a63e
00000260: 2c80 8bbd 01e9 7f3d 3594 cc3c 35a8 84bd
00000270: 8895 583a 1566 603e a392 b5bd 834e dd3d
00000280: c940 87bd ccb5 5b3d edd8 05bd f955 02be
00000290: 164b 1b3e eeb2 333e fdaf 1bbe de77 4fbe
000002a0: 0dbc b83d 70ab 9dbb 86f6 9ebd 689d 403c
000002b0: 1c37 f93d 6245 f5bc 3409 a63d ee4b 1d3d
000002c0: ec0f 5bbd e628 eabd af23 fdbd aed4 f43c
000002d0: 49c9 b5bc 5db0 d7bd f994 be3e 2997 acbc
000002e0: e387 80bd 53e0 75bc 7839 713e 1a89 79bd
000002f0: 0b6c 243d 731a 5e3e 334a d5bd 75f0 67be
00000300: 6f9f eebd bee7 9abc 9549 37be d471 443c
00000310: a38b 78bd 32a1 273e 5074 43be f84a e5bc
00000320: ab63 4ebd 04fc a8bd dff8 9f3d 00d4 7ebc
00000330: 71e3 e0bd 76be 73bd 41b3 3abe 6dc8 9ebd
00000340: 3f7e d93d 6922 ecbc 5f87 26be 41ac 0d3e
00000350: 4445 d1bd e1c9 cd3d 375d 25be f908 223e
00000360: 7920 c73d 54aa 89bd a166 773d bb1c 80bd
00000370: 1190 9abd a819 49be 2fa9 08be 8892 36b9
00000380: b745 69be 2ee7 87bd 8e5c fcbd 05c4 3f3d
00000390: 7892 c0bd 7cad ef3d 0ace cf3d 9b2d 75bd
000003a0: 00e8 083e 7e07 c9bc 8f8a f6bd 4d4c 123e
000003b0: 0472 583d 4e0a 32be f191 8c3d 83b4 5abe
000003c0: c532 f0bd 38af d3bd 239c 933e c10c 22be
000003d0: b6ac eebd e3be 33bd fd55 1c3e a989 2abe
000003e0: f71d b3bc 7878 8e3e 7cbc efbd b614 71bd
000003f0: a8ac 63bd 7899 0f3d 3c01 6abe 26d0 2fbe

cdr3b_conv.bias f4 [20]
0.024997288 -0.035734393 -0.0597216 0.0006612183 -0.020903943 0.029312238 -0.009036435 -0.0014749402
-0.015739989 0.019677836 -0.08118859 -0.00420727 -0.007810761 -0.006220852 0.006798156 0.017415937
0.020320559 -0.008158115 -0.101801984 -0.0017250341
00000000: 1dc7 cc3c 3a5e 12bd a39e 74bd 9c55 2d3a
00000010: bf3e abbc 3820 f03c 8e0d 14bc c852 c1ba
00000020: 26f1 80bc 6a33 a13c 3446 a6bd 24dd 89bb
00000030: 6af1 ffbb 4ad8 cbbb 11c3 de3b deab 8e3c
00000040: 4d77 a63c 9da9 05bc 8f7d d0bd 8a1a e2ba

pep_conv.weight f4 [20, 20, 3]
0.08265785 0.17117319 -0.010798903 0.13590199 -0.009637774 -0.0731992 -0.03536593 0.050529424
-0.035853215 0.089223444 0.13638367 -0.13464418 -0.04376169 -0.01817875 0.019493323 0.011672414
0.03928987 -0.050911848 -0.17763475 0.06819835 -0.039540134 0.17015629 -0.02764385 0.18565392
-0.009344981 0.08542869 0.030029882 0.0493337 -0.1185606 0.118607715 0.060384 0.022502253
0.19531445 0.020794412 0.088413596 -0.13680215 -0.058595903 0.15875493 0.01862129 0.002251259
-0.015251043 0.031726886 0.06855272 0.057275318 0.026540538 0.020147761 0.05318006 -0.11528878
0.11196332 0.055939246 -0.041690666 0.21872541 0.031843793 0.25910443 -0.23171322 -0.065844804
-0.057459503 -0.17519423 0.018608348 -0.10876682 -0.031033058 0.07501142 0.10979755 -0.0753859
-0.060274232 -0.16820027 0.12480717 -0.05302387 -0.071917966 -0.038755856 -0.12555276 -0.061282657
0.008687955 -0.05091896 -0.04388905 0.32918718 -0.057231303 -0.20349419 -0.1120879 -0.07195005
0.00074420415 -0.12497789 -0.02060062 0.16286635 0.051704984 0.033330508 -0.08279758 -0.03810785
0.00326174 0.100404 -0.14931321 -0.10627881 0.093003064 -0.0008174624 -0.03649312 -0.019466186
-0.009123709 -0.09974685 -0.013807416 -0.05610197 0.034743067 0.02390647 0.009518479 0.01132723
-0.06774527 -0.019629097 0.050734222 -0.018186908 -0.08608393 -0.17465805 -0.021764213 -0.08037764
0.013071614 0.14512856 0.072617956 0.0900645 -0.08870042 -0.12562703 0.00097326696 0.00916494
-0.027661191 -0.04134505 0.14334798 0.027719917 0.028996632 0.12051977 -0.14750066 -0.10367779
0.17067063 0.09626299 -0.11676746 0.11488783 -0.012973213 0.06358769 -0.025967019 0.051510993
-0.058897372 0.049209 0.03533425 -0.03354442 0.11103528 0.037614275 0.08441882 -0.04390072
-0.013904132 -0.006680276 0.05080907 0.20296262 -0.005011276 -0.038339235 0.2557684 0.04777257
0.08029059 0.030801287 -0.16627738 0.08788753 -0.08505637 -0.14442322 0.13035883 0.02853004
-0.13042612 0.018958917 0.08956724 0.017893478 0.112894356 -0.04715895 -0.016768675 0.110834695
-0.052427966 0.035909656 -0.011382573 -0.023767253 0.09434497 0.017048333 -0.04573258 0.048184093
-0.002138054 0.112574734 -0.079815134 -0.06535378 0.4151465 -0.1332168 -0.115282975 0.086818144
-0.061834283 -0.12673947 0.07794246 0.030447088 -0.01655623 0.1786701 0.057438634 0.07208272
-0.2158254 0.016728261 -0.063869596 0.04284502 -0.053044185 -0.11301248 -0.09176849 0.07011761
0.10262918 -0.12056184 0.07619465 -0.12831959 -0.026670426 -0.0062101586 -0.017487884 0.014671467
0.083223045 0.08175998 -0.11044961 0.09010049 -0.05165231 0.1722319 0.23066296 -0.048913084
0.11460867 -0.021123322 0.15669227 0.031441703 0.026316654 0.007386657 0.04408597 0.18997963
-0.028964525 0.11447381 -0.06837549 -0.12864313 -0.15658793 0.08259252 -0.0032499754 -0.10616528
-0.012418133 -0.08301828 -0.04012737 0.15065305 -0.14314337 -0.19972758 0.14310768 -0.15976454
-0.0047787153 -0.0026863737 -0.12109198 0.0195109 -0.08034879 -0.1210322 -0.032607596 -0.042431124
0.10459374 -0.12459593 -0.111324295 -0.25644514 -0.015416563 -0.09761503 -0.115332656 -0.032681514
00000000: 8548 a93d 0648 2f3e e2ed 30bc e429 0b3e
00000010: c1e7 1dbc 76e9 95bd dedb 10bd f1f7 4e3d
00000020: d2da 12bd c8ba b63d 29a8 0b3e 2ae0 09be
00000030: 753f 33bd 9aeb 94bc 76b0 9f3c a73d 3f3c
00000040: 6aee 203d f188 50bd e2e5 35be 94ab 8b3d
00000050: d6f4 21bd 733d 2e3e 5b75 e2bc 101c 3e3e
00000060: b11b 19bc 3df5 ae3d 3a01 f63c 2212 4a3d
00000070: e6cf f2bd 9ae8 f23d 3755 773d a556 b83c
00000080: 8300 483e 0b59 aa3c 3012 b53d dd15 0cbe
00000090: 4202 70bd a790 223e ad8b 983c dc89 133b
000000a0: 83df 79bc 0df4 013d 5e65 8c3d 8699 6a3d
000000b0: 8b6b d93c eb0c a53c 56d3 593d 861c ecbd
000000c0: 064d e53d 8d20 653d d5c3 2abd 8ef9 5f3e
000000d0: a36e 023d 56a9 843e 3b46 6dbe a4d9 86bd
000000e0: a85a 6bbd 1e66 33be 8970 983c 23c1 debd
000000f0: 0a39 febc 969f 993d 8add e03d ec63 9abd
00000100: 1de2 76bd b13c 2cbe e79a ff3d 8f2f 59bd
00000110: ba49 93bd 76be 1ebd e790 00be 8603 7bbd
00000120: ed57 0e3c 6690 50bd 01c5 33bd 398b a83e
00000130: 5f6b 6abd c860 50be 578e e5bd 8c5a 93bd
00000140: b216 433a 68f4 ffbd a2c2 a8bc 70c6 263e
00000150: 9bc8 533d 9285 083d c791 a9bd fa16 1cbd
00000160: ebc2 553b 9da0 cd3d 90e5 18be b4a8 d9bd
00000170: 6478 be3d f94a 56ba cf79 15bd 8d77 9fbc
00000180: 9c7b 15bc 1448 ccbd 8038 62bc 2ecb 65bd
00000190: bf4e 0e3d 80d7 c33c 65f3 1b3c d995 393c
000001a0: 08be 8abd 33cd a0bc b0ce 4f3d b6fc 94bc
000001b0: c64c b0bd 8fd9 32be dd4a b2bc 089d a4bd
000001c0: 532a 563c 959c 143e b9b8 943d bd73 b83d
000001d0: 91a8 b5bd 5fa4 00be d722 7f3a 8b28 163c
000001e0: b999 e2bc 6d59 29bd d0c9 123e e114 e33c
000001f0: 588a ed3c 12d3 f63d 6a0a 17be 0555 d4bd
00000200: 48c4 2e3e 8825 c53d c723 efbd 504a eb3d
00000210: 998d 54bc 433a 823d c9b8 d4bc 31fd 523d
00000220: 5f3e 71bd 608f 493d a6ba 103d e065 09bd
00000230: 7766 e33d 6d11 1a3d c6e3 ac3d 3ed1 33bd
00000240: 28ce 63bc 37e6 dabb 2c1d 503d 6fd5 4f3e
00000250: a135 a4bb 9a09 1dbd 13f4 823e 2cad 433d
00000260: 656f a43d fb52 fc3c 9e44 2abe 61fe b33d
00000270: 0932 aebd aee3 13be c97c 053e d5b7 e93c
00000280: 6d8e 05be bb4f 9b3c 076f b73d 5895 923c
00000290: 2835 e73d be29 41bd 765e 89bc 4dfd e23d
000002a0: b5be 56bd 0116 133d f97d 3abc 8bb3 c2bc
000002b0: f037 c13d f2a8 8b3c 1652 3bbd af5c 453d
000002c0: 981e 0cbb 958d e63d 1e76 a3bd 34d8 85bd
000002d0: 158e d43e fc69 08be 7b19 ecbd b6cd b13d
000002e0: f245 7dbd fec7 01be 4ca0 9f3d 2c6c f93c
000002f0: eea0 87bc 4bf5 363e c644 6b3d 1ba0 933d
00000300: 5501 5dbe b509 893c 10ce 82bd 427e 2f3d
00000310: dc44 59bd 1673 e7bd 1ef1 bbbd d299 8f3d
00000320: 3f2f d23d 20e9 f6bd f10b 9c3d 3666 03be
00000330: f07b dabc 967e cbbb c042 8fbc 9860 703c
00000340: d870 aa3d c771 a73d 6833 e2bd 9b86 b83d
00000350: 5f91 53bd 8f5d 303e e932 6c3e 1659 48bd
00000360: f3b7 ea3d d10a adbc f073 203e 04c9 003d
00000370: 0696 d73c c50b f23b 7d93 343d 058a 423e
00000380: 0347 edbc 3f71 ea3d 7308 8cbd 06bb 03be
00000390: 9658 20be 4426 a93d 8afd 54bb 2f6d d9bd
000003a0: 6d75 4bbc 7d05 aabd 995c 24bd cb44 1a3e
000003b0: 2d94 12be 6385 4cbe d28a 123e 5199 23be
000003c0: c596 9cbb df0d 30bb 12ff f7bd 53d5 9f3c
000003d0: e88d a4bd bbdf f7bd 8b8f 05bd 42cc 2dbd
000003e0: 3e35 d63d 272c ffbd fefd e3bd c74c 83be
000003f0: c095 7cbc 64ea c7bd 8733 ecbd 0ddd 05bd

pep_conv.bias f4 [20]
0.0033947285 0.029349772 -0.027636793 -0.055385362 0.044938542 0.036587905 0.037337165 0.054799072
0.05283741 -0.06379136 0.017039007 0.020852417 0.026847113 -0.057822388 -0.05862431 -0.051152218
-0.051180538 -0.0047171507 -0.041137893 -0.013746002
00000000: 187a 5e3b ef6e f03c 8e66 e2bc c3db 62bd
00000010: 7a11 383d 33dd 153d dbee 183d fe74 603d
00000020: 0a6c 583d 0ba5 82bd 6395 8b3c b0d2 aa3c
00000030: 7aee db3c 2bd7 6cbd 0b20 70bd fd84 51bd
00000040: afa2 51bd 5492 9abb 3580 28bd e936 61bc
