scripts/modelling/stored_models/cdr_model.pt (torch, 59025 bytes, 25 tensors)

cdr1a_conv.weight f4 [20, 20, 3]
000000 ad b8 12 be e5 e5 2d 3e 78 4d 65 3e c6 9a 0e 3e
       -0.1432826 0.16982229 0.22392833 0.13926229
000010 4f 7f ae 3e 19 12 b7 3e 86 22 1e 3e eb f7 87 3d
       0.34081504 0.35755995 0.15442857 0.066390835
000020 d4 9d 1f be b4 33 86 3e 00 c8 7b 3b 76 99 56 be
       -0.1558755 0.2621132 0.003841877 -0.20956978
000030 30 26 50 3e 87 c5 6e bc df bc 1f 3d 99 8f 33 3d
       0.20327067 -0.014573461 0.03899848 0.043838117
000040 f5 9d 94 3e 88 6a 51 3e d4 f3 f7 bc 8b 5d 76 be
       0.29026762 0.20450795 -0.030267633 -0.24059121
000050 68 ba 92 bc d7 74 c8 bd 48 5d bf 3c 1c 5d e0 bd
       -0.017911151 -0.097879104 0.02335991 -0.10955259
000060 f8 1a 0d 3e de 1d ca bd 4e 03 15 3e 44 5a 11 be
       0.13779819 -0.09868978 0.14552042 -0.1419459
000070 32 1c e5 3d 90 b8 af 3d ed 5a d8 bc 2b d4 a6 bd
       0.111870185 0.085801244 -0.026410544 -0.081459366
000080 c9 41 0f 3e 1e d0 60 3e 07 d3 90 bd 1a c0 9f be
       0.13989939 0.2195439 -0.070715 -0.3120125
000090 3f 04 ad 3d 18 ec 00 be 42 04 54 be 32 bf 10 3e
       0.084480755 -0.12590063 -0.20704749 0.14135435
0000a0 91 09 88 3e 32 e8 1f 3e 5d 03 1d 3d f3 2c cd 3d
       0.265698 0.15615919 0.038333286 0.10018339
0000b0 53 35 c6 3e a8 04 6e 3e f6 6e a9 3e 35 f1 81 bc
       0.38712558 0.23243964 0.3309247 -0.015862087
0000c0 b8 0b 50 3e b7 c3 24 be 32 eb 6c bd 20 9f 49 3e
       0.2031697 -0.16090284 -0.057841487 0.19689608
0000d0 f7 7e 5d 3d 22 e8 1e bd 43 d9 71 bb 2f 40 76 3d
       0.05407616 -0.038795598 -0.003690318 0.060119804
0000e0 0c 99 95 bc dc 82 b9 be 20 18 64 3e 3a 79 44 3e
       -0.018261455 -0.3623265 0.22274828 0.1918687
0000f0 e8 55 a2 be 0c fd 0d bd 31 c4 15 3e b4 7a 8f 3d
       -0.31706166 -0.034665152 0.14625622 0.07005826
000100 b2 36 cd bd 92 c3 af bd 68 57 6f 3d 53 d7 05 be
       -0.10020198 -0.08582224 0.058432966 -0.13070421
000110 b1 c0 4f 3d 86 34 39 3e f6 fe 34 3e f3 da c8 3c
       0.050720874 0.18086442 0.17675385 0.024518466
000120 04 26 b9 bd 21 70 75 be 10 87 3a bd a9 63 19 be
       -0.09040454 -0.23968555 -0.045538962 -0.14979424
000130 5c d7 a4 be ce f3 81 be e3 e0 19 3e 43 f5 6b 3e
       -0.32195556 -0.2538132 0.15027194 0.23042779
000140 b5 47 29 3e 8d 16 91 bb 49 92 fb bd 21 3c 73 be
       0.1653126 -0.004427737 -0.12283761 -0.23753406
000150 20 73 62 3d 07 8c 89 bd 7a d3 92 be 80 fb ea 3c
       0.055285573 -0.06716161 -0.2867697 0.028684378
000160 ca 5b 89 3e 8d 1b 7d be 26 3e df bc e1 bf ea 3d
       0.26827842 -0.24717541 -0.027251314 0.11462379
000170 04 fa da 3b 77 02 13 3e 49 60 d4 bd a0 f2 55 3e
       0.006682636 0.14356409 -0.103699274 0.20893335
000180 ff ae 6f be 48 d7 ca 3d d1 da 98 3e d7 74 73 be
       -0.234066 0.09904343 0.29854444 -0.2377504
000190 a1 7e 71 3e 65 95 3e 3e 1c 1a ee 39 22 2f f2 bd
       0.23583461 0.18611677 0.0004541435 -0.11825396
0001a0 c2 6a 79 3d d2 d3 cb 3c b3 51 71 be 3e 99 97 be
       0.060892828 0.024881277 -0.23566322 -0.29609102
0001b0 08 ad 64 be 27 ec 82 3d a9 13 30 3c 74 56 cf bd
       -0.22331631 0.06392699 0.010746875 -0.101239115
0001c0 4e 5b 30 be f4 73 f5 3d 3b a6 98 3d b5 2d 38 3d
       -0.1722233 0.11985007 0.07453581 0.044965465
0001d0 72 30 06 3e cd cf fb 3c 40 41 e8 bc d1 7b b9 3c
       0.13104418 0.030738736 -0.028351426 0.022642048
0001e0 d7 4e ff bd be c5 12 bd f6 58 b7 be df 7b 90 3e
       -0.124662094 -0.035833113 -0.3581006 0.28219506
0001f0 e5 e5 24 be 1b 8a ff be 60 b2 a7 bb b9 79 51 bd
       -0.16103323 -0.49910054 -0.0051176995 -0.051141474
000200 b8 a1 1f be 36 a7 5b 3e 84 dc ee 3d d8 9b aa 3d
       -0.15589035 0.21450505 0.11663154 0.08330506
000210 b9 84 11 3c 6e 72 47 be 2b 69 3b 3d 22 07 64 be
       0.008881741 -0.19477245 0.045754593 -0.22268346
000220 8e ed 43 be c0 4c 8a 3c 99 c8 02 3e 7b 74 d5 bd
       -0.19133589 0.0168823 0.12771834 -0.104226075
000230 a4 58 ee 3d 1b df ce 3b 36 4f c6 3d c6 15 3b 3e
       0.116380006 0.0063132173 0.09683077 0.18270025
000240 b0 a9 76 be 55 ef 55 be e0 ae 82 3e 9a 8f 3d 3b
       -0.24088168 -0.20892079 0.25524044 0.0028924705
000250 3e 51 96 bd 6c 80 e8 3c 9d 08 8b 3e 8c a5 83 3c
       -0.073397145 0.028381549 0.2715501 0.01607015
000260 ee 67 3b be bc 45 18 be 90 4e 25 be e4 ec 52 be
       -0.18301365 -0.14870352 -0.1614325 -0.20598179
000270 b3 ac 29 3d 1e 2f 58 3e 8f 40 38 be fd 3c 81 3e
       0.041424464 0.21111724 -0.17993377 0.25241843
000280 bb 52 df bd 3e 09 80 bd 7e 61 24 3d e6 6b 26 bd
       -0.109044515 -0.06251763 0.04013204 -0.040630244
000290 8f ec 99 3d c6 f9 db 3d 09 45 e9 3d 3c a3 84 be
       0.07515823 0.10741 0.113901205 -0.25905788
0002a0 11 72 62 3c 21 cb 84 3e d2 4f dd 3d c9 7a 63 3d
       0.013821141 0.25936225 0.1080624 0.05553702
0002b0 96 75 02 bd ef f5 6c 3e 9f 47 dd 3c 33 9e b3 be
       -0.03185042 0.23140691 0.02701169 -0.35081634
0002c0 ad 40 8a 3e 30 14 5b 3d 92 6b ab bd ef 5d 88 be
       0.2700247 0.05348605 -0.08370127 -0.26634166
0002d0 43 8d 89 bd 84 3a cf bd 2f ed 8b 3d 5f 6c 41 3d
       -0.06716397 -0.10118583 0.068323486 0.04722249
0002e0 a2 91 f6 3c 20 23 4a bd a5 7b f6 bd e3 8b a9 be
       0.03009874 -0.049349904 -0.12035302 -0.33114538
0002f0 06 18 01 be 01 9c 89 be c7 2f fe bd 93 8f 2d bd
       -0.1260682 -0.26876834 -0.124114566 -0.04237325
000300 61 06 8b be bb d9 6c 3e a7 dc 67 be 7c f8 3b be
       -0.27153304 0.23129933 -0.22642766 -0.18356508
000310 58 70 a6 bd cf a8 ba bd ad e7 69 be d8 22 84 3e
       -0.081268966 -0.09114229 -0.22842284 0.25807834
000320 a8 38 88 3e e3 79 0b be 10 d1 b7 bd 5c 3f 2d 3e
       0.26605725 -0.13620715 -0.089754224 0.16918701
000330 a2 19 ed 3b 4c 50 8e 3e db b4 e8 3d ec f5 07 be
       0.0072357217 0.27795637 0.113626204 -0.13277406
000340 91 60 24 be 26 31 ca bc 21 3c 18 3e f0 86 51 be
       -0.16052462 -0.024681639 0.14866687 -0.20461631
000350 e2 92 81 3c 4d 83 03 3e 73 30 de 3e 86 c7 dc bd
       0.01581711 0.12843056 0.4339634 -0.107802436
000360 93 ba 5e be 5c 05 49 3e 1e 3e 27 3e 34 9a 16 be
       -0.2175086 0.1963095 0.1633229 -0.14707261
000370 d7 af ff bd 0a 55 c2 3c 67 50 75 3c 84 71 3f 3e
       -0.12484711 0.02372219 0.014972783 0.18695647
000380 a2 8e a3 be ed fc 31 bd 5c aa 3e be 70 55 e6 be
       -0.31944758 -0.0434541 -0.18619674 -0.4498706
000390 7e dc 8c 3c bd 7f 63 be d1 9f 41 be 78 dd e5 be
       0.017194983 -0.22216697 -0.18908621 -0.4489553
0003a0 cc 27 ee bd c2 c6 2b bd 7f 3b b0 3e 8f 7a 8d 3c
       -0.116286844 -0.041937597 0.34420392 0.017270355
0003b0 b5 5d 38 3e ed ef 10 bd 8d 63 b4 3d ed 6c 98 be
       0.18004496 -0.03538506 0.0880805 -0.29770604
0003c0 80 d8 b3 bb 4c 6b c2 3c 02 a3 df 3d 55 64 d4 bc
       -0.0054884553 0.023732804 0.10919763 -0.025926748
0003d0 d4 08 b1 be 3d 0e 03 be dc c6 d4 bd a2 70 60 3e
       -0.34577048 -0.127984 -0.10389492 0.21917966
0003e0 fa 0f 7c be c6 d6 9b bd 17 1d a8 3e 07 eb a0 be
       -0.2461547 -0.07609324 0.32834694 -0.31429312
0003f0 f7 1b b6 3d 15 6c b0 be 08 d4 70 be af 0c 67 3e
       0.088920526 -0.3445746 -0.23518384 0.22563432

cdr1a_conv.bias f4 [20]
000000 e5 95 85 bd 5e fe 27 bd 90 49 3f bd ed b0 01 3e
       -0.06522731 -0.041014068 -0.046701014 0.12665148
000010 3e fc 43 bd ba 4e bd bd 38 d1 5b 3d b0 59 f4 bb
       -0.04784798 -0.092435315 0.053666323 -0.0074569806
000020 6c 69 ca 3d fa 33 a5 3d 6e e8 f2 3d f8 a1 c1 bd
       0.09883389 0.08066554 0.11860739 -0.09454721
000030 66 f8 a9 3d 1e e4 dd 3d 21 91 82 bd f6 06 f3 3d
       0.08299331 0.108345255 -0.063753374 0.11866562
000040 ce 33 c6 3d 00 4f b9 3a 40 f5 7e 3d 78 e0 38 bd
       0.0967785 0.0014137924 0.062245607 -0.045135945

cdr2a_conv.weight f4 [20, 20, 3]
000000 15 cf 3e 3e 64 31 3e bd 31 9a b6 3c d9 d6 83 be
       0.18633683 -0.04643382 0.022290321 -0.25749853
000010 c0 80 f0 3d 73 90 61 bd 1f f4 e9 be 13 c5 0a 3e
       0.11743307 -0.055069398 -0.45694062 0.1355174
000020 91 84 9b 3d 4c ed 91 3e 96 09 9d bd 73 bc 2b 3e
       0.075936444 0.28501356 -0.07667844 0.16771106
000030 f3 03 bb bd a7 13 44 be d8 fc 29 3e a2 cf a9 3e
       -0.09131613 -0.19148122 0.16600358 0.33166224
000040 f4 58 1f be fb dd c5 3e a9 9e b3 be 01 56 18 3e
       -0.15561277 0.3864592 -0.35081986 0.14876558
000050 af 88 30 3e 27 61 49 3c cb 65 82 bd e6 66 5c 3d
       0.1723964 0.012291229 -0.06367072 0.05380907
000060 69 e8 24 be b3 fa b8 bc 94 3d 13 3e 25 e1 4f bc
       -0.16104282 -0.02258048 0.14378959 -0.012687956
000070 12 b4 73 bc 4c 66 89 3e a2 92 0a bd 2d 77 6b be
       -0.014874475 0.2683586 -0.033831246 -0.2299468
000080 9d b2 3a 3e 36 d3 b8 bc 85 cf 6d be f4 14 48 be
       0.18232198 -0.02256165 -0.23223694 -0.19539243
000090 e7 13 6b 3b 58 9d 95 3d 48 1d 26 bd 50 83 f6 3c
       0.0035870017 0.073054016 -0.04055527 0.030091912
0000a0 0f dc 99 bd cf db 03 3e 81 2c ba 3d cf 72 5d 3e
       -0.07512676 0.12876819 0.0909052 0.21625827
0000b0 15 ca a6 3d a8 22 1d bd 92 5c ac 3d 00 eb af bd
       0.08144013 -0.03836313 0.08416094 -0.085897446
0000c0 a3 fc cb 3d 95 9c 91 3e 69 5c 7a bc f1 f7 39 be
       0.09960296 0.28439775 -0.015280821 -0.18160988
0000d0 e1 4d 16 ba 13 f1 90 be e1 b4 ee 3c 19 60 28 3e
       -0.0005733651 -0.28308925 0.029138984 0.16442908
0000e0 96 70 d6 3d 20 08 f5 3e 46 ef 82 be 8f 4c 48 3d
       0.10470693 0.4785776 -0.25573176 0.048901137
0000f0 08 3e 5d 3e 8b 8e 2a bd b1 56 04 be c5 89 30 bd
       0.21605694 -0.041639846 -0.12923695 -0.043100137
000100 16 e3 41 bc a1 b6 71 be 2f 3b 27 3e 3a 31 f5 3d
       -0.011833927 -0.23604824 0.1633117 0.1197228
000110 e9 f4 ca bc b5 5b a6 3d 60 63 a6 be fb 7e 99 3e
       -0.024774985 0.081229605 -0.32497692 0.2997969
000120 dd b6 fd bd 2e 62 23 be 8b dc 25 3e d5 91 89 3d
       -0.12388394 -0.15955421 0.16197412 0.067172684
000130 30 97 7f be 74 4f 5f 3e a5 6a 67 bc 93 79 87 be
       -0.24960017 0.21807653 -0.014124547 -0.2645994
000140 ce 19 9a be a4 9c 45 3e 3e 7d 61 bd 80 26 9f 3d
       -0.30097812 0.19298035 -0.05505108 0.07771015
000150 a9 c7 11 3d 55 d2 b8 3e 27 a4 a0 3d dc df 4b be
       0.0355908 0.3609797 0.078438096 -0.19909614
000160 ba 51 3b bd 6e 3c 01 bd 20 4d 6f 3e 54 1d 53 be
       -0.045732237 -0.03155177 0.23369265 -0.20616657
000170 e5 29 67 3e 5d ab 6b 3e d5 d6 b9 bd d5 81 c1 be
       0.22574575 0.23014589 -0.09074179 -0.37794366
000180 6e 84 92 3e 58 b9 90 bd a1 23 fc 3d ab e1 f9 3d
       0.2861666 -0.070666015 0.12311483 0.12201246
000190 97 71 bf be 12 bf c0 bd c7 75 4b bb 7a 21 c5 bd
       -0.3739135 -0.09411444 -0.0031045543 -0.09625526
0001a0 07 ce f8 3e 65 05 8d 3e a9 64 b2 3d c4 d8 6c bc
       0.48594686 0.27543178 0.08710606 -0.014455978
0001b0 b7 6c 11 be 9f dc 22 be ce c1 fb 3d 4a 02 0c bc
       -0.14201628 -0.15904473 0.12292825 -0.008545468
0001c0 19 d0 1d 3e 2a 59 ca 3c 02 f5 e3 bd 81 11 fe 3d
       0.15411414 0.02470072 -0.11130716 0.12405682
0001d0 4a 2c f2 3d 57 d3 37 3d c4 f4 8c 3c cb 43 92 be
       0.11824854 0.044879284 0.017206557 -0.28567347
0001e0 4c e7 a0 3e 49 91 25 3e 82 08 c2 3e 30 74 e7 3d
       0.31426466 0.16168703 0.37897116 0.11301458
0001f0 f0 4c d7 3d 7f 6e b0 3d ae f5 b1 ba 4e f6 57 bd
       0.105127215 0.086148255 -0.0013577247 -0.05272513
000200 57 0f 9a bc 32 4f 0b 3e 87 f2 5c bd 7d 52 df bd
       -0.018806143 0.1360443 -0.05394223 -0.10904405
000210 05 6d 25 be f8 a4 05 3e ef df 92 3d 8b 2d 1a 3e
       -0.16154869 0.13051212 0.07171618 0.15056436
000220 66 66 20 be 12 22 19 be 90 38 cf be 78 f2 7a bd
       -0.15664062 -0.14954403 -0.4047284 -0.061266392
000230 9b 45 6f be 10 91 08 3e cc b2 06 bc 5e 6b 9e 3e
       -0.23366396 0.13336587 -0.008221339 0.3094129
000240 ef b3 ab be 2a f1 dd 3d 87 f9 c7 3d 17 fb 1d be
       -0.33535716 0.10837014 0.097643904 -0.15427814
000250 99 c3 0b be 8b 88 2c 3e 73 f4 d2 bd 80 74 64 bd
       -0.13648833 0.16848962 -0.10300531 -0.055775166
000260 66 de fc 3d be 0a 2c bd dc 3e a7 bc 71 3c 76 3e
       0.12347107 -0.042002432 -0.020415716 0.24046494
000270 66 c5 a0 be 5f f3 2b bd dd 8f 75 be 23 57 14 bd
       -0.31400603 -0.041980144 -0.2398066 -0.036215913
000280 9c da 35 3d 03 48 36 be 85 3f d4 3b 41 01 ac 3d
       0.044397935 -0.17800908 0.0064772987 0.08398677
000290 aa 87 cd 3d 7d b5 e6 3d 80 5f 9c be 93 8c 53 bd
       0.100356415 0.11265085 -0.3054161 -0.051647734
0002a0 3d 74 8e bd c5 49 45 3e fe 66 84 3e b1 3c c6 bd
       -0.069557644 0.19266422 0.25859827 -0.09679545
0002b0 94 d8 92 be 89 22 d2 bb 7a dc ce be e9 7c 4d 3e
       -0.2868086 -0.0064128083 -0.40402585 0.2006718
0002c0 ac 21 a7 bd e5 f5 1b bd d6 ba 65 3e d0 3a e2 3e
       -0.08160719 -0.0380763 0.22434554 0.44185495
0002d0 11 12 8c 3d 8e 2a dd 3d f7 54 89 be e1 04 10 be
       0.068393834 0.10799132 -0.26822636 -0.14064361
0002e0 e7 93 bf bd b5 f8 1e bc e6 a3 7f bc fa 66 7d be
       -0.09354382 -0.009702851 -0.015603041 -0.24746314
0002f0 7d 6a 19 3e bf 8f 1a 3e 6e 40 71 3e 46 25 d5 be
       0.14982028 0.15093897 0.23559734 -0.4163
000300 76 ef ef 3c ce fa e5 3d 1a 2b f0 3d 23 6d 26 be
       0.029288989 0.11229478 0.11726971 -0.1625257
000310 8b f1 8a 3e b5 f8 83 be aa a8 ae 3e be b1 5e 3e
       0.27137408 -0.25775686 0.34113055 0.21747491
000320 ce 24 ee 3d c9 33 cb 3d 18 3b 48 3e bd 8e 8d 3d
       0.11628114 0.099219866 0.19553792 0.06911991
000330 ae 2c 5d be 3b 3a 5d 3e 0d f1 b2 bd 1d de 63 be
       -0.21599075 0.21604244 -0.08737383 -0.22252698
000340 02 26 e5 3c fd 1a 5d be b0 54 f0 3d fd 42 95 bc
       0.027972225 -0.21592326 0.11734903 -0.018220419
000350 f1 d3 8b 3e d3 9a eb bd 92 c8 79 3d d9 0f 12 bd
       0.27310136 -0.1150414 0.060982294 -0.035659645
000360 5e a1 fa bc 1e 0f 4f 3e df 0a c2 bd 3a 23 0f 3d
       -0.030594524 0.2022061 -0.0947473 0.034945704
000370 93 cb a2 bc ba 0e ec 3d f5 82 29 bc c2 bb c6 bd
       -0.019872462 0.11526246 -0.010346164 -0.09703781
000380 f0 27 78 bd b9 e1 91 3e 22 36 1f bd 4e 49 95 bd
       -0.060584962 0.28492525 -0.038869984 -0.072893724
000390 b1 92 8b bd 7b fe b7 3d 01 4d 95 be 33 ef c2 3e
       -0.068150885 0.08984085 -0.29160312 0.3807312
0003a0 c7 60 93 3d 89 1e 6c 3d 40 b8 91 be f2 f1 84 bc
       0.07196193 0.057646308 -0.28460884 -0.01622865
0003b0 d7 4d b3 bb ab 29 52 be eb 2d eb bd 9e 4f 2d be
       -0.0054719257 -0.20523708 -0.114833675 -0.16924903
0003c0 7f 19 a5 3e 73 07 72 3e 92 5c 96 3e 51 ac b3 bd
       0.32246014 0.23635654 0.293675 -0.08773101
0003d0 c9 88 d3 3b 1d 96 9d be 86 a6 2f be fa 2e 9e bd
       0.006455515 -0.3077859 -0.17153367 -0.07723804
0003e0 68 9f 4b be 05 75 cd bd 4c 55 67 3e ca c4 81 be
       -0.19885027 -0.10032085 0.22591132 -0.2534545
0003f0 e9 e1 27 3d e8 a0 a4 3e a3 95 0c be da 8a 38 3e
       0.04098693 0.32154012 -0.13728957 0.18021718

cdr2a_conv.bias f4 [20]
000000 6e 3d d2 bd 05 f6 b2 bd d0 fe 68 3c 5c ef 3b 3d
       -0.10265623 -0.08738331 0.014220908 0.045882568
000010 d8 02 cd 3d a4 1f dd 3d 00 4b f3 bb 70 f8 87 bc
       0.10010308 0.107970506 -0.007424712 -0.016597956
000020 00 d2 ae 3c bc aa f5 bc 00 01 90 3b 3d 65 fa bd
       0.02134037 -0.029988639 0.0043946505 -0.12226341
000030 5c 0b d9 bd 30 2e b5 3d 5a 80 9a bd 2e 35 d0 3d
       -0.1059787 0.088467 -0.07544012 0.10166393
000040 40 20 68 3c 38 ce 00 3d a4 4d f0 3d e6 0d 93 bd
       0.014167845 0.031446666 0.11733559 -0.07180385

cdr3a_conv.weight f4 [20, 20, 3]
000000 0b 68 6d 3d 91 9b 1b be d2 1b 58 bd ea 4b bf 3d
       0.05796055 -0.15196063 -0.052760907 0.09340651
000010 5d 39 a9 3c 3d 77 30 3d c2 af 62 3c 5c 35 7d bd
       0.020657236 0.043082464 0.013835849 -0.061818466
000020 54 94 54 3e c8 cb 1d bd 95 0d ed bc 14 b3 e7 3c
       0.20759708 -0.03852442 -0.02893714 0.028283633
000030 80 2b ca bc 19 b1 24 3d 57 2b c0 3d e5 ac a2 bd
       -0.024678946 0.040207956 0.093832664 -0.07943133
000040 ae 02 ef bd 95 a0 db bd d2 99 c8 bc ad d4 6c bd
       -0.11670433 -0.10723988 -0.02448741 -0.05782001
000050 95 11 91 bc ce 42 c0 3b 5e 85 a1 3e 12 42 9c bc
       -0.01770858 0.0058673387 0.31547064 -0.019074474
000060 cc 01 a1 3d bd 1a a3 bd 4b d1 e2 bd 80 a1 ab 3d
       0.07861671 -0.07964084 -0.11075076 0.08380413
000070 7f 69 d7 3d a9 bd b3 bc 78 3b 88 3d 73 69 06 bd
       0.10518169 -0.021941023 0.06651968 -0.032815408
000080 01 38 3a be b3 52 60 bd 2d b5 2c be 4f c2 5d bc
       -0.18185426 -0.054766368 -0.16865988 -0.013535096
000090 4d 8a 62 3e 0d 31 40 bd 59 6c 3b 3d 3c c5 16 bc
       0.2212307 -0.04692178 0.045757625 -0.009202298
0000a0 17 1c d2 bd 80 09 7c bc d3 94 17 be c0 92 9c 3d
       -0.10259264 -0.015383124 -0.14802866 0.07645178
0000b0 de 66 24 bd 0b 7c 8c bd 5c a9 e5 bd db 5c 1b bd
       -0.040137164 -0.06859597 -0.11213943 -0.03793035
0000c0 c7 4c 02 bd 27 25 99 3d 5d cb 38 bd 47 ad 89 bd
       -0.0318115 0.07477789 -0.045115817 -0.06722503
0000d0 85 da f6 3c 76 e6 7d bd 4f fc 88 bd cc 3a 76 bd
       0.030133495 -0.061987363 -0.06688749 -0.060114667
0000e0 72 c4 84 bd 68 4b b9 bd b4 f2 7b bc 41 a3 56 3d
       -0.064827815 -0.09047586 -0.015377689 0.052401785
0000f0 67 b3 44 3d 2b 24 b0 bc c3 3b 5e bc af 58 dc bc
       0.048022654 -0.021501621 -0.013564053 -0.026897756
000100 7b 2e 8f bd 8b 9d 94 bc 8f 97 d3 3d 3e 85 b3 bd
       -0.06991287 -0.018141529 0.10331642 -0.08765648
000110 e0 75 62 3b 6f c5 39 3d d1 66 23 be d3 58 a9 bd
       0.0034555122 0.045354303 -0.1595719 -0.08268895
000120 8a 7e 04 be b2 30 3f 3d 9a 7c 8a 3c 09 1d 40 3e
       -0.12938896 0.0466773 0.016905118 0.18761076
000130 29 c3 02 be 2d 8b 9e bd 0c b6 69 3d ff 67 24 3a
       -0.1276976 -0.077413894 0.05705838 0.00062716
000140 34 d3 5a be 72 44 1d be d2 22 cd 3c 01 85 d6 3d
       -0.2136963 -0.15358141 0.025041018 0.10474587
000150 eb 2b b4 3d f7 21 55 bd dd ff 39 be d5 9f c5 bd
       0.08797439 -0.052034345 -0.1816401 -0.09649626
000160 db 95 50 3e 7d f7 ca bd ea 5d 4d 39 d5 37 93 3d
       0.20369665 -0.09910486 0.00019585309 0.071883835
000170 c8 f3 63 be 44 26 53 3e 4c 61 34 be 16 48 10 3d
       -0.22260964 0.20620066 -0.17615241 0.035224997
000180 32 36 31 ba 5d 8e 59 3d 53 65 8c bd 76 9a 89 3c
       -0.000676009 0.053114284 -0.068552636 0.016797286
000190 1d 2b f5 bc 04 91 4e be 1c 6e f3 bd 4c 79 b3 3b
       -0.029927785 -0.20172507 -0.11886236 0.005477106
0001a0 a1 34 68 be ee 5f fb 3d 8a a4 9c be 3c bf 18 3c
       -0.22676326 0.122741565 -0.30594283 0.009322938
0001b0 b2 0c 4e 3b 07 16 a3 bd a1 d3 31 3e b1 f0 4e bd
       0.0031440672 -0.07963186 0.17365886 -0.05052251
0001c0 94 2c 01 3d 05 3a 9a 3e 36 cc c7 bd c0 db fd 3d
       0.031536654 0.3012239 -0.09755747 0.123954296
0001d0 36 b2 09 be 05 48 4e bd 51 b4 ad bc c2 a0 1d be
       -0.13446888 -0.050361652 -0.021204146 -0.15393355
0001e0 37 77 6c bc 35 32 78 be ae ff cd 3d 28 1d 90 bd
       -0.01443272 -0.24237902 0.10058533 -0.07036811
0001f0 a0 e4 7c bd 14 f4 70 bc b9 46 83 3e 5e 94 c2 bd
       -0.06174147 -0.01470663 0.25639895 -0.09500955
000200 74 97 be bd 86 2b 18 3e 9b d3 7a 3d 23 4d 20 3e
       -0.09306231 0.14860353 0.06123696 0.15654425
000210 88 9a e9 bc 29 fc b3 3d a8 f4 90 3d 13 f8 92 3d
       -0.028516069 0.0878833 0.070779145 0.07176223
000220 74 25 cc bd 0e 13 b3 bd 3a e2 10 3e db 3c f1 3d
       -0.09968081 -0.08743869 0.14148799 0.117791854
000230 93 1d 65 3e 7b 69 60 be c0 9c dd 3c df 26 64 bd
       0.22374563 -0.21915238 0.027052283 -0.055701133
000240 db 10 2b 3e 7a 8b 9e bb c1 51 f0 3d d0 26 b2 bd
       0.16705649 -0.0048384042 0.11734343 -0.08698809
000250 10 0a c1 3c fd bd c4 bc ec 74 f1 bd 0b e2 df bd
       0.023564368 -0.024016375 -0.11789879 -0.10931786
000260 fa ef 37 3e 91 98 05 3d d3 1c 85 3c 2d 43 fb 3d
       0.17962638 0.0326162 0.016249096 0.12268672
000270 a2 86 81 3e ff 4c 84 bd d0 bb e5 3d ab 05 8b 3d
       0.2529803 -0.06459998 0.11217463 0.067881905
000280 68 86 70 3c 5a 65 95 3d 01 47 bb bc 03 fe 68 3e
       0.014680482 0.07294722 -0.022861006 0.22753148
000290 52 cf 66 3e 1b e8 7e 3c 6b 53 1d be b0 2d 97 3d
       0.22540024 0.015558268 -0.15363853 0.07381761
0002a0 d4 d8 81 3e 86 bc e5 bd af c1 76 bc b1 55 e5 bd
       0.2536074 -0.112175986 -0.015060826 -0.11197985
0002b0 2e ca 5d bc 2f 9d f6 bb f8 dc a7 3b f2 e8 86 3e
       -0.013536973 -0.007526062 0.005122777 0.26349598
0002c0 0d a5 e2 3d 70 fa b0 bc 76 87 28 3e 70 49 3a 3e
       0.11066637 -0.021603793 0.16457924 0.18192077
0002d0 d2 da 99 3c 8d 18 fd 3d fa 6b da 3d 15 19 18 3c
       0.0187811 0.12358198 0.10665126 0.009283324
0002e0 10 e3 b8 3d 01 60 c3 3d ba ae 9c 3b 4d b5 d9 bd
       0.09027684 0.09539796 0.004781571 -0.106302835
0002f0 d1 13 b8 3d 28 d3 17 3e 6f 63 aa bd be eb d8 3c
       0.08988155 0.14826643 -0.08319747 0.026479598
000300 93 54 a6 3d 29 5a 0d be 39 fc fc 3c 18 f2 75 3d
       0.081216 -0.13803925 0.030881988 0.06004533
000310 5e f2 3f 3d 9f 81 b3 bd 3e 1e ac bd ec 97 12 be
       0.046862 -0.08764958 -0.08404206 -0.14315766
000320 d2 2b 1d be d0 c9 68 3e de 47 fe bc 4d 2b 66 3e
       -0.15348747 0.22733235 -0.031040128 0.22477455
000330 c9 b1 1d 3d 20 2f 6a bd af d9 8d be 08 d2 fd 3d
       0.038499627 -0.05717385 -0.27705142 0.12393576
000340 79 45 68 bd c6 0a be 3d 93 7f 29 bb b3 b7 ea bd
       -0.05670688 0.092793986 -0.0025863394 -0.11460819
000350 d8 08 14 3e e4 60 a5 3c 87 42 84 bd f0 26 49 3c
       0.14456499 0.020187803 -0.064580016 0.01227735
000360 2e 40 2e 3d 4c 54 0d 3e 9c c0 fc bb c0 d2 04 3e
       0.042541675 0.13801688 -0.0077133905 0.1297102
000370 12 ff ba bd 1a fc 6e 3d a7 07 b0 3d 6a fd a4 bd
       -0.09130682 0.05834589 0.085952096 -0.080561474
000380 d6 08 d7 bd 97 14 88 bd 1e 8b 37 3e 8d 09 87 3c
       -0.10499732 -0.06644552 0.17924163 0.016484046
000390 5b a9 6f 3e 97 29 5c 3e b1 c7 a0 3d 68 cf 84 3e
       0.23404448 0.2150024 0.07850588 0.25939488
0003a0 ed 45 9f 3d ed 80 ae 3e ab 66 35 3e a8 80 38 3d
       0.07777009 0.34082738 0.17714946 0.04504457
0003b0 cd 29 1a bd 6a 22 17 3e c9 df 1b be 19 06 dc 3c
       -0.03763752 0.14759222 -0.15222086 0.026858376
0003c0 31 d0 79 3e f4 94 93 3e 0b 59 95 3c 03 47 dc 3c
       0.24395825 0.2882458 0.018230936 0.02688933
0003d0 aa 70 b2 3e 6c ea d4 bd 8a 05 33 be 04 73 28 3d
       0.3485158 -0.10396275 -0.17482582 0.041125312
0003e0 ec f7 62 bd 28 75 c4 bd c3 8b 11 be b2 9c c3 3d
       -0.055412218 -0.09592658 -0.14213471 0.09551372
0003f0 92 af 96 3d e9 42 1c be 5c bd 9f bd a2 1e 9f 3c
       0.07357706 -0.15259899 -0.07799789 0.019423787

cdr3a_conv.bias f4 [20]
000000 7f a8 1b bd d6 ec 14 bc 98 29 d4 bc 4e 87 f0 bb
       -0.038002487 -0.009089669 -0.02589874 -0.0073403483
000010 ac 52 17 bd 42 3f 84 3d c6 50 93 3a 14 0c c5 bd
       -0.036944076 0.06457378 0.0011239282 -0.09621444
000020 6b 41 a1 3c 77 af 99 bd 48 99 2f 3b cc 24 c8 3c
       0.019684514 -0.075041704 0.0026794244 0.024431609
000030 34 d3 4c bc 21 6c 67 3d c9 97 ac bd a4 2f 67 bb
       -0.012501527 0.056499604 -0.08427388 -0.0035276199
000040 a5 61 b9 3b 89 98 fc 3b 93 f5 05 3c 52 73 db bc
       0.005657392 0.0077086133 0.008176225 -0.026788387

cdr1b_conv.weight f4 [20, 20, 3]
000000 dd 2a 8b 3d 6b 71 17 bd b6 dd 04 3e 10 e3 03 bc
       0.06795285 -0.0369734 0.12975201 -0.008049741
000010 33 5a 9c be 0e 38 9c 3c 1a 21 67 3e d2 01 0d 3d
       -0.30537567 0.019069698 0.22571221 0.034425564
000020 75 0a 32 bd 8c 39 a5 3e ab 80 8a 3e db 3b a7 bd
       -0.043467004 0.32270467 0.2705129 -0.081657134
000030 c3 9e 79 3e cb da 1f bd c1 46 44 bd e9 bc 34 bd
       0.24376969 -0.039027017 -0.04791904 -0.04412547
000040 91 77 64 3e a0 8a e2 bd 84 6e ce 3d cf d1 fb 3d
       0.22311236 -0.11061597 0.10079673 0.12295877
000050 4d 64 d7 bd 5f 3a 8e 3e e2 64 e7 bd d6 62 e2 bd
       -0.10517178 0.2777891 -0.11298539 -0.11054008
000060 89 0e 95 bd bf 3a 2d 3e 5c 8d bd bb a6 ae 9b bc
       -0.07278163 0.16916941 -0.0057846736 -0.019004177
000070 e8 ec 81 bd 05 db 34 3e dc 07 43 be 63 ba f6 bb
       -0.063440144 0.17661674 -0.19045967 -0.0075295432
000080 07 bf 72 bd da cc f9 3d 4b 82 9b 3d 06 df 6d 3e
       -0.05926421 0.121972755 0.07593211 0.23229608
000090 ac 45 92 3e a1 fe b5 3d 93 b8 8e be 05 45 bb bd
       0.2856878 0.08886457 -0.27875194 -0.09144024
0000a0 73 a7 01 3e 40 0a 04 bc 0e ae 93 3d 75 d3 6f 3d
       0.12661533 -0.008059084 0.07210933 0.05855127
0000b0 46 0a c6 bc 86 67 66 be 62 84 25 3e a8 e7 05 be
       -0.02417482 -0.22500429 0.16163781 -0.13076651
0000c0 18 78 e5 3d 3e f0 45 3e 6c 45 45 be 59 d7 dd 3d
       0.11204547 0.19329926 -0.19264764 0.1083209
0000d0 4c cd d5 bd 8c 4e c4 3d ba 84 c8 3c d5 97 3a be
       -0.10439548 0.09585294 0.024477351 -0.18221982
0000e0 0b 47 fe 3d 76 13 65 3c 71 51 0d be f8 0e f9 bd
       0.12415894 0.013981691 -0.13800599 -0.12161058
0000f0 67 3a 4d be 8c 8c 00 3e 7c 9e 96 bd 35 d6 6f 3e
       -0.2004181 0.12553614 -0.07354447 0.23421557
000100 08 2f 18 be 22 c7 a6 be f6 66 8d 3e a8 2d 24 3e
       -0.14861691 -0.325738 0.27617615 0.16033041
000110 d9 33 79 be f3 69 fe 3d b8 1b 21 be 90 30 34 bd
       -0.24336185 0.12422552 -0.1573323 -0.043991625
000120 44 f6 02 3e 3d d7 a7 3c d1 4c 68 bd 1e 09 9e bc
       0.12789255 0.020488376 -0.056713883 -0.019291457
000130 26 79 63 be a0 11 fb bd 1b f1 98 3d 0a 0b b3 3e
       -0.22214183 -0.12259221 0.07467862 0.3496936
000140 5b 99 ea 3e 02 6c cc bd 0d 25 80 be 05 80 0a 3e
       0.45820126 -0.09981538 -0.25028268 0.13525398
000150 d1 f5 05 be 8f b3 cc 3e fb 02 d9 bd 2e 9a a9 be
       -0.13082053 0.39980742 -0.105962716 -0.33125442
000160 ea 8c 0c 3e 1f 03 96 be d0 75 7b 3e c6 7c 23 bd
       0.1372563 -0.29299256 0.2455666 -0.039913915
000170 4d 75 8f be f3 ab 49 bc ed 11 51 3e 19 a6 c9 bd
       -0.2801918 -0.012309062 0.20416994 -0.09846134
000180 d4 51 b0 be 88 d3 36 bd f5 bf 1c be c5 38 a8 3d
       -0.3443743 -0.044635326 -0.15307601 0.08213953
000190 7e ab ab bd 95 f2 37 3d 1b 15 5e bd 1a 23 8f 3e
       -0.08382319 0.04490908 -0.054219346 0.27956468
0001a0 91 7e d2 bd df 79 b6 bd 54 ea 59 bd b7 99 86 3c
       -0.10278047 -0.08909964 -0.05320199 0.016430719
0001b0 38 ff 2f 3d 32 ae 93 3e 19 15 24 3e 6f b2 49 be
       0.042968005 0.28843838 0.16023673 -0.19696973
0001c0 f8 10 b5 bb 06 04 f2 3c 20 49 29 be 5a f1 9d 3d
       -0.0055257045 0.029542934 -0.16531801 0.0771205
0001d0 a6 a4 6e 3e ac 57 ad 3e 0f 3d 00 be f1 1e 57 3e
       0.23304996 0.3385595 -0.12523292 0.21007897
0001e0 2e d8 b6 bd da 00 c0 bd 90 38 96 bc 27 9f 00 3e
       -0.08927952 -0.093751624 -0.018337518 0.12560712
0001f0 9c c9 d4 3d a8 b0 10 bb 29 a0 51 be b1 e8 69 bd
       0.103900164 -0.0022077952 -0.20471253 -0.057106677
000200 86 09 c1 3d 9b ae 07 be e6 cc ca bd d9 e2 07 be
       0.094256446 -0.132502 -0.099023625 -0.1327013
000210 81 e8 08 be ac b0 2e 3f bc b0 8f be 35 47 f4 bd
       -0.13369943 0.6823833 -0.28064525 -0.11927644
000220 76 2e 00 3e 69 2c 65 be 34 78 b9 3d 6c 91 a4 bc
       0.12517723 -0.22380222 0.0905613 -0.020088874
000230 d6 40 68 bd c1 ed 8f 3e 27 13 6f be 1c a3 56 3b
       -0.056702457 0.2811108 -0.2334715 0.003275103
000240 0c 7d 29 3d b6 51 ad 3b c0 d3 30 be 6b a3 51 bd
       0.04137902 0.0052892817 -0.17268276 -0.05118124
000250 5f 4c 86 bd 8a 18 52 be f9 f1 b1 bd cc 0a 0c be
       -0.065575354 -0.20517173 -0.08688731 -0.13675994
000260 b8 a8 c3 3d 08 88 97 bc 7d 8e 81 be 3a ec 8c bc
       0.09553665 -0.018497482 -0.25304022 -0.017202485
000270 21 f8 05 be be 0c 84 be 28 2e 8b 3d 66 e1 26 3d
       -0.13082935 -0.25790972 0.06795913 0.0407423
000280 d8 cb e9 bd bd 5b 3f bd 8c 0e 38 3e 20 f5 44 3d
       -0.11415833 -0.046718348 0.17974299 0.048085332
000290 33 fb 2e be 75 96 73 3e 32 d4 94 3e 29 52 e1 3e
       -0.17088012 0.23787864 0.29068142 0.44007996
0002a0 71 a1 e3 3c 8f bc 0a be 9f 51 fa 3d 9a fe 42 be
       0.027786942 -0.13548492 0.12222599 -0.19042435
0002b0 f4 36 43 3e 33 b4 38 3e 94 6d 78 3e 5f bd 81 3e
       0.19063932 0.1803749 0.2426055 0.2533979
0002c0 09 3b 57 3d 85 fd a3 3d 83 6f a4 3d 7f 34 d9 3d
       0.052546535 0.080073394 0.08029082 0.10605716
0002d0 56 00 b1 bd 39 69 7b be 76 91 b8 3d e5 c9 a3 3c
       -0.08642642 -0.24551858 0.090121195 0.019993732
0002e0 a9 e4 09 3e 74 3b 91 be 40 8e 6b 3a 8a e2 29 3e
       0.13466133 -0.28365672 0.00089857355 0.16590324
0002f0 0a b6 2e be 06 8e 03 be 5b 43 fd bd bf 0f 9c be
       -0.1706163 -0.12847146 -0.12366363 -0.30480763
000300 a8 0d 5f 3d bb 04 a0 be 61 77 06 3e 8e 84 e5 bc
       0.054456383 -0.3125361 0.13131477 -0.028017309
000310 4e e3 36 bd 4f d5 37 be e7 cb 85 bc 79 d3 67 3e
       -0.04465037 -0.17952465 -0.01633258 0.22639264
000320 78 33 5a bd a6 51 68 3e 19 b4 ee bd fd 83 3c 3e
       -0.05327174 0.22687396 -0.11655445 0.18409725
000330 e3 de 12 be ed 07 6c bd 46 6b 36 3d 72 b3 92 bc
       -0.14342837 -0.057624746 0.044535898 -0.017907832
000340 a9 bf d6 3d 1c 9f 24 3e d4 06 3c 3e 13 4b d9 bd
       0.10485775 0.1607632 0.1836198 -0.106100224
000350 fd 25 81 be 56 31 42 3e ec 99 a7 3e e0 0e 4f be
       -0.25224295 0.18964133 0.3273462 -0.20220518
000360 9c 2c 4f be ae a5 1c 3e 29 02 9a 3d 07 8e 35 3e
       -0.20231861 0.15297577 0.07519943 0.1772996
000370 17 44 9b 3e 6c e8 e7 bc 37 e1 76 bc f6 8a 40 3e
       0.30325386 -0.02830907 -0.015068344 0.1880301
000380 eb 76 d1 bd 6c f3 52 be 68 e9 77 3e 53 a3 8a be
       -0.1022776 -0.2060067 0.24210131 -0.27077731
000390 d1 2e 79 be 63 45 9a be 18 9e 80 3d 94 c5 71 be
       -0.24334265 -0.30131063 0.06280154 -0.23610526
0003a0 10 33 c9 bd e4 f9 71 3d 7a f1 0f be 5f 5e e3 bc
       -0.098241925 0.059076205 -0.1405696 -0.02775496
0003b0 b1 38 fb bc c5 56 56 3e 3c 6b 64 be 0e 9f a2 3e
       -0.030666681 0.20931537 -0.22306532 0.31761974
0003c0 c3 10 b6 be 1f f1 ab bc 7f b7 38 bd 9a df 6e bc
       -0.35559663 -0.020988999 -0.04509687 -0.014579678
0003d0 d7 50 88 be d4 1a 83 3c 80 6e 24 be 3e 84 ae bd
       -0.26624176 0.016004004 -0.16057777 -0.08521317
0003e0 d2 7d 13 3e 2a 2e 9f 3e 40 a0 54 3e f9 f4 41 be
       0.14403465 0.31089908 0.20764256 -0.18941106
0003f0 90 97 bc 3d db f2 bc 3c c3 e1 17 3d d8 4a 0c be
       0.09208596 0.023065021 0.037080538 -0.13700426

cdr1b_conv.bias f4 [20]
000000 84 11 1b bd 0c 37 42 3d 74 fa 10 3d b8 ab f8 3c
       -0.0378585 0.047415778 0.0353951 0.03035532
000010 fe 69 d7 3d 30 72 a8 3c d4 72 af 3d 8c 6d 13 bd
       0.10518263 0.020562261 0.085668236 -0.035993144
000020 0f 98 ed bd 8a 96 a1 3d 90 4e 5b 3d b0 1c de 3d
       -0.116012685 0.07890041 0.05354172 0.108453155
000030 24 0c 4a 3d 40 16 29 3b 80 d7 be bd 8d ab fa bd
       0.049327984 0.0025800616 -0.09318447 -0.12239752
000040 78 3f d4 3c ee b1 d7 3d 70 6e 24 bc ba 82 2c bd
       0.02590917 0.10531984 -0.010036096 -0.042116858

cdr2b_conv.weight f4 [20, 20, 3]
000000 19 b6 a8 3e 68 c0 a0 be 73 1d b3 3d 31 1f 5c 3e
       0.3295143 -0.31396794 0.08745851 0.21496274
000010 03 54 78 bd f7 25 b0 bd d6 0c 66 3d 12 ef 8c 3e
       -0.060626995 -0.08600991 0.056164585 0.27526146
000020 ab 04 e0 3d 68 69 88 3e ca d6 72 3e e0 c3 3a 3d
       0.1093839 0.2664292 0.23714748 0.045596957
000030 25 33 80 3e b5 f5 0e 3b 4d 71 24 3d 53 ef 7d 3e
       0.2503902 0.0021813933 0.040147115 0.24798326
000040 ba 17 a2 3d 1e f7 44 be 74 3b ea bd 26 7a aa be
       0.07914682 -0.19234893 -0.11437121 -0.33296317
000050 fd 0b 1a bd 7b 54 81 bd 1a 1d 12 bd 03 8e 56 bf
       -0.03760909 -0.063149415 -0.035672285 -0.8381044
000060 ef 88 ba bc 7f 71 a9 3d d4 06 07 3e 5b 27 1e be
       -0.022770373 0.08273601 0.13186198 -0.154447
000070 38 a0 a3 bb ca 5e 9d bc b9 e1 28 3e 59 2d 04 3e
       -0.004993465 -0.019210238 0.16492356 0.12907924
000080 88 e2 3d be 92 2b 1f be 72 98 d4 3d d8 f2 1f 3d
       -0.18543446 -0.15543965 0.10380639 0.039049953
000090 40 9e 94 3e ea e2 7b bc e4 32 a0 3e 73 7a f3 bd
       0.29026985 -0.015373925 0.31288826 -0.1188859
0000a0 2d 55 25 be fc 43 93 3e bc cf 59 bd 1d 26 38 be
       -0.16145773 0.28762805 -0.053176627 -0.17983289
0000b0 02 35 bc 3d ce 8a af be cd c6 93 bc 3d d8 07 be
       0.09189798 -0.34285587 -0.018039132 -0.13266082
0000c0 62 6a b3 bc b0 a5 f9 3d 00 cd 5f 3e b6 32 10 bb
       -0.021901313 0.121898055 0.21855545 -0.0022002882
0000d0 48 81 c2 3c bd 4b 92 3e 3f b0 34 be be 42 f9 3c
       0.023743287 0.2857341 -0.17645358 0.030427333
0000e0 ec d7 a8 bd ff f5 a1 3e c0 38 3c 3d d1 6b 32 3e
       -0.08244309 0.31632993 0.04595256 0.17423941
0000f0 89 48 94 be 7a f5 81 be f9 00 71 be 62 74 a5 bd
       -0.2896159 -0.25382596 -0.23535527 -0.08078839
000100 e8 ec 88 bb 7f bd 0e be 72 c5 e3 bd e6 6b 90 bd
       -0.004178632 -0.13939475 -0.11121644 -0.0705183
000110 f7 37 e7 3d 64 73 af 3d ca e0 93 3d 83 d1 0c 3e
       0.11289971 0.08566931 0.072206095 0.13751797
000120 bd 20 20 3d 03 fb 94 bc 4f a6 7a 3d c3 59 7d bc
       0.03909372 -0.018186098 0.06119376 -0.015463295
000130 6f 04 09 3d b6 64 5e 3d c7 b0 b7 3c 80 1f 47 be
       0.033451494 0.054295264 0.022423161 -0.1944561
000140 6f 38 41 be 6e 35 95 3c 9c 19 da bd 20 b9 52 be
       -0.18869184 0.018213954 -0.10649416 -0.20578432
000150 bd b8 d2 bd e1 0a ba 3e c8 f7 68 be de ee d5 bd
       -0.10289142 0.36336425 -0.22750771 -0.10445951
000160 cc 29 e8 3d a4 40 8e bd eb f3 ea bd 7f f1 66 bd
       0.11336097 -0.06945923 -0.11472305 -0.056382652
000170 1a f7 2b bd 38 79 20 3e b3 ad 8f be a9 20 6d be
       -0.0419837 0.15671241 -0.2806221 -0.2315699
000180 a3 b6 9a 3e cf 3a 09 3e f6 9d c6 be a4 9b a8 bd
       0.30217466 0.1340134 -0.3879239 -0.08232811
000190 b1 a7 5c 3e a5 26 05 3c 7f d9 a6 bb c1 1e c9 bd
       0.21548344 0.008126889 -0.0050918455 -0.09820319
0001a0 ea ad 0c 3e 51 88 88 be af 4b 1a be 5a e8 d6 3d
       0.13738218 -0.266665 -0.15067933 0.10493536
0001b0 bd a8 97 bd c3 15 c6 3d 50 22 d7 3e a5 7d 3b 3e
       -0.07405231 0.096721195 0.42018366 0.18309648
0001c0 fd e3 34 bd 1a bb 82 bd 28 25 16 be 48 d0 06 bd
       -0.04416274 -0.06383343 -0.14662611 -0.032913476
0001d0 0d 21 e0 3d cc c7 fb 3d 5a 7a 35 3d a8 a1 27 3e
       0.10943804 0.122939676 0.044306137 0.1637026
0001e0 2b 56 6a be bc 99 7c 3d 99 3a 4f 3e 2a c2 0f bb
       -0.22884433 0.06167005 0.20237197 -0.00219358
0001f0 d1 c2 97 3d 6d 3e a2 3c 77 4c b5 3d 7f 53 44 3e
       0.07410205 0.019805158 0.08852475 0.19172476
000200 58 69 6f 3e 58 03 c5 be 82 51 ff bd d1 76 ab bd
       0.23380029 -0.38479114 -0.12466718 -0.08372272
000210 53 e4 9c 3e ed dd d2 be 1b 55 1f be 29 9e f0 bd
       0.30642948 -0.4118494 -0.15559809 -0.11748917
000220 24 01 28 3d 96 80 b5 3d 11 e1 ac 3e f9 01 ae bd
       0.041016713 0.088624164 0.33765462 -0.0849647
000230 91 10 a5 3d 6f d9 02 3e 81 7d c4 bd ff c1 ee 3d
       0.080598004 0.12778257 -0.095942505 0.116580956
000240 e2 d0 d5 3d a7 ed 07 be 41 e4 89 be 35 2f c0 bd
       0.10440232 -0.13274251 -0.26931956 -0.09384004
000250 c3 b6 d5 bd b1 2b 00 bd 56 f3 58 3d a0 52 63 3c
       -0.1043525 -0.031291667 0.05296644 0.01387468
000260 15 69 24 3e 1d 10 f4 3e b4 e8 dd 3d 84 1a 92 bc
       0.1605571 0.47668543 0.108354 -0.01783491
000270 6d 15 d1 bd 8e 8f 96 3e b9 34 92 3e 8d dd 94 bd
       -0.10209165 0.294064 0.2855585 -0.0726882
000280 e2 03 9b 3d 8b b9 a4 3c 9b d3 37 bd 4d 2d ae bd
       0.075691 0.020108005 -0.044879537 -0.08504734
000290 08 81 89 3e 68 d2 7a 3d 0c 44 3f 3d 85 35 11 bf
       0.26856256 0.061235815 0.046695754 -0.5672229
0002a0 8d b2 38 3d b7 81 3f 3e 57 62 1f bd 37 65 11 3d
       0.045092154 0.18701826 -0.038912144 0.035496917
0002b0 90 c2 94 3d 26 ee 4a 3e 1f 80 d0 3e fc c5 44 be
       0.07263672 0.19817409 0.4072275 -0.1921615
0002c0 c6 19 19 bd 32 05 93 be 50 13 c2 3e 64 f7 b5 bd
       -0.037378095 -0.287149 0.3790536 -0.08885077
0002d0 b5 7d be be 6e 1d a9 3d 31 30 68 3c 5a 90 03 3e
       -0.37205282 0.082575664 0.014171646 0.12848035
0002e0 38 56 92 be 8f a7 28 be b8 8f 28 3e 3b 3e cd bd
       -0.28581405 -0.16470169 0.16461074 -0.10021635
0002f0 f3 54 3a 3d 70 2d c4 bd 7d f6 8b 3d b0 46 9c 3d
       0.04549117 -0.09578979 0.06834123 0.0763067
000300 42 26 51 be e3 9a fc 3c 66 54 0c be cf 5c 32 3e
       -0.2042475 0.030835574 -0.1370407 0.17418216
000310 af 88 f8 be 67 93 f8 3d 0e 90 90 bc 2d fd 5d bc
       -0.4854178 0.1213749 -0.017646816 -0.013549131
000320 9f b4 a6 3c 49 92 1a be f5 5a 05 be 9d 9e ef 3b
       0.020349799 -0.15094866 -0.13022979 0.0073126093
000330 03 59 75 be 83 32 1c be c2 ee e4 3c 2b 56 fc bd
       -0.23959737 -0.15253644 0.02794588 -0.12321123
000340 d6 a0 33 3e 0c 49 c7 3e 68 a8 15 bd 1e 95 02 3d
       0.17541823 0.38922918 -0.036537558 0.03188049
000350 7e 6c 3c 3d 4f d4 61 3e 98 dd 21 3e d1 2e ac bc
       0.046001904 0.22053646 0.15807188 -0.021018418
000360 90 71 bb be dc da 05 3e 7d 62 74 be 70 68 99 3c
       -0.3661008 0.1307177 -0.23865695 0.018726557
000370 79 b0 5c 3d 8b 70 97 be 0d 63 51 bd a7 70 d6 be
       0.053879235 -0.2957805 -0.051119853 -0.41882822
000380 3c 9c e8 bd b7 25 39 be 97 06 a4 be b8 c6 15 bd
       -0.11357924 -0.18080793 -0.32036278 -0.036566466
000390 3f f1 99 be c5 fe ce bd a1 62 2b 3e f7 cf ba bd
       -0.3006687 -0.10107187 0.16736843 -0.091216974
0003a0 d7 28 8c be c1 2d 17 3e 29 ee e8 bd 5b d0 e3 3c
       -0.27374908 0.14763547 -0.113735504 0.027809313
0003b0 fc f9 e3 3c 96 b6 57 3e b2 82 d6 3c cc 8a ae bd
       0.027829163 0.21065745 0.026185367 -0.08522567
0003c0 1d ba 42 be 04 af e4 3c 62 61 98 3e 46 7f ca bd
       -0.19016309 0.027915485 0.29761797 -0.09887557
0003d0 5c a6 05 3e db eb 22 bd 35 a7 3e 3d 20 38 a7 3e
       0.13051742 -0.03977571 0.04654618 0.32660007
0003e0 c5 28 04 bd 9a 66 2b be ad 7f 2b be 8e 80 d4 bd
       -0.032265443 -0.16738358 -0.16747923 -0.10376082
0003f0 5b 52 13 be 2d 49 18 bd 7e f5 1a be f6 43 19 3e
       -0.14386885 -0.03717916 -0.1513271 0.14967331

cdr2b_conv.bias f4 [20]
000000 2e b2 dc 3d 70 7d d5 bc 80 4d e6 ba c7 3f 8d bd
       0.107761726 -0.02606079 -0.0017570704 -0.0689693
000010 23 b1 02 be e8 45 ef 3c 92 66 3c bd ea 06 9b bd
       -0.12762885 0.029208139 -0.045996256 -0.07569678
000020 c2 c0 d2 3d c0 1c c4 3c 32 c9 0d bd 65 d2 f3 bd
       0.10290672 0.02393949 -0.034615703 -0.11905364
000030 9a d6 94 bd 6a 9c 2c bd 6c 4a 5e 3d 86 f9 f0 bd
       -0.072674945 -0.042141356 0.054270193 -0.11766343
000040 e2 b2 98 3d 92 7f f0 3d 18 a2 23 3d 7b 41 03 be
       0.07455994 0.11743082 0.039949507 -0.12817948

cdr3b_conv.weight f4 [20, 20, 3]
000000 db 6a f6 bd 42 00 d0 3c 64 07 98 3d a5 c1 00 bd
       -0.120321 0.025390748 0.07423285 -0.031434674
000010 cb c9 8b bd 7c a4 ae 3b 52 d8 d3 3d a2 86 d1 3d
       -0.06825598 0.0053296667 0.10343994 0.10230757
000020 14 f1 52 3e 28 b4 fb 3d 92 7c a6 3d a7 fd 8c 3e
       0.20599777 0.122902215 0.08129229 0.2753727
000030 43 6e 63 bd 50 6c 43 be 97 2a cf 3c 8b 73 0a bd
       -0.055525076 -0.19084287 0.025288863 -0.033801597
000040 87 48 8f 3d a1 02 08 be 17 e6 36 3e 9b d5 48 bd
       0.06996255 -0.13282253 0.1786121 -0.049031835
000050 82 54 ef 3d 5a 5c 9e bd bd 56 8d bd a9 47 86 3d
       0.116860405 -0.077324584 -0.0690131 0.06556637
000060 c5 08 c0 3c 8c 69 83 bd b1 d0 54 3e 6b cc 23 be
       0.023441682 -0.06416616 0.20782734 -0.15995948
000070 f4 c7 aa bd f9 1d 58 3d cd a8 1e be 2e ad c2 3d
       -0.08338919 0.05276296 -0.1549408 0.09505688
000080 e6 28 11 3d af e9 21 3e 49 29 01 3e 1f 65 48 3e
       0.035439394 0.158118 0.12613405 0.19569825
000090 76 19 58 3e 56 47 27 bd b8 b2 9a 3d 71 54 43 bd
       0.21103463 -0.040839516 0.07553619 -0.04768795
0000a0 76 b2 03 be 39 fb 87 3e 29 39 09 bd 7c 68 2f bd
       -0.12861046 0.26558855 -0.033501778 -0.042824253
0000b0 90 c0 a0 3d 2c 17 a7 3c 17 af 82 bd b9 6c c9 3c
       0.078492284 0.020396791 -0.06381052 0.024587976
0000c0 c4 25 3b bc 96 57 06 bd dd c5 a6 3d 35 c4 0f 3c
       -0.011422578 -0.032798372 0.08143208 0.008774807
0000d0 82 77 c9 bd 4c 67 3d bd b1 cb 0b bd d6 8b d6 bd
       -0.098372474 -0.04624109 -0.034129802 -0.1047589
0000e0 f0 da 19 bd f3 e7 20 be f0 e1 86 bd 23 82 23 be
       -0.03756231 -0.15713482 -0.06586063 -0.15967612
0000f0 b1 69 b3 3d c7 07 4b bb 57 fc 06 3d c9 2e 0f be
       0.087603934 -0.0030979977 0.032955494 -0.13982691
000100 ab d6 7d 3d 6a 13 f1 bd ba 72 6f be b9 24 d8 3c
       0.0619723 -0.11771281 -0.23383608 0.026384698
000110 e2 6d 25 3d 7d 35 f0 bc 75 f7 b6 bd ff 37 0f 3d
       0.040387996 -0.02932238 -0.089339174 0.03496551
000120 30 e7 a2 3d e5 24 7f bc 1d 7f 0e bd eb fa 7e be
       0.07954252 -0.015572761 -0.034789193 -0.24900405
000130 a3 30 b9 bd 92 00 b3 bd db 2f 80 bd 6f cc d8 3d
       -0.0904248 -0.08740343 -0.06259128 0.105858676
000140 70 5d 88 bd 91 7c b7 3b c6 e0 ca bc 86 d6 e7 3c
       -0.06658447 0.0055995663 -0.024765383 0.028300535
000150 3e ec 95 bb b6 81 63 bd e9 7e a9 3d 4d b6 2f 3d
       -0.0045752814 -0.055543624 0.08276159 0.042898465
000160 a9 76 63 3c 3f f9 36 3e d9 b7 1a bd 64 fa 9c bc
       0.013883271 0.17868517 -0.037772987 -0.019162364
000170 10 72 92 bd 1f 85 d2 bd fb 56 76 3d 7a c0 7e bc
       -0.07150662 -0.10279297 0.060141545 -0.01554882
000180 d3 5b 12 3c d4 ff c9 bd 14 c2 e5 3c c5 42 6e bd
       0.008933025 -0.098632485 0.028046645 -0.058169145
000190 8c f6 fd bb 0e 33 1e 3e 72 0b bc 3d d7 f4 62 bb
       -0.007750338 0.15449163 0.091818705 -0.00346308
0001a0 8f 4f 87 3d f1 04 f9 3b 2d e9 19 3b 34 05 21 bd
       0.066069715 0.007599466 0.002348493 -0.039311603
0001b0 8f b8 f3 bd e6 ff f8 bc 02 c5 3f 3d 78 7e 7e bd
       -0.11900436 -0.03039546 0.04681874 -0.06213233
0001c0 eb 1d a7 3d f1 86 58 bd ec fb 9e bd e5 e1 14 39
       0.08160003 -0.052863065 -0.07762894 0.00014198532
0001d0 b2 8f 46 bd 0a 87 95 bc dd 07 1e 3b 48 56 28 bd
       -0.048476882 -0.018252868 0.0024113574 -0.04109791
0001e0 d2 68 24 bd ac 9a df bc 34 f1 48 3e 11 88 16 be
       -0.040139027 -0.027295433 0.19623262 -0.14700343
0001f0 5b 2e 0e 3e db 95 fc 3d 07 d1 b3 bb 56 94 83 bd
       0.1388487 0.1233327 -0.0054875645 -0.06424777
000200 4b 1f 16 3c 59 57 7d 3b 87 6c 09 be 18 64 9e bd
       0.009162734 0.00386568 -0.13420306 -0.07733935
000210 11 fb c7 3d 6f 3e ad bc c0 d7 0a bb 9c 1a 51 be
       0.09764684 -0.021147935 -0.0021185726 -0.20420307
000220 35 a5 2c 3e a8 11 80 3e f4 5a c1 3d 13 c2 d6 bc
       0.16859896 0.2501347 0.09441176 -0.026215589
000230 42 4c 2b be 26 3c 66 3d 3e 1c 18 3c 34 b2 57 3d
       -0.16728309 0.056209706 0.009284077 0.052660182
000240 61 bf 4a 3e ea 5d a9 3d cd 41 e1 bd a1 e0 1e bd
       0.19799568 0.08269866 -0.10998879 -0.03878844
000250 56 25 13 3c 12 6b 17 bc 33 a6 cf bc fd 74 ab bd
       0.00898107 -0.009241836 -0.025347805 -0.08371923
000260 ae db 3f bd a0 3a ee bd 78 c9 bb bd 67 06 62 bd
       -0.046840362 -0.116322756 -0.091692865 -0.055181887
000270 d9 2e 3a bd 26 0a b9 bc 6a e8 37 bd 0f dc 07 3d
       -0.045454834 -0.022587847 -0.04489938 0.03316885
000280 95 cf d1 bc f4 82 6f bd 2a bb 68 3e 8f 44 0e bd
       -0.025611678 -0.058474496 0.22727647 -0.03473335
000290 0f 2d 2b 3d d3 28 50 bd 82 c9 a2 3d f9 ce a1 3d
       0.041791018 -0.050820183 0.07948591 0.07900805
0002a0 35 03 11 bd 00 2f 3b 3e 0d 3d ea 3d d3 74 df 3c
       -0.03540345 0.18279648 0.11437426 0.027277386
0002b0 14 2f ce 3c 45 3d 89 bc d7 04 80 bd 70 66 84 3d
       0.025168933 -0.016752848 -0.06250923 0.06464851
0002c0 ec 14 96 bc 20 4b bc 3d 2c 5e 75 bd b6 62 fb bc
       -0.018320523 0.091940165 -0.059904262 -0.030686717
0002d0 31 8e bb bd 7b b9 3b bd e1 fb b3 bc e5 72 e8 3d
       -0.0915798 -0.045831185 -0.021970691 0.113500394
0002e0 fe 0e 18 be cd aa d5 bd 8d 05 a5 bd 7e 9c b0 3d
       -0.14849469 -0.10432968 -0.08057699 0.086235985
0002f0 3c 30 9a bd 09 31 58 bd f3 e1 15 bd 92 46 11 be
       -0.07528731 -0.05278114 -0.036592435 -0.14187077
000300 8d 65 01 be 3f 1b 71 be 16 4e 31 bd f1 0c a0 3e
       -0.12636395 -0.2354555 -0.04328736 0.31259874
000310 f0 79 dd 3c aa 81 07 be 3e 03 8a 3c af 0f 19 be
       0.027035683 -0.13233057 0.01684725 -0.14947389
000320 b0 d7 2f 3e 9c 6e 43 bd 95 9d 2a 3e 64 f4 98 3d
       0.17172122 -0.047712907 0.16661675 0.07468489
000330 9f 8e 87 3d 33 21 f4 bd ee 30 82 3e 4e 9f 37 3d
       0.06619 -0.11920395 0.25427955 0.04482966
000340 d0 17 27 be 24 17 d5 3c 07 37 86 bd 8c 95 6e 3e
       -0.16317677 0.02601201 -0.065534644 0.23299235
000350 20 07 2e be 3e 25 07 3e 44 37 54 bd 6c 33 36 bd
       -0.16994905 0.131978 -0.051810518 -0.044482633
000360 25 c9 00 be 40 2f 18 3e 33 fe 2f 3d 50 0c 1f 3e
       -0.1257673 0.14861774 0.042967033 0.1553204
000370 08 4e d8 bd fc 6d d3 bd dd be e6 3d 1f a7 90 be
       -0.10561758 -0.10323712 0.11266873 -0.28252503
000380 9c 82 77 3e ca df 4e 3e fd 39 ef bd 70 78 32 be
       0.24170917 0.20202556 -0.11680982 -0.17428756
000390 6e e1 21 3d ec 45 b2 bd 27 20 77 bd 0f a3 8c bd
       0.039521627 -0.08704743 -0.060333397 -0.068670385
0003a0 54 50 70 3d 7f c2 de 3d 46 ce 3b bc cc c0 33 3d
       0.058670357 0.10876941 -0.011462754 0.043885037
0003b0 33 69 aa bd 4b 4f 13 3e 02 1d f9 bd 25 8d 60 bb
       -0.083208464 0.14385717 -0.12163736 -0.0034263816
0003c0 0c 2a f7 bc 09 70 69 bd a6 86 19 bd ac 33 7b 3d
       -0.030171417 -0.05699161 -0.037481926 0.061328575
0003d0 4a 4e 91 3d 6f 85 a0 be 66 93 4f 3d 3a 87 b3 3d
       0.070950106 -0.31351802 0.05067768 0.08766027
0003e0 aa 39 dc 3d c2 f9 4d bc 7b b5 98 bd 8c 0e 19 3e
       0.10753186 -0.012571754 -0.0745649 0.14946955
0003f0 f7 c1 4a bd 83 e6 81 ba 7a 1f 87 bd 9a d9 f5 3d
       -0.049501386 -0.0009910617 -0.065978006 0.12004395

cdr3b_conv.bias f4 [20]
000000 51 14 db bc e0 4d bf 39 f8 55 a7 3d e3 a5 87 be
       -0.026743086 0.0003648838 0.08170694 -0.2649375
000010 30 85 5c bd 93 cd c1 bd d6 2a 6c bd 01 08 a9 3d
       -0.053837955 -0.09463038 -0.05765804 0.0825348
000020 61 fa 8a bd d8 90 ee bd 59 8d 10 bb 03 89 b3 bd
       -0.06786037 -0.116487205 -0.0022056906 -0.08766367
000030 ea 01 43 bd c2 99 1b be c7 ab f2 3b c4 54 1b be
       -0.047609247 -0.15195373 0.0074057314 -0.15169054
000040 9e 3e 9e bc 19 5e 2b bb 2f 29 5c be 32 cb fe ba
       -0.019316968 -0.0026148616 -0.21500085 -0.0019439219
