scripts/modelling/stored_models/cdr_model.pt (torch, 116817 bytes, 25 tensors)

cdr1a_conv.weight f4 [30, 20, 3]
000000 44 79 c7 bd 9f f6 e8 bd 71 7d 5b bd 35 10 51 3d
       -0.097399265 -0.11375164 -0.053586427 0.051040847
000010 8e 96 e1 3c c9 ad d6 3a 4d a0 ec bd 55 5e 4c be
       0.02753761 0.0016378696 -0.115540124 -0.1995786
000020 c3 81 95 3e d8 85 7e 3c 20 95 d3 bd ed 46 58 3e
       0.29200563 0.0155348405 -0.10331178 0.21120806
000030 8f 15 78 be 90 1a 4a 3d ab 5f 8c bd 72 f5 df bd
       -0.24226974 0.04934174 -0.06854185 -0.10935487
000040 fd 12 1f 3e c3 01 88 bd df 3e 11 be 58 f5 3f bb
       0.15534587 -0.06640961 -0.1418414 -0.0029290523
000050 58 30 2a 3e b0 69 d2 3d 9b aa 7e 3b cf 4d 14 be
       0.16620004 0.102740645 0.0038859013 -0.14482807
000060 4f a7 84 3d b3 45 18 be 1b e7 04 3e aa 27 04 bd
       0.06477224 -0.14870338 0.12978785 -0.03226439
000070 d1 0c 28 3d dc ad 0e be 74 22 07 bd 1a 8d 0e 3d
       0.041027848 -0.1393351 -0.03299184 0.034802534
000080 1c 24 28 be d0 a6 0f be 78 d2 3b be 70 87 85 3e
       -0.16420025 -0.14028478 -0.18342006 0.26079893
000090 f0 b1 7d bd 76 b0 b6 ba c2 d0 63 be 14 c5 4c 3c
       -0.061937273 -0.0013938088 -0.22247604 0.012498159
0000a0 92 32 6e be 2a 95 fc 3d 3c e8 61 3e 51 a6 6f be
       -0.23261479 0.12333138 0.22061247 -0.23403288
0000b0 4e bc 24 bd bc 87 61 bc 21 23 ab bd 99 71 4a 3e
       -0.040218644 -0.013765272 -0.0835631 0.19769897
0000c0 ed 24 0d 3c 12 78 7d bd 07 be cf 3d f7 77 28 3e
       0.008614761 -0.061882086 0.10143667 0.16452013
0000d0 30 c0 9e bd 38 1b 32 be 72 ee cc bd 23 78 ff bd
       -0.077515006 -0.17393196 -0.10006417 -0.12474086
0000e0 de 4c 15 be 21 0d ea bd 01 e3 f2 3b 49 8e fc bd
       -0.14580104 -0.114282854 0.007412315 -0.12331826
0000f0 3e 74 8d bd 78 16 5a 3c 0b 5b 97 3b cd 35 89 bd
       -0.06906937 0.013311021 0.0046190075 -0.06699715
000100 38 f6 c3 bc af 45 af 3c 10 d2 31 bc 45 c1 27 3c
       -0.023921117 0.021395532 -0.010853305 0.01023895
000110 d0 c9 61 3d 3b b0 f3 3c 2d 13 47 bd 4d 45 ec 3c
       0.055124104 0.02974712 -0.04860227 0.028841639
000120 b7 cf 28 3d b4 61 9f 3c 3b c5 b7 3c cf f5 99 bd
       0.041213717 0.019455768 0.022432914 -0.075175874
000130 ba 44 79 3d 29 f3 5f 3c 5f 89 37 3d c0 b6 8d 3c
       0.06085656 0.013668814 0.04480874 0.017299056
000140 e2 a0 46 3c e3 84 7c bc 0a d2 f0 bb 86 8e 26 3d
       0.012123318 -0.015412542 -0.0073492574 0.040663265
000150 9d f0 93 bc 30 c7 20 bd da 46 52 3d 04 fd e7 bc
       -0.01805907 -0.03925246 0.0513371 -0.02831889
000160 7e 71 6c 3a aa 94 07 3d e5 e9 04 bc 34 b7 93 bc
       0.0009019597 0.03310076 -0.008112405 -0.018031694
000170 b4 c0 57 b9 42 40 f5 3b 6b 91 29 bd 0c f5 fb bb
       -0.00020575785 0.007484467 -0.041398447 -0.007689124
000180 bc 8b a5 3d 98 9c 3c bd 82 62 0e 3d 7d bf df 3c
       0.08083293 -0.046047777 0.034761913 0.027312988
000190 32 18 54 3a 05 55 53 3d 95 0a ce 3c df 66 05 bd
       0.00080907636 0.051594753 0.02515153 -0.03256881
0001a0 97 23 e2 3c ba f1 83 bd 28 be 11 bd 5e 8a 46 bc
       0.027604861 -0.0644259 -0.035581738 -0.01211795
0001b0 cc 06 b6 bd 96 db b6 bc 25 0e 84 ba 31 16 c0 bd
       -0.08888015 -0.022321504 -0.0010075016 -0.09379233
0001c0 f3 36 3e bd 9a db 59 3c f8 3d 8c 3c f2 fe 86 3c
       -0.046439122 0.013296986 0.017119393 0.01647899
0001d0 40 bb 2e 3d 74 fc 34 3c 15 02 b8 3d 36 87 48 3b
       0.042659044 0.011046518 0.08984772 0.003059817
0001e0 53 21 56 3c e9 c2 e7 3c cb 64 f5 3c 59 36 70 3d
       0.013069469 0.028291183 0.029955288 0.05864558
0001f0 8c d9 61 3d 67 19 52 3d 20 40 92 bd 4a ab 13 3d
       0.05513911 0.051293757 -0.07141137 0.036052026
000200 5b 13 a0 3c 09 c7 b0 bc 28 df 9c 3d 62 b2 f0 3c
       0.01954048 -0.021579282 0.07659751 0.029381935
000210 e2 73 dd 3d 4e 05 88 bb 53 49 83 bc 3a ae 89 bd
       0.108131185 -0.004151023 -0.016026175 -0.06722684
000220 64 1a 2b bc 9f 1e 44 bb 34 48 7f 3d 2f 40 59 3d
       -0.010443304 -0.0029925478 0.062324718 0.053039726
000230 09 39 19 3d ff b3 fd 3c 60 72 7f 3c 33 76 b3 3c
       0.03740791 0.030969618 0.015591234 0.021906948
000240 16 09 4a bd d7 37 4a 3d 01 48 b5 3c 7f 1a 4a 3c
       -0.04932507 0.04936966 0.02212906 0.012335419
000250 c7 03 ff bc 78 1a fc 3c 01 1a ba 3d 86 59 06 3a
       -0.03112973 0.03077434 0.09086991 0.00051250344
000260 14 a8 8b bc c3 23 68 bd 07 6c 14 3d 75 b3 72 3d
       -0.01704792 -0.05667473 0.036235835 0.059253175
000270 f7 87 7f bd 94 da fa 3d 14 36 3c 3c 6c 9b 34 bd
       -0.062385526 0.12248722 0.011487503 -0.044093534
000280 ea dd 39 3e a2 0b 02 3d 41 5a da bb 6e 06 b1 3d
       0.1815106 0.031749375 -0.006663591 0.086438045
000290 50 72 23 3d 20 f8 bf 3b ea f1 45 3c 34 47 74 3d
       0.03990394 0.005858436 0.012081603 0.059638217
0002a0 27 22 9c 3b eb 21 c8 3b 2f 78 96 3b e9 17 54 3c
       0.0047648135 0.006107559 0.0045919637 0.012945154
0002b0 42 72 cf bc 6e c2 f2 bb 21 f7 47 3d 31 5c c6 3c
       -0.025323037 -0.0074084317 0.048819665 0.024213882
0002c0 79 d5 b9 3c ba cb 46 3d 05 b3 81 bc d5 3c 9c 3c
       0.0226848 0.048534133 -0.015832433 0.019071976
0002d0 de ad a0 bb b0 b1 22 bd d6 b8 7c bb 30 be 8b 3c
       -0.004903539 -0.039720237 -0.003856232 0.017058462
0002e0 31 c1 1d 3c f7 8a d1 3c eb 78 9a bd 7b 8f be 3d
       0.00962858 0.025578959 -0.075425945 0.093047105
0002f0 65 0c dd bc c1 23 32 bc 1b 7a d4 3c 40 b0 3a 3a
       -0.02698345 -0.010872782 0.02593713 0.00071216
000300 62 8c 93 bd 14 f2 58 3d db 44 67 3c 6b a5 73 bc
       -0.0720451 0.05296524 0.0141155375 -0.014870982
000310 19 3d 5f bb 23 e2 2b bb 91 09 7a bb e5 7f 58 3d
       -0.0034063517 -0.0026227317 -0.0038152675 0.052856345
000320 92 13 3a 3d 32 0d 82 3d a9 3d 89 bc 90 1f e3 3c
       0.04542882 0.06350173 -0.016753035 0.027725011
000330 80 0d 38 3d 62 a2 3f bd 3d 97 ec 3c f6 08 8a 3c
       0.04493475 -0.04678572 0.02888071 0.016849976
000340 00 20 d2 bb 40 2d 04 bc 46 22 de 3c 31 a1 c6 3b
       -0.006412506 -0.008067429 0.027115952 0.006061696
000350 bc 2b 62 3b 64 ca 87 bd 7a 22 4e 3d 72 e6 ea 3c
       0.003451093 -0.066304 0.05032585 0.028674338
000360 ff eb c2 bc f5 b6 d6 bc e5 96 f8 bc e9 eb fb bc
       -0.023794172 -0.026210288 -0.03034539 -0.03075214
000370 c8 3a 12 bd 0c 72 ea 3c 36 4c e5 3b 51 e4 9b bc
       -0.03570059 0.028618835 0.0069976104 -0.019029768
000380 c1 0d 5d 3d a5 fc 04 bd 49 e5 c2 bc b0 d7 b5 3a
       0.053968195 -0.032467503 -0.023790972 0.0013873484
000390 00 e4 32 bd 16 69 c2 bc f0 ed a6 bc 80 c2 04 3e
       -0.04367447 -0.02373175 -0.02037713 0.12964821
0003a0 55 28 ef bc 3d eb 0f 3d aa 74 cb 3c 10 20 d5 bc
       -0.029194036 0.03513645 0.024835903 -0.026016265
0003b0 d4 57 5d 3c ac 08 4a bd 51 e4 26 3d 86 e9 35 3d
       0.013509709 -0.049324676 0.040745083 0.04441216
0003c0 1e 27 d0 39 42 50 32 3a 32 f0 b9 b9 79 62 9f 3a
       0.00039701996 0.00068021205 -0.0003546491 0.0012160084
0003d0 3a 32 5f ba 9e 8e 13 b9 7c fd 58 3a 35 79 8f ba
       -0.0008514259 -0.00014072141 0.0008277518 -0.0010946157
0003e0 70 0c 0a 3b 0e 03 43 b9 ee 74 24 3a fc 4f 33 3a
       0.0021064542 -0.00018597787 0.00062735274 0.00068402267
0003f0 88 a9 1c bb 27 d1 12 3b 88 9d 4a ba cd 40 cd 3b
       -0.002390476 0.0022402497 -0.00077291625 0.0062638284

cdr1a_conv.bias f4 [30]
000000 e6 d8 1c 3d c2 c6 82 3b ce c3 76 3b 07 6a 49 bb
       0.038292788 0.003990979 0.003765333 -0.0030733363
000010 5a d4 48 35 70 d7 cc b7 a2 a5 f8 35 06 28 19 39
       7.481482e-07 -2.4419016e-05 1.8525645e-06 0.00014606127
000020 b2 48 11 b1 b5 16 7e 3c e0 e7 82 b4 59 24 4c 3a
       -2.11416e-09 0.015508343 -2.4383098e-07 0.00077873986
000030 9b c0 22 3c 0b 94 ad b5 fd 38 7f 35 e8 11 87 ba
       0.009933616 -1.2932591e-06 9.507783e-07 -0.0010305019
000040 e3 a7 38 bd 98 de 1b 37 13 d3 b6 33 22 8e 80 b4
       -0.045081984 9.290547e-06 8.5134296e-08 -2.3945273e-07
000050 60 81 9b b7 5c 6e 41 b6 71 cf dc 3a 3a c6 1c 37
       -1.8537685e-05 -2.8823479e-06 0.001684649 9.344478e-06
000060 13 b5 39 3c 93 38 10 b9 5d a0 f4 3a 34 a9 19 3c
       0.011334675 -0.00013753986 0.0018663515 0.00937872
000070 8f 69 fa 39 31 91 8f 3b
       0.00047762363 0.004381322

cdr2a_conv.weight f4 [30, 20, 3]
000000 c9 85 e0 3d 39 1a 18 bc 3e 87 2b bd a3 42 1b 3d
       0.109630175 -0.009283596 -0.041877024 0.037905347
000010 1d 01 48 bc b4 b7 05 3b 46 3f 15 bd 74 27 a1 bd
       -0.012207297 0.0020403685 -0.036437295 -0.07868853
000020 fd 19 92 bc 0f b0 8a bc 29 61 18 bc f6 74 9a bc
       -0.017834658 -0.016929654 -0.009300509 -0.0188546
000030 ed 29 72 bd d1 70 f7 3c af 0d 29 be 97 11 9b 3d
       -0.059122015 0.030205162 -0.16509126 0.07571714
000040 b3 97 00 bc 82 6b 95 bc 1c 07 0e bb 01 ba e9 3d
       -0.007848668 -0.01823974 -0.0021671718 0.114124306
000050 51 c4 db bd ba 22 fd bb 92 e6 a5 bd 68 06 08 bc
       -0.10730804 -0.007725087 -0.081006184 -0.008302309
000060 c4 d2 3d 3d b9 2c 9a bc 2d 20 24 3e bf a8 b8 3b
       0.04634358 -0.018820154 0.16027899 0.0056353505
000070 54 ca 05 bd 8d 69 09 3b 6a a1 d5 bc ba 52 0a bc
       -0.03266366 0.0020967454 -0.026077945 -0.008442575
000080 b4 64 56 3b 4d 21 58 bd 5d 4a 05 be 0c e8 ca bd
       0.0032713832 -0.052766133 -0.13016649 -0.09907541
000090 bd 72 e5 3d 4b 55 01 3d f4 aa ef bd bd cc a9 3d
       0.11203525 0.031575482 -0.117025286 0.08291004
0000a0 43 48 f6 3c 31 eb 81 3d 1a 4d 1a ba 90 03 31 3d
       0.030063754 0.06343687 -0.0005886123 0.043216288
0000b0 ce 85 32 3e 9d 54 12 3d 34 3b 43 3d 5b 82 26 bd
       0.17433855 0.035725225 0.047663882 -0.04065166
0000c0 38 e4 53 3d d1 5e bb bd b7 84 91 3b 9a 3a 14 3c
       0.05173132 -0.09148944 0.0044408697 0.009047175
0000d0 26 9b b4 bd e1 35 2f bd 85 46 4b 3d 6a 5d fc 3d
       -0.08818655 -0.042775992 0.0496278 0.12322505
0000e0 49 69 2a be 43 73 76 bc e2 b3 41 3e e0 79 ba bd
       -0.16641726 -0.015042129 0.18916276 -0.09105277
0000f0 16 26 4a 3d 4f 85 3e 3e 86 ab 42 3d f0 07 5f 3c
       0.049352728 0.1860554 0.04752686 0.013612732
000100 2c ab 56 bb ca 80 41 bd 57 18 aa bd fb f1 0b 3e
       -0.0032755835 -0.047241963 -0.08305424 0.13666527
000110 a0 9f eb 38 70 d1 ff 39 3f 4b 02 3e 61 9f 0e bd
       0.00011235406 0.00048793433 0.12724017 -0.034819964
000120 26 37 15 be f6 d1 03 bd 58 a5 f4 3d d1 d0 14 3e
       -0.14571819 -0.032182656 0.11945599 0.14532782
000130 f0 e2 40 bd 73 d7 d4 bd d1 a2 ef bd 0f 31 8f bd
       -0.047091424 -0.10392656 -0.11700977 -0.06991779
000140 70 7e d7 3b 65 80 c7 bd dd 36 c7 bd e3 98 6e bb
       0.006576352 -0.09741286 -0.09727261 -0.0036407046
000150 d1 cc ae bd b9 bc a9 3d 90 49 cd bd 29 fa 9b bd
       -0.085351594 0.08287949 -0.100237966 -0.07616074
000160 a2 d1 51 bd e2 61 41 be 90 36 25 bd c0 e0 d2 3c
       -0.051225312 -0.18884996 -0.040335238 0.025741935
000170 85 92 25 be db ae fb bd c8 7f 67 bd b0 d3 e3 bc
       -0.16169174 -0.122892104 -0.056518346 -0.027810901
000180 31 63 bc bd 0c a8 2b 3e 6e f8 00 3e fb 2e 08 be
       -0.09198607 0.16763324 0.12594768 -0.13299172
000190 8b 61 70 3e 8d e1 5e be a8 a8 ba bb a2 4a 30 bd
       0.2347471 -0.21765728 -0.005696375 -0.043039925
0001a0 12 d3 f0 3b e4 36 0f be 24 68 9d 3d 6f ed fc 3c
       0.0073493803 -0.13985783 0.07685879 0.030874936
0001b0 0b 66 73 bd b2 3d fc 3d 60 7c 9f bc ee e0 a2 bc
       -0.059423488 0.12316455 -0.019468486 -0.019882645
0001c0 2f dc ba bd 31 b3 df 3d ba ef 37 3c 39 e3 d3 3c
       -0.09124028 0.1092285 0.011226589 0.025865184
0001d0 1a c8 fb bc 8c ec 82 be 90 e3 5f be 5a e8 cd 3d
       -0.030735064 -0.25571096 -0.21864152 0.10054083
0001e0 55 36 2c 3d 1d 12 52 3d 82 fc e0 bc b7 53 a8 3c
       0.042044003 0.051286805 -0.027464155 0.02054773
0001f0 6c 0f 78 3d 24 b2 d6 bc 6e ad c3 ba f7 6c 23 bd
       0.060561582 -0.026207991 -0.0014929005 -0.03989884
000200 34 74 fb 3d da 08 5d bd e1 22 a6 bc 50 d2 a7 3d
       0.12278023 -0.05396352 -0.020280303 0.08194411
000210 b4 8b 8e bc e0 da 80 3d 84 ee 04 bd 9a df f1 3d
       -0.0174006 0.06291747 -0.03245403 0.11810227
000220 6b 94 5e bd ff c9 76 bd 3f 7a 01 3c 4a c7 4d bb
       -0.05434076 -0.060251232 0.007902681 -0.0031399303
000230 c6 49 78 3d 5b 5e 2a bd 1e 9b 21 bc c8 76 b9 bc
       0.06061723 -0.04159389 -0.009863643 -0.022639647
000240 ad bc ec bb 5b a4 6d 3a a1 b0 34 bd 7f 3f 9a bd
       -0.0072246403 0.00090653234 -0.04411376 -0.07531642
000250 76 45 cc 3d 72 ad 34 bd 20 8d 9e bd a7 45 9d 3d
       0.09974186 -0.044110723 -0.07741761 0.07679301
000260 e2 7c 97 3b b3 f5 5b 3d 2e 49 1e 3d 8a 6d 20 3d
       0.0046230415 0.053701114 0.03864401 0.039166965
000270 00 26 ae bc 9d f4 05 3d 9b 96 a4 3c 75 10 81 bc
       -0.021258354 0.032703985 0.020091346 -0.015754918
000280 ab 8c e2 3c be 51 72 3d 62 68 d1 3c 41 bf 94 3c
       0.027654966 0.059159987 0.025562469 0.018157603
000290 43 f4 0c bc 7f ce 36 3d b2 7f 02 3c f1 b7 18 3c
       -0.008603158 0.044630524 0.007965015 0.009321199
0002a0 0c a3 23 bd ad 11 00 bc f8 89 18 bd c2 33 f8 bc
       -0.039950415 -0.007816714 -0.037240952 -0.030298118
0002b0 18 53 d9 3b 14 c5 8a bd 06 a5 5f bd 8d a1 af 3d
       0.00663222 -0.06775871 -0.054600738 0.08575735
0002c0 cf 84 16 3b 78 26 c0 bb fe ee 59 3d 2a 95 30 ba
       0.0022967344 -0.005863961 0.053206436 -0.00067360944
0002d0 5f 15 91 bc 74 84 e2 3d 8b 4c 29 bd d9 18 30 bd
       -0.017710386 0.1106042 -0.041332763 -0.042992447
0002e0 e9 08 28 3d 23 bc 8c 3b b4 6d 85 3c 58 a3 27 bd
       0.041024122 0.0042948886 0.016287662 -0.04092726
0002f0 3a 93 c1 3d 5e a4 fa 3c e6 df 6e bd 30 f2 8f 3c
       0.09451909 0.030595955 -0.058318995 0.017571539
000300 ff 40 b3 bc 53 53 a5 bd 66 c6 0e 3d 7b 63 09 3d
       -0.021881578 -0.080725335 0.034857176 0.033542138
000310 4d 59 c5 3d 42 76 8f bb 44 21 c5 3c b2 d3 5e bd
       0.096361734 -0.004378111 0.024063714 -0.054401107
000320 bb ce a7 3c e7 70 e3 3b 6b 32 79 bc 87 2e a8 bd
       0.020484319 0.0069409492 -0.0152097745 -0.082119994
000330 c0 ed 3b bc 7e 24 80 bd 5f 38 e2 3c 5d 09 42 3c
       -0.011470258 -0.0625696 0.02761477 0.011843053
000340 df e3 3d bc 70 f6 03 bd 80 28 dc 3c 42 67 0c bd
       -0.011589973 -0.032217443 0.02687478 -0.03427816
000350 da 25 96 ba 37 5d a6 3c b5 17 56 bd 5e 57 c8 bd
       -0.0011455372 0.02030812 -0.052268703 -0.09782289
000360 ce df 85 3d f6 d2 45 bc 3a 87 a7 3d ef 90 97 3d
       0.06536828 -0.012074223 0.08180089 0.07400691
000370 85 80 14 bd 76 3d 43 3d 14 fd ff bc 8e 5e ad bd
       -0.03625538 0.047666036 -0.031248607 -0.084653005
000380 28 75 6e 3c c2 5f 18 3d 75 17 0f 3d ed 6b d4 bc
       0.014554299 0.037200697 0.03493448 -0.02593037
000390 d0 e0 ab 3d b6 9b 6c bd 17 d9 aa 3d 81 38 3f 3c
       0.08392489 -0.057765685 0.08342188 0.011671186
0003a0 92 72 13 bb 1a c1 15 3d df 1f 73 3d 46 c3 6c bd
       -0.002249871 0.03656111 0.059356567 -0.057803415
0003b0 8b d4 3f 3d 5f 3b 99 bc 2d c1 83 bd 8e 07 e3 bc
       0.046833556 -0.018705068 -0.0643333 -0.027713563
0003c0 54 9c 18 3e bf d3 ff 3c 6d 1e a6 bd 33 13 75 3d
       0.14903384 0.031228898 -0.08111272 0.059832763
0003d0 82 83 ca bc 78 9e 4b bd 7a d1 19 bd 6d eb 01 bd
       -0.024720911 -0.049711674 -0.037553288 -0.03171866
0003e0 7f 2e 06 bc 58 0b 04 bd b6 6a 13 bc 3d 85 06 3e
       -0.0081897965 -0.03223738 -0.00899761 0.13136764
0003f0 f2 e9 40 bd 65 9b 99 3a 0e bc 63 bd 1a 6d 01 3e
       -0.047098108 0.0011719285 -0.055599265 0.12639275

cdr2a_conv.bias f4 [30]
000000 a6 20 b0 bc 4b ec ea bc f8 f1 5e bb 7a 70 85 bb
       -0.021499943 -0.028677126 -0.0034018736 -0.004072246
000010 a1 39 a6 bb 7e 0b e9 bc fc 1a 95 3a 55 be 3f 39
       -0.005072788 -0.028447863 0.001137584 0.00018286084
000020 a2 fe 84 b4 ac 44 40 3b 93 2b 8e 3c ba 0a 63 b9
       -2.4772186e-07 0.0029337807 0.017354762 -0.00021652403
000030 d3 25 e4 ba f6 ac 34 3b fa 1f ec ba 01 df 5e bd
       -0.0017406292 0.0027568913 -0.0018014901 -0.05441189
000040 7c b2 5e bc 3e 93 84 3c 86 cc 68 bb f3 03 86 bb
       -0.013592359 0.016183492 -0.0035522296 -0.0040898263
000050 0c e7 ec b9 6e 6c b4 b9 b0 8a 77 3c 9d 38 a1 ba
       -0.0004518557 -0.00034413062 0.015108749 -0.0012300197
000060 3d f1 8a bc 5e 1b 3d ba 6e b8 fe 3b 03 07 87 bb
       -0.016960735 -0.0007213856 0.0077734506 -0.004120709
000070 a3 91 8b 3c ea ca 85 39
       0.017037218 0.0002551892

cdr3a_conv.weight f4 [30, 20, 3]
000000 4e 56 07 bd 1c 25 72 3c 9b 93 74 bd b1 e1 35 3e
       -0.03304129 0.014779355 -0.05971108 0.17761876
000010 07 e5 83 bd 6c 24 09 be 26 f6 94 3d d5 95 c1 3c
       -0.06440168 -0.133928 0.072735116 0.023631016
000020 69 41 cf bc 40 fa b0 bc f6 b9 87 3d 86 a0 67 bd
       -0.025299745 -0.021603703 0.06627266 -0.05654957
000030 0e 22 48 bc 55 b4 86 bd 27 8c c8 bd b4 f3 9f 3b
       -0.0122151505 -0.06577364 -0.09792357 0.0048813466
000040 e5 24 40 3d 7b 2c 28 3e 40 45 c0 3d 15 29 24 3c
       0.046910185 0.16423218 0.093882084 0.01001956
000050 78 0d 19 bc ba 21 d2 bd e0 65 82 bd 6f 83 a0 bd
       -0.00934159 -0.10260339 -0.06367087 -0.07837569
000060 87 52 74 3d 5d a1 bf 3d 70 16 01 be 73 db e5 bc
       0.059649017 0.093569495 -0.12606215 -0.028058743
000070 ea 82 fa 3c 80 67 ff bd 1a 33 67 bd d4 41 02 3e
       0.030580003 -0.12470913 -0.05644522 0.12720424
000080 33 67 5a bd 5f b0 5f 3e 9c 3f d5 bc eb db 96 3b
       -0.053321075 0.21844624 -0.026031308 0.004603853
000090 f5 0e 31 bd f9 a2 26 3b 1c 7b 81 bd 19 d1 a4 3d
       -0.043227155 0.002542673 -0.063223094 0.08047695
0000a0 2c bc 16 3e a9 59 34 be 2f f7 bc 3d d2 35 b5 3c
       0.1472022 -0.17612328 0.09226834 0.02212039
0000b0 af 0a 08 3c 8f b9 b6 3e 28 68 e2 bc 22 28 16 be
       0.008303328 0.35688445 -0.027637556 -0.14663747
0000c0 da fe 20 3e 6a 5c 8d bb 24 43 0f be f8 64 f8 bc
       0.15722218 -0.004313995 -0.13990456 -0.030321583
0000d0 72 c8 16 be 51 c0 78 bd 99 61 23 be fb 46 d2 3d
       -0.14724901 -0.060730282 -0.159552 0.10267445
0000e0 79 1e 31 bc 8a da 6d bd cc 7f 86 3c 19 79 a2 3d
       -0.010810488 -0.058069743 0.01641836 0.07933254
0000f0 1b f7 c1 bb 37 a6 68 bc 72 68 22 bc ce 2d 59 3c
       -0.00591935 -0.014199785 -0.009912597 0.01325555
000100 9c 9a b8 bc af 7a c6 bc d0 35 1b bd 2a de 86 3d
       -0.022534661 -0.024228422 -0.037893116 0.06585343
000110 da fe 45 3d 2f 92 c8 bc c1 e9 f3 3c 02 e2 08 bb
       0.04833875 -0.024483768 0.029774548 -0.0020886664
000120 b9 39 6f bb aa d9 24 bc 64 df ad 3c 99 5d 44 bd
       -0.0036502911 -0.010061661 0.021224685 -0.047940824
000130 be 8e 9e 3c 78 81 0a 3d 12 05 15 bd 4f e9 d5 3c
       0.019355174 0.033814877 -0.03638179 0.026112227
000140 08 b5 ef 3c 59 21 b7 3c 7e cb 32 bd 14 df 3a bd
       0.029261127 0.022354769 -0.043651097 -0.0456229
000150 c8 99 ca 3c 68 53 c4 bb cc 0e b1 ba 30 9e 84 bc
       0.024731532 -0.005991388 -0.0013508438 -0.01618871
000160 47 5a 5b bd 1e 01 be bd e4 f3 83 bb 8a 1f ae bc
       -0.053552892 -0.09277557 -0.0040268768 -0.021255273
000170 34 d4 69 bd e1 ac 81 3c 6a fc 6f 3d 87 88 2d 3d
       -0.05708714 0.015829505 0.05859033 0.04236653
000180 47 ff 60 bc 01 79 51 bc fa 06 a2 3d d0 13 ba bc
       -0.013732738 -0.012785197 0.07911487 -0.022714525
000190 6e 4b 0d 3d d0 59 af bc a7 5b 1d 3d a2 f0 f7 3a
       0.034495763 -0.02140513 0.038417485 0.0018916319
0001a0 3f a2 26 bc eb 8f 3c bd 41 cd 3e 3b 7a f4 16 3d
       -0.010170518 -0.04603569 0.002911404 0.036854245
0001b0 49 fb 07 3d 7b 50 87 3b d3 18 07 3c a4 e4 66 3c
       0.03319863 0.004129467 0.008245665 0.014092598
0001c0 e5 d7 10 bd 2f a3 1d bd 6d 0c 4a bb 71 8d 69 bd
       -0.035362143 -0.038485702 -0.003083016 -0.057019655
0001d0 84 53 99 ba d6 18 71 bd 02 4c 2a bc dc 94 15 3d
       -0.0011697863 -0.058861576 -0.010394098 0.036518916
0001e0 6d 8d d1 3c 45 49 ee bc e9 8c 43 bd 80 08 89 3d
       0.025580132 -0.029087672 -0.047741804 0.06691074
0001f0 40 bd df ba bf 79 31 bd cd f4 ef bc 7e 52 38 bd
       -0.0017069951 -0.043328997 -0.029291535 -0.045000546
000200 d2 a5 0a be 1b 79 ab bd 76 a4 5a 3d f9 f8 2e 3e
       -0.13539818 -0.083727084 0.0533795 0.17087163
000210 35 6e 5a bd 1a 06 ea bc 4b 59 95 3d ee e7 2f bd
       -0.053327758 -0.028567363 0.07292422 -0.042945795
000220 a7 3e 66 3e d6 16 88 bc 78 25 90 bd c2 fa de bd
       0.22484837 -0.016612452 -0.070383966 -0.10887672
000230 28 d9 24 bd 7c 38 46 3d 25 c5 09 be ce 7f 45 bc
       -0.04024616 0.04839371 -0.13454111 -0.012054397
000240 37 1b e1 3d fd 94 5e 3c 69 2f ab 3c 44 0d 96 3d
       0.10991519 0.013585326 0.02089663 0.07326749
000250 fb e7 cf bd 46 1b 0e be 7a 31 c1 3d dd ba 9a bc
       -0.10151669 -0.13877591 0.09433265 -0.018887931
000260 47 db 72 bd 04 fb 9d bd 7d 44 85 bd d1 e0 a9 bd
       -0.05929115 -0.07713893 -0.06507204 -0.082948335
000270 71 67 15 3e ec a5 5f 3d 11 42 f9 bb 40 d4 1e 38
       0.14590241 0.054601595 -0.0076067527 3.786781e-05
000280 bd 73 d9 bd 22 5f 9e bd dc 6b 59 3e 37 68 68 3d
       -0.106177785 -0.07732989 0.21232551 0.056740012
000290 c9 6b fb 3d 1f ac 79 bd ef 76 d6 bd fb c8 7c bd
       0.12276418 -0.060955163 -0.104719035 -0.061715107
0002a0 7b 84 b3 3d 68 45 f5 bd 1a 8d 98 bd 26 4c f7 3d
       0.08765503 -0.11976129 -0.07448788 0.12075071
0002b0 c6 37 d2 bd 70 e1 07 3d 60 b9 56 3d 99 bd 32 bd
       -0.10264544 0.03317398 0.05242288 -0.043637846
0002c0 18 6e 04 3e e7 90 40 be 16 9d 03 be 18 93 23 3d
       0.12932622 -0.18805276 -0.12852892 0.0399352
0002d0 99 be 15 bd e5 76 aa bd 92 68 d4 bc 7f 06 cc 3d
       -0.03655872 -0.083234586 -0.02592877 0.099621765
0002e0 4a d9 2a 3d 0c ea 0a 3e 8a c9 cd 3d 11 2f 08 be
       0.04171113 0.13565844 0.10048206 -0.13299204
0002f0 f8 fc 12 3e bb 7d 1b bc 2c a6 f7 bc d4 c0 28 3d
       0.14354312 -0.009490426 -0.030230604 0.04119952
000300 80 66 8e 3b 62 c3 21 3e 4d 36 1d 3d 9a 00 ec bc
       0.004345715 0.15797189 0.038381863 -0.02880888
000310 fe ae 2c be 3d f6 e7 3d 79 2c 5e 3e 2f 73 d2 3c
       -0.16863629 0.11326263 0.21696652 0.02568969
000320 e0 8b ec 3d 31 95 14 bd e2 ab 62 bc 92 36 a9 3b
       0.115501165 -0.036275093 -0.013834925 0.005163976
000330 14 3b 62 bd 56 81 5a 3d 0f 70 bd bc f4 24 32 3d
       -0.055232123 0.053346 -0.023124723 0.043492272
000340 7c d0 ba 3d c1 aa b3 3c 93 7e 7f 3e 6b 71 1a bc
       0.091217965 0.021932008 0.24950628 -0.009426455
000350 73 da 06 3d ac 31 9c bd 54 a9 24 be 54 fb 89 bd
       0.032923173 -0.07626662 -0.16080219 -0.0673739
000360 32 48 91 bd 28 76 ed bb cb dc 7b 3d b5 25 14 3e
       -0.07093848 -0.0072467513 0.06148986 0.14467509
000370 9d 9f 22 be 75 83 f7 3d 42 c2 f5 bc c1 b4 4c 3d
       -0.158812 0.1208562 -0.029999856 0.049977068
000380 2c 5f 64 bc d8 7e ef 3d 84 e8 09 bd 4e 5d 1b bb
       -0.013938706 0.116941154 -0.03366901 -0.0023706737
000390 82 c3 ce 3c 4a d2 09 bd 1c 8b 6a 3d 74 9c 23 be
       0.02523971 -0.033647813 0.05726157 -0.15977651
0003a0 d2 31 1b 3c a1 35 b4 3d e3 f9 5c 3e 89 80 60 3d
       0.009472327 0.087992914 0.21579699 0.05481008
0003b0 59 86 a7 3d fc 3a eb 3d 10 7c f1 3d c2 c3 6f 3d
       0.08179922 0.1148586 0.11791241 0.0585363
0003c0 e8 f5 c6 bd da 82 b3 3d 92 57 11 3e 90 49 20 be
       -0.09714872 0.08765192 0.14193562 -0.15653062
0003d0 b3 3c c9 bc 7c 9b 96 bc 7d c6 97 bd ab 98 43 3d
       -0.024565076 -0.018384688 -0.074109055 0.047753017
0003e0 0e e5 09 bd ad c8 82 bd ff 7f b4 bc bb 85 ca bc
       -0.03366571 -0.06385932 -0.02203369 -0.02472197
0003f0 4b 88 21 bd 6b ff 04 3d 16 13 19 3c c4 3c 56 3d
       -0.03943662 0.032470148 0.009342929 0.052304044

cdr3a_conv.bias f4 [30]
000000 0e fd b5 bd 68 ea 9a b9 f0 99 d5 bc b4 e9 99 bc
       -0.08886157 -0.00029547815 -0.02607438 -0.018788196
000010 34 71 08 3a 24 e3 76 3c a1 12 01 3d c9 dc 50 3c
       0.0005204857 0.015068803 0.031511907 0.012747952
000020 06 24 b5 3d 4a db 40 bc c8 1c 2e 3b 33 8c d2 b9
       0.088447616 -0.011771033 0.0026567448 -0.00040158778
000030 99 7c ed ba 76 b5 3f 3c 37 40 16 3d 19 23 1a bd
       -0.0018118798 0.0117009785 0.036682334 -0.037631128
000040 e8 33 3e 3b a6 f9 cd bb 91 01 2a 3d 30 b2 cd 3d
       0.0029022638 -0.006285864 0.0415054 0.10043752
000050 87 3f 36 3c be a3 3c bd 89 6f 2d bd 0d 6f 87 bc
       0.011123545 -0.046054594 -0.042342696 -0.016532445
000060 55 6a 5f 38 2a 58 1a 3d 68 36 05 3d 4e 26 a6 bd
       5.3266373e-05 0.037681736 0.03252259 -0.08112775
000070 97 d1 af bb 41 14 f7 38
       -0.005365561 0.000117816504

cdr1b_conv.weight f4 [30, 20, 3]
000000 3e 87 05 bc 5a 36 cd bb 43 ef 68 bc b6 78 9d bb
       -0.00814992 -0.0062625827 -0.014217201 -0.0048056496
000010 87 4b e9 3b 60 53 a4 3a 12 00 4e bb e4 8c 43 3c
       0.0071195993 0.0012537055 -0.0031433147 0.011935446
000020 58 fa 58 bb 14 09 f2 3a 2b 65 71 3c e2 58 11 3c
       -0.00331082 0.001846584 0.014733593 0.008871289
000030 2c 64 99 3c 6d 5a 80 3b dd 5d 04 bc 46 6f 08 3b
       0.018724523 0.0039170296 -0.008079019 0.0020818277
000040 c1 70 72 bc e8 82 e8 bb 9f ad 53 bb 5c c1 10 3c
       -0.01479739 -0.0070956834 -0.003229953 0.008835163
000050 16 1c 6d bb fd c6 0f 3c 6f e0 a3 bc f5 03 5f bc
       -0.003618007 0.00877547 -0.02000448 -0.013611783
000060 93 4d 8f bc 1b d3 4e 3a 1b 5e 86 3c 16 b9 01 3c
       -0.017493045 0.00078897335 0.016402295 0.007917663
000070 a5 bb 76 bb 7c 4f 56 3b ea 1c d2 3b dd 97 00 bc
       -0.0037648466 0.0032701185 0.006412138 -0.007848707
000080 bf 9f 1a bc 53 58 56 bc c9 94 e5 3c 35 44 8e ba
       -0.0094375005 -0.013082582 0.028025048 -0.0010854068
000090 f8 5c 1a bc 2a 3d 62 3c 1a 8e 5f 3c d9 5b 23 bc
       -0.00942158 0.013808528 0.0136447195 -0.009970629
0000a0 a2 c2 b1 3b 00 d1 c6 3b 26 55 9e bc 49 3f 22 bb
       0.0054248134 0.006067395 -0.019327711 -0.002475696
0000b0 14 fb 60 bc f4 ae 43 bc 9b 9e 6d 3c 0f 5d 9d 3b
       -0.013731737 -0.011943568 0.0145031465 0.004802353
0000c0 88 4c a1 ba 13 e9 bc 3b 1f 93 6d 3c 61 c9 49 bb
       -0.0012306133 0.0057650893 0.014500408 -0.0030790197
0000d0 5b 42 c2 3b c0 7a 2b bc 3c 5b 91 ba e8 d8 2b bc
       0.0059283203 -0.010466278 -0.0011089812 -0.010488726
0000e0 46 c2 b6 bb 14 f7 99 b8 94 ca 48 3b 9a 58 ce 3b
       -0.0055773584 -7.3416304e-05 0.0030638324 0.006297183
0000f0 7c 7a a7 3c 64 e2 08 bc 5f 10 10 3c 08 20 14 b9
       0.020444147 -0.008354757 0.008792966 -0.00014126312
000100 9d 68 8b bb 9c 39 d8 bb b2 19 de 39 58 2e 34 3c
       -0.0042544142 -0.0065986644 0.00042362284 0.010997377
000110 18 5a 06 3b 0a 18 d3 ba 9c b5 81 bb e3 f9 d2 bb
       0.0020500477 -0.0016105187 -0.003958417 -0.00643848
000120 77 31 56 3c a2 63 68 bc 99 b6 5a bc 44 47 a3 bb
       0.013073317 -0.014183911 -0.013349199 -0.0049828608
000130 b4 b7 81 39 5b 1d 6f 3b 7d 18 76 bc 3a 52 80 3b
       0.00024741667 0.0036486003 -0.015020487 0.003916052
000140 5d d4 9a bc e8 4f 4e ba 4f df 80 bc 7a b2 98 bb
       -0.01890009 -0.00078701833 -0.015731482 -0.004659948
000150 33 c8 53 3b 9c cf d9 3b f9 d8 18 3b 68 6a f5 39
       0.0032315373 0.0066470634 0.0023322685 0.0004680932
000160 0b 07 58 bc be cb 11 3c 71 56 71 bc 1e 78 03 bc
       -0.013185273 0.008898674 -0.014730082 -0.008024244
000170 31 ab db bb c7 b0 89 b9 db 3f 51 bc 28 61 23 bc
       -0.006703757 -0.00026262386 -0.012771572 -0.009971894
000180 f1 0a 6f 3c 6e aa 51 3b 49 e6 90 3b 86 7f 15 3a
       0.014590011 0.0031992453 0.0044219834 0.00057029014
000190 81 9c dc ba 56 bc 7d bb 47 75 6e 3b c0 5f b7 bb
       -0.001683131 -0.0038716993 0.003638582 -0.005596131
0001a0 e0 0d 82 bc b9 64 15 3c 47 18 84 3c f7 87 24 3a
       -0.015875757 0.009118252 0.016124858 0.0006276364
0001b0 d1 bf 0c 3c e2 e7 68 bb 97 51 86 bc 83 13 b7 3a
       0.0085906545 -0.0035538604 -0.016396327 0.0013967607
0001c0 4a 3f 13 bc 16 f7 03 3c 07 9f 33 ba 60 eb e3 bb
       -0.008987257 0.008054515 -0.0006852005 -0.006955549
0001d0 6f 72 7d bc 2e 21 83 bb 3d 76 07 3b 0a 34 01 bc
       -0.015469178 -0.004001758 0.002066984 -0.007885942
0001e0 40 5d 86 3b 04 23 a3 3c 4d ac 9a bc cf ac 00 3c
       0.0041004717 0.019914158 -0.018880988 0.007853701
0001f0 86 3c ce 39 e8 b7 18 3c 4e 1d ea bb f4 b5 ba bc
       0.00039336475 0.00932119 -0.0071446067 -0.02279184
000200 d1 07 43 bc 6c 33 85 3a 06 95 9a 3b 93 f4 fa ba
       -0.011903719 0.001016242 0.004717472 -0.0019146375
000210 58 3f 90 bb 6c 80 5d bc 75 e2 6f 3c 45 c6 7e 3c
       -0.0044020824 -0.013519388 0.014641394 0.015550201
000220 58 a3 37 bc ff bb db 3c c8 29 75 bc e4 6b 18 bc
       -0.011208378 0.026823042 -0.014963575 -0.009303067
000230 f9 50 6d 3d e1 96 85 ba ae cc be 3c eb 1d 1d 3d
       0.05793855 -0.001019206 0.023290958 0.03835861
000240 96 d5 0c 3c ba bc fa bc a9 67 2a 3c df d3 5c bc
       0.008595845 -0.03060757 0.010400691 -0.013478248
000250 fe b8 43 3b 90 38 c5 3c e0 4a e2 3c 76 ff 55 3c
       0.0029864903 0.024074823 0.027623594 0.013061395
000260 41 69 87 3c 56 5a 23 bc ac 77 1a 3c 6e cc 92 bc
       0.016529681 -0.009970268 0.009427946 -0.017919745
000270 d0 bc 9a 3b 3d 9f 40 3d 54 31 cf bb 77 a8 18 3c
       0.0047222152 0.04702686 -0.006323019 0.009317509
000280 33 81 35 bc 0e 80 a9 3b 3f 42 14 bc 65 c0 88 bc
       -0.011078167 0.005172736 -0.009048997 -0.016693303
000290 2a 1e fa 3c 13 67 a1 3c 7b 48 21 3c cc 44 ba bc
       0.030531961 0.01970247 0.009843941 -0.022737883
0002a0 9c b1 43 3d 2c f1 bd 3c e6 55 1e bb 9c c2 cf 3b
       0.047776803 0.023186289 -0.0024160086 0.006340338
0002b0 76 6c d2 bb 9a de 0b 3d 53 54 3b 3d 0c 81 8c 3c
       -0.006421621 0.034147836 0.045734715 0.017151378
0002c0 d3 7f 86 3c a8 48 2d 3b 00 81 88 bb 96 04 6e 3d
       0.016418373 0.0026441012 -0.0041657686 0.058109842
0002d0 0f 5d 95 bc 4c 8e 69 bc ee 9a 2b bd c1 4c 47 3d
       -0.01823285 -0.014255118 -0.0418958 0.048657183
0002e0 88 87 0f 3d 01 98 0f bd 47 f4 80 bd 53 e5 d8 3d
       0.035041362 -0.03505707 -0.06296592 0.10590615
0002f0 1d d3 2b 3b 3d 67 00 3d 3d 14 49 3c 0a be 11 3e
       0.0026218363 0.031348456 0.012272892 0.1423265
000300 6f 65 80 3d 11 70 03 3d af db 88 bd df cc 3e bc
       0.06269347 0.032089297 -0.06682526 -0.011645525
000310 01 7d 91 bd db 0e 8c 3a dd 82 78 bd 10 9e 41 bd
       -0.07103921 0.001068558 -0.060671676 -0.04726988
000320 98 22 f2 3d 05 5b 00 3e e3 80 d6 3c 60 9d 7e 3b
       0.118230045 0.12534721 0.026184505 0.0038851127
000330 17 56 0b bd c3 3a fa bc 1e 8e 54 3d cd be 43 3e
       -0.03401765 -0.030545598 0.051893346 0.19115753
000340 cd 0e 39 3e 69 b0 92 bd f7 ac ff 3d 0b 09 e6 bc
       0.18072052 -0.07162554 0.12484162 -0.028080484
000350 39 61 c2 bc 18 dd b9 bd cc c8 73 bd f0 33 92 3d
       -0.023728 -0.090753734 -0.059517667 0.071388125
000360 7c 5c 87 3d d3 83 b9 bc bb 80 94 3d 77 46 12 bc
       0.06609437 -0.022645866 0.07251116 -0.008927933
000370 2d bf 08 bd 70 f3 f8 3c 6d 52 4b bc 74 ba 35 bd
       -0.033385444 0.030389518 -0.012409789 -0.04436727
000380 93 8a 57 bc 8a 7b 2a bd 8f 3c cd bc 9a cf bb bc
       -0.013155597 -0.041621722 -0.02505329 -0.02292614
000390 bc de d1 3d b4 58 ce 3d f0 5f 61 bd 91 6a f6 3d
       0.10247561 0.100755125 -0.055023134 0.12032045
0003a0 e0 06 2e 3d 54 f7 fc bd dc d2 52 3d 0b aa ae bd
       0.042487025 -0.123518616 0.051470622 -0.08528527
0003b0 b1 b5 be bd 9d 4a 3a bd c1 24 a0 bd d5 67 e2 3b
       -0.09311999 -0.045481313 -0.0781951 0.0069093504
0003c0 f8 2c 97 ba ac d8 c2 bb ee 0f ac bc 41 39 63 3c
       -0.0011533787 -0.0059462395 -0.02100369 0.013868631
0003d0 e0 d4 dd 3c 13 52 2d 3b 1a bf c6 bc 83 ef a2 3c
       0.027079046 0.0026446625 -0.024261046 0.019889599
0003e0 75 d6 71 bb b4 e7 37 3a 59 94 b3 3c 67 87 3f 3d
       -0.0036901508 0.00070154225 0.021921324 0.04675999
0003f0 82 e8 c9 3b f5 0d ca bb c6 2b b2 3b 68 65 47 3c
       0.0061617503 -0.0061662146 0.005437347 0.012170173

cdr1b_conv.bias f4 [30]
000000 cb 72 3b b8 34 a7 a8 b7 d8 33 95 38 38 bb e0 3b
       -4.4691184e-05 -2.010502e-05 7.11453e-05 0.0068582557
000010 8d 35 13 39 c5 cd ee bc 4b 5d ea bc 6c 95 a4 36
       0.00014038962 -0.029150853 -0.028608939 4.904976e-06
000020 8e 0c b2 3a e9 2c 03 39 07 a8 53 3a ae 39 4e bc
       0.0013584064 0.00012509864 0.0008074049 -0.012586994
000030 5f 86 14 bc b3 3e 36 bd 4d d7 ce bb a6 ac 08 3d
       -0.00906524 -0.04449339 -0.006312287 0.033367775
000040 84 4e fa bb 36 ea 24 b8 18 23 f5 3c f2 22 92 bc
       -0.0076387543 -3.9318773e-05 0.02992396 -0.017838929
000050 3a a9 f2 33 d7 0a b5 bb 07 79 f7 39 bb 0f e9 bb
       1.1299785e-07 -0.005524974 0.00047201684 -0.007112471
000060 c5 0f 87 b6 8f 97 89 3c 49 bf 56 bc 99 01 03 b8
       -4.0251493e-06 0.016795902 -0.013107129 -3.123432e-05
000070 b2 3b 9c bb 62 53 08 bb
       -0.0047678584 -0.0020801653

cdr2b_conv.weight f4 [30, 20, 3]
000000 ce 22 30 be d8 89 41 bd 7b 6f dd 3d cb 65 a3 3c
       -0.17200777 -0.0472506 0.10812279 0.019946
000010 ac 10 62 be 65 10 7b bc e1 aa c5 bd 55 4e c9 3d
       -0.22076672 -0.015323733 -0.09651733 0.09829394
000020 fb 63 8b bd a1 0f 22 be 3b 00 df bd f1 61 1b 3d
       -0.06806179 -0.15826274 -0.10888716 0.0379352
000030 31 45 1e bd 13 d7 80 3b 72 74 98 3d 36 76 a8 3c
       -0.038640205 0.003931889 0.07444085 0.02056418
000040 8c 83 ad bd 1f f0 df bd 51 4d 7d 3e 71 9f 14 bd
       -0.08472356 -0.10934471 0.24736525 -0.036284868
000050 4a 4c 81 3c 64 99 ac bd 72 ec 82 3b e4 38 fc 3d
       0.015783448 -0.084276944 0.0039954716 0.123155385
000060 a7 b2 cf 3d 6d 7e 0e 3c d8 51 16 bd 96 86 45 be
       0.10141497 0.008697134 -0.036699146 -0.19289622
000070 d9 0e a4 3d ec bc 72 3d 01 dd b7 3d 00 51 33 3e
       0.080106445 0.0592622 0.089777 0.17511368
000080 96 e5 fa 3c 46 ee fe 3c 27 85 72 3d 97 85 f7 bd
       0.030627053 0.031119477 0.059209015 -0.12086027
000090 4f bc 26 be 11 51 49 3d 98 14 3f bd bd d6 ce 3d
       -0.16282772 0.049149577 -0.0466505 0.10099552
0000a0 70 4f ce 3d b0 c0 92 bd ce 3b f2 3d 92 d9 b4 bd
       0.10073745 -0.071656585 0.11827813 -0.08830561
0000b0 23 e5 49 3d 77 01 ad 3d 72 9e 5f bd a5 72 3e bd
       0.049290787 0.08447545 -0.054594465 -0.046496052
0000c0 18 fc 02 be 86 92 9c 3d 25 32 a0 bb 1e 5f 12 be
       -0.12791479 0.07645135 -0.00488879 -0.14294097
0000d0 f4 ff 31 3e 2b fe 7f 3e d5 c6 07 be e4 67 5a bd
       0.17382795 0.24999301 -0.13259442 -0.053321734
0000e0 d8 8a 86 3d bf 1e a7 bd 0e 34 90 bd 40 8e 3b 3d
       0.06569451 -0.08160161 -0.07041179 0.045789957
0000f0 c1 17 92 3d 51 f5 e9 3d 00 17 e1 bd 84 09 5d bd
       0.07133437 0.114237435 -0.10990715 -0.053964153
000100 70 46 eb bc 0f 98 a8 bd 9a 32 a1 3c a6 3c 04 bc
       -0.02872011 -0.08232128 0.019677449 -0.0080711
000110 26 85 07 be c9 57 b9 3d 56 0c 0d 3e a6 cf 7c bd
       -0.13234386 0.09049947 0.13774237 -0.061721466
000120 a8 e6 0d 3d 6d a4 d1 bc 33 bd f3 3d a9 fa 5d bc
       0.0346438 -0.0255911 0.11901321 -0.013548532
000130 31 85 59 bd 47 14 53 bd e1 bb 05 bd 28 60 7f 3d
       -0.053105537 -0.05153301 -0.03264988 0.06234756
000140 62 5c c6 bd 11 a7 53 bc 47 a0 fc 3c 2d 7d 77 3d
       -0.096855894 -0.01291825 0.030838145 0.06042211
000150 9e 13 46 3d 58 2a a9 3c cb cc eb bd c5 8f aa bc
       0.048358552 0.020650074 -0.115136705 -0.020820508
000160 b2 06 c2 3d fe e3 a9 3d f8 e9 2b 3d 75 f7 1f 3d
       0.09473933 0.08295439 0.041971177 0.039054353
000170 04 6f a6 bc f6 77 ef bd 5f ce 57 bd 40 7a 06 be
       -0.020316608 -0.116928026 -0.052687045 -0.13132572
000180 e0 1f 2c 3d ef 1f 47 bd 6f 41 cc bd f6 47 b2 3d
       0.042022586 -0.04861444 -0.09973418 0.08705132
000190 a1 ad 41 3e 5b 64 ae bd 03 cc fb bc f8 37 1b bb
       0.1891389 -0.08515235 -0.030736929 -0.0023684483
0001a0 16 bc 8b 3c f0 7e 21 3e 67 89 ed bc 7d 71 02 be
       0.01705746 0.15771079 -0.028996183 -0.12738605
0001b0 7a 44 47 3d 30 27 f0 3c 3c 6b 88 3d 85 6d f5 bc
       0.04864929 0.029315561 0.06661078 -0.02995945
0001c0 19 de c9 3d fc 93 31 3e e5 65 54 bd df 10 e2 3d
       0.09856815 0.17341608 -0.051854987 0.11038374
0001d0 d1 50 10 3c 48 ed bb 3c 54 d5 16 bd 75 b2 a2 3d
       0.008808331 0.022940293 -0.03682454 0.07944194
0001e0 47 e7 bf bd 59 f7 08 3e 7b ca 35 be fb 66 a9 bb
       -0.093702845 0.13375606 -0.17753021 -0.005169747
0001f0 d2 1c d6 3d 1a 25 25 bd bb dc c3 bc 0a ae bc 3c
       0.10454716 -0.040318586 -0.023908963 0.023032207
000200 26 70 2c bd 2c 97 d3 3d 87 27 b3 3d e0 a3 b8 3d
       -0.04209914 0.10331568 0.087477736 0.09015632
000210 fa 27 20 3e 91 cf 19 be f3 2a 98 3d 30 8b f9 3c
       0.1564025 -0.15020587 0.07430067 0.030461878
000220 b0 9b 21 3e e6 0b 0e be a3 da bb 3d 48 85 1a 3b
       0.15782046 -0.13871726 0.09172561 0.0023577977
000230 aa 8f 0b 3d 08 7b ad 3d d6 01 fa bd 57 5e 50 bd
       0.034072556 0.08470732 -0.122073814 -0.05087122
000240 6b b7 e8 3c 64 05 a4 3d 7f 3b 5f bd ee ac 19 3d
       0.028407773 0.08008841 -0.0545001 0.037518434
000250 df e7 c7 bd 8b 1a 04 3e 42 f1 6a 3d f5 6a be bd
       -0.09761023 0.1290075 0.057358988 -0.09297744
000260 46 c8 d8 3d 5b 2e b1 bd 61 8a db bd 9b 48 22 be
       0.10585074 -0.0865142 -0.10719753 -0.1584801
000270 67 51 28 3e fd b5 4d 3d 0b 9c b7 3c b9 c3 05 3e
       0.16437303 0.050222386 0.022413274 0.13062944
000280 17 f9 a8 3c 1c f2 2f 3e da 8c 2c 3e 26 24 4d bc
       0.020626588 0.17182201 0.16850606 -0.0125208255
000290 94 cb f0 3c 1f 30 34 bd 1b 81 8c 3d 4f 18 16 be
       0.029393949 -0.043991204 0.068605624 -0.1465771
0002a0 4f 5d 3a bc d4 9f 0a 3d ee f8 b2 bd 41 f7 11 3e
       -0.011374786 0.03384383 -0.08738886 0.14254476
0002b0 36 2f 8f bc f2 42 a6 bd 39 69 07 3e 62 db 00 bc
       -0.017478567 -0.081182376 0.13223733 -0.007864805
0002c0 72 e9 a3 3d 2f 02 4b 3d a7 73 d0 bd bd 98 76 3d
       0.080035105 0.04956263 -0.10178309 0.060204256
0002d0 e5 50 18 3d 15 f8 11 bb 80 9a 9e bc 83 e2 d7 bc
       0.037186522 -0.0022273113 -0.01936078 -0.026353126
0002e0 76 ca fd 3c 26 cd 4e bd 4f b3 1c bd e4 d0 c8 3d
       0.03098033 -0.050488614 -0.03825694 0.09805468
0002f0 2f af a6 bd 4d de b8 bc 04 df 7b bd e5 e3 05 be
       -0.08138882 -0.022566939 -0.06149198 -0.13075216
000300 d9 8e 2b 3d 21 34 c0 bd c5 c1 41 3b 41 20 48 bd
       0.041884277 -0.09384943 0.0029564959 -0.048858885
000310 a3 62 8d 3b 7b f9 c7 bc d6 46 df bc c3 94 a9 3d
       0.004314737 -0.024410954 -0.027255457 0.08280327
000320 35 3a c4 bd 5a 41 5c bd fa 9e 0e bd b9 2c f5 3d
       -0.095814146 -0.05377326 -0.03481958 0.11971421
000330 df a4 07 be 0c 2a e4 3b 59 69 72 bd 87 6e 1f 3c
       -0.13246487 0.00696302 -0.0591825 0.009730942
000340 0d 63 c2 bc cd 3d 14 3d b6 71 03 3c 42 90 21 bd
       -0.023728872 0.03619175 0.008022716 -0.039444216
000350 52 20 d5 3d e4 43 3f bc f3 6b 1e 3e 75 c0 78 bd
       0.10406555 -0.011673901 0.15470867 -0.060730416
000360 8c 48 34 bc f0 ac 49 3b 52 7d 40 bd 5c f5 08 be
       -0.011003625 0.0030773245 -0.046994515 -0.13374847
000370 52 6c 8b 3d 21 b7 d1 bc 6c 91 3a bd 07 87 e6 3b
       0.0680777 -0.025600018 -0.04554884 0.0070351395
000380 d7 67 b4 bd ed 64 c1 3d 86 de f3 bb 86 88 a5 bd
       -0.088088684 0.09443078 -0.0074422983 -0.080826804
000390 42 14 69 3d 62 d3 41 bb b9 9a 42 bd 8c f0 28 bd
       0.056904085 -0.0029575457 -0.047510836 -0.04124503
0003a0 e2 38 be bc 8b 67 a6 3d af 2f 13 bd e2 79 f0 3c
       -0.023220483 0.08125218 -0.035934146 0.029354993
0003b0 b6 ba dd bd cc 02 c3 3b db 35 5b bd 1d e0 20 3d
       -0.10826628 0.005951261 -0.053518157 0.03927623
0003c0 a3 73 b3 bb 8a 9b 05 3a a7 6c 84 bb bf ee b0 bc
       -0.0054764315 0.00050967245 -0.0040412727 -0.021598218
0003d0 15 fb e3 bb 61 3e 78 bc 2d 97 73 bc fa d2 95 bb
       -0.0069574215 -0.015151591 -0.014867586 -0.0045722695
0003e0 13 64 39 bb af 9d 2d 3c 63 12 ea bb b4 78 25 bc
       -0.0028288409 0.010596677 -0.007143305 -0.010099579
0003f0 fd 8e 03 bd 9b 78 a1 bb 87 68 27 bc c7 55 f6 bc
       -0.032118786 -0.0049277074 -0.010217792 -0.030070199

cdr2b_conv.bias f4 [30]
000000 84 c3 5e bd 73 7e a4 bc 88 ef 88 3b 62 c4 95 bb
       -0.054385677 -0.020079827 0.004178945 -0.00457053
000010 a2 af 9e b9 52 02 55 bb f6 97 44 3d 29 41 41 bd
       -0.00030266965 -0.0032502604 0.047996484 -0.047181282
000020 b3 ce 20 3b 0d fb 93 bc 6d e8 00 3b 94 4a b1 3b
       0.0024537265 -0.018064046 0.0019669787 0.0054105017
000030 e2 bc 91 3d dd e5 ed bb a1 4d c9 bc 54 8e 31 bc
       0.07116105 -0.007260068 -0.02457315 -0.010837156
000040 b7 16 51 3c a3 42 f7 ba 19 80 5a bc 58 93 fc bc
       0.012761763 -0.0018864464 -0.013336205 -0.030831978
000050 a5 72 75 bd 4b a8 65 3c 80 8b 53 3a 51 ab d0 bc
       -0.059923787 0.014017175 0.00080697984 -0.025472315
000060 3c 19 92 3c b2 0c 4a 3c 3e b1 8e bc 7c ff b6 3c
       0.017834298 0.012332128 -0.0174185 0.022338621
000070 99 64 86 ba b4 04 00 3c
       -0.0010253369 0.007813621

cdr3b_conv.weight f4 [30, 20, 3]
000000 e3 3a ef 3d 3b 5d 18 be 11 c4 41 3e b5 fc 3c bd
       0.116811536 -0.14879315 0.1892245 -0.046139438
000010 8d b8 f1 3c 46 d4 a2 3d 37 8e f6 bd e4 fc 12 be
       0.029506946 0.07950644 -0.12038844 -0.14354283
000020 b2 a2 d2 bd c5 7c 28 3e a6 65 e6 bc 32 f2 0a be
       -0.10284938 0.16453846 -0.028124642 -0.13568953
000030 74 ad c3 bd 46 7d 9d 3d a5 8d ef bd 7f 94 1c be
       -0.09554568 0.0768991 -0.116969384 -0.15291022
000040 5f 72 38 be 9f c4 c1 3d f4 66 3b be 0b 8a a7 3d
       -0.18012379 0.094613306 -0.18300992 0.081806265
000050 8e 4e 5e bd 8a 29 fc 3d e8 9c ba 3d 1c 80 8a 3d
       -0.054274134 0.123126104 0.09111959 0.06762716
000060 24 6b 45 3d 3d 6c d3 3d 57 fa d3 3c 2a ac 26 3d
       0.04819788 0.10323379 0.025876207 0.040691532
000070 49 e8 96 3d ad 09 2d be e3 9f 54 3e 66 26 1e be
       0.07368524 -0.16898222 0.20764117 -0.15444335
000080 9a 60 29 bd c3 03 52 be 9c 94 89 bd ab c9 fe 3c
       -0.041351892 -0.20509247 -0.06717798 0.031102022
000090 5e 41 18 3e 9c ae cc bd bb d5 cb 3d 4d c7 6c 3c
       0.14868686 -0.099942416 0.09952875 0.014451814
0000a0 41 15 05 be 2c 31 89 bd 85 44 e0 bd c4 5a bb 3e
       -0.12996389 -0.06698832 -0.10950569 0.36592686
0000b0 32 35 4a bd 85 6f f6 bd 86 a5 26 bc 49 1c 37 3e
       -0.049367137 -0.120329894 -0.0101713 0.17881884
0000c0 95 b6 8c ba 0f 92 9c 3c bb 8d 3a 3e bb f1 36 3e
       -0.0010735566 0.019112615 0.18218128 0.1786565
0000d0 90 b3 3b 3d b2 4e 90 3d 23 b2 05 be da 63 12 be
       0.04582554 0.0704626 -0.13056235 -0.14295903
0000e0 12 8e 77 3c 6e 18 ad bc e7 5d c4 3d 59 5b d5 bd
       0.015109556 -0.021129813 0.09588223 -0.10417814
0000f0 4e 13 10 be b9 1d 1c be c9 45 53 bd 7a 38 4f bc
       -0.14069864 -0.15245713 -0.051580224 -0.012647742
000100 2e 03 4e 3c 77 b4 0a be b0 30 41 be bb 69 12 be
       0.012574 -0.13545404 -0.18866229 -0.14298145
000110 38 89 62 3e 62 5c 99 3d c3 71 61 bd d6 24 9a 3d
       0.22122657 0.07488324 -0.055040132 0.07526557
000120 ad f3 85 bd bc 8d a4 bd 83 88 43 be e8 d9 87 be
       -0.06540618 -0.08034846 -0.19095044 -0.26533437
000130 67 2b 88 be 9f b4 cc bd d9 24 37 3e c2 71 2a bd
       -0.26595613 -0.09995388 0.1788515 -0.041612394
000140 1d cb b4 3b ae b4 0a bc 9b d3 d6 bc 64 a7 b5 bd
       0.005517377 -0.008465929 -0.026223948 -0.08869818
000150 83 42 82 3e 9e a8 00 3e d5 9e 82 3d 9f 17 8e bd
       0.2544137 0.12564322 0.06377951 -0.06938099
000160 e1 c6 06 3e 8d 41 24 be 3f 91 16 3d 26 12 80 3e
       0.13161804 -0.1604063 0.03675961 0.25013846
000170 e1 73 d6 bd dd 46 5c 3c d3 94 29 be 1b 86 4a 3d
       -0.10471321 0.0134446295 -0.16560678 0.0494443
000180 af 7a 3d 3d 1e 86 b1 3b c2 c7 8b 3d e2 a7 a2 3d
       0.04625958 0.0054175993 0.0682521 0.07942177
000190 59 46 e6 3d 35 d9 00 bd 08 05 8c 3d 96 0f 46 3e
       0.112438865 -0.031457145 0.06836897 0.19341883
0001a0 46 50 25 be 12 85 88 bd bf 15 83 bd 01 44 b1 3b
       -0.16143903 -0.06666006 -0.06400632 0.005409718
0001b0 44 3e fa bd 40 d7 87 38 dd 5d b9 bd a0 23 2a bd
       -0.122189075 6.477395e-05 -0.09051106 -0.04153788
0001c0 a3 e4 72 3d f3 0f 0b bd 3e 47 68 3e d9 05 1d be
       0.059300076 -0.033950757 0.22683427 -0.15334262
0001d0 dc 4d a6 be eb 89 13 bd fa 55 88 3d e6 42 30 be
       -0.32481277 -0.0360202 0.06657024 -0.1721302
0001e0 55 0a aa be 80 e4 eb bd 90 59 b8 3d 83 a0 81 bb
       -0.33211008 -0.11518192 0.09001458 -0.003955902
0001f0 b3 49 80 3d 8d 53 f5 bc 94 67 ba bc 98 fc 24 be
       0.06264057 -0.029947067 -0.022754468 -0.16111982
000200 e8 3d 76 3c 6d ec 4d 3c f3 1b 48 3d 9a 65 ef bd
       0.015029408 0.012568575 0.04885478 -0.11689301
000210 5c 4e ce bc 2a a3 91 bc c7 94 43 be be d1 11 be
       -0.025183849 -0.017777998 -0.19099723 -0.14240167
000220 7c ae ae bc 40 22 8b 3c b8 71 56 3e 87 90 c2 bd
       -0.021323435 0.016984105 0.20941818 -0.09500223
000230 c9 28 aa bd 67 a8 97 3d aa 3b 90 3d 99 72 98 bd
       -0.083085604 0.07405167 0.0704263 -0.07443733
000240 d0 56 1f 3d e7 1c c1 3e 28 ba 27 3c 11 4c d5 bb
       0.03890115 0.37717363 0.010237254 -0.006509312
000250 e9 70 c0 3c fd c6 ce 3d b6 87 21 be 6b 4a 37 bc
       0.02349134 0.10096548 -0.15774426 -0.011187176
000260 f8 d0 21 3e 99 81 8e 3e dc ba eb 3c 7b 34 a1 bd
       0.15802372 0.2783325 0.028775625 -0.07871338
000270 1b 2c 83 3e a7 c9 86 bd f1 8f 27 bd fe a5 3c 3d
       0.25619587 -0.06581431 -0.040908758 0.04605674
000280 b0 e7 63 bd bd a1 29 3c 87 bc c0 bc 1a d4 64 3e
       -0.055640876 0.010353503 -0.023527397 0.22346535
000290 b2 9e 29 be ca d1 fc bd e9 51 ba 3d cd d7 28 be
       -0.16564444 -0.123447016 0.09097654 -0.16488571
0002a0 28 56 b8 3d e0 74 3e 3d 02 89 4c be 2b 90 95 bd
       0.09000808 0.04649818 -0.1997414 -0.073028885
0002b0 52 69 d2 3d 95 b7 3c 3d e2 e4 5b 3e 42 26 d7 bd
       0.102739945 0.046073515 0.2147403 -0.10505344
0002c0 79 00 6b bc a6 2d 84 3d 58 b1 10 be d2 de 77 be
       -0.014343374 0.06454019 -0.14130151 -0.24206093
0002d0 e1 b3 7e bd ee 94 80 3d 7a ac 6f bd d8 14 59 bc
       -0.062183265 0.06278406 -0.058514096 -0.013249598
0002e0 aa 0c 54 3c ef 42 9f bd 6b 3b 94 3d 0f 97 98 3b
       0.0129424725 -0.077764384 0.072378956 0.0046566795
0002f0 fb 6c 2c bd 00 6b b9 3d fe b1 d8 bd 94 00 6b bc
       -0.04209612 0.09053612 -0.10580824 -0.0143434
000300 5e 71 50 bd ee c2 c8 3a 22 92 93 bd e3 08 67 bd
       -0.050889365 0.0015316883 -0.07205607 -0.05640496
000310 fa f1 f8 3d f2 6b 8e bd 74 44 63 3d b6 24 a0 bc
       0.12155528 -0.06954183 0.055485204 -0.019548755
000320 8f d1 19 bd 12 00 ef 3c c9 50 1a 3d 8b b5 89 bb
       -0.037553366 0.029174838 0.0376747 -0.00420255
000330 57 e6 3e 3d e5 ff d2 bc f0 47 f8 3c 1c 22 b7 bd
       0.046606388 -0.025756786 0.03030774 -0.08942053
000340 93 c3 b3 3d ce cc 8e 3c a9 1c d9 bd 59 5b 1a bb
       0.08777537 0.017431643 -0.106011696 -0.0023552983
000350 3c 53 5c 3d ce 25 80 bc 71 50 83 bc 44 ac 4a bb
       0.053790316 -0.015643027 -0.016029568 -0.0030925432
000360 99 1d 0f 3e e1 a9 92 bd 94 db aa bd 3d da 77 bd
       0.13976134 -0.07161308 -0.083426625 -0.060510863
000370 4e dc 67 bd 8b bc 5f 3e cb ed d1 3d 16 58 83 bd
       -0.056606583 0.21849267 0.102504335 -0.064132854
000380 59 20 84 bd d2 16 8e bb 91 f4 b3 3d 0c 7d 43 3c
       -0.06451482 -0.0043362165 0.08786882 0.011931669
000390 96 53 d4 bc f4 1c a9 3d 0f cc 89 bc 43 98 16 bd
       -0.025918763 0.082574755 -0.016820936 -0.0367663
0003a0 d1 4e 00 3e 6e 27 29 bc 9d 5b e9 bd 0f cf 4e bc
       0.12530066 -0.010324342 -0.11394427 -0.012622609
0003b0 39 8e dd 3d fc 74 8d 3d 16 36 48 bd 8b be 52 3c
       0.108181424 0.069070786 -0.048879705 0.012862812
0003c0 a4 b4 9d 3c a9 68 6d be 42 de 26 be 8c c1 83 3c
       0.019251175 -0.23184456 -0.16295722 0.016083501
0003d0 64 09 ec bd a7 74 3d be f8 b2 66 3d 52 ef 3c 3d
       -0.115252286 -0.1850153 0.05632302 0.04612667
0003e0 80 11 18 bc 0e db 38 3e a4 57 90 bd 74 e8 c8 3d
       -0.009281516 0.18052313 -0.07047966 0.09809962
0003f0 24 cb 59 3e 6a f3 cc 3d 6f a9 97 bd ac 49 b5 bd
       0.21268898 0.10007365 -0.07405364 -0.088519424

cdr3b_conv.bias f4 [30]
000000 c1 f2 db bd 49 75 27 bd e1 fa d1 bc 4a 23 1a 3c
       -0.10739661 -0.040883336 -0.025632324 0.009407828
000010 0c 32 69 bd 09 24 ad bb 8b de ac 3b 14 c3 41 3b
       -0.056932494 -0.0052838367 0.0052755526 0.0029565739
000020 73 0d 25 bc fa 23 11 bc 7e a9 1c bd 33 73 c4 3c
       -0.010074007 -0.008858675 -0.038247578 0.023980713
000030 5c 5e d7 bc d1 c9 a7 30 8d 6b 80 bd d2 8b f6 30
       -0.026290111 1.2208209e-09 -0.06270514 1.7938595e-09
000040 9e c1 24 bd 83 32 ca bc a0 58 e2 bc 98 0c 79 bb
       -0.04022371 -0.024682289 -0.02763015 -0.0038001891
000050 19 66 cb 3a 87 0e fb 3b 30 a9 53 ba bc 14 e7 3c
       0.0015518098 0.007661644 -0.0008074222 0.02820813
000060 ff fc 2f bc e4 03 e8 bc 1c 1f a7 38 94 7e 40 bb
       -0.010741471 -0.028322168 7.968975e-05 -0.0029372321
000070 7b fe 97 3b f0 a7 be ac
       0.0046384907 -5.4187696e-12
