scripts/modelling/stored_models/cnn_model.pt (torch, 116817 bytes, 25 tensors)

cdr1a_conv.weight f4 [30, 20, 3]
0.032055043 -0.0076401276 0.07902648 -0.0033440308 -0.011127438 0.04642897 -0.047133215 0.10600297
0.11309 0.042533815 -0.03192455 0.0017795342 -0.05548298 -0.02343055 -0.036214314 -0.0070470655
0.07901106 -0.02064652 -0.02066003 -0.010350686 0.052570272 0.08729768 -0.04037167 0.018163785
0.009989077 -0.033676703 -0.10828539 0.021815682 0.02075203 -0.050115287 0.035213903 0.00038975294
-0.07536932 0.004120779 0.08618266 0.1068602 -0.11883994 0.032932512 -0.043878958 0.033891216
-0.05335473 -0.05973146 -0.03578104 -0.03859851 -0.04219499 0.044083502 -0.023898551 -0.094202526
0.03335446 -0.04008963 -0.121218964 0.024846196 -0.03909079 0.044597384 0.011252104 -0.006999322
-0.032820545 -0.06908485 -0.111902736 0.24381344 -0.0009091536 0.002760773 -0.0035841581 -0.0051561324
0.00045506645 -0.0016014724 0.019115625 -0.006459009 0.0053124125 -0.0030702944 -0.0059602465 0.0032013047
0.0033022212 0.03320687 -0.011793876 0.044261128 -0.0033248905 -0.00046052004 0.0032082328 0.006026569
0.0023472402 -0.009707831 -0.012020927 0.00392882 0.0024441644 -0.0051853806 0.0023226456 -0.00702471
-0.0004959732 -0.00018634404 -0.004063627 0.0007863177 -0.0050968686 0.045846883 -0.0060895816 0.000186128
-0.028925234 0.007090769 -0.008764303 0.0008076586 0.0029627986 0.006868516 -0.00934809 -0.0020897454
-0.0007242809 0.0047227386 -0.014457583 -0.006462584 -0.015159308 -0.0062561706 -3.7415055e-05 -0.050527766
-0.004396869 -0.00020644201 -0.013308369 0.00861798 -0.019983636 0.0063344366 0.023013964 -0.006296506
-0.00048125267 -0.022343347 -0.027395802 -0.06014503 -0.090541616 0.08434304 -0.08110025 0.070381105
-0.013901337 -0.012893845 -0.016012661 0.10288338 0.048706453 -0.009896614 0.016572975 -0.028626775
0.149845 0.030404847 0.08715741 0.067912 0.028431881 -0.03554365 -0.027130637 0.021510914
-0.0023117152 -0.031214671 -0.00092497387 -0.015798338 -0.03838153 0.047145557 -0.022377023 -0.13131805
0.01882278 0.064610414 0.05376405 0.02456322 -0.14146414 -0.051095467 0.072337635 0.02338311
0.030654116 0.035688587 0.055710975 -0.0015676627 0.08805071 -0.013513218 -0.06314672 0.00023447533
-0.06936723 -0.13324079 -0.052417807 -0.0111653665 -0.12794794 0.033851158 -0.010847963 0.019287296
0.12942359 -0.04595336 0.015873287 0.055775166 0.028351067 -0.012405853 -0.01608144 0.018471997
0.0006349923 -0.01568282 0.014465376 -0.07219607 0.07755979 0.006753148 -0.0057206005 -0.0059307795
-0.03777101 0.026486285 0.020612754 0.0011453691 -0.021763245 0.044284813 -0.007583782 -0.010353316
-0.003039732 -0.017888548 0.02242647 0.025939966 0.004656137 0.008480672 -0.0018132417 0.0076997434
0.0030702122 -0.02027273 -0.0118073225 0.007524914 -0.016982524 -0.012372309 -0.046683572 0.024490425
0.0062773298 0.0015821258 -0.012308263 0.001102385 -0.016294302 -0.010602545 -0.015595298 -0.025970984
-0.010019296 0.102808245 -0.014445094 0.04406984 -0.015316675 0.0044109975 -0.02804346 -0.0071550305
0.02041061 -0.010984734 0.03964111 -5.8988953e-05 0.042894118 -0.0056433734 0.010063796 0.027956553
-0.010307985 0.013465766 -0.0015026651 -0.0014929993 -0.0154069485 -0.004957576 -0.02258283 -0.0007424289
-0.011363449 0.00028657145 0.0019175683 -0.0035242687 0.05213872 -0.03691295 -0.038517006 -0.013455274
00000000: 264c 033d 095a fabb a3d8 a13d 8727 5bbb
00000010: dc4f 36bc 4e2c 3e3d c20e 41bd 1618 d93d
00000020: bb9b e73d f037 2e3d 51c3 02bd 423f e93a
00000030: 1f42 63bd 6df1 bfbc 7655 14bd 12eb e6bb
00000040: 8dd0 a13d e422 a9bc 393f a9bc ec95 29bc
00000050: ed53 573d 20c9 b23d c45c 25bd 38cc 943c
00000060: 3aa9 233c 95f0 09bd bbc4 ddbd cdb6 b23c
00000070: 2900 aa3c b045 4dbd 743c 103d c157 cc39
00000080: 3b5b 9abd 9a07 873b 8980 b03d 85d9 da3d
00000090: 5b62 f3bd 3ee4 063d 6cba 33bd 84d1 0a3d
000000a0: 7d8a 5abd faa8 74bd 248f 12bd 7919 1ebd
000000b0: a7d4 2cbd e790 343d e5c6 c3bc 41ed c0bd
000000c0: b09e 083d 0635 24bd a641 f8bd 408a cb3c
000000d0: aa1d 20bd bfab 363d bf5a 383c 925a e5bb
000000e0: d66e 06bd 5c7c 8dbd 432d e5bd 3baa 793e
000000f0: 4454 6eba 16ee 343b 32e4 6abb c6f4 a8bb
00000100: fc95 ee39 7fe8 d1ba 5f98 9c3c 18a6 d3bb
00000110: bf13 ae3b fe36 49bb 2c4e c3bb fbcc 513b
00000120: 146a 583b ed03 083d 1a3b 41bc 284b 353d
00000130: 68e6 59bb f471 f1b9 3741 523b 867a c53b
00000140: 28d4 193b 980d 1fbc 6cf3 44bc 55bd 803b
00000150: 462e 203b 20ea a9bb 8737 183b 8a2f e6bb
00000160: 3304 02ba 5965 43b9 2d28 85bb e320 4e3a
00000170: a203 a7bb f1c9 3b3d 1d8b c7bb 5b2b 4339
00000180: 9df4 ecbc ae59 e83b 2798 0fbc 0db9 533a
00000190: 832b 423b 4a11 e13b bb28 19bc 1cf4 08bb
000001a0: abdd 3dba 34c1 9a3b 80df 6cbc 15c4 d3bb
000001b0: bf5e 78bc 9000 cdbb 1cee 1cb8 34f6 4ebd
000001c0: 9c13 90bb 5b78 58b9 580b 5abc 6e32 0d3c
000001d0: b9b4 a3bc 1b91 cf3b c887 bc3c ec52 cebb
000001e0: a450 fcb9 6509 b7bc 296d e0bc a35a 76bd
000001f0: e26d b9bd 0bbc ac3d e317 a6bd f823 903d
00000200: 6fc2 63bc b540 53bc fc2c 83bc 86b4 d23d
00000210: 6b80 473d 6825 22bc 0cc4 873c b382 eabc
00000220: f870 193e 9613 f93c 967f b23d 7215 8b3d
00000230: fae9 e83c 3896 11bd 1241 debc a837 b03c
00000240: 2580 17bb e9b5 ffbc f279 72ba 846b 81bc
00000250: f435 1dbd b31b 413d 0550 b7bc 3d78 06be
00000260: 3b32 9a3c 7752 843d b137 5c3d ce38 c93c
00000270: fadb 10be 7b49 51bd c125 943d f08d bf3c
00000280: 571e fb3c 322e 123d 3131 643d 087a cdba
00000290: ee53 b43d 8b66 5dbc 1153 81bd 7edd 7539
000002a0: 6810 8ebd 4670 08be 0eb4 56bd f1ee 36bc
000002b0: c904 03be 83a7 0a3d a8bb 31bc 6400 9e3c
000002c0: 9e87 043e 9739 3cbd b208 823c 8074 643d
000002d0: 7f40 e83c eb41 4bbc 39bd 83bc 9652 973c
000002e0: 9d75 263a 4279 80bc 2f00 6d3c 88db 93bd
000002f0: abd7 9e3d 8349 dd3b e073 bbbb fc56 c2bb
00000300: c6b5 1abd c4f9 d83c 14dc a83c 3620 963a
00000310: d548 b2bc fe63 353d 6081 f8bb f4a0 29bc
00000320: 3e36 47bb 018b 92bc b7b7 b73c 0d80 d43c
00000330: 8292 983b 84f2 0a3c 4caa edba 214e fc3b
00000340: 9d35 493b ff12 a6bc 8073 41bc 8e93 f63b
00000350: ef1e 8bbc 3ab5 4abc 4637 3fbd 25a0 c83c
00000360: 0fb2 cd3b 555f cf3a 99a8 49bc e77d 903a
00000370: a17b 85bc 4cb6 2dbc 6c83 7fbc 1ac1 d4bc
00000380: f927 24bc 218d d23d 1eab 6cbc 9482 343d
00000390: cbf2 7abc 218a 903b 66bb e5bc bf74 eabb
000003a0: 2734 a73c 50f9 33bc b75e 223d e86a 77b8
000003b0: beb1 2f3d 0cec b8bb 9fe2 243c 2405 e53c
000003c0: d3e2 28bc 849f 5c3c 13f5 c4ba beb0 c3ba
000003d0: 6d6d 7cbc 2973 a2bb a1ff b8bc 8f9f 42ba
000003e0: c22d 3abc f83e 9639 ea56 fb3a 6bf7 66bb
000003f0: 698f 553d 0932 17bd 02c4 1dbd 8273 5cbc

cdr1a_conv.bias f4 [30]
0.010056565 0.00026605878 0.006325482 -0.00062999554 -0.00023788957 0.0005361457 0.107509606 0.00041637372
-0.0016299759 0.00016881613 -2.7617108e-07 -0.00047545412 0.007896062 -1.4172104e-05 -0.005350808 -0.00048780153
-4.2691237e-05 -0.0017192347 6.653422e-05 0.00055464875 0.0017499585 0.0002175206 -0.006583028 -0.0005184593
0.002858713 0.0011580499 0.012119009 -0.0054967003 -0.00015839639 0.002806315
00000000: 4ac4 243c ce7d 8b39 fd45 cf3b 4926 25ba
00000010: ff71 79b9 218c 0c3a ff2d dc3d bc4c da39
00000020: eaa4 d5ba 3c04 3139 aa44 94b4 5f46 f9b9
00000030: 7c5e 013c b9c4 6db7 d555 afbb 9dbf ffb9
00000040: 5e0f 33b8 f257 e1ba 4a88 8b38 d965 113a
00000050: dd5e e53a 3e16 6439 71b6 d7bb 37e9 07ba
00000060: 3f59 3b3b b5c9 973a cf8e 463c aa1d b4bb
00000070: 3517 26b9 27ea 373b

cdr2a_conv.weight f4 [30, 20, 3]
0.019595072 0.022102145 -0.028939018 0.007810988 -0.0077731768 -0.00448862 -0.033876896 -0.005528087
0.018176366 -0.039997507 -0.004491551 0.041120097 -0.014181616 0.023543213 -0.011350011 0.09972109
-0.007238822 -0.010974817 -0.002349578 0.017930625 0.02333403 0.03322015 0.06671221 -0.016531665
0.004880101 -0.016033303 0.044679314 0.041669227 0.044023782 0.0028263084 -0.013648047 0.024081504
0.010568062 -0.031905968 -0.039552554 -0.013041306 0.0019975083 0.0014548086 0.014904756 0.037796274
-0.011673831 0.04469443 0.004411791 -0.03657714 0.0012715186 0.017267413 -0.019802572 -0.006927828
-0.021041963 -0.026979683 0.0137187345 -0.00969833 -0.0023911956 0.035969403 0.046235714 0.03744316
-0.011244281 -0.015082628 0.06389978 -0.018229235 -0.013642093 -0.04558243 0.030793622 0.014137043
-0.031390257 0.024594216 -0.0197868 -0.031842712 0.0019581004 0.010946991 -0.029636305 -0.008140115
0.019410647 0.058128957 0.011805269 -0.017634923 -0.028802365 0.012889882 -0.015878573 0.012534758
-0.008875517 0.031611815 -0.0016785597 -0.0012231866 -0.018127384 -0.008711492 -0.024092225 -0.013016608
0.0044752937 -0.011515042 -0.0095402915 0.010234027 -0.030589279 0.011173612 -0.027626457 0.007493508
-0.013449037 -0.0043218937 0.0017529186 -0.027363306 -0.058678154 -0.044544946 -0.013284125 0.010191979
-0.00016159883 -0.03930461 -0.03320096 0.018928815 -0.012940742 -0.016381368 0.078516915 0.020852752
0.022064956 -0.011808734 0.026250068 -0.01467205 -0.002271073 0.005751693 0.00676428 0.009741939
-0.016589291 0.0010101353 -0.04700002 -0.018270375 0.021547576 0.061246686 -0.00017331756 -0.0019466393
-0.037566252 0.027011093 0.052308146 -0.0036600153 0.05244675 0.08151724 0.096479274 -0.02496729
0.023689874 0.057384357 -0.023358164 0.011449713 -0.0025887792 -0.067128226 0.027394446 0.075189784
0.1012941 -0.00898997 -0.008393454 -0.070708565 0.086804986 0.055172667 -0.021852208 0.251855
0.050224487 0.018109981 0.047371592 -0.0020890292 0.065020226 0.033229403 0.0031559274 0.030231934
0.04994657 -0.0521258 0.059005044 -0.0061085364 -0.03524333 -0.061964482 -0.058466975 -0.042783335
0.040397305 -0.0013375562 -0.020761607 -0.021642573 0.0080483025 0.009010546 0.045643352 0.076538324
0.09219019 -0.0617248 -0.0057468126 -0.05718276 0.017583344 0.010259332 -0.012482825 0.030224932
-0.01179066 -0.04814128 -0.013505906 -0.060166024 -0.07805067 -0.007222089 -0.024778029 0.008328911
0.043904442 0.06432625 0.009068625 -0.025020204 -0.0632247 -0.04380161 0.018737491 0.0028201146
0.0049415273 0.0069024726 0.07375219 0.00407831 -0.012084182 0.07077123 -0.012405815 -0.0123740425
-0.00036954528 -0.084419824 0.0013331035 0.012867382 0.0062841065 -0.0090545025 -0.08383203 -0.04572728
0.008472507 -0.06560039 -0.033890016 0.008599361 -0.027050072 -0.033473108 0.009150231 -0.05586662
-0.024215514 0.0024592641 -0.051486574 -0.05232172 -0.0055597415 -0.028280415 -0.039652515 -0.013945842
0.099338144 0.036086332 0.055259246 -0.022903437 0.012264146 -0.009478244 0.015782127 0.065905474
-0.09245078 -0.17354219 0.07298176 0.020954017 -0.11147013 -0.030921934 0.056526225 0.072481915
-0.0045410693 -0.040477496 0.035488807 0.053052817 0.016167922 0.12723212 -0.09272014 -0.0031599056
00000000: d885 a03c 8f0f b53c 8511 edbc 51f3 ff3b
00000010: 22b6 febb 4615 93bb 80c2 0abd f424 b5bb
00000020: 9ae6 943c 6dd4 23bd dc2d 93bb 8c6d 283d
00000030: 025a 68bc b2dd c03c 66f5 39bc 923a cc3d
00000040: a433 edbb b8cf 33bc 61fb 19bb 3fe3 923c
00000050: 0227 bf3c da11 083d 69a0 883d 6a6d 87bc
00000060: 41e9 9f3b 4658 83bc a801 373d 5aad 2a3d
00000070: 4852 343d 9639 393b 0f9c 5fbc 9346 c53c
00000080: aa25 2d3c d5af 02bd dc01 22bd 34ab 55bc
00000090: a1e8 023b 47af be3a 1433 743c 44d0 1a3d
000000a0: 9943 3fbc 8211 373d c990 903b e9d1 15bd
000000b0: 16a9 a63a 6474 8d3c 0139 a2bc d502 e3bb
000000c0: 3260 acbc 7f04 ddbc 8bc4 603c bfe5 1ebc
000000d0: 9bb5 1cbb a754 133d a961 3d3d 005e 193d
000000e0: ef39 38bc 201d 77bc e3dd 823d 7a55 95bc
000000f0: 1683 5fbc a4b4 3abd e842 fc3c 0e9f 673c
00000100: 1293 00bd cf79 c93c ed17 a2bc 816d 02bd
00000110: 7953 003b 025b 333c d6c7 f2bc 1e5e 05bc
00000120: 1403 9f3c a118 6e3d e36a 413c 1d77 90bc
00000130: f0f2 ebbc 1530 533c c813 82bc 965e 4d3c
00000140: 9e6a 11bc 647b 013d 1e03 dcba 5553 a0ba
00000150: e17f 94bc a5ba 0ebc 0f5d c5bc 9c43 55bc
00000160: 7ca5 923b 96a9 3cbc e24e 1cbc 9fac 273c
00000170: 5e96 fabc 8711 373c e150 e2bc 1a8c f53b
00000180: 5a59 5cbc ac9e 8dbb 30c2 e53a 0329 e0bc
00000190: 8158 70bd c374 36bd a9a5 59bc 42fc 263c
000001a0: db72 29b9 dffd 20bd bbfd 07bd 9a10 9b3c
000001b0: 6805 54bc 3832 86bc 7acd a03d 64d3 aa3c
000001c0: 91c1 b43c 6c79 41bc 620a d73c 0a63 70bc
000001d0: 48d6 14bb b378 bc3b e5a6 dd3b a79c 1f3c
000001e0: 44e6 87bc 8466 843a 1883 40bd c1ab 95bc
000001f0: 8b84 b03c cedd 7a3d 94bc 35b9 6026 ffba
00000200: 12df 19bd 5e46 dd3c 1141 563d dedc 6fbb
00000210: 67d2 563d 83f2 a63d ed96 c53d 3488 ccbc
00000220: 4411 c23c dc0b 6b3d 9f59 bfbc 9497 3b3c
00000230: 82a8 29bb 867a 89bd 516a e03c 1afd 993d
00000240: 4873 cf3d ab4a 13bc b384 09bc a7cf 90bd
00000250: d0c6 b13d bcfc 613d 6703 b3bc 23f3 803e
00000260: 31b8 4d3d 625b 943c b708 423d 18e8 08bb
00000270: 5329 853d 8e1b 083d add3 4e3b f6a8 f73c
00000280: c694 4c3d dd81 55bd 46af 713d 1e2a c8bb
00000290: 4f5b 10bd 78ce 7dbd 117b 6fbd 943d 2fbd
000002a0: a577 253d f050 afba 3f14 aabc c44b b1bc
000002b0: 07dd 033c f8a0 133c 86f4 3a3d 20c0 9c3d
000002c0: 36ce bc3d 25d3 7cbd c24f bcbb 7838 6abd
000002d0: f20a 903c c216 283c c384 4cbc 479a f73c
000002e0: 9d2d 41bc ca2f 45bd e047 5dbc a670 76bd
000002f0: 08d9 9fbd 46a7 ecbb 4bfb cabc fc75 083c
00000300: 25d5 333d 7bbd 833d 9294 143c 2cf7 ccbc
00000310: f47b 81bd 5169 33bd 5e7f 993c acd1 383b
00000320: 89ec a13b 232e e23b 630b 973d 58a3 853b
00000330: bcfc 45bc 82f0 903d c241 4bbc 7fbc 4abc
00000340: 87bf c1b9 4de4 acbd 88bb ae3a b6d1 523c
00000350: e8ea cd3b 5659 14bc 21b0 abbd 874c 3bbd
00000360: 45d0 0a3c 7f59 86bd 42d0 0abd 56e4 0c3c
00000370: 1d98 ddbc 191b 09bd daea 153c 66d4 64bd
00000380: 9d5f c6bc 9b2b 213b 96e3 52bd 4d4f 56bd
00000390: 7e2e b6bb 54ac e7bc ad6a 22bd 1a7d 64bc
000003a0: cc71 cb3d 43cf 133d 8557 623d fd9f bbbc
000003b0: 8eef 483c a34a 1bbc 8549 813c 73f9 863d
000003c0: d656 bdbd 0bb5 31be 7677 953d c2a7 ab3c
000003d0: 744a e4bd ff4f fdbc 0b88 673d 6671 943d
000003e0: 40cd 94bb bbcb 25bd b65c 113d e94d 593d
000003f0: 9772 843c 2349 023e 0fe4 bdbd 6b16 4fbb

cdr2a_conv.bias f4 [30]
0.0003257463 -0.0013365673 -0.014677345 -0.0015523541 0.03378414 -0.0035392758 0.08411247 0.031371143
-0.0017612921 -0.097754486 -0.023139207 -0.0019450441 0.009439254 0.083396725 -0.06292752 0.03263068
-0.0013546129 0.0010756386 0.03509819 9.532236e-06 0.0026316408 0.00014906611 0.020533169 0.003254525
-0.019889524 0.0018030083 -0.018263573 0.06514432 -0.026125025 -0.0019556924
00000000: eec8 aa39 c22f afba 3f79 70bc 5c78 cbba
00000010: 3d61 0a3d 32f3 67bb 2943 ac3d 077f 003d
00000020: 28db e6ba 8133 c8bd 6f8e bdbc daf0 feba
00000030: 1aa7 1a3c e7cb aa3d 25e0 80bd bfa7 053d
00000040: 448d b1ba 71fc 8c3a 1fc3 0f3d a4ec 1f37
00000050: 9b77 2c3b a14e 1c39 2d35 a83c de49 553b
00000060: 5bef a2bc eb52 ec3a 7d9d 95bc 636a 853d
00000070: 2604 d6bc 132b 00bb

cdr3a_conv.weight f4 [30, 20, 3]
0.09272834 0.049585562 -0.13753492 0.0926985 -0.034764156 -0.018594457 0.2018117 -0.05345411
-0.083227076 0.08749677 0.083897434 0.2858204 0.051943436 0.08069655 0.068160005 0.0054710153
-0.09947775 -0.15479007 0.18227948 0.157994 0.123566344 -0.030931156 0.02572764 -0.26147187
0.1359523 -0.15368289 0.25314975 -0.03544745 0.055082545 -0.011610979 0.020238735 -0.08430244
-0.05042691 0.15778984 0.16922507 -0.09548048 -0.027223399 0.027344981 0.11820274 0.07796016
-0.18250826 0.111974165 0.15313917 0.06068135 0.28571424 0.13149951 -0.20751098 -0.046978984
0.14406064 -0.01671621 -0.02403231 -0.11446098 0.058326468 0.018519348 0.060127683 0.2708033
-0.05623281 0.06274105 0.16544393 0.08893802 -0.045808133 -0.082962185 -0.045995977 -0.026923107
-0.051475927 0.02358877 -0.079877615 0.02860481 -0.04001638 -0.054404885 -0.041555796 0.011802468
0.049313605 0.02686046 0.10045887 -0.053766407 -0.095256224 -0.043600634 -0.052458767 -0.059288997
0.0066190385 0.05459815 0.08273512 0.07003458 -0.084131815 0.03969522 -0.016732961 0.11169503
0.008068164 0.12168593 0.13679114 0.007764488 0.027037075 -0.097403534 -0.11827707 -0.18963243
-0.02702359 0.057247564 -0.0029623234 -0.00083173456 0.037413806 -0.20482561 -0.029515093 0.029549923
0.041110806 -0.08517199 -0.04117176 -0.055498436 0.009234792 0.0881206 -0.01315466 -0.017776066
0.19036996 0.0074300366 0.030865818 -0.082673654 -0.06834216 0.02575925 -0.045462396 0.07135535
-0.0733908 0.06488873 0.028491214 -0.02709674 0.16697565 -0.06113989 -0.032635417 -0.16134982
-0.1003278 -0.013291686 -0.09232216 0.07053164 -0.047888536 0.0014595551 -0.19229731 0.2708236
0.16287762 0.048497275 0.021881502 -0.006048713 0.08425076 -0.14135836 -0.008869667 -0.13034217
-0.06373199 0.026575467 0.20449527 -0.050784275 -0.11750017 -0.04211586 -0.10180179 0.030560076
0.15807006 -0.09790647 -0.09827228 -0.088930346 0.0028754398 -0.17917928 0.1982661 -0.045500092
-0.0026111356 0.24135819 -0.0030432222 0.0733598 0.00857992 0.020210758 0.03043216 -0.09798613
-0.12501344 0.015760217 -0.06326829 -0.12075248 0.00039057323 -0.0013389484 -0.13891658 0.054839637
0.06570466 0.058909617 0.10489095 0.06692195 0.11659267 0.13190655 0.01703943 0.091660336
-0.07698044 0.08553428 0.115098014 -0.025150362 -0.11168408 0.2954975 0.006577028 -0.18377909
0.061605435 -0.13582933 0.02373959 -0.18291673 -0.01624703 -0.16952018 0.055310577 -0.16241962
-0.14940086 0.13022217 -0.14970402 0.10742437 0.039654627 0.21492948 0.30580214 0.12337491
-0.2418076 0.105658375 0.11631632 -0.13637556 0.011030958 0.049118333 -0.08109482 -0.1184414
-0.011839804 0.071791545 -0.2031104 -0.10087466 -0.021484368 -0.0057051014 -0.076256916 0.11112679
0.17081183 0.13892987 -0.0004093919 0.12721457 0.13234262 0.046075515 0.34964234 0.100874245
0.021022659 0.15986978 -0.023306793 -0.15910488 -0.1917558 0.094627716 -0.24457626 -0.23943989
0.007957485 0.010088876 -0.0052364706 0.010230743 0.013970582 -0.024853481 0.01696954 0.03091139
-0.009818674 -0.016601913 -0.011275519 0.005372144 0.04606527 0.039095942 0.11178044 0.042806193
00000000: 5be8 bd3d 3b1a 4b3d f4d5 0cbe b6d8 bd3d
00000010: dc64 0ebd 6753 98bc baa7 4e3e b2f2 5abd
00000020: f572 aabd 8231 b33d 6bd2 ab3d 0d57 923e
00000030: a4c2 543d 3c44 a53d 7997 8b3d 3446 b33b
00000040: feba cbbd 4a81 1ebe 79a7 3a3e 2ec9 213e
00000050: 5a10 fd3d 5663 fdbc c6c2 d23c a4df 85be
00000060: 1437 0b3e 0c5f 1dbe d89c 813e 5831 11bd
00000070: 3c9e 613d fa3b 3ebc b4cb a53c c2a6 acbd
00000080: 738c 4ebd a993 213e 5649 2d3e 458b c3bd
00000090: 9b03 dfbc 9502 e03c 4714 f23d 94a9 9f3d
000000a0: 72e3 3abe b652 e53d 84d0 1c3e 028d 783d
000000b0: 2349 923e cfa7 063e c27d 54be 096d 40bd
000000c0: a284 133e 6ff0 88bc 68df c4bc 856a eabd
000000d0: bce7 6e3d e3b5 973c 7248 763d bba6 8a3e
000000e0: 6054 66bd 617e 803d 226a 293e 2325 b63d
000000f0: 4fa1 3bbd 14e8 a9bd 4766 3cbd d98d dcbc
00000100: 6cd8 52bd 3c3d c13c e096 a3bd a254 ea3c
00000110: 37e8 23bd a8d7 5ebd 6936 2abd 245f 413c
00000120: 10fd 493d 780a dc3c 61bd cd3d 2a3a 5cbd
00000130: b215 c3bd 9496 32bd 01df 56bd 05d9 72bd
00000140: 85e4 d83b 4fa2 5f3d 0871 a93d 4a6e 8f3d
00000150: 4d4d acbd 7497 223d 9013 89bc 5dc0 e43d
00000160: 5530 043c 7936 f93d fa12 0c3e 3f6d fe3b
00000170: db7c dd3c 817b c7bd 403b f2bd 012f 42be
00000180: 9360 ddbc 6c7c 6a3d 8a23 42bb c308 5aba
00000190: 383f 193d cebd 51be a3c9 f1bc ae12 f23c
000001a0: ce63 283d a76e aebd b8a3 28bd 5452 63bd
000001b0: 864d 173c 9378 b43d a586 57bc 1d9f 91bc
000001c0: 58f0 423e aa77 f33b 50da fc3c ce50 a9bd
000001d0: f9f6 8bbd 1005 d33c c736 3abd c122 923d
000001e0: ea4d 96bd 62e4 843d 6866 e93c fcf9 ddbc
000001f0: aafb 2a3e d26d 7abd b7ac 05bd e338 25be
00000200: a978 cdbd 5fc5 59bc 6713 bdbd e472 903d
00000210: c526 44bd 8b4e bf3a 96e9 44be 64a9 8a3e
00000220: 64c9 263e 14a5 463d d640 b33c 4834 c6bb
00000230: aa8b ac3d 3fc0 10be 1452 11bc 6b78 05be
00000240: eb85 82bd cbb4 d93c 3567 513e 2c03 50bd
00000250: eea3 f0bd ae81 2cbd 757d d0bd 2059 fa3c
00000260: 1edd 213e 3083 c8bd fa42 c9bd 1d21 b6bd
00000270: e071 3c3b c67a 37be 4506 4b3e 4e5e 3abd
00000280: 961f 2bbb 9a26 773e cc70 47bb aa3d 963d
00000290: cb92 0c3c 0891 a53c dd4c f93c f4ac c8bd
000002a0: 8603 00be 921b 813c ce92 81bd 144d f7bd
000002b0: dac5 cc39 a77f afba 2640 0ebe 879f 603d
000002c0: 2a90 863d 364b 713d 11d1 d63d 600e 893d
000002d0: 23c8 ee3d 8312 073e 4696 8b3c 6ab8 bb3d
000002e0: eca7 9dbd 992c af3d 82b8 eb3d 2208 cebc
000002f0: 9fba e4bd 734b 973e 1c84 d73b 9630 3cbe
00000300: fb55 7c3d d816 0bbe 8779 c23c 864e 3bbe
00000310: 7e18 85bc b396 2dbe 588d 623d 5451 26be
00000320: 8afc 18be f658 053e 034c 19be 4f01 dc3d
00000330: e46c 223d 7916 5c3e 1992 9c3e fcab fc3d
00000340: 699c 77be 6b63 d83d 4037 ee3d 09a6 0bbe
00000350: 31bb 343c 4e30 493d 0a15 a6bd 6891 f2bd
00000360: bdfb 41bc 7207 933d 2cfc 4fbe 6097 cebd
00000370: fcff afbc dcf1 babb 962c 9cbd 7196 e33d
00000380: 4ce9 2e3e a243 0e3e a7a3 d6b9 8944 023e
00000390: d384 073e aeb9 3c3d 5204 b33e 2897 ce3d
000003a0: b637 ac3c e7b4 233e e3ed bebc 64ec 22be
000003b0: a25b 44be 2dcc c13d 3372 7abe bb2f 75be
000003c0: 1c60 023c d04b 253c b396 abbb d99e 273c
000003d0: dee4 643c 8799 cbbc b403 8b3c e239 fd3c
000003e0: 81de 20bc bc00 88bc f4bc 38bc cf08 b03b
000003f0: f0ae 3c3d 1123 203d 25ed e43d 8c55 2f3d

cdr3a_conv.bias f4 [30]
0.033580277 -0.049207114 -0.02131342 0.11051179 0.0015618668 0.012714909 -0.003206776 0.0012569601
-0.069458626 -0.018547943 0.03413144 -0.019306611 0.021225318 0.001138285 4.9880226e-05 -0.025424529
0.012672226 0.0016408692 -0.008325517 0.0027157809 -0.008534396 -0.02881633 0.02353505 -0.013920674
-0.04661656 0.02953862 0.0020497222 -0.00044205145 0.03360677 0.016495569
00000000: 798b 093d 668d 49bd 7b99 aebc 0154 e23d
00000010: 8eb7 cc3a 3252 503c c628 52bb 95c0 a43a
00000020: 5340 8ebd dbf1 97bc 69cd 0b3d e628 9ebc
00000030: b8e0 ad3c 8232 953a 7c36 5138 1a47 d0bc
00000040: 2b9f 4f3c 6f12 d73a c067 08bc 3efb 313b
00000050: dad3 0bbc 3910 ecbc 94cc c03c 8a13 64bc
00000060: 02f1 3ebd fafa f13c a254 063b 24c3 e7b9
00000070: 41a7 093d b721 873c

cdr1b_conv.weight f4 [30, 20, 3]
0.049969457 0.0010426757 0.010075608 0.118277356 0.097287714 0.14413266 -0.16487814 -0.023608493
0.079354614 -0.042065512 -0.056098808 0.044788763 0.07769747 0.11835469 -0.05163048 -0.008806419
-0.06296218 0.034977484 0.07452936 -0.12157576 0.094112046 0.08861781 0.15653671 0.04405921
0.06385138 -0.082833 0.018341407 0.060460005 0.12613378 -0.016137293 -0.011519681 0.11469651
-0.051620748 -0.04473724 -0.08376274 0.10376556 0.07171291 -0.0795656 -0.052055717 0.012761047
-0.018064236 -0.069311306 0.18640871 -0.06870444 0.07065793 0.00096281845 -0.09231819 0.079260975
0.13373917 -0.008389286 0.015278837 0.10685083 0.1846686 0.028405923 0.04911369 0.07323169
-0.007272674 0.06744263 -0.07213939 -0.024439886 -0.027869629 0.020755157 -0.052921616 0.067765735
-0.08739258 -0.06774973 -0.019758103 0.036070224 -0.11688285 0.011538719 0.028540842 -0.09056191
0.039701883 -0.047502827 0.23792148 0.07893166 0.15069818 -0.19671877 0.043788355 0.0024413774
-0.028352028 -0.018489541 -0.029071622 0.09765716 -0.031204673 0.16967921 -0.073109865 -0.11510008
-0.087230384 0.1693033 0.0084190825 -0.07130506 0.16606155 0.14182281 -0.0088796755 -0.10722203
0.0027755739 -0.14074972 -0.1014592 0.00851814 0.14840087 -0.100114115 -0.03611814 0.086884476
-0.01316733 0.12221864 -0.14458603 -0.107391246 0.1125913 -0.09315193 0.07483153 0.087131284
-0.036487646 0.119969554 0.041985318 0.1794735 0.13934961 0.053955387 -0.046426546 0.16974442
0.050842855 -0.017979376 0.0007913919 0.016494285 -0.06276998 -0.0038034185 0.0057451134 0.028879454
-0.023259815 0.03861799 0.0456183 -0.03712482 -0.018303098 -0.0077143167 0.032429177 0.006596136
0.014677022 0.045417074 -0.043116998 0.15657744 0.056811016 0.06298014 -0.06273985 -0.17123483
0.0018669916 0.0055790744 0.045946658 0.063247524 -0.06143178 -0.024493832 -0.0050486913 -0.05752276
0.008336641 -0.047874782 0.10689392 0.098653644 0.022153093 0.019532107 0.020127356 0.044456568
-0.020308163 0.009609387 0.0059228987 0.024692522 -0.015538009 -0.0361373 0.015322764 0.011663225
0.014069984 0.0048156185 -0.06065794 0.02923083 0.039181307 -0.0050527193 -0.04190871 0.10793393
0.020194985 -0.0025058025 0.038446918 -0.009754424 -0.02579615 0.0394061 0.002105649 0.004758441
0.007017487 0.02256851 0.13638738 -0.060100026 -0.010128277 0.014833424 -0.010665753 0.012428056
-0.059641488 -0.004567169 -0.00036382215 -0.010636245 0.034324706 0.014328146 -0.038812347 0.0051298006
0.07172733 -0.053059995 -0.000825423 0.021789696 -0.01303805 0.017605452 -0.0074256095 0.013066872
0.026530644 0.0028596856 -0.11177836 -0.008983552 -0.000584264 0.022966707 0.0013515113 -0.0120179355
0.00712349 -0.04633136 0.0024286339 -0.011194832 -0.014482846 0.030177932 -0.031146675 0.020607319
-0.019232824 -0.0010129272 -0.033542782 0.02244156 0.0033330824 0.03261518 0.008881056 -0.049628466
0.010534847 0.01773704 -0.012912136 -0.0002499579 0.05465728 -0.034463596 -0.026360767 -0.038446143
-0.01836663 -0.034220222 0.09270938 0.031859938 0.016940039 -0.027917514 -0.026145129 0.119451486
-0.010971859 -0.0025474925 0.08116924 -0.021516213 0.003955547 -0.03141292 0.008458361 -0.021314956
00000000: c6ac 4c3d 64aa 883a 2a14 253c 663b f23d
00000010: c83e c73d 8397 133e d1d5 28be 9966 c1bc
00000020: ac84 a23d e34c 2cbd ddc7 65bd 6c74 373d
00000030: da1f 9f3d f263 f23d 7b7a 53bd cc48 10bc
00000040: 51f2 80bd 8d44 0f3d d9a2 983d b6fc f8bd
00000050: d1bd c03d 417d b53d 294b 203e 6e77 343d
00000060: 83c4 823d 59a4 a9bd b840 963c e9a4 773d
00000070: 3729 013e 5b32 84bc 0bbd 3cbc 01e6 ea3d
00000080: 4770 53bd 653e 37bd cd8b abbd 0a83 d43d
00000090: 38de 923d 4af3 a2bd 6038 55bd b613 513c
000000a0: 73fb 93bc 16f3 8dbd ede1 3e3e eab4 8cbd
000000b0: 1bb5 903d a765 7c3a 5211 bdbd 9453 a23d
000000c0: ecf2 083e 3773 09bc 1654 7a3c 9cd4 da3d
000000d0: c419 3d3e 8ab3 e83c 702b 493d 7ffa 953d
000000e0: 9c4f eebb 5d1f 8a3d d1bd 93bd 2836 c8bc
000000f0: d94e e4bc b806 aa3c 56c4 58bd c3c8 8a3d
00000100: e2fa b2bd 5fc0 8abd bfdb a1bc 5fbe 133d
00000110: 4760 efbd e50c 3d3c 7cce e93c 8678 b9bd
00000120: 719e 223d 5392 42bd b0a1 733e eca6 a13d
00000130: a050 1a3e a570 49be 6b5b 333d 84ff 1f3b
00000140: 8342 e8bc 6177 97bc 9c27 eebc 7a00 c83d
00000150: f1a0 ffbc 63c0 2d3e a0ba 95bd 97b9 ebbd
00000160: d8a5 b2bd d85d 2d3e 31f0 093c 6308 92bd
00000170: 0a0c 2a3e 003a 113e 0f7c 11bc 3997 dbbd
00000180: 67e6 353b b220 10be d7c9 cfbd ab8f 0b3c
00000190: 66f6 173e a108 cdbd 9df0 13bd 7df0 b13d
000001a0: c9bb 57bc c44d fa3d 5c0e 14be f1ef dbbd
000001b0: 4496 e63d 70c6 bebd 4641 993d e371 b23d
000001c0: 1274 15bd 99b2 f53d ccf8 2b3d e7c7 373e
000001d0: aab1 0e3e 5300 5d3d c329 3ebd 7bd1 2d3e
000001e0: 9940 503d 7c49 93bc 6975 4f3a 061f 873c
000001f0: 8c8d 80bd c642 79bb 8141 bc3b 9b94 ec3c
00000200: 5e8b bebc e62d 1e3d 41da 3a3d 3210 18bd
00000210: 61f0 95bc 61c8 fcbb 75d4 043d 6624 d83b
00000220: e477 703c 4107 3a3d 739b 30bd d655 203e
00000230: abb2 683d bbfb 803d c07d 80bd 2f58 2fbe
00000240: d8b5 f43a abd0 b63b 9032 3c3d eb87 813d
00000250: e49f 7bbd 4aa7 c8bc 7e6f a5bb fc9c 6bbd
00000260: 6896 083c 5918 44bd 33eb da3d ec0a ca3d
00000270: 677a b53c cc01 a03c 20e2 a43c 1718 363d
00000280: 4e5d a6bc b170 1d3c e014 c23b f947 ca3c
00000290: 2293 7ebc b504 14bd 550c 7b3c 1c17 3f3c
000002a0: ca85 663c 56cc 9d3b 7674 78bd 7e75 ef3c
000002b0: 947c 203d 4891 a5bb 78a8 2bbd 770c dd3d
000002c0: f46f a53c 6438 24bb 847a 1d3d 05d1 1fbc
000002d0: 7352 d3bc 4a68 213d eefe 093b b2ec 9b3b
000002e0: f3f2 e53b 99e1 b83c 22a9 0b3e 722b 76bd
000002f0: 13f1 25bc e407 733c 69bf 2ebc 0c9f 4b3c
00000300: a24a 74bd 31a8 95bb 62bf beb9 a543 2ebc
00000310: 1098 0c3d 9ac0 6a3c b2f9 1ebd e317 a83b
00000320: c7e5 923d 7055 59bd 3361 58ba 4e80 b23c
00000330: 8c9d 55bc 4f39 903c 8752 f3bb 6f16 563c
00000340: cb56 d93c 9069 3b3b 0eec e4bd c02f 13bc
00000350: 4b29 19ba ad24 bc3c 3225 b13a e0e6 44bc
00000360: 2a6c e93b f4c5 3dbd b729 1f3b 876a 37bc
00000370: 7549 6dbc b637 f73c 5027 ffbc aed0 a83c
00000380: 288e 9dbc 32c4 84ba 2864 09bd 5dd7 b73c
00000390: d86f 5a3b 7f97 053d d981 113c 3847 4bbd
000003a0: 5a9a 2c3c 454d 913c 6c8d 53bc c80c 83b9
000003b0: 50e0 5f3d b329 0dbd 89f2 d7bc b479 1dbd
000003c0: 9d75 96bc 812a 0cbd 6ade bd3d 917f 023d
000003d0: d6c5 8a3c 45b3 e4bc 4f2e d6bc fba2 f43d
000003e0: 50c3 33bc d5f3 26bb 0f3c a63d c542 b0bc
000003f0: 899d 813b d6aa 00bd f094 0a3c b49c aebc

cdr1b_conv.bias f4 [30]
0.037677202 -0.019810637 0.0057312 0.0021121935 0.005750432 0.0035529516 -0.036365632 -0.019529127
0.023734462 -0.030100256 -0.000515329 3.837299e-05 -0.012819949 -0.02457651 0.0033627925 0.0023563767
0.00075129245 0.0043508615 -0.03283388 0.0073120724 0.04173825 0.00031976154 0.0016306711 -0.04386594
0.015094926 0.014584812 -0.00017960854 0.010512649 7.841997e-05 -0.010860392
00000000: 6953 1a3d eb49 a2bc cacc bb3b ba6c 0a3b
00000010: 1f6e bc3b a3d8 683b 21f4 14bd 8cfb 9fbc
00000020: c66e c23c d094 f6bc 2517 07ba aff2 2038
00000030: c30a 52bc ad54 c9bc 4c62 5c3b 716d 1a3b
00000040: 62f2 443a ac91 8e3b d27c 06bd 1c9a ef3b
00000050: baf5 2a3d aba5 a739 3ebc d53a c6ac 33bd
00000060: b550 773c 23f5 6e3c 4d55 3cb9 3f3d 2c3c
00000070: 6775 a438 c9ef 31bc

cdr2b_conv.weight f4 [30, 20, 3]
-0.056312025 -0.03441595 -0.051825766 -0.08339352 0.10009717 -0.19462548 -0.07172969 0.12525114
0.3135149 0.11744348 0.030658377 0.24266718 -0.116138205 0.025730219 -0.09862767 -0.047760736
0.01733126 -0.101169735 0.07959733 -0.013235654 -0.044604838 0.08741239 0.005916388 -0.063232146
0.009675299 -0.0717737 -0.06655629 0.053609237 0.0054981033 -0.060803898 0.051678695 0.058338486
-0.069646716 0.18241616 0.10887898 0.03303412 0.07993021 -0.0159052 0.14036344 0.009394879
0.012466298 0.14685825 0.11918265 0.00070644845 -0.09269975 -0.017318599 0.050809488 -0.12523921
-0.01704299 0.19977757 -0.12103341 -0.05168155 0.14993483 -0.0054624015 -0.13404827 -0.110547036
-0.040155847 -0.082906134 -0.0404762 -0.09174156 0.0053867553 -0.09896433 0.08951165 -0.03993817
-0.043566305 -0.22726384 0.17087173 0.046259724 0.062314697 0.19757544 0.18392938 -0.08540594
-0.01672706 -0.0026575471 -0.25212216 0.0018635449 -0.14165644 0.27603206 -0.25490436 -0.0977978
-0.10192091 -0.033740282 0.02217427 -0.07440535 -0.03965914 -0.028622389 -0.13246223 0.069171846
0.114488475 0.00046035618 -0.099734075 -0.023310855 -0.1299864 0.032232676 -0.056225672 0.11743317
-0.05989375 -0.039017733 -0.07091195 -0.040764265 -0.09047973 -0.028113782 -0.26177076 -0.09469386
-0.0633216 -0.046559528 -0.015234478 -0.225608 0.123812705 -0.010190801 -0.15545481 -0.03697339
0.02610794 -0.048992462 -0.031097662 -0.04291201 0.072039604 -0.11026789 -0.043931153 -0.1429278
0.06616902 -0.04694953 -0.05411427 0.035555832 -0.047581106 -0.056758896 -0.05304099 -0.04676087
0.054411333 -0.028774353 -0.0059888684 0.08414527 -0.05369046 0.044276386 -0.092153236 -0.029298289
0.05929588 0.047444496 -0.013782487 0.051897895 0.007110373 0.06905144 -0.09244407 -0.11564082
-0.0019225691 -0.030254953 0.053764343 -0.05442859 -0.0047256146 0.070171595 0.0624373 0.03807467
0.025881566 0.0843366 -0.03874441 -0.019396247 0.007885074 0.062237255 0.03382168 0.06957297
-0.038175017 0.0037585353 -0.030297244 0.010361238 0.047559425 0.043347392 -0.03799387 -0.029217418
0.0073247966 -0.03927925 -0.0040408163 0.078748636 -0.06275865 -0.047527567 -0.049120564 0.026189476
-0.03177726 0.03946601 0.19580905 -0.020821199 0.058259424 -0.1286504 -0.06261585 0.04345599
0.032304477 0.019410552 0.030303704 -0.106658675 -0.020981358 0.046524927 -0.05085028 -0.013475405
-0.06401609 0.03088887 -0.17319296 0.052286223 -0.06406628 -0.11378479 0.06300754 -0.12682118
-5.6109653e-05 0.040505867 0.16003269 0.059395503 -0.05070024 -0.104498774 -0.007495989 0.07305508
0.17094965 -0.011939957 0.11012861 0.14767863 0.06669013 0.013002216 -0.012707943 -0.085553735
0.009881128 -0.0586347 -0.08316043 0.114155106 -0.048794743 -0.001717001 -0.005324609 -0.07439401
0.017623544 0.014216518 -0.096466236 -0.06736431 0.04431777 0.0646787 -0.13472643 -0.06825122
0.08309889 0.020821832 -0.038456213 0.094593935 0.0016523062 -0.056827057 0.056059394 -0.059992924
-0.005742603 -0.1228993 0.059676256 -0.08614888 -0.044178355 -0.0010410217 0.29757765 -0.043364435
-0.09655511 0.024201034 0.030652598 0.28899994 -0.1452571 -0.015319358 0.07237663 -0.0031884888
00000000: 70a7 66bd bdf7 0cbd 4147 54bd 39ca aabd
00000010: bfff cc3d e74b 47be 04e7 92bd d641 003e
00000020: 0685 a03e 3586 f03d 4727 fb3c bf7d 783e
00000030: ded9 edbd 2ec8 d23c 4efd c9bd c3a0 43bd
00000040: 49fa 8d3c 1432 cfbd ed03 a33d 5bda 58bc
00000050: 90b3 36bd 4405 b33d 42de c13b db7f 81bd
00000060: 2585 1e3c 17fe 92bd aa4e 88bd 5c95 5b3d
00000070: 6f29 b43b 820d 79bd 0aad 533d 56f4 6e3d
00000080: f0a2 8ebd 4dcb 3a3e f1fb de3d c94e 073d
00000090: 73b2 a33d 9f4b 82bc 6fbb 0f3e fbec 193c
000000a0: 723f 4c3c 0262 163e 0916 f43d f430 393a
000000b0: 5ed9 bdbd bcdf 8dbc 9c1d 503d b53e 00be
000000c0: be9d 8bbc 7e92 4c3e 5de0 f7bd 08b0 53bd
000000d0: 8488 193e f2fd b2bb f343 09be 7c66 e2bd
000000e0: 757a 24bd b1ca a9bd 5fca 25bd 00e3 bbbd
000000f0: 6183 b03b d0ad cabd e251 b73d 3596 23bd
00000100: 9572 32bd dab7 68be 00f9 2e3e d67a 3d3d
00000110: b23d 7f3d 3751 4a3e fc57 3c3e 4fe9 aebd
00000120: 3007 89bc 3e2a 2ebb 2816 81be 3142 f43a
00000130: 630e 11be 1354 8d3e d382 82be 374a c8bd
00000140: e9bb d0bd 4033 0abd d1a6 b53c d561 98bd
00000150: 9f71 22bd 8079 eabc 2ea4 07be f8a9 8d3d
00000160: ef78 ea3d f65b f139 6141 ccbd 68f6 bebc
00000170: 281b 05be 6906 043d e44c 66bd cd80 f03d
00000180: 2653 75bd 0fd1 1fbd 493a 91bd 6ef8 26bd
00000190: 704d b9bd e04e e6bc d106 86be dbee c1bd
000001a0: c1ae 81bd 34b5 3ebd 089a 79bc c905 67be
000001b0: 8491 fd3d 51f7 26bc 8c2f 1fbe 6971 17bd
000001c0: 52e0 d53c 52ac 48bd 86c0 febc 81c4 2fbd
000001d0: 8089 933d 22d4 e1bd 27f1 33bd aa5b 12be
000001e0: a083 873d 264e 40bd eda6 5dbd fea2 113d
000001f0: 68e4 42bd 047c 68bd 8241 59bd 5388 3fbd
00000200: 6bde 5e3d 31b8 ebbc 453e c4bb 5b54 ac3d
00000210: 87ea 5bbd 285b 353d d6ba bcbd f702 f0bc
00000220: 3de0 723d 2955 423d f1cf 61bc e392 543d
00000230: 22fe e83b d76a 8d3d 5153 bdbd 18d5 ecbd
00000240: b7fe fbba 3cd9 f7bc 0038 5c3d 83f0 5ebd
00000250: 54d9 9abb 20b6 8f3d 41be 7f3d 2ff4 1b3d
00000260: 9405 d43c abb8 ac3d 75b2 1ebd e1e4 9ebc
00000270: 6630 013c 7eec 7e3d 9a88 0a3d 467c 8e3d
00000280: 685d 1cbd c251 763b ed31 f8bc 2fc2 293c
00000290: accd 423d 098d 313d 769f 1bbd 5e59 efbc
000002a0: d904 f03b 47e3 20bd d368 84bb f746 a13d
000002b0: 9b87 80bd 44ac 42bd a532 49bd 508b d63c
000002c0: df28 02bd 1ca7 213d 2b82 483e 3891 aabc
000002d0: 6fa1 6e3d eebc 03be bd3c 80bd e8fe 313d
000002e0: b351 043d e102 9f3c 793f f83c dd6f dabd
000002f0: 19e1 abbc ec90 3e3d 6248 50bd f2c7 5cbc
00000300: de1a 83bd a80a fd3c 7f59 31be 142a 563d
00000310: 2f35 83bd 0008 e9bd 190a 813d 69dd 01be
00000320: 4857 6bb8 7be9 253d 9cdf 233e b348 733d
00000330: 0eab 4fbd 7403 d6bd eaa0 f5bb e79d 953d
00000340: 6d0d 2f3e cf9f 43bc 1c8b e13d 1139 173e
00000350: d694 883d 3f07 553c fa34 50bc cc36 afbd
00000360: 74e4 213c f02a 70bd 0450 aabd 27ca e93d
00000370: ffdc 47bd fe0c e1ba 0f7a aebb e35b 98bd
00000380: 405f 903c 66ec 683c 1790 c5bd 4df6 89bd
00000390: 8d86 353d 4476 843d baf5 09be 4cc7 8bbd
000003a0: c02f aa3d 8c92 aa3c 4384 1dbd 77ba c13d
000003b0: 3292 d83a 7dc3 68bd 899e 653d 24bb 75bd
000003c0: 722c bcbb a1b2 fbbd 176f 743d d36e b0bd
000003d0: 5df4 34bd e472 88ba 195c 983e e89e 31bd
000003e0: afbe c5bd 3f41 c63c 281b fb3c cdf7 933e
000003f0: 47be 14be 0bfe 7abc 333a 943d f7f5 50bb

cdr2b_conv.bias f4 [30]
0.061500363 -0.008976795 -0.008709144 0.0056539336 -0.04141686 -0.0073051224 0.016554335 -0.21362479
0.030597322 -0.017307714 -0.048257664 -0.07773748 -0.011777105 0.039897535 0.0020144857 -0.1004424
-0.016975328 -0.13483632 -0.09550631 -0.013276411 -0.013894176 0.0012716227 0.0049457434 -0.0033781533
-0.017666398 -0.10444598 0.01871534 0.018142749 -0.008019462 -0.0645589
00000000: cee7 7b3d 6813 13bc ccb0 0ebc a244 b93b
00000010: baa4 29bd cf5f efbb f59c 873c 75c0 5abe
00000020: 3ca7 fa3c e8c8 8dbc d4a9 45bd d434 9fbd
00000030: c2f4 40bc 996b 233d 7605 043b bfb4 cdbd
00000040: d80f 8bbc 8812 0abe d098 c3bd 4e85 59bc
00000050: 66a4 63bc 94ac a63a e70f a23b 0264 5dbb
00000060: 1fb9 90bc c6e7 d5bd ea50 993c 1aa0 943c
00000070: 1064 03bc 7537 84bd

cdr3b_conv.weight f4 [30, 20, 3]
-0.06971672 -0.008951162 0.18666372 -0.24199608 -0.12218545 -0.19047852 -0.05407284 0.04705978
0.112852246 -0.20426328 -0.1745816 0.013934364 -0.23117039 -0.031244578 -0.012169508 -0.25475386
-0.20240287 0.31586057 0.18029927 0.038865093 0.06327659 -0.03781189 -0.13646387 0.0734663
0.046352778 0.14497112 -0.034113493 -0.23198426 -0.053202827 0.20910536 0.30207768 -0.17194594
-0.029578345 0.11179493 -0.09122043 0.31920826 -0.063652135 -0.20311314 0.03879879 0.14030562
0.010384919 0.06260715 0.17995171 0.1439787 -0.0005538774 -0.024839055 -0.41264468 0.020122204
-0.40573752 -0.00967761 0.014140686 0.14133805 0.1469238 0.036632985 0.07527854 -0.013617971
0.027543247 -0.10674535 0.007928338 0.37998685 -0.057919424 -0.087858506 0.03937251 -0.077290855
-0.0466769 0.06752914 0.005093797 0.1256857 0.43112838 -0.16806307 -0.19272687 0.12758909
0.4096653 -0.04448962 0.048271287 0.14097966 -0.15681279 -0.36691347 0.0904558 -0.029264458
0.0100364555 0.21220088 0.025971154 -0.017129153 -0.24797603 -0.31961155 0.14083013 0.17888486
-0.17096165 0.21421129 -0.20768097 -0.20678513 0.31787774 -0.029001681 0.032548092 0.059773486
-0.06508101 -0.24689446 0.05446124 -0.15370713 0.056550555 0.28517562 -0.045820605 -0.0024408256
0.15126775 0.22390632 0.21511224 -0.04605274 0.15066455 -0.13216586 0.17448458 -0.184357
0.23084247 -0.18098949 0.3548403 0.2090128 -0.12286401 -0.1431275 -0.04090689 -0.06746901
0.02649439 -0.116507374 -0.048238315 -0.023851285 0.28709313 -0.07490463 -0.23644964 0.17335764
0.008524198 -0.15940917 0.10167002 -0.23772687 -0.24822398 -0.12882924 -0.12685011 -0.07583988
0.07196539 0.04134511 -0.16876124 0.10209719 -0.04869883 0.14652129 0.06779581 -0.24994376
0.18726732 -0.027103808 -0.045021337 -0.17392202 -0.033564832 0.16376564 -0.13561209 0.060425233
0.13140826 -0.06982247 -0.038933117 0.20791744 0.07878615 0.13472056 0.2668825 0.2462191
-0.12585756 -0.045189686 0.43449637 0.1092761 0.077484876 0.089874186 -0.3889704 -0.040105816
0.16371489 -0.22383171 -0.48921955 0.16445981 0.08455251 -0.007969457 0.048608582 0.22146048
0.07991905 -0.2636185 0.05460195 0.19254215 0.08851964 -0.16351722 0.21673891 -0.10937247
0.17080264 0.11099181 -0.009407157 -0.016302107 0.12156669 0.16202654 -0.04265077 -0.058898482
0.12593643 -0.10211273 0.37571484 -0.006171576 0.23299903 -0.4247062 0.07003955 0.4527608
0.30444044 0.061954126 -0.5008415 0.12452501 0.04788947 -0.038953558 -0.124482885 -0.031554207
-0.31293586 -0.096903205 0.3449136 -0.018721186 0.09153181 -0.2747981 0.13923788 0.24760906
0.2519319 -0.0027821132 0.021787642 -0.23425604 -0.075123385 0.34752992 -0.10631356 -0.2714504
0.24967325 -0.32924244 -0.23087178 -0.16592392 0.19947441 0.094551176 -0.086453356 -0.0713157
0.06590781 0.0035375976 -0.06443947 -0.11614497 -0.14350699 0.06149627 -0.084623404 0.021003563
0.06635256 0.05658226 -0.1936745 0.024597911 -0.40051958 0.095509715 0.039171796 -0.124182016
0.11634851 0.07988204 0.17601994 -0.23657596 0.37724736 -0.15027827 0.0973245 0.005160489
00000000: a4c7 8ebd e5a7 12bc c624 3f3e d2cd 77be
00000010: 5d3c fabd cd0c 43be 7b7b 5dbd c2c1 403d
00000020: 141f e73d 652a 51be 85c5 32be f54c 643c
00000030: eeb7 6cbe a1f4 ffbc 9e62 47bc 196f 82be
00000040: b342 4fbe 7ab8 a13e 5fa0 383e 0131 1f3d
00000050: 2897 813d a4e0 1abd 2fbd 0bbe 8075 963d
00000060: 69dc 3d3d 4f73 143e 97ba 0bbd 488d 6dbe
00000070: 35eb 59bd b71f 563e eda9 9a3e 9912 30be
00000080: 494e f2bc bef4 e43d c7d1 babd 446f a33e
00000090: 0d5c 82bd e4fc 4fbe 7beb 1e3d 47ac 0f3e
000000a0: 8225 2a3c 2d38 803d 4345 383e 276f 133e
000000b0: 1532 11ba 467b cbbc 2a46 d3be 52d7 a43c
000000c0: d4bc cfbe d78e 1ebc 56ae 673c ecba 103e
000000d0: 3173 163e 780c 163d a32b 9a3d e91d 5fbc
000000e0: 60a2 e13c 4e9d dabd dce5 013c a38d c23e
000000f0: eb3c 6dbd 29ef b3bd 1245 213d ab4a 9ebd
00000100: 4730 3fbd b84c 8a3d dee9 a63b c1b3 003e
00000110: dcbc dc3e ba18 2cbe 315a 45be b7a6 023e
00000120: a6bf d13e bf3a 36bd 1db8 453d f95c 103e
00000130: 8893 20be 15dc bbbe e440 b93d 04bc efbc
00000140: f26f 243c 304b 593e 75c1 d43c 7052 8cbc
00000150: 6eed 7dbe 20a4 a3be c635 103e 982d 373e
00000160: 9210 2fbe 345a 5b3e 52aa 54be 7bbf 53be
00000170: dfc0 a23e ef94 edbc 2651 053d 0bd5 743d
00000180: 3149 85bd e7d1 7cbe c012 5f3d 6765 1dbe
00000190: 8ea1 673d 8a02 923e 63ae 3bbd 42f6 1fbb
000001a0: efe5 1a3e b347 653e 6246 5c3e cca1 3cbd
000001b0: cf47 1a3e 7d56 07be 16ac 323e 15c8 3cbe
000001c0: f861 6c3e 4f55 39be a1ad b53e 7407 563e
000001d0: 20a0 fbbd 0490 12be fc8d 27bd 312d 8abd
000001e0: c30a d93c 6b9b eebd 8a95 45bd c563 c3bc
000001f0: dffd 923e 9967 99bd db1f 72be aa84 313e
00000200: 14a9 0b3c 283c 23be 5f38 d03d ac6e 73be
00000210: 6d2e 7ebe d0eb 03be ffe4 01be f051 9bbd
00000220: 9762 933d 7d59 293d bfcf 2cbe 5518 d13d
00000230: 6d78 47bd ad09 163e 88d8 8a3d 42f1 7fbe
00000240: 01c3 3f3e ce08 debc 4b68 38bd 9d18 32be
00000250: 477b 09bd 2eb2 273e e5dd 0abe 7380 773d
00000260: e38f 063e 15ff 8ebd 5578 1fbd 4fe8 543e
00000270: a25a a13d 30f4 093e d3a4 883e dc20 7c3e
00000280: cee0 00be d218 39bd 4f76 de3e 26cc df3d
00000290: 64b0 9e3d f50f b83d 2127 c7be ff45 24bd
000002a0: e0a4 273e 2434 65be fc7a fabe 2768 283e
000002b0: de29 ad3d 5392 02bc cb19 473d 89c6 623e
000002c0: 99ac a33d 01f9 86be 4ba6 5f3d c529 453e
000002d0: c949 b53d 0f71 27be cef0 5d3e acfe dfbd
000002e0: e3e6 2e3e ad4f e33d 7a20 1abc ff8b 85bc
000002f0: f5f7 f83d 49ea 253e 93b2 2ebd 893f 71bd
00000300: 7bf5 003e 7b20 d1bd b25d c03e ef3a cabb
00000310: 4c97 6e3e 1773 d9be e570 8f3d 43d0 e73e
00000320: 9edf 9b3e 9cc3 7d3d 2637 00bf f806 ff3d
00000330: c027 443d c48d 1fbd e2f0 febd fc3e 01bd
00000340: 2139 a0be 3075 c6bd 8498 b03e 2c5d 99bc
00000350: 0875 bb3d 56b2 8cbe 6094 0e3e 3b8d 7d3e
00000360: 38fd 803e 1d54 36bb ff7b b23c d1e0 6fbe
00000370: 4ada 99bd 71ef b13e ecba d9bd 8cfb 8abe
00000380: 58aa 7f3e 7792 a8be a769 6cbe f6e7 29be
00000390: 0543 4c3e 0ca4 c13d 750e b1bd f70d 92bd
000003a0: adfa 863d 0ad7 673b d7f8 83bd 6add edbd
000003b0: 7ff3 12be 83e3 7b3d 094f adbd aa0f ac3c
000003c0: dae3 873d cdc2 673d 9c52 46be 8f81 c93c
000003d0: e710 cdbe 999a c33d 9b72 203d 2453 febd
000003e0: 2148 ee3d 3299 a33d 923e 343e f840 72be
000003f0: 9126 c13e 8ce2 19be 1152 c73d 5219 a93b

cdr3b_conv.bias f4 [30]
0.049326643 0.04280013 -0.08932868 0.08313407 0.1072637 -0.0023886561 0.014888644 0.06100741
0.04655364 -0.060807787 0.10124394 0.06551248 0.06585163 0.060927823 0.10147512 -0.080301955
-0.06697298 -0.030018479 0.123908535 0.12659453 -0.08000682 0.017506883 -0.020347096 -0.035288088
-0.013171978 0.07062596 0.015234247 -0.05870589 -0.117962636 0.07456882
00000000: bc0a 4a3d 304f 2f3d f4f1 b6bd 3242 aa3d
00000010: 12ad db3d 008b 1cbb 80ef 733c e8e2 793d
00000020: 08af 3e3d 9611 79bd fc58 cf3d 682b 863d
00000030: 38dd 863d 748f 793d 30d2 cf3d 5a75 a4bd
00000040: 2129 89bd 50e9 f5bc c2c3 fd3d ffa1 013e
00000050: 9eda a3bd 986a 8f3c f4ae a6bc 3e8a 10bd
00000060: 48cf 57bc 58a4 903d 1099 793c 9675 70bd
00000070: 6596 f1bd 8ab7 983d

pep_conv.weight f4 [30, 20, 3]
0.1532188 0.3298421 0.071368344 0.19690956 0.12518448 -0.09364118 0.0859192 0.033027247
0.08858754 -0.009551678 0.10625089 0.10404766 -0.1107416 -0.01429659 -0.07523238 -0.051765297
-0.07399701 0.030419206 -0.05617084 -0.022954222 0.1938088 0.12512256 -0.0070871585 -0.043932095
0.168641 0.002816973 0.08871475 -0.12441933 -0.058883782 -0.04130529 -0.15014164 -0.038948845
0.17956999 0.10711367 0.049777392 0.10147612 0.13009328 0.11938798 0.08351548 0.016897574
0.0073057567 0.22290121 -0.010421214 0.062927924 0.07419692 0.15248339 0.1687405 0.053585667
0.16916558 0.18243204 0.0069365744 0.16224088 0.04130636 -0.04302118 -0.09385126 -0.059151363
0.21799757 -0.09861087 -0.06998226 0.26116848 0.25186884 0.062587075 0.0960383 0.009327188
0.042803224 0.0233539 0.13268124 0.04513129 0.027501836 0.09592921 -0.02093234 0.09526776
-0.06552822 -0.026831575 0.008917965 -0.10274967 0.06844411 -0.013376757 0.10689712 0.028438965
0.024487864 -0.10516043 0.053535175 0.07374186 0.24028707 -0.043905795 0.010872205 -0.07364816
0.1198076 -0.12872925 -0.0762248 0.14743449 -0.12511472 0.12782891 -0.045909625 -0.004691326
0.2578294 0.058430817 0.024347555 0.11288708 0.11228922 0.050405525 0.13948359 0.08028307
0.1887805 0.1913276 0.03631561 0.050422348 0.3095399 0.07278718 -0.032004084 -0.008336671
-0.008003826 -0.00908353 -0.07849203 -0.021246893 0.18504599 -0.08579798 -0.1450421 0.1726427
0.3776818 0.105496295 0.050763402 -0.007560102 -0.012528242 0.14723524 0.21054924 0.11048531
0.031242099 0.13423426 0.020249574 0.09171415 0.026929522 -0.00736994 -0.12399392 0.00646458
-0.045212783 -0.06880687 0.1712816 0.1104493 -0.02153873 -0.032607567 -0.10672802 -0.121784456
0.13651606 -0.023162093 0.012050968 0.083874054 0.110470496 -0.091564134 -0.14635131 0.18593588
-0.13672641 0.11954591 0.07173263 0.030712709 0.1736411 0.05109048 0.10921865 0.12807183
0.08827332 0.00069172936 0.017774321 0.13527004 -0.10463555 0.2895053 0.030680267 -0.017392373
0.20763464 0.07689931 -0.0015342407 -0.089558676 0.06853867 -0.078436404 -0.00070821267 0.011571433
-0.043085333 -0.025507627 0.10963481 -0.034362797 0.03245881 0.091573834 -0.053566135 -0.008616903
-0.008831816 -0.054240875 -0.001044901 -0.010768086 0.082970366 0.01279864 0.013418405 0.020294528
0.019037772 -0.05558038 -0.025136907 0.019186305 0.029637638 -0.06344177 0.011286251 -0.017442128
-0.015227595 0.008761064 -0.06856385 0.046864342 0.08313243 -0.008817883 -0.0011040221 -0.008786276
-0.05230965 -0.008106189 0.0053423275 -0.030179912 0.014974613 0.008002653 0.007650054 0.027470216
0.022411391 0.1364194 0.0048485366 0.0099588055 0.03227607 -0.03447129 -0.027926438 -0.028170029
0.04549161 0.0056473236 0.03551433 0.0043525645 0.017268978 -0.015332503 -0.008565456 0.05644611
-0.004102119 0.052570783 0.031588588 0.021449124 -0.024358679 0.010235999 -0.05525023 0.009590027
0.040875457 -0.075548835 0.053308494 -0.0016056648 -0.032768648 -0.011061904 -0.07615589 0.012326276
0.112949565 -0.03387655 0.059963714 0.077448845 -0.04778532 0.07069409 -0.040261887 -0.07775633
00000000: 64e5 1c3e 10e1 a83e 9129 923d a9a2 493e
00000010: 5c30 003e f2c6 bfbd 68f6 af3d 9447 073d
00000020: 626d b53d a47e 1cbc 119a d93d f116 d53d
00000030: 7ecc e2bd 3f3c 6abc 6f13 9abd d907 54bd
00000040: bf8b 97bd b331 f93c 6513 66bd 7e0a bcbc
00000050: d075 463e 2120 003e 653b e8bb 24f2 33bd
00000060: 3ab0 2c3e f79c 383b 14b0 b53d 90cf febd
00000070: 1f30 71bd bc2f 29bd bbbe 19be d388 1fbd
00000080: 32e1 373e 695e db3d 61e3 4b3d b6d2 cf3d
00000090: 2c37 053e af81 f43d 2a0a ab3d c86c 8a3c
000000a0: 2165 ef3b 3740 643e bdbd 2abc 5be0 803d
000000b0: 8ef4 973d 9b24 1c3e 4fca 2c3e a57c 5b3d
000000c0: be39 2d3e 77cf 3a3e 344c e33b 7922 263e
000000d0: dc30 293d fa36 30bd 1735 c0bd b348 72bd
000000e0: c13a 5f3e 7ff4 c9bd dc52 8fbd e0b7 853e
000000f0: f4f4 803e a72d 803d baaf c43d 10d1 183c
00000100: 6f52 2f3d ae50 bf3c 97dd 073e 96db 383d
00000110: 884b e13c 8976 c43d 4c7a abbc be1b c33d
00000120: a933 86bd e4cd dbbc a81c 123c 6b6e d2bd
00000130: 6d2c 8c3d 2f2a 5bbc e1ec da3d d5f8 e83c
00000140: c69a c83c 5a5e d7bd b347 5b3d f905 973d
00000150: d00d 763e 90d6 33bd 5521 323c d9d4 96bd
00000160: b05d f53d 9ad1 03be bf1b 9cbd 11f9 163e
00000170: 131e 00be 95e5 023e bb0b 3cbd b2b9 99bb
00000180: 3702 843e 2755 6f3d 8674 c73c 5731 e73d
00000190: e4f7 e53d 0676 4e3d c9d4 0e3e 736b a43d
000001a0: ad4f 413e 62eb 433e adbf 143d aa87 4e3d
000001b0: 047c 9e3e 7211 953d b716 03bd 8896 08bc
000001c0: 7b22 03bc 16d3 14bc 6ec0 a0bd f70d aebc
000001d0: b27c 3d3e dab6 afbd eb85 14be 3fc9 303e
000001e0: 825f c13e 710e d83d 49ed 4f3d bbba f7bb
000001f0: 4143 4dbc d6c4 163e 389a 573e 1f46 e23d
00000200: 6eef ff3c b574 093e 6fe2 a53c a1d4 bb3d
00000210: 4d9b dc3c 8a7f f1bb 86f0 fdbd d4d4 d33b
00000220: 0a31 39bd 9eea 8cbd 7264 2f3e 3e33 e23d
00000230: fe71 b0bc 838f 05bd 3894 dabd 216a f9bd
00000240: deca 0b3e 6ebe bdbc 6c71 453c 29c6 ab3d
00000250: 5b3e e23d fa85 bbbd 1edd 15be fa65 3e3e
00000260: 0202 0cbe 7cd4 f43d 8fe8 923d 3899 fb3c
00000270: f9ce 313e 4044 513d 07ae df3d 4325 033e
00000280: a4c8 b43d 2c55 353a 749b 913c 3b84 0a3e
00000290: 2a4b d6bd 0a3a 943e 2f55 fb3c 737a 8ebc
000002a0: 2d9e 543e 637d 9d3d 9318 c9ba 8a6a b7bd
000002b0: 015e 8c3d 44a3 a0bd 59a7 39ba 1c96 3d3c
000002c0: 3f7a 30bd 5ff5 d0bc 3788 e03d 01c0 0cbd
000002d0: 87f3 043d 108b bb3d 2a68 5bbd e92d 0dbc
000002e0: 52b3 10bc ae2b 5ebd 0ff5 88ba a06c 30bc
000002f0: 5eec a93d 63b1 513c dfd8 5b3c b640 a63c
00000300: 1af5 9b3c 41a8 63bd eaeb cdbc 992c 9d3c
00000310: a2ca f23c c2ed 81bd f8e9 383c cbe2 8ebc
00000320: 2a7d 79bc 918a 0f3c 346b 8cbd d3f4 3f3d
00000330: 5641 aa3d e278 10bc d6b4 90ba 50f4 0fbc
00000340: a542 56bd d2cf 04bc b10e af3b dd3b f7bc
00000350: 1458 753c 8f1d 033c 4ead fa3b 3809 e13c
00000360: 1898 b73c 87b1 0b3e 79e0 9e3b 422a 233c
00000370: ea33 043d c431 0dbd fcc5 e4bc d5c4 e6bc
00000380: 6955 3a3d 2f0d b93b 7977 113d f59f 8e3b
00000390: ac77 8d3c 2e35 7bbc 2056 0cbc 0934 673d
000003a0: 116b 86bb 7654 573d 0963 013d 13b6 af3c
000003b0: da8b c7bc e4b4 273c 114e 62bd 7d1f 1d3c
000003c0: 066d 273d 59b9 9abd 025a 5a3d 2c75 d2ba
000003d0: 6b38 06bd fd3c 35bc 9ff7 9bbd 26f4 493c
000003e0: 1a52 e73d 23c2 0abd 839c 753d 809d 9e3d
000003f0: 8aba 43bd 10c8 903d a6e9 24bd b63e 9fbd

pep_conv.bias f4 [30]
-0.0636948 -0.09894477 -0.033195596 -0.008577103 0.0033838544 -0.00094485504 -0.05265678 -0.04193824
-0.097603776 -0.053795464 -0.030006912 -0.022196328 -0.026064655 -0.07641438 -0.08743151 -0.028748885
0.0204424 -0.07764131 0.0084001 -0.06195727 -0.01322708 -0.06902138 -0.013659963 -0.05413425
-0.010041514 0.0071602277 0.042976055 -0.017250365 -0.02208653 0.012490744
00000000: 6b72 82bd 8ea3 cabd 1bf8 07bd fa86 0cbc
00000010: a8c3 5d3b 26b0 77ba a3ae 57bd 6fc7 2bbd
00000020: 7de4 c7bd a258 5cbd 0ed1 f5bc 13d5 b5bc
00000030: 8b85 d5bc 247f 9cbd 4b0f b3bd c882 ebbc
00000040: d276 a73c 6802 9fbd 93a0 093c e8c6 7dbd
00000050: 65b6 58bc 155b 8dbd 0ace 5fbc e0bb 5dbd
00000060: 2a85 24bc 58a0 ea3b a907 303d a350 8dbc
00000070: d0ee b4bc faa5 4c3c
