scripts/modelling/stored_models/cnn_model.pt (torch, 64941 bytes, 15 tensors)

conv1.weight f4 [100, 27, 5]
00000000: 8a4b 9f3c 90fd 2a3d 6133 f5bc 1fd6 7ebd
00000010: 6314 f83d 58e8 62bc 3881 ed39 f3d9 7db1
00000020: 9a28 fb3d 4087 c0b6 3522 543c a5f6 73bd
00000030: 3108 383e 38fd 3c3c 3486 0e3d a1b9 803c
00000040: 40ab 52bc 17d1 5ebd 2900 a5bc ce7a 38bd
00000050: 893c 5c3d ee33 f43c 8256 92bd 1c97 0fbd
00000060: 9446 a63d a24c 3abd 58fd 13bd 67c0 73bc
00000070: 09f7 42bd e426 29bd ba0f 143d 60d3 a239
00000080: 7fc3 63bd e3fd d23c 5f0d 1abd c52c 173d
00000090: 850a 513c 2474 3cbd 8883 313d a256 36bc
000000a0: 95db c4bc cca2 cb3d d3d0 ac3c e9aa 2a3d
000000b0: b1a7 23bc ee72 023e f8a3 bf3d 5f28 bb3d
000000c0: aa97 183e bca9 a73d 8935 cc3d da2f f03d
000000d0: bfee 8f3b 3234 ed3d 626e 09bc 2364 d63c
000000e0: 106f 763d 296f 363d 99f1 583c 6cfa bd3d
000000f0: af43 df3c efa9 6d3d acb1 e73d e20a b7bc
00000100: 5b3d 65bc 9f9f d5bb e267 5f3b 26f0 893c
00000110: d385 9bbc f541 fa3d d7f8 ae3c bed6 923d
00000120: 3503 713d 979b 29bc 93fc b43c add7 4cbd
00000130: 75b0 a7bd 4991 a5bb b7c5 2e3d d539 47bd
00000140: 5624 36bd 1635 ef3c da7e 8f3c 3e84 eb3d
00000150: c20a 1ebd f359 923c 01ca 8cbd 8361 083d
00000160: 7beb edbc b2e4 6d3c 60b2 00bd b1b7 923c
00000170: 323b 86bb fba2 2f3d acae bb3d eea2 093e
00000180: ce80 653a af01 babb 5034 14bc cd63 dabb
00000190: caf0 82bd c7d3 493b 1028 1e39 ae34 1d3c
000001a0: 1675 59bd f852 5a3e 07db c43d 1a58 09bb
000001b0: 5454 22bd 011a 783d d2cc 84bd cb94 45bd
000001c0: aa54 c2bc 1d42 1cbd f2d4 1bbd e4a8 e4bc
000001d0: 79d5 33bd c0de a939 8a71 08bd 2a4b 4f3d
000001e0: d924 9a3d 3a9c 51bc 8492 babb 86d0 0fbb
000001f0: 09dc 143c 7986 da3c f335 8a3d d6cc 0d3c
00000200: 871e 823d 6311 413d 2b95 b83d 5718 6d3d
00000210: 39d7 a0bc 4fe9 4bbd 1272 57bd dcec 183e
00000220: 248e 373d 7be1 6d3c c194 bb3d 3aac 9c3d
00000230: 521a f83d b62d 4f3e 6105 3d3d 50c2 8632
00000240: b24a 623c c144 ae3b 0f23 7dbe c745 d43d
00000250: a13f 9e3b 4cf2 93bb 7446 7dbe 8b11 b0bd
00000260: d629 b73c 648b be3d df63 623c bf31 e9bd
00000270: 83f9 3abd 5aab b7bd c00b 923d aece 3a3d
00000280: ef40 e63c 3580 8c3e e6c7 3cbd 868d 9c3d
00000290: fb43 863e f985 aebc 26b2 013d bbc7 91bc
000002a0: dcd1 b53d 6a18 a9bc 4e6f c73d b237 09be
000002b0: 1310 5b3b 738d 94bd 45f6 3bbd df4c f6bc
000002c0: fff3 f73b dfd9 8c3e 3ece 873c 8ce4 d5bd
000002d0: 67b6 093e d6cd 0fbe ae4a 893d 55c9 4dbe
000002e0: 62d9 c0bc c4c1 60bd e705 25bd 2907 92bb
000002f0: 55e7 17be f379 413d 9c11 94bd 6da5 f63d
00000300: 5a37 c9bd c2cd 04be acdd ccbd f18c 103d
00000310: acbb febd 1685 a73d 86a5 c2bd 6919 73bd
00000320: d9dd 1e3c 5d6d 45bc 7a1c e139 8d16 243e
00000330: cdd4 d93c 0ab9 3c3d a74d 15bd 6585 a03b
00000340: a4b7 f8bd 498e 0abd e863 4d3d ab72 68be
00000350: 941b a13e 9dc3 a03d 1a6c 07bd 1f90 00be
00000360: a410 303e 0ccd 3cbd ec49 b6bd 4540 91bc
00000370: 3187 6c3e 3db2 54bd 30a8 583e 05b4 923d
00000380: 772f 3b3d d91b 0e3e d633 e63d cc3e 8b3d
00000390: c8e1 463e 253a 85ba 7b39 e13d 0262 66bc
000003a0: 0a93 b3bd 19dc 803d 6e3f 863d f345 14be
000003b0: 0f18 2c3e 7f65 393d ae0b b8bd 7e3e edbd
000003c0: d932 99bd 087b 65be 51ae ed3d 62c8 673e
000003d0: abc6 66be 1ee5 a33d eb7f dcbd 1375 f53d
000003e0: cb76 eb3c 34d3 04bd e43a 28be 5f60 0bbc
000003f0: 2e70 87bd d1bc f33d d3bd 40be 8163 80bd
0.0194452 0.041745722 -0.029931726 -0.06221592 0.121132635 -0.01384934 0.00045300438 -3.6940235e-09
0.122636035 -5.737791e-06 0.012947609 -0.05956139 0.17971875 0.011534981 0.034795955 0.015713515
-0.012858212 -0.054398622 -0.020141678 -0.04503899 0.05376867 0.029809918 -0.07145406 -0.03505622
0.081189305 -0.04548324 -0.03613028 -0.014877415 -0.047598872 -0.041296855 0.03614781 0.00031056534
-0.05560636 0.025755828 -0.037610408 0.03690793 0.012758856 -0.046009198 0.04333833 -0.011129053
-0.024030486 0.099431604 0.021095669 0.0416669 -0.009988711 0.12739155 0.093574464 0.091385596
0.14901605 0.08186671 0.099711485 0.11727877 0.0043924744 0.11582221 -0.008388134 0.026170796
0.06016451 0.044539604 0.013241195 0.0927628 0.027253954 0.05802339 0.11313185 -0.022344057
-0.013991679 -0.0065192725 0.0034089019 0.016838145 -0.01898471 0.122196116 0.02135889 0.07169865
0.05884095 -0.010352037 0.022093093 -0.050010372 -0.081879534 -0.0050527197 0.042669024 -0.048639137
-0.044468246 0.029200118 0.017516542 0.114998326 -0.03858448 0.017865157 -0.06874467 0.03329612
-0.02904295 0.014519857 -0.03142011 0.017909857 -0.004096412 0.04288004 0.091641754 0.13441059
0.000875485 -0.00567647 -0.009045675 -0.006664729 -0.06393583 0.0030796395 0.00015082979 0.009595079
-0.053090177 0.21320713 0.09612089 -0.0020957054 -0.039631203 0.060571674 -0.06484379 -0.048237603
-0.023722012 -0.038148988 -0.038044877 -0.027912565 -0.043904755 0.00032400154 -0.033311404 0.05060879
0.075265594 -0.012793595 -0.0056937356 -0.0021944358 0.009085664 0.02667545 0.06748571 0.008654794
0.06353479 0.047135722 0.090128265 0.05788454 -0.019633876 -0.049783047 -0.05259902 0.14934105
0.04481329 0.014519091 0.09159232 0.07650037 0.12114395 0.20232281 0.046147708 1.5688016e-08
0.013811754 0.0053182547 -0.24720405 0.103648715 0.0048293625 -0.004514968 -0.24733907 -0.08597096
0.022358816 0.093039304 0.013817756 -0.113864414 -0.04564811 -0.089682296 0.071311474 0.04560726
0.028107135 0.27441564 -0.046089076 0.07644181 0.2622374 -0.021304118 0.031664036 -0.017795434
0.08877918 -0.020641524 0.097380266 -0.13400152 0.003342633 -0.07253542 -0.045889158 -0.030065952
0.0075669284 0.27509972 0.016577836 -0.104439825 0.13448487 -0.14043364 0.06703697 -0.20096333
-0.023541156 -0.05487229 -0.040288832 -0.00445642 -0.1483434 0.04723544 -0.07229921 0.12043271
-0.098250106 -0.12969115 -0.10003218 0.035290662 -0.12438139 0.08179681 -0.09504227 -0.059350405
0.009696447 -0.01205 0.0004293656 0.16024227 0.02659073 0.046074905 -0.03645101 0.0048987144
-0.12144402 -0.0338271 0.050144106 -0.22699992 0.31466353 0.0784981 -0.033062078 -0.12554978
0.17193848 -0.046093985 -0.08900818 -0.017730841 0.23098446 -0.051927794 0.21157908 0.07163242
0.045699563 0.1387781 0.11240356 0.06799087 0.19422066 -0.0010164423 0.10997292 -0.014061453
-0.0876828 0.0629198 0.06555067 -0.14479809 0.16806053 0.04526281 -0.08986603 -0.11584185
-0.074804015 -0.22410214 0.11605514 0.22635034 -0.22536723 0.08002685 -0.10766586 0.11985221
0.028743168 -0.03242798 -0.16428715 -0.008506863 -0.066131935 0.11901248 -0.18822412 -0.06268979

conv1.bias f4 [100]
00000000: 8b55 3f34 00bd 95b6 c18e 6434 b305 4c32
00000010: 2cae 9eb4 90d0 dcb4 9646 7134 627e 2cb5
00000020: 6366 28b5 8bca 20b5 7e2c 5fb3 9988 74b3
00000030: 5eb7 0934 9720 17b5 627f b533 92f5 b6b4
00000040: ab8f 8fb4 6892 82b3 64d8 b3b4 a014 58b4
00000050: de81 82b5 2ee9 0035 5963 01b5 52c4 e5b4
00000060: f4e8 1034 971d c7b3 0614 68b2 0677 95b3
00000070: 30b0 77b2 3264 7c34 2cfd 96b5 9845 4ab3
00000080: 5ae7 6034 43bc 3a33 62a3 a834 17d2 7e35
00000090: fb76 14b5 807d 57b4 7337 0b33 000e b633
000000a0: ae3b 81b6 e405 d232 ce3b d334 1416 5133
000000b0: bc6c 97b4 c8fe b7b5 2ff1 a434 9659 07b5
000000c0: 823c 4f34 08f0 cfb3 4c90 8cb4 4f76 b033
000000d0: 36aa 2834 a47f a3b4 731b 4d35 2010 3730
000000e0: 80c4 a7b5 ae4a 2cb5 9b64 cab4 81c7 09b4
000000f0: f4dc e433 0221 3434 5dd2 0f34 1f12 5335
00000100: 307a 6233 8d71 b633 342d 85b2 a059 0f34
00000110: 4697 0fb1 bd95 a0b4 f4b2 a5b3 bd67 ae34
00000120: 8d1b 2cb4 3bf0 a8b5 e5fe 55b5 fb66 8335
00000130: d2cc 4fb3 12a8 a432 c4d1 16b4 3a5b 95b5
00000140: 4615 99b4 106f 33b3 fac7 efb3 590b 7834
00000150: da63 8e34 e70d 3bb4 ca96 7634 342c 37b3
00000160: d73e 19b3 507a b233 a5c5 82b3 b9b7 9532
00000170: e667 1eb6 ca9a 1934 c404 9333 ab68 9bb3
00000180: 49ef 9cb3 45d1 3f35 4db0 d1b4 194b 2034
1.7819382e-07 -4.4625485e-06 2.1286088e-07 1.1875659e-08 -2.955652e-07 -4.1129942e-07 2.2470553e-07 -6.4258904e-07
-6.273387e-07 -5.9899384e-07 -5.19617e-08 -5.6934912e-08 1.2825828e-07 -5.629931e-07 8.45164e-08 -3.4078818e-07
-2.6740358e-07 -6.080228e-08 -3.3498793e-07 -2.0124071e-07 -9.723551e-07 4.8023037e-07 -4.8200815e-07 -4.2797416e-07
1.3495793e-07 -9.272042e-08 -1.350873e-08 -6.9600034e-08 -1.4417353e-08 2.350578e-07 -1.1249554e-06 -4.7095085e-08
2.0945791e-07 4.3477723e-08 3.1411315e-07 9.4928095e-07 -5.5307436e-07 -2.0069092e-07 3.241389e-08 8.477582e-08
-3.851447e-06 2.4449896e-08 3.9345326e-07 4.8681684e-08 -2.8205056e-07 -1.3708714e-06 3.0722865e-07 -5.0421784e-07
1.930039e-07 -9.68285e-08 -2.6182022e-07 8.217159e-08 1.5708142e-07 -3.0453987e-07 7.6408395e-07 6.6597927e-10
-1.2499659e-06 -6.4183666e-07 -3.7698632e-07 -1.2831698e-07 1.06572685e-07 1.6775815e-07 1.3394443e-07 7.8629995e-07
5.2730854e-08 8.49569e-08 -1.5503794e-08 1.3350518e-07 -2.0895228e-09 -2.991127e-07 -7.7159626e-08 3.2485505e-07
-1.6028771e-07 -1.2586892e-06 -7.9719604e-07 9.790232e-07 -4.8382226e-08 1.9168542e-08 -1.4046151e-07 -1.1127916e-06
-2.851395e-07 -4.1777696e-08 -1.116568e-07 2.3100928e-07 2.6522213e-07 -1.742079e-07 2.2965392e-07 -4.264821e-08
-3.568024e-08 8.3110194e-08 -6.089548e-08 1.742943e-08 -2.3604312e-06 1.4305547e-07 6.846088e-08 -7.236789e-08
-7.307842e-08 7.145757e-07 -3.905756e-07 1.4928482e-07

dense1.weight f4 [1, 127]
00000000: 5a8f a1bd 98eb 603e 74dc b3bd 0a9d e53c
00000010: 58ea 063e 84de 2c3e ab32 93bd 7955 4bbe
00000020: 84a9 4ebe 3a20 843e 0e67 21be f13c 30be
00000030: 3118 c83d 6299 05be 4eba 763e 43c4 e53d
00000040: 3181 2dbe 6e5d e23d 1c21 233e bf88 17be
00000050: 6e9b a13e 29ee 943e f6ae 803e 3462 143e
00000060: 1f97 0ebe 364f f6bd c4b2 50be 868c 2d3e
00000070: 888b 9a3d 2638 103e be4e 23be ee43 c83d
00000080: cc02 d4bd 55e9 c7bd 0b97 823e c25f 803e
00000090: e9d0 053e 96d5 92be eccc 913d 14a5 0ebd
000000a0: eef2 a23e 3ac5 e93d fcb9 16be d8c7 993d
000000b0: 7be1 4cbe 71d2 8a3e b6c9 823e 0cad 5f3e
000000c0: f030 1ebe 5891 22be 913d e2bd 5a38 ea3d
000000d0: 4414 303e 455f d0bd 49d7 62be 5178 22be
000000e0: 1d1e 263e f1a0 b3bd 0ad8 0a3e 0aa0 19be
000000f0: ddd2 cdbd cab9 1dbe beae 4e3e 92e1 1d3e
00000100: 88b0 c93d a1b3 b23d 136a 5cbe 6f18 2fbe
00000110: ce6c 29bc c4ab 0ebe 6bd9 bbbd 5b38 f3bd
00000120: 2f2d 133e 9dfb 6b3e b0d3 5a3e 86aa 473e
00000130: 6b3d 6b3d 1654 9a3c d60b cfbd f645 f33d
00000140: 4128 15be b8b3 33be 391a 043e f290 94be
00000150: 4e06 813e 3c0d 2dbe 8f0b d5bd 3327 09be
00000160: b712 983d fb80 323e d5ba dfbd d958 3bbe
00000170: 5e1c 4dbe c4b3 de3d c4a3 4fbe 6b69 363e
00000180: 1f52 83bd 8c4c 0ebe 6074 17be 2bd5 febd
00000190: aad5 293b 8045 26bc 05c3 003e 8349 193d
000001a0: 3b71 b2bc e2ff 94bd 9a17 593d 357a 293d
000001b0: 81e6 12bd 1b1d 76bc 68eb f8bc 6e2a c8bc
000001c0: 200d 87bd 47a2 94bc 7f7d e83c ded5 7ebd
000001d0: 97e4 8fbb 060d 973c 53e4 813c 32ca 0cba
000001e0: 6a39 0fbc 3c13 59bd d722 1bbd d4c9 89bb
000001f0: 1561 133d e846 8cbd bfda 3c3d
-0.0788867 0.21964872 -0.087822825 0.028028984 0.13175333 0.16881758 -0.071873985 -0.19856824
-0.20181853 0.25805837 -0.15761968 -0.17210747 0.09770239 -0.13046792 0.24094507 0.112190746
-0.16943814 0.110529765 0.15930599 -0.14798258 0.31563896 0.29087952 0.25133485 0.14490587
-0.13924836 -0.12026827 -0.20380694 0.16948137 0.07546145 0.14083919 -0.15948007 0.097785816
-0.10352096 -0.097613014 0.25505862 0.25073057 0.13067974 -0.28678578 0.07119164 -0.0348254
0.31825966 0.11414571 -0.14719385 0.0750882 -0.20007889 0.2711368 0.25544518 0.21843356
-0.15448356 -0.15875757 -0.11046899 0.114365295 0.1719523 -0.10174421 -0.22152437 -0.1586621
0.16222425 -0.087709315 0.13558975 -0.15002456 -0.100499846 -0.15402904 0.20183846 0.1541808
0.09848124 0.08725668 -0.21524839 -0.17099164 -0.010340882 -0.13932711 -0.091723286 -0.11875983
0.14372705 0.23045202 0.21369815 0.19498643 0.05743162 0.018838923 -0.101096794 0.11878578
-0.14566137 -0.17549026 0.12900628 -0.29016834 0.25200123 -0.1689958 -0.10402595 -0.1339386
0.074254446 0.17432015 -0.10924307 -0.18295611 -0.20030352 0.10874131 -0.20277315 0.17813651
-0.06412148 -0.13896388 -0.14790487 -0.12443002 0.0025914707 -0.010148406 0.12574394 0.037423622
-0.021782508 -0.07275368 0.053001024 0.04137631 -0.035864357 -0.015021588 -0.030385688 -0.024434295
-0.065943 -0.018143786 0.028380154 -0.06221568 -0.0043912637 0.018438827 0.015855944 -0.00053707056
-0.008741716 -0.05299686 -0.037875023 -0.004204968 0.035981257 -0.06849462 0.04610705

bn_start.weight f4 [27]
00000000: fd24 6e3f c508 523f 630b 5f3f d70d 633f
00000010: 62b5 873f 18cc 7e3f 7872 533f 62ce 613f
00000020: 126e 773f efdc 7e3f ae01 6d3f 180f 7f3f
00000030: 0a87 693f bd88 633f 856b 663f cfa6 7f3f
00000040: e49a 903f 5355 833f e89d 343f 190b 7a3f
00000050: 650b 723f bd18 4c3f bca1 473f 2071 6b3f
00000060: c209 5e3f bf54 783f c03c 5b3f
0.9302519 0.8204463 0.8712675 0.8869299 1.0602229 0.9953017 0.8259654 0.8820554
0.9665233 0.9955587 0.9258069 0.99632406 0.9122168 0.8888052 0.9000781 0.99863905
1.1297269 1.0260414 0.70553446 0.97673184 0.94548637 0.7972525 0.7798116 0.9196949
0.8673364 0.9700431 0.8563957

bn_start.bias f4 [27]
00000000: 25f2 0f3c 209f 1abd 84d6 ccbd 8b5b 16bd
00000010: fdc6 d3bd 9f74 883d ed5a 0dbc c902 553c
00000020: c2c4 cbbc 049b eebd 842b 96bd 7e70 33bd
00000030: f2b2 05bb 580e 0ebb bc22 edbd 4d7d 9e3c
00000040: 63f0 eb3c 7631 ff3c 3df2 0ebd 3683 973c
00000050: 7a8f cc3c 6982 96bd 46c0 42bc d8bd dd3d
00000060: c27b b6bd 8a0f c2bc 32c1 c83d
0.008785759 -0.03774941 -0.10001853 -0.036708396 -0.103406884 0.06662869 -0.008627635 0.013001152
-0.024874095 -0.11650661 -0.07332519 -0.043808453 -0.002040085 -0.002167603 -0.11578891 0.019346857
0.028801149 0.031151515 -0.034898985 0.018495183 0.024970759 -0.073490925 -0.011886662 0.108272254
-0.08910324 -0.02368905 0.09802474

bn_start.running_mean f4 [27]
00000000: e17d 843d 3fef 2f3b c4b4 1b3d 2f53 0e3d
00000010: 8cdc 873d ac16 bb3d 0fdd 813c 26e1 133d
00000020: a1a4 893c 74a7 813d 294a 833c 247b 733d
00000030: bc93 763c 02b3 183d 5203 ab3c 44eb da3d
00000040: e3da 603d 2d4a 603d 8de3 333b 8c97 453d
00000050: 26ca 9cc0 4363 453f 1a20 3840 8832 99bf
00000060: fab2 823f 6784 16be b921 d6bf
0.06469322 0.0026845483 0.03801419 0.0347473 0.06633863 0.09135184 0.01585248 0.03610339
0.016802134 0.06330767 0.016026573 0.059443608 0.015049871 0.03728009 0.020875607 0.106894046
0.054896247 0.05475824 0.0027448863 0.04824023 -4.8996763 0.77104586 2.8769593 -1.1968546
1.0210869 -0.14698945 -1.6729041

bn_start.running_var f4 [27]
00000000: e3de 773d 467c 2f3b 11d1 153d 8b61 093d
00000010: a4c0 7d3d af04 aa3d 7aad 7f3c 178b 0e3d
00000020: 8e59 873c a3ed 723d e12f 813c 6605 653d
00000030: 0de3 723c cc07 133d 6173 a73c 188b c33d
00000040: f98c 543d 0308 543d 5d62 333b af16 3c3d
00000050: 5a43 0641 2bce 083f 2d20 8b40 1ae0 e63f
00000060: 1aea c93f 26af 323e 9489 c840
0.060515296 0.0026776954 0.036576334 0.03354029 0.061951295 0.083016746 0.015605325 0.034800615
0.016522195 0.05930866 0.0157699 0.05591335 0.014824641 0.035896108 0.02044076 0.095480144
0.051892255 0.051765453 0.0027371862 0.04592007 8.391443 0.5343959 4.3476777 1.803714
1.5774567 0.17449626 6.266794

bn_cnn1.weight f4 [100]
00000000: 3af7 273e 260d 583e 4a79 1d3e bf5c e63d
00000010: cd13 093e ef20 853e fee1 fe3d a129 723e
00000020: b6b0 683e 0830 8f3e 7a3e 4f3e 39a9 423e
00000030: 1d41 1f3e fa07 1d3e 23bb 8f3e 74b3 383e
00000040: c2bc 413e eaa3 0c3e 3267 793e eef2 1f3e
00000050: 64af b73e 01ba b63e 850b 8a3e 0a60 3f3e
00000060: 9424 083e 9b8a 323e 6d62 6b3e ceae 843e
00000070: 9fd7 303e 74d2 5c3e ccc6 3c3e 145d 4a3e
00000080: ca17 243e 140d 193e ce80 8d3e a518 9d3e
00000090: 6365 5c3e ee43 8d3e b8a2 5a3e 92ea c93d
000000a0: a752 bc3e 45c9 2e3e 6007 853e a4a3 4b3e
000000b0: a06a 5c3e 9d34 813e ce3f 8c3e 2923 963e
000000c0: 7b1c 803e 4db2 913e 7974 463e 2367 2b3e
000000d0: 28d1 663e bc43 423e 3059 583e 51e4 8d3e
000000e0: 028e 713e 09b6 313e b69e 4c3e fd93 1a3e
000000f0: ab7f 3f3e 2c04 803e 2e9a 603e e524 2a3e
00000100: ba50 e03d 3f25 3f3e 90c9 6f3e 739f 363e
00000110: c27c 523d 4385 5c3e fec3 1e3e 3aaa 333e
00000120: b06a 4a3e e177 163e d2cc 833e a0f3 093e
00000130: a739 103e 8e6c a1ba 29b5 2c3e 5291 353e
00000140: 08c1 523e 7920 983e a011 4e3e f6f7 8c3e
00000150: 3440 703e 7e37 5b3e 4ab1 1e3e 52c4 443e
00000160: 718f 1b3e 84e9 573e ef45 453e 6a87 8f3e
00000170: 5675 803e e43f 503e cc61 633e 846f 553e
00000180: 8f85 2e3e 7dc2 5d3e 4cb3 493e 85d1 4f3e
0.16402903 0.21098766 0.153783 0.11248159 0.1338646 0.2600169 0.12445448 0.23648693
0.2272366 0.27966332 0.20238677 0.19009866 0.15552182 0.15335074 0.2807246 0.18037206
0.18919662 0.13734403 0.24355772 0.15620014 0.35876 0.35688785 0.26961914 0.1868898
0.13295203 0.17435686 0.22986765 0.25914615 0.17269753 0.21564656 0.1843521 0.19762069
0.160247 0.14946395 0.27637333 0.30682865 0.21523051 0.2759089 0.21351135 0.09859194
0.3678181 0.17068966 0.2598219 0.19886643 0.21525049 0.25235453 0.2739243 0.293237
0.2502173 0.28456345 0.19380368 0.16738562 0.22540724 0.18971151 0.21127772 0.27713254
0.23589328 0.17354597 0.19982418 0.15095516 0.18701045 0.25003183 0.21933815 0.16615637
0.10952897 0.18666552 0.23416734 0.17834263 0.05138851 0.2153521 0.15504453 0.17545405
0.1976726 0.14694168 0.25742203 0.13471842 0.14084493 -0.0012315677 0.16865982 0.17731217
0.20581448 0.29712275 0.20123911 0.2753293 0.23461992 0.21407887 0.15497318 0.19215515
0.15191437 0.21085173 0.19264959 0.28033 0.2508952 0.20336872 0.22205275 0.20843321
0.17043136 0.21656223 0.19697303 0.20294769

bn_cnn1.bias f4 [100]
00000000: 4078 04bd 6eb4 cabd 1a59 0ebd 869c 1b3b
00000010: ae61 e33d cb2b d53c 32ad 3bbd 0a82 933d
00000020: 48b9 4ebd 7214 e33c 7e81 c1bc 78ed dc3c
00000030: 9053 073d a238 17be 7eb9 463d 2973 c83c
00000040: ecdf 533d ef89 923d b6e9 98bb 15f2 c4bd
00000050: 258f 0e3c cec8 95bc 26c9 1bbc 909d 663d
00000060: 8164 6ebd 61af b8bb f85b 5fbc 3d09 933c
00000070: 3b86 ec3c de11 e8bd 6701 83bd 7183 b9bd
00000080: 109d da3d 013b 04bc f8b2 d93a b661 0cbc
00000090: 13de cf3b b515 603d 505e 08bb fa49 aabd
000000a0: 7c89 21bd 79bd 503d 7415 c839 3a64 043d
000000b0: d64d 12bd 489c aebd f606 95bb baff 4f3b
000000c0: 5123 18bd f0cb 3e3c 053b 04bd 687e 8ebd
000000d0: f9f0 a8bb acfd 0dbd 18af 9f3d 8574 83bc
000000e0: 222e b4bc 862d 4abc 9bdc 05bd 9dba 46bd
000000f0: b00a 4cbb 3813 833c 05ed 4d3d d6bb 2d3d
00000100: 9c15 e23d 9710 363d 730c b43d 5404 d03d
00000110: 6a4e e73b ff74 153d c705 dd3d b264 61bd
00000120: a1cf e7bc d00a 1ebe 8aea 2ebc b95a 903d
00000130: 8381 8f3d e2db 813d 9ad9 0f3d b554 2dbd
00000140: c006 9c3c 16d4 febc 3cfb 8d3d aa61 0b3d
00000150: 6c2b 88bd 1fc2 5a3d 2a13 333d 46d4 a5bd
00000160: fda0 9b3c 60af 5b3d f02c 2dbd d937 d63c
00000170: b5dc bcbc e940 9ebc 5a34 e53b ee97 a4bc
00000180: 6123 313b 34a8 85b9 5c37 563b 8a25 f3bc
-0.03234124 -0.098976955 -0.034752943 0.0023744418 0.11102615 0.026021859 -0.04581947 0.07202537
-0.050469667 0.02771971 -0.023621317 0.026968703 0.033038676 -0.14767697 0.048516743 0.024468975
0.05172722 0.07155215 -0.0046665324 -0.09616486 0.0087011205 -0.018284228 -0.009508407 0.056302607
-0.058201317 -0.005636141 -0.013632767 0.017948741 0.0288726 -0.11331533 -0.06396752 -0.090582736
0.106744885 -0.008070708 0.0016609123 -0.008568218 0.006343612 0.0547082 -0.0020808168 -0.08314891
-0.039437756 0.050961945 0.00038162956 0.032322146 -0.03571876 -0.08525902 -0.004547949 0.0031738118
-0.037143055 0.011645302 -0.032282848 -0.06957704 -0.0051556793 -0.03466575 0.07797068 -0.016046772
-0.021994654 -0.012339955 -0.03268109 -0.048517812 -0.00311343 0.016000375 0.050274868 0.042415462
0.11039278 0.044449415 0.08791437 0.101570755 0.007058908 0.03648853 0.107921176 -0.05502767
-0.028297247 -0.15433812 -0.010676036 0.07048554 0.07007124 0.063407674 0.03511963 -0.04231711
0.019046187 -0.03110699 0.06932685 0.034028687 -0.06648907 0.053407785 0.04371945 -0.080971286
0.018997664 0.053634048 -0.042279184 0.026149677 -0.02305446 -0.019318061 0.006994766 -0.020091977
0.0027029144 -0.00025493058 0.0032686805 -0.029680986

bn_cnn1.running_mean f4 [100]
00000000: 4ca9 f73f 6a46 6640 fe50 1b40 44f7 bf3f
00000010: bdd4 4c40 2e0c 6240 67df 1640 af19 6340
00000020: 2aeb 5d40 fa5c 8940 1945 4640 cf27 6340
00000030: 3465 2540 4800 4840 e421 7a40 c4a8 3e40
00000040: e5e2 5440 ac45 5240 6b53 4b40 9b6e 6640
00000050: bc0e 7040 aa5f 9540 7c93 6240 9e42 4640
00000060: fb79 4440 ede4 4a40 e27a 4e40 7781 5340
00000070: 7696 3b40 501a 6040 8ab0 5a40 beaa 2d40
00000080: 8879 3040 5b09 2140 b5c7 8940 7ff1 8c40
00000090: b8be 3540 8f4e 9140 3b5c 2740 ae8c 0c40
000000a0: dbb1 8740 0b76 2f40 e3ea 5240 6ab3 6240
000000b0: caf2 4740 7042 9440 7c4d 6840 f6ff 7e40
000000c0: 069d 5240 e2b9 4e40 df6b 2540 57cd 5840
000000d0: 0906 7d40 4c56 2240 cb5c 6e40 5168 6840
000000e0: d560 4540 f655 1340 162b 4c40 7b56 3240
000000f0: 9a90 4640 40c4 3c40 e01b 6b40 d040 4c40
00000100: 56c4 2640 2218 2640 835e 4c40 4edb 4d40
00000110: 1741 393f 83a4 3740 b928 1440 0d5f 2b40
00000120: 44ba 4940 5aeb 7a40 fc79 8540 bbb4 4340
00000130: 570b 2540 4cbc 853f 9c23 2a40 0e37 3740
00000140: d2cb 4040 c3e9 4f40 d308 4b40 4057 9c40
00000150: 6b29 7f40 e73e 5d40 21d3 4440 9e94 4440
00000160: 8b60 2340 5ebb 4f40 e753 2040 5af0 7540
00000170: 23f0 5740 8b76 2440 a5ef 4f40 2483 6d40
00000180: 3d1f 3940 ccfc 4740 b4e0 3740 fc91 4340
1.934854 3.5980477 2.4268184 1.4997334 3.2004845 3.5319934 2.3573854 3.5484426
3.4674783 4.2925997 3.0979674 3.5493047 2.584302 3.1250172 3.9083185 2.9790506
3.3263485 3.2855024 3.1769664 3.6005008 3.7508993 4.6679277 3.5402517 3.097816
3.069945 3.1702225 3.2262502 3.304777 2.9310584 3.501606 3.417025 2.7135463
2.7574177 2.516196 4.3056283 4.4044795 2.8397655 4.5408397 2.6150043 2.1960864
4.240461 2.7415798 3.2955863 3.5422006 3.1241937 4.63311 3.6297293 3.9843726
3.290834 3.2300954 2.584709 3.387533 3.9534934 2.5365171 3.7244136 3.631367
3.0840352 2.3021216 3.1901298 2.7865283 3.1025758 2.9494781 3.6735764 3.1914558
2.6057334 2.595223 3.1932685 3.2165103 0.72364944 2.869416 2.3149855 2.6776764
3.1519938 3.9206147 4.1711407 3.057906 2.5788171 1.0448089 2.6584234 2.8627353
3.0124402 3.2486427 3.1724136 4.8856506 3.986903 3.4569643 3.0753863 3.0715709
2.5527675 3.245811 2.505121 3.842795 3.3740318 2.5697353 3.2490017 3.7111292
2.8925316 3.1248045 2.8730898 3.0557852

bn_cnn1.running_var f4 [100]
00000000: 1e50 e83e 3fca 343f 04c7 da3e 4c7a 0c3e
00000010: 4366 3b3f f8e3 e43e c9f4 f83e fb9d 843f
00000020: c730 083f b99a af3f b33d 433f 338f 003f
00000030: b79e 023f bf0e fc3e 56fb 1a3f 3c0b 643f
00000040: 821a 213f 1828 f83e 62c6 da3e 337d 893f
00000050: 86c1 0b3f 3555 b13f d8cd 0e3f c02b 323f
00000060: 7153 a43f f632 393f cf64 073f c54d fb3e
00000070: a5f6 af3e e6d1 183f 5e1e 4e3f 61e9 033f
00000080: 5d59 3f3f b972 c13f 4560 723f 3950 893f
00000090: 2746 0c3f 0b46 993f 6437 f03e fc2e ed3e
000000a0: 2c30 8d3f 03d6 ed3e 2a94 6e3f 35c7 373f
000000b0: e598 f23e 4400 893f b9f3 0e3f 1cc4 823f
000000c0: 1bdb ce3e 9d87 493f f285 043f d9b8 193f
000000d0: fcb2 833f 3bc0 7e3e 1c0f 073f 61fb 193f
000000e0: 02bb 1b3f 8409 8e3e efef 053f cdd7 5e3f
000000f0: a746 053f 634a 213f 9565 6a3f 08ee d63e
00000100: b477 373f 8597 093f 301a 7a3f fb29 843f
00000110: 252f 1e3e c1af 143f 126b 573f f298 163f
00000120: beb7 0c3f 9226 7b3f 1340 733f 8978 b83e
00000130: 9a8a 1d3f f051 c23d 3987 273f 219c d63e
00000140: bfa5 bc3f 7835 0d3f b8d5 bb3e 74a8 743f
00000150: 5065 743f 57bf 6e3f 517f a43f 3d6d 3b3f
00000160: 2ee0 e63e f537 2f3f 103f 393f 6bbd 803f
00000170: db61 5d3f fc60 1d3f c1fa 6d3f 5198 473f
00000180: 1032 ea3e 961c a93f 177c f73e dd05 423f
0.45373625 0.70621103 0.42729962 0.13718528 0.73202914 0.44705176 0.48624256 1.0360712
0.5319943 1.3719093 0.7626602 0.50218505 0.5102343 0.4923 0.6053976 0.8907964
0.6293107 0.4846809 0.4272948 1.0741333 0.5459217 1.3854128 0.5578284 0.6959801
1.2837964 0.72343385 0.52888197 0.4908277 0.34367862 0.5969528 0.80515087 0.5152798
0.7474573 1.5113136 0.94678146 1.0727607 0.54794544 1.19745 0.4691726 0.4632491
1.1030326 0.4645234 0.9319483 0.7178834 0.47382274 1.0703206 0.5584064 1.0216098
0.4040154 0.78722554 0.51766884 0.6004768 1.0288997 0.24878018 0.5275743 0.601492
0.60832226 0.27741635 0.52319235 0.87048036 0.5206093 0.6300413 0.9156125 0.41978478
0.7166703 0.53746825 0.9769621 1.0325311 0.15447672 0.5808068 0.8414775 0.58827126
0.5496787 0.9810573 0.95019644 0.3602946 0.61539614 0.094882846 0.6544071 0.41915992
1.4738082 0.5515971 0.36686492 0.9556954 0.9546709 0.9326071 1.2851354 0.7321356
0.4509291 0.6844476 0.7236185 1.0057806 0.8647744 0.6147611 0.92960745 0.7796679
0.4574132 1.3211849 0.4833686 0.75790197

bn_dense.weight f4 [127]
00000000: b568 9e3e f182 503f 2555 c63e 403b 263e
00000010: 130f 053f 5ffd 343f c3be 843e 2ba7 4a3f
00000020: 0891 333f 80b9 5f3f 0aee 2d3f 1cec 3b3f
00000030: 97be 053f 6b34 1b3f c6b2 533f 2857 e13e
00000040: ea6b 253f 1885 273f cc4c 2f3f 578d 363f
00000050: ecb3 7c3f 080a 773f 064a 563f 7a28 313f
00000060: 60aa 343f 0476 323f e029 483f 6872 3b3f
00000070: 8dc4 173f 326d 1c3f 6ddc 393f 00e6 233f
00000080: ba64 fc3e 2d9c 0b3f 53a8 5d3f d634 613f
00000090: 52ef 193f 26a9 703f 2bfa 0b3f 7109 e33e
000000a0: b44e 853f 4220 123f 7b63 303f 6fa6 223f
000000b0: 9df3 333f e206 723f c3d1 543f 6e39 4d3f
000000c0: 3618 363f 1a2e 3c3f 3781 ff3e c767 083f
000000d0: 537d 3c3f 4114 003f 3e7d 4c3f e6f0 323f
000000e0: 9a58 303f 0588 b13e 1d48 213f 9546 313f
000000f0: be0c 203f 51e0 3a3f 479b 463f 6a58 3a3f
00000100: a7f2 e13e eab0 013f abe6 4d3f 9222 3c3f
00000110: 7cc2 643d 8f51 3d3f 6e43 c93e 5579 073f
00000120: bc0f 0e3f b1a4 563f 542d 4b3f 7c1a 3e3f
00000130: 1e05 ce3e c0b2 ce3d 4f23 1b3f 1d57 073f
00000140: 8015 353f 4b60 3f3f 9a5a 2f3f b1f1 683f
00000150: 7ccf 4e3f 18ba 2a3f 0e29 143f f629 133f
00000160: 4371 bc3e ea65 153f 6f5a da3e b04a 3f3f
00000170: 12aa 483f d19c 013f d6d3 453f 8df3 3c3f
00000180: ad7e 0e3f 1b80 303f 4b25 363f 774b 1c3f
00000190: 8325 113f 8339 e03e b30b 153f 3953 d03e
000001a0: 7e0b 473e 8d96 273f 3e3c 973e 5ed6 d53e
000001b0: af68 f73e a548 683d 84b6 113f 313b 0b3f
000001c0: ce48 023f 3408 103f 66f3 043f 8593 093f
000001d0: b847 c13e 750f 9f3e 72d5 ef3e 2e45 4c3e
000001e0: c711 a63e 6827 023f aa70 943e d4ab 183f
000001f0: d558 fb3e d2fe 073f 3ca5 053f
0.3093926 0.814498 0.38736835 0.1623354 0.51976126 0.70699114 0.2592679 0.7916133
0.70143175 0.87392426 0.67941344 0.7340715 0.5224394 0.6062686 0.8269466 0.44011807
0.6461779 0.6543746 0.6847656 0.7130942 0.9871204 0.9649968 0.837067 0.6920239
0.7057247 0.6971133 0.78188896 0.73221445 0.5928429 0.6110412 0.7260197 0.6402283
0.49295598 0.5453518 0.8658497 0.87971246 0.601308 0.940081 0.546786 0.4434314
1.0414643 0.5708047 0.68901795 0.6353521 0.702936 0.9454175 0.8313257 0.80165756
0.7113069 0.73507845 0.4990327 0.5328335 0.7362873 0.50030905 0.79878604 0.6989883
0.68885195 0.34674087 0.6300066 0.69248325 0.62519443 0.7299853 0.77580684 0.7279116
0.44130442 0.50660574 0.80430096 0.7349025 0.055849537 0.73952574 0.39309257 0.52919513
0.5549276 0.8384505 0.7936604 0.7425916 0.4023828 0.100926876 0.6060075 0.528673
0.7073593 0.74756306 0.6849762 0.9099379 0.80785346 0.66690207 0.57875144 0.574859
0.36805162 0.58358634 0.4264712 0.7472334 0.78384507 0.5062991 0.7727636 0.7380913
0.5566204 0.68945473 0.71150655 0.6105265 0.56697863 0.43793878 0.58220977 0.40688494
0.19437978 0.654641 0.2953815 0.41765112 0.48322055 0.056709904 0.5691912 0.54387194
0.5089234 0.56262517 0.51933897 0.5374072 0.3775003 0.3106648 0.46842533 0.19948265
0.32435438 0.5084138 0.28992206 0.5963719 0.4909121 0.531232 0.5220525

bn_dense.bias f4 [127]
00000000: 90de 093d 02ef 3ebd f20d 873d d18a 37bc
00000010: bf71 3abc 5ddb 22bd 88a6 f33c 49ec 893d
00000020: 01b8 ac3d d6ca 79bd b255 7a3d dd8e 2e3d
00000030: 6e56 d439 d374 823d dc56 3cbd 2e06 29bc
00000040: 7ee4 7d3d 8374 33bd 901a 48bd b3f2 823d
00000050: a77c 71bd 1c8f 81bd 35d1 76bd a082 5fbd
00000060: 1632 633d 2097 253d c8d9 393d 826a 80bd
00000070: 41ce 11bd 9cbd a3bd cd47 3d3d a05e 2dbd
00000080: bb07 1f3d 34fa 173d 4282 98bd 4522 62bd
00000090: 4fb1 8abd 327c 8d3d 9998 fdbc 6d2e 163d
000000a0: 51fd 86bd 0ca8 1dbd ed7d 8a3d 0b76 53bd
000000b0: 1799 a63d 6ede 73bd d24c 20bd 0746 34bd
000000c0: c280 9a3d 70b7 633d 848b 4a3d aa96 4cbd
000000d0: cc7e 66bd 053a 853d b6dd 4f3d fb02 4d3d
000000e0: 3826 7bbd c0ce 6a3d 68e1 05bd ae41 2a3d
000000f0: 678f 4e3d c9c7 3b3d f2fb acbd 1d3f 2bbd
00000100: e008 2fbc f640 b4bc 7b67 243d 52f4 563d
00000110: 47bb 7e3c f155 6f3d aead 2e3d 3f68 673d
00000120: e255 73bd 06ca 8ebd 35d8 32bd 22f7 27bd
00000130: c332 09bd ed94 1bbb 4502 113d ed70 77bc
00000140: c621 453d 9b46 593d a252 18bd d3e3 843d
00000150: d161 81bd 16d2 2d3d 9d93 693d 7fe5 8f3d
00000160: 0668 67bd 155d 50bd 5ebb 963d 4775 693d
00000170: e11c 793d 54cf 1abc 3efa 093d eeca 4dbd
00000180: f14b 5c3d 5c4e 6c3d 40f1 7c3d 590f 453d
00000190: b9e4 acbc befa 32bc 6bfc 0fbd b88c 54bd
000001a0: f736 15bb fa37 453d b863 48bd 4fed f8bc
000001b0: 151e 7c3c cc8d 413c afa6 233d eeec f23c
000001c0: 463b 3a3d 2dcb a93c 602d b0bc 9d02 1a3d
000001d0: c6a6 e53c 6b41 bb3b 2a30 2fbd 5680 a53b
000001e0: 6a42 a5bc 2ee7 f83a e8d3 003d 0ed5 94bc
000001f0: ae57 c53b 8d50 15bc eb2c fd3c
0.033659518 -0.046614654 0.06594457 -0.01120253 -0.011379658 -0.039759982 0.029742494 0.06734521
0.084335335 -0.060984455 0.06111688 0.042616714 0.00040500186 0.06369939 -0.045981273 -0.010316415
0.061985485 -0.043812286 -0.048853457 0.063939475 -0.05895677 -0.06326124 -0.06025811 -0.054567933
0.055467688 0.040427327 0.045373708 -0.06270315 -0.03559709 -0.079951495 0.046211053 -0.04232657
0.03882573 0.037103847 -0.0744672 -0.055208463 -0.067721 0.06908454 -0.030956553 0.03666537
-0.06591285 -0.03849034 0.067623 -0.051626246 0.08134668 -0.059538297 -0.03913576 -0.044012096
0.0754409 0.05559486 0.04944946 -0.049948372 -0.056273267 0.06505207 0.05074855 0.05005167
-0.061315745 0.05732608 -0.032685667 0.041566543 0.050429728 0.045844827 -0.08446492 -0.041808236
-0.010683268 -0.022003632 0.04013775 0.052479096 0.01554758 0.05843157 0.042646103 0.0564959
-0.059408076 -0.06972127 -0.043663222 -0.04100717 -0.033495676 -0.002373989 0.035402555 -0.015102607
0.048127912 0.05304585 -0.03718818 0.064887665 -0.06317485 0.04243668 0.05702554 0.07026195
-0.05649569 -0.05087002 0.07359956 0.05699661 0.060818557 -0.009448845 0.033685915 -0.050242357
0.05378336 0.057691917 0.06175351 0.04811034 -0.021105157 -0.010924039 -0.035152834 -0.051892012
-0.0022768357 0.048149087 -0.048923224 -0.030386595 0.0153880315 0.011813592 0.039953884 0.029653993
0.045466684 0.020726765 -0.021506011 0.03760015 0.028033625 0.0057145855 -0.042770542 0.005050699
-0.02017327 0.0018989795 0.03145209 -0.018167999 0.006022415 -0.009113443 0.030905208

bn_dense.running_mean f4 [127]
00000000: 18e2 7b3c 3605 fcbd 4ac5 14bd 9a21 81bb
00000010: 9e27 b73d 19e1 cb3c 3c7b 76bd edf1 903d
00000020: 7c8d 27bd 87e8 093d 33a9 d7bc 7cb4 9a3c
00000030: 0edf 5b3d 31e3 1ebe 19e3 583d 7456 f93c
00000040: 5828 693d 70eb 6b3d 4a6d 993a a25d b2bd
00000050: 154e d1bc 54d7 ebbc c5be 013b d0e1 233d
00000060: c4e1 6dbd eb5d a7bc c69f 1bbd ff61 9d39
00000070: 8722 183c 3672 dcbd 3f2a 6cbd 0406 c5bd
00000080: 3fb0 d43d 2c43 81bc 7a58 9bbb 1300 84bc
00000090: dd49 dfbb 6c78 6e3d b25d 81ba 8fda a7bd
000000a0: cb71 4bbd f261 753d 326f cfbb 78d4 143d
000000b0: 5640 6fbc 9051 84bd b431 903a 38c0 d4ba
000000c0: b20c 0abd 4d32 0f3c 4cf8 24bd a830 51bd
000000d0: 4974 26bc 068f 10bd cc82 ba3d 46e2 ffbc
000000e0: 5535 e2bc 338a 2ebd 5f95 16bd 6149 7fbd
000000f0: 973a 803c b344 9a3c b030 463d 803a dd3c
00000100: f988 b53d 5929 293d aeae a93d 1ad5 d03d
00000110: 0e8d 1c3c ffa5 d03c b86b 073e 184c 3abd
00000120: 4cd5 d6bc bd09 02be f5bf c4bc 6cd8 3d3d
00000130: f805 9c3d 3682 793d 0698 b83c 8ceb 48bd
00000140: 3093 bb3b c9a8 22bd 1610 893d 9e97 f63c
00000150: f2d1 54bd ddd2 5f3d e308 263d 5ec8 90bd
00000160: d2a0 473c fe55 933d 1cf6 38bd 36f1 0c3d
00000170: e1e4 b0bc 33f1 7fbc ced0 173c a527 bc3b
00000180: 9b0a 1e3c 0bde 25bc a351 78bb 9320 febc
00000190: 8c5a b0c0 533c 17bf 4d62 93bf d1f8 71be
000001a0: 1163 dabe 8886 c6bf 5030 8ec4 bc1c fa43
000001b0: c86b 3ec4 93a4 9840 e106 b244 6672 b2c2
000001c0: d3c1 2840 ca42 17c4 0416 8143 41de afc3
000001d0: 8946 1b40 4531 2844 ca84 45c2 e59f 0740
000001e0: 9bf4 09c4 0e42 7643 8060 b7c3 6efd 0d40
000001f0: f6aa 3844 ceda 26c2 7dd9 0b3f
0.015373729 -0.123056814 -0.036320962 -0.003940773 0.08943103 0.024887608 -0.06017612 0.07077394
-0.040906414 0.03366902 -0.026325798 0.01888489 0.05367952 -0.15516354 0.052950952 0.030436732
0.05692324 0.057597578 0.0011705544 -0.08709265 -0.025549928 -0.0287892 0.0019797545 0.040010273
-0.058076635 -0.020430526 -0.03799417 0.00030018386 0.009285576 -0.107639715 -0.057657477 -0.09620288
0.10385179 -0.0157791 -0.004740772 -0.016113317 -0.006814225 0.058220312 -0.0009869842 -0.081959836
-0.04966907 0.05990786 -0.006330394 0.03633544 -0.014602741 -0.06460869 0.0011001141 -0.0016231602
-0.033703513 0.00874002 -0.040275857 -0.051071793 -0.0101595605 -0.035292648 0.09106979 -0.031235825
-0.027613321 -0.042612266 -0.036763545 -0.06232584 0.015652938 0.018831586 0.048386276 0.027005434
0.08864016 0.041299198 0.08285271 0.10196896 0.009555114 0.025469778 0.13224685 -0.045482725
-0.026224755 -0.12699027 -0.024017313 0.046348974 0.07618326 0.060915194 0.022533428 -0.04905276
0.005724333 -0.039711747 0.06692521 0.030101594 -0.051958032 0.054644454 0.04053582 -0.07069467
0.012184339 0.07194136 -0.045156583 0.034409724 -0.021593513 -0.015621471 0.0092660915 0.0057420307
0.009646083 -0.01012374 -0.0037890456 -0.031021392 -5.511053 -0.5907642 -1.1514374 -0.23630072
-0.42653707 -1.5509806 -1137.5098 500.2245 -761.6841 4.7700896 1424.215 -89.223434
2.63683 -605.0436 258.172 -351.73636 2.4261801 672.76984 -49.379677 2.1191342
-551.82196 246.25803 -366.7539 2.2185931 738.67126 -41.713676 0.54628736

bn_dense.running_var f4 [127]
00000000: d3d6 5b3d 9eb9 c73d 0e54 593d 8400 de3c
00000010: d0cd 953d cf62 183e 3706 1a3d 20f5 e53d
00000020: 5d07 ca3d 90ca 153e 05bc a63d c7fb 943d
00000030: 732e 263d cd70 8e3d e924 0c3e 107a 913d
00000040: fb11 9d3d 98cc 4b3d 78be fe3d 59f6 5b3d
00000050: 9ee3 7d3e 0c18 8b3e d5f8 243e 5390 9a3d
00000060: cd4d 2b3d f13c 6c3d e600 de3d 94cd 0d3e
00000070: 5d1c 793d 603b ec3d f976 753d 564f b23d
00000080: 257c 843d e416 373d 7c64 113e 4b20 473e
00000090: 3c2f d53d 543d 293e b06b d43d 4a72 d23c
000000a0: 9449 843e 3d4d 853d 264d 203e 9fe5 aa3d
000000b0: 8342 bf3d f51b 1b3e 1c36 283e 54a6 323e
000000c0: 7e3a 043e 431d 233e 542b a83d 556c 913d
000000d0: a090 dc3d ea9d 7a3d 4b50 9d3d 3a7e 173e
000000e0: d2a0 023e b039 593d dd61 a13d a070 533d
000000f0: 9384 943d e853 1a3e b49c bc3d c0ae 803d
00000100: 6416 1f3d ba8f 753d 667b 073e cdba a13d
00000110: 163d d63b 58fc db3d 47ee 6a3d 2c02 9b3d
00000120: 9d9d ad3d 0bad aa3d 426e 1c3e 2825 583d
00000130: 478a 493d d36d 8e3b 2d89 663d 3ae3 883d
00000140: 70ef b53d 63d5 2c3e 3db4 c13d 252c 273e
00000150: e0f7 ee3d 6748 b83d dfd6 6b3d 4ee2 be3d
00000160: bc3a 523d 039a a93d 0e3c 9a3d 9cf0 1d3e
00000170: 073b ff3d 60cc b73d c015 f43d b446 c13d
00000180: b4c6 7d3d 9880 b93d 866b ae3d 6aef 933d
00000190: 6c7f 5d41 1130 363f 8c66 bf3f d232 8b3e
000001a0: c7f6 c23e 7358 0740 e6e5 1249 b1a9 d447
000001b0: 60f3 4c48 0376 1641 07ce 6449 6a43 6545
000001c0: 186b b440 e907 1f48 95e1 d846 fceb 5947
000001d0: abb3 2c40 c604 5448 343a 7944 7a4e 8e40
000001e0: 5e08 0848 e4c4 b146 f329 6547 1b61 0040
000001f0: ff5b 5f48 a9e6 3d44 e0b3 4d3e
0.05367167 0.097522005 0.053058676 0.027099855 0.07314646 0.14881442 0.037603583 0.112283945
0.09864686 0.14628053 0.08141331 0.07274585 0.04057164 0.06955109 0.13685955 0.0710336
0.07669445 0.049755663 0.12438673 0.053701732 0.2479386 0.27166784 0.16110547 0.07547059
0.041822243 0.057675306 0.10840015 0.13847953 0.060818065 0.115347624 0.059927914 0.087065384
0.06468991 0.044699565 0.14198488 0.19445913 0.104094 0.16527301 0.10372102 0.025689263
0.25837386 0.06508873 0.1565443 0.08344578 0.09338858 0.15147384 0.16426891 0.17446262
0.12912938 0.15929131 0.08211389 0.07100741 0.107697725 0.061185755 0.0768133 0.14794245
0.1275666 0.05303353 0.07879994 0.05162108 0.07251849 0.1507107 0.09209576 0.06283331
0.038839713 0.05995152 0.13230667 0.078969575 0.0065380437 0.1074149 0.057356145 0.075687736
0.08477328 0.083337866 0.15276435 0.05276981 0.049204137 0.004346588 0.056283165 0.06683965
0.0888356 0.16878276 0.09458206 0.16325434 0.11668372 0.08998185 0.057577964 0.09320508
0.051325545 0.082813285 0.07530986 0.15423816 0.124624304 0.08974528 0.11918211 0.09437314
0.061957076 0.090577304 0.08516602 0.07223399 13.843609 0.71167094 1.495317 0.2718721
0.380789 2.1147735 601694.4 108883.38 209869.5 9.403811 937184.44 3668.2134
5.638073 162847.64 27760.791 55787.984 2.698466 217107.1 996.9094 4.4470797
139297.47 22754.445 58665.95 2.0059268 228719.98 759.60406 0.20088148
