scripts/modelling/stored_models/cnn_model.pt (torch, 116245 bytes, 21 tensors)

cdr1a_conv.weight f4 [30, 20, 3]
000000 66 ff 00 bd ff 83 04 be b2 10 83 3e f6 48 0b 3b
       -0.031493567 -0.12940978 0.25598675 0.0021253205
000010 71 45 c3 3b 78 2a 89 b7 bc c7 71 3d 95 ce 4d 3e
       0.005959206 -1.6351449e-05 0.059028372 0.20098336
000020 04 24 93 be a7 6d 1e be c2 f5 0c be 62 09 2c 3d
       -0.28738415 -0.15471517 -0.13765624 0.042001136
000030 84 d8 35 3e 19 de 59 be 5a 35 e5 3d a0 e9 50 be
       0.17758375 -0.2127613 0.11191817 -0.20401621
000040 e7 5a c4 bd e3 66 61 3e c8 04 e6 3c d3 55 97 3e
       -0.09587651 0.22011904 0.028078452 0.29557666
000050 69 07 aa 3d 89 74 11 3d ca 38 a4 ba 49 07 d3 bd
       0.083021946 0.035511527 -0.0012529131 -0.10304124
000060 43 e9 c3 bd c5 72 0c be b2 63 9c 3e b7 d3 f7 3d
       -0.095659755 -0.13715656 0.3054481 0.12100928
000070 19 3e 28 be 83 32 4e bd d7 63 39 3e 6f ea a3 3c
       -0.16429938 -0.05034114 0.18104492 0.020009248
000080 b6 74 74 3e 8b 48 8a bd d9 ee 45 3e d2 87 ac 3d
       0.23872647 -0.06752118 0.19329394 0.08424343
000090 0c 6d 0d be a6 41 1a 3e 81 12 a6 bd 9f f7 6b 3e
       -0.1381113 0.15064105 -0.08108998 0.23043679
0000a0 42 73 4d 3d 32 77 f1 bd 32 e3 72 3d 48 80 d9 3e
       0.050158747 -0.11790313 0.0592987 0.42480683
0000b0 d3 8f a9 bd 5d c0 86 be 9e 07 38 bd a1 24 04 3e
       -0.082793854 -0.26318637 -0.04492914 0.12904598
0000c0 66 44 3c 3d 31 dd 8f 3e dc f1 b5 3d a9 6c a3 3e
       0.045963667 0.28098443 0.08884022 0.3191884
0000d0 80 8b 89 3d f6 f8 5a bd 7f e5 26 bd 70 72 93 bd
       0.06716061 -0.053460084 -0.04074621 -0.071995616
0000e0 ea 7e 6b 3e dd ae ca 3d 3e 4e ca 3d 65 42 8d bd
       0.22997633 0.09896634 0.09878205 -0.068974294
0000f0 76 40 c7 3d 35 4b 77 3e b3 47 48 3d 49 96 0e 3b
       0.09729092 0.24149783 0.048896503 0.0021757057
000100 d8 8d 89 bb 32 a7 e8 3c 70 01 14 3e a6 29 3e 3c
       -0.0041978173 0.028400037 0.14453673 0.011606609
000110 a0 29 da bd df 09 e9 3c 1a 1f 60 3c 45 6a 9d 3c
       -0.106524706 0.02844709 0.01367929 0.019215712
000120 87 68 dd bd 89 0c 72 bd b4 a3 d8 bd 31 9f 6f bd
       -0.10810953 -0.059093986 -0.10578099 -0.058501426
000130 ae fd 87 3e 31 01 65 3e 60 b8 a5 3d a6 3b 5c bd
       0.2656073 0.22363736 0.08091807 -0.053767823
000140 3b 2f e2 bc 8a fd 93 3d bb 7b d2 3d 5a 0a 5a bd
       -0.027610412 0.07226093 0.10277506 -0.05323253
000150 db e6 07 be e5 6f f3 3d 3c a6 d0 3d a3 fc 81 bd
       -0.13271658 0.118865766 0.10187957 -0.06347015
000160 b9 a4 3c 3b 10 91 80 3e 6d ad 72 3e 13 99 a0 3e
       0.0028784706 0.25110674 0.23698969 0.31366786
000170 72 39 aa ba 3e a4 f9 3c ff a4 81 3e 93 fd 46 3c
       -0.0012987091 0.030473825 0.25321195 0.012145418
000180 4b 8c 89 3e c4 53 b2 3e 5f bf cc 3d 45 39 d1 bd
       0.26864848 0.34829533 0.09997439 -0.102160014
000190 b1 90 b3 bc 77 5f 2e 3e fc 0e 50 be 2f e0 1a be
       -0.02191958 0.17028604 -0.20318216 -0.15124582
0001a0 c8 a8 61 bd e0 72 82 bd ba e5 48 3d c2 87 4d 3e
       -0.055092603 -0.06369567 0.04904721 0.20071319
0001b0 dc 06 89 3e 82 8b 50 3e 28 20 0f 3e b0 d3 f8 bd
       0.26763046 0.20365718 0.1397711 -0.12149751
0001c0 60 6f d7 bd c4 92 4f 3e 28 bb 10 3e 87 fb a0 bc
       -0.1051929 0.2027083 0.14133894 -0.019651188
0001d0 1f 22 0f bd cc 56 de bd 46 6e 6f 3e 6c 5a 8c 3c
       -0.03494465 -0.10856399 0.2338191 0.01713296
0001e0 97 e1 a4 bd a6 56 d2 3d 37 ac f9 3d 8f 1e b1 3d
       -0.0805084 0.10270433 0.121910505 0.08648407
0001f0 7b eb e0 3b 3b 15 f3 bc e5 d0 72 3e 48 05 68 be
       0.006864009 -0.02967321 0.237125 -0.22658265
000200 e3 45 66 be 4d 7a a8 bd 11 69 15 be b8 10 c5 3e
       -0.22487597 -0.08226452 -0.14590861 0.38489318
000210 5d ad 5b be 72 fc 54 3d fd 91 80 3e b7 e4 17 3d
       -0.21452852 0.051998563 0.2511138 0.037083354
000220 3e fb ce bc d5 0c 1d be 9f f2 fa bd ae a4 6e 3e
       -0.025266286 -0.15336926 -0.122533076 0.23305008
000230 40 62 7d 38 e9 06 f6 3d 3d cd 85 bd b7 84 c5 bd
       6.0411403e-05 0.12013037 -0.06533287 -0.09644454
000240 35 ee 86 bd 21 5f b4 3e c9 56 c9 bd d0 0f d2 bd
       -0.06588403 0.35228828 -0.09831006 -0.10256922
000250 2d 92 28 bd 13 64 aa 3e a1 50 94 3d f7 8b 7a 3e
       -0.04115503 0.33279476 0.07241941 0.24467455
000260 ce 74 2c 3e 2c e5 11 bd 2c 50 4b be ed 62 26 bd
       0.16841432 -0.035618946 -0.19854802 -0.040621687
000270 7d 02 c9 3d 58 2f c4 3b a3 99 8a bd bb 17 a0 bd
       0.09814928 0.005987089 -0.06767585 -0.07817026
000280 d3 39 cd bd 9e 30 6f be 98 8f 53 bd 3a 76 92 3d
       -0.10020795 -0.2335839 -0.051650614 0.07151456
000290 51 21 af 3d 18 1d 92 be 43 04 c6 bd 46 53 46 be
       0.085512765 -0.28537822 -0.096687816 -0.19367704
0002a0 27 8d 0b be 72 f7 f7 3d 82 5d f7 3d c1 3f d4 3d
       -0.13628064 0.12107743 0.12078382 0.103637226
0002b0 ae 1c 90 3e d7 bb 40 3d db 57 d8 3e 60 32 ee 3b
       0.2814688 0.047054138 0.42254528 0.0072691888
0002c0 bf f0 59 3c 3b 1f 0e 3d 43 11 2f be 0d d3 22 3e
       0.013302027 0.034697752 -0.17096429 0.15900822
0002d0 d2 59 59 3e 7c 56 18 be 3d 78 30 be bd 3a 88 3d
       0.2122567 -0.14876741 -0.17233367 0.066518284
0002e0 01 a1 18 3b 9a 86 00 bb a8 72 ac bd ba cb 88 bd
       0.0023289325 -0.0019611479 -0.084203064 -0.06679483
0002f0 5c a9 9c bd 48 a0 ea bc 03 00 c6 bd 1c 04 6a 3e
       -0.0764949 -0.028640881 -0.09667971 0.2285313
000300 30 2c 1f be bc d0 a9 bd 5f ed 61 3d 01 48 23 be
       -0.155442 -0.08291766 0.055158015 -0.15945436
000310 93 9d 17 be 72 17 87 3e 54 10 8f 3e a0 12 9e bc
       -0.14806204 0.26385075 0.27942145 -0.01929599
000320 33 dc 97 bc 1d cd 6d 3d 2a a2 e6 bb 42 a6 f9 3c
       -0.018537616 0.05805694 -0.0070383744 0.030474786
000330 e4 11 37 3d d1 4d af 3e 58 fb 13 bd d8 6e 02 be
       0.044694796 0.34239057 -0.036128372 -0.12737596
000340 38 92 de bd bc d6 56 be 10 d5 55 bd 8d 40 61 3e
       -0.10867733 -0.20980352 -0.052205145 0.2199728
000350 46 f9 01 be e4 a7 2e 3d b4 0a 68 3e 4a ab a3 bd
       -0.12692747 0.04264058 0.22660333 -0.07991655
000360 db 0f 0c 3e 90 1c 55 bc 8a 88 8c 3d 09 ed 38 3e
       0.13677923 -0.013007298 0.0686198 0.18059172
000370 6c d2 fe bd 1f 0c 48 3e 6a 37 53 be 38 47 d3 3d
       -0.124424785 0.19535874 -0.20626608 0.10316318
000380 c9 0d 53 3e ae f6 40 3e 3c 26 58 be f9 02 a8 3d
       0.20610727 0.18844101 -0.21108335 0.08203692
000390 e1 47 15 be 88 23 09 3e 3d b2 65 3d df 6f d8 bd
       -0.14578201 0.1339246 0.056078184 -0.10568213
0003a0 99 37 85 3e b0 86 66 3e ab 11 c8 3d 71 84 40 be
       0.2601898 0.22512317 0.09768995 -0.18800522
0003b0 e9 e8 d6 3d b6 92 25 be 4b 3e 52 3e 6c 07 97 3e
       0.10493643 -0.16169247 0.20531575 0.2949785
0003c0 47 f9 e5 3d ea 73 32 3e 21 f3 1a 3e a2 34 3c 35
       0.112291865 0.1742703 0.15131809 7.011205e-07
0003d0 a7 91 4e 3e d0 7e 81 bd 88 74 88 3c 46 65 17 3d
       0.2017275 -0.06323016 0.016657129 0.036961816
0003e0 dd f1 3f 3d 5f 56 4e be 60 fd 0f be 7c e5 2e be
       0.04686152 -0.20150135 -0.14061499 -0.17079729
0003f0 3a 88 22 3c e5 40 51 3d 3c 26 06 3d ed 8e ae 3d
       0.009920174 0.05108728 0.032751307 0.08523355

cdr1a_conv.bias f4 [30]
000000 1b bc 67 3d f9 d0 a6 bd be 78 83 bb 6b bf f3 ba
       0.056575876 -0.08145327 -0.0040121963 -0.0018596476
000010 aa 03 72 3b 90 c8 c1 bc 70 d3 c4 3c 44 00 96 bb
       0.0036928453 -0.023655206 0.024026603 -0.0045776684
000020 a5 a0 34 3d db 55 87 bd 32 30 75 3c 0a 7a 3b 3d
       0.044098515 -0.066081725 0.014965104 0.045770682
000030 62 b0 1b 3d 26 1a 03 bd dc f2 71 3d 1d 1b c1 3d
       0.03801001 -0.03200736 0.0590695 0.094289996
000040 c8 fa 42 bb 6f ad a0 bc ac 8d 4e 3d 3f 04 4b 3d
       -0.0029751528 -0.01961395 0.050428078 0.049564596
000050 de 5d dd bc af 88 9a 3d 31 ee 64 bd 7a d8 ac bd
       -0.027022298 0.075456016 -0.05589122 -0.08439727
000060 f7 46 3b 3d a2 c7 56 3b 60 b6 0a 3d 35 71 bf 3c
       0.045721974 0.00327728 0.033865333 0.023369411
000070 20 27 7d 3d 9d 31 72 bc
       0.06180489 -0.014782337

cdr2a_conv.weight f4 [30, 20, 3]
000000 95 85 8a 3e 6d 85 a0 3e 46 66 87 be d3 d3 98 3e
       0.2705504 0.31351796 -0.26445216 0.2984911
000010 cc 55 d1 3d ad f0 80 3e a0 1e 94 be 74 d7 13 be
       0.102214426 0.2518362 -0.28929615 -0.14437658
000020 ba 5d 05 be b4 53 c8 bd b0 81 d0 bd 6d d6 84 3e
       -0.13024035 -0.0978159 -0.10180986 0.25944844
000030 50 23 93 be 66 29 01 3e 60 da 67 3c c0 c2 c7 bc
       -0.2873788 0.12613449 0.014151186 -0.024384856
000040 3e cd 01 be 4a 6e 69 3e 82 29 75 be 7a 65 79 be
       -0.1267595 0.22795978 -0.23941615 -0.24355116
000050 58 a6 c8 3d 88 b4 6b bd e3 dc 9c 3e 16 ec 45 3e
       0.097973526 -0.057545215 0.30637273 0.19328341
000060 7f aa 97 3e ea ff 68 3e c1 c5 a0 3e 4d 20 15 be
       0.29622266 0.22753873 0.31400874 -0.14563103
000070 7e 8f 3c 3e ad e5 99 3e c0 68 3e 3c 0d 76 1f be
       0.18414113 0.3005804 0.011621654 -0.15572377
000080 c0 c6 19 be 18 9f 33 be f0 92 b5 bc fe e5 70 3e
       -0.15017223 -0.17541158 -0.022164792 0.23525235
000090 fc 6c ac 3d f8 41 d6 3d 00 c1 1e 3d 00 28 42 3c
       0.084192246 0.10461801 0.038758278 0.011850357
0000a0 18 c2 dc 3d 55 08 82 3e 7a 24 33 3e da 2d 49 be
       0.10779208 0.25396982 0.17494383 -0.19646397
0000b0 8c 51 84 bd ac 36 50 be 30 f5 8d be 30 d5 ef 3c
       -0.06460866 -0.20333356 -0.27726126 0.02927646
0000c0 48 04 da bd 68 67 16 bd 4b 56 85 3e fe 70 71 be
       -0.10645348 -0.03671971 0.260424 -0.2357826
0000d0 96 a1 4b be ba ff 80 be c4 e2 92 be e0 ea c1 bd
       -0.19885859 -0.25195104 -0.28688633 -0.09468627
0000e0 08 1e 8f bd 56 dd 6c be e0 7b b9 3c 28 5d 26 3e
       -0.0698815 -0.23131308 0.022642076 0.16246474
0000f0 64 0a 09 3e e8 67 2f be 54 6d 45 be 9a 8d 2c 3e
       0.1338287 -0.17129481 -0.19279987 0.16850892
000100 8f 0e 01 be 54 54 13 be 20 a3 5d be 80 13 4e 3d
       -0.1260321 -0.14387637 -0.21644258 0.050311565
000110 5c 6f 1a be 5f 40 a0 3e 62 49 4a 3e 38 ca 99 3d
       -0.15081543 0.3129911 0.19754556 0.07509273
000120 8c 30 f3 3d 7e 19 a1 bd c1 2d 46 be 30 be fa 3c
       0.11874494 -0.078661904 -0.19353391 0.030608267
000130 00 89 1a 3d ca d9 41 be e8 e1 73 bd 0e ab 3d be
       0.03772831 -0.18930736 -0.059541613 -0.18522283
000140 07 eb 19 be 16 5b 47 3e 72 56 00 3e 10 57 97 be
       -0.15031062 0.1946834 0.12532976 -0.2955861
000150 50 6e 68 be f3 3b 97 3e c0 bc ef 3b ee f0 c2 bd
       -0.22698331 0.29537925 0.007316202 -0.0951861
000160 74 d3 9d 3d f0 1a 32 3e 30 95 f6 3d da bc 70 3e
       0.07706347 0.17393088 0.12040174 0.23509541
000170 6a b9 2b 3e d2 91 94 be ea 6e 6c 3e 8d 37 9a 3e
       0.16769949 -0.29017502 0.23089185 0.30120507
000180 40 18 ab 3d dc 44 2b be 90 94 1f 3e 9f d2 9a be
       0.08354235 -0.16725487 0.15584016 -0.30238816
000190 23 7f 9d 3e 4b f1 93 3e aa c4 44 3e 5c 97 ac 3d
       0.3076106 0.2889503 0.19215646 0.08427307
0001a0 e7 a2 89 be 00 98 d1 3c 72 52 5e be f6 ae 14 be
       -0.26882097 0.025585175 -0.21711138 -0.14519867
0001b0 aa ba 54 3e a0 99 34 be 44 d5 f3 3d d4 3c e1 3d
       0.20774332 -0.17636728 0.119059116 0.1099793
0001c0 28 cd 7b bd d4 c9 76 be ad cd 9b be b0 cc 11 bd
       -0.06147495 -0.24100429 -0.30430356 -0.035595596
0001d0 0d c1 2d be ea 91 60 3e dc 44 43 be d0 01 7b bd
       -0.16968174 0.21930662 -0.19069237 -0.061281025
0001e0 22 76 62 3e f6 4e 78 be 14 73 8b 3d 6e 43 4e 3e
       0.22115377 -0.24248871 0.06809059 0.2014291
0001f0 49 3c 97 3e ee fa 3b be 08 b1 78 3d 70 09 ce 3c
       0.2953818 -0.18357441 0.060715705 0.025150985
000200 80 6e 01 3d fa 2f 99 bd 27 61 0c be 14 b7 8c 3d
       0.03159952 -0.07479854 -0.13708936 0.06870857
000210 b2 d5 09 3e 08 b0 fc 3d b2 a1 18 be 00 e5 7b 3b
       0.13460425 0.12338263 -0.14905432 0.0038436055
000220 28 bf b6 3d 00 2f 87 3c 6c 75 d2 bd 84 e9 d1 3d
       0.08923179 0.016501904 -0.10276303 0.10249618
000230 7c f5 90 bd 50 f2 10 3e ea f9 1d be aa 33 74 3e
       -0.070780724 0.14154935 -0.15427366 0.23847833
000240 92 61 2f 3e 18 08 6f 3d 5b e0 58 be 6c fc d6 3d
       0.17127064 0.05835733 -0.21179335 0.104973644
000250 b8 3e 93 be 46 68 12 3e 9b ba 89 be 00 89 22 3b
       -0.28758788 0.1429759 -0.2690018 0.0024800897
000260 66 cf 82 be a8 9b 54 bd f9 99 29 be 45 90 a1 be
       -0.25548857 -0.051906258 -0.16562642 -0.3155538
000270 20 ed e6 3c 7d 0c 91 3e 40 57 4f 3c c0 0d 94 3d
       0.028189242 0.2832984 0.012655079 0.07229185
000280 cc 86 03 be aa 5d 65 be 00 81 b3 3a 2a 63 5e 3e
       -0.1284439 -0.22399011 0.0013695061 0.21717516
000290 f7 24 8b 3e 67 90 90 3e 7f 2f 91 3e e8 2b 8a 3d
       0.2717664 0.2823517 0.2835655 0.06746656
0002a0 3a 2a 93 bd 9d db 23 be 76 9f 79 3e 16 f8 4d be
       -0.071857885 -0.16001745 0.24377236 -0.20114169
0002b0 b4 3f 1b 3e 20 1b 80 bd 25 d7 99 3e 2b 69 9a be
       0.1516102 -0.06255174 0.30046955 -0.30158362
0002c0 2a 5f 6b be 6a 19 cd bd 30 d2 b7 3d 10 1a 87 be
       -0.22985521 -0.10014613 0.08975637 -0.26387072
0002d0 86 a3 18 be a6 23 57 3e 82 72 00 3e f0 db fb bd
       -0.14906129 0.21009693 0.12543681 -0.12297809
0002e0 34 bf d6 3d b9 4f 72 be b0 d1 d6 bc 10 da 73 bd
       0.10485688 -0.23663224 -0.026223034 -0.059534132
0002f0 46 38 1f 3e a8 d9 4a be 2c 7a 02 3e 94 e8 7d be
       0.1554881 -0.19809592 0.12741917 -0.24795753
000300 b0 dd 91 be dc 1b 66 be 2e 1a 73 3e d8 33 64 3d
       -0.28489447 -0.22471565 0.23740456 0.055713505
000310 e0 de 11 bc 10 5c 81 3c 9c 1f 0f be 58 0b 8a be
       -0.008903235 0.01579097 -0.13976902 -0.2696178
000320 b4 8c 87 be 10 10 49 3d c9 22 80 3e 08 3a 9e 3d
       -0.26474535 0.049087584 0.2502654 0.07725912
000330 68 9b 0d 3d 5f 58 96 be 52 a0 90 bd 80 0a 47 3d
       0.034572035 -0.29364297 -0.07061829 0.048593998
000340 d3 42 82 3e a0 9a 56 be e1 b2 a0 3e c0 d9 84 bb
       0.25441608 -0.20957422 0.31386474 -0.004054278
000350 4d d4 35 be 83 b2 91 be 20 86 06 bc ca dc b5 bd
       -0.17756768 -0.28456506 -0.008210689 -0.08880003
000360 04 e8 94 be 65 28 8e 3e 55 56 8f be 20 10 49 bd
       -0.29083264 0.27765194 -0.27995554 -0.049087644
000370 00 51 79 3d d2 61 64 3e 25 9a 18 be 8e 67 7d 3e
       0.060868263 0.2230294 -0.14902551 0.24746534
000380 9a a7 e8 bd 47 8c 9c 3e 22 f0 6c be 22 39 7f 3e
       -0.113600925 0.30575773 -0.23138478 0.24924138
000390 f3 40 87 3e e1 da 81 3e 4c 05 07 be 54 b5 e7 3d
       0.2641674 0.25362304 -0.13185614 0.113138825
0003a0 be 02 4c 3e 80 9c 9b bb d2 f2 50 3e 56 2d d7 bd
       0.19922921 -0.004748881 0.20405129 -0.10506694
0003b0 21 8a 80 be c8 b6 03 bd e0 9d 5c be c8 83 15 3e
       -0.25105384 -0.032156736 -0.215446 0.14601052
0003c0 79 5f 06 be 72 4b 6b 3e fb 1b 23 be 80 d2 12 3c
       -0.13122357 0.22977999 -0.15928642 0.00896132
0003d0 8d 41 9b 3e 98 5a c6 3d 59 ba 63 be 00 aa ed bb
       0.3032345 0.09685248 -0.22239055 -0.0072529316
0003e0 e0 c6 da 3c 66 98 51 be 16 b2 c0 bd 30 59 d4 3d
       0.02670616 -0.20468292 -0.09408967 0.10368574
0003f0 8a 09 77 3e a6 6f a1 be 40 7f f9 bb ce 3a e5 bd
       0.24124733 -0.31530493 -0.0076140463 -0.11192857

cdr2a_conv.bias f4 [30]
000000 40 f7 69 3b 38 3e d7 3d 14 95 ba bc e2 cd 80 3d
       0.003570035 0.10509914 -0.022776164 0.06289269
000010 b4 c4 4c 3d 78 82 6d 3d 28 46 1f 3d 20 62 af bd
       0.04999228 0.057985753 0.038885266 -0.08563638
000020 c0 c1 ed bb 39 50 02 be 30 e0 f7 bc 92 be b6 3d
       -0.007255763 -0.12725915 -0.030258268 0.08923067
000030 aa 2e c6 3d a0 18 2c bd 52 d8 cd bd 06 a8 dc 3d
       0.09676869 -0.04201567 -0.100510255 0.107742354
000040 34 ec 25 3d 75 2f e8 bd 38 f4 b3 bd b0 5c 12 3c
       0.040508464 -0.11337177 -0.087868154 0.008933231
000050 98 fa 39 bc 60 05 f0 3b 64 bc 8f bd e0 2f aa 3c
       -0.01135125 0.0073248595 -0.070183545 0.020774782
000060 82 b4 a8 bd 66 b9 d2 bd 80 5f f0 ba 20 a1 52 3d
       -0.08237554 -0.10289268 -0.0018339008 0.051423192
000070 b0 1e 27 bd 40 8d 45 3b
       -0.04080075 0.0030144006

cdr3a_conv.weight f4 [30, 20, 3]
000000 f8 22 c8 3d 4d dc 49 be 60 5f d6 bc 46 55 7a 3e
       0.09772295 -0.19712944 -0.026168525 0.24446592
000010 c2 40 bc bd 88 80 a2 bd 50 94 66 3d 40 74 97 bb
       -0.09192039 -0.07934672 0.056293786 -0.0046220124
000020 c6 3c 12 3e d2 58 65 3e e4 60 0f 3e 2a ba 96 be
       0.14280996 0.22397164 0.14001805 -0.29438907
000030 24 22 88 3d c4 1b 5e be f8 31 6d be 2a f6 09 be
       0.06647137 -0.21690279 -0.23163593 -0.1347281
000040 88 fd d1 3d ad 3d 0e be c6 34 a1 bd 57 de 95 be
       0.102534354 -0.13890715 -0.07871394 -0.29271194
000050 c0 51 8e be 70 ff 0b 3e 28 41 8c bd 80 cc f4 3d
       -0.27796745 0.1367166 -0.06848365 0.11953068
000060 de 88 c7 bd 40 18 f0 bc ca 99 df bd 60 27 2d bc
       -0.09742902 -0.029308438 -0.10918005 -0.01056847
000070 c0 ae 8f 3d 10 b7 c9 bc 10 ad ee 3c b0 3b 14 3e
       0.07015753 -0.024623424 0.029135257 0.14475894
000080 c4 63 32 be d2 00 88 be 48 05 3b bd 44 c0 8b be
       -0.1742087 -0.26563126 -0.045659333 -0.27295125
000090 6c ad a7 3d 48 b7 2c be 43 3c 9b 3e 80 b6 e7 3c
       0.081873745 -0.16866791 0.30319414 0.028285265
0000a0 d2 58 41 be af 08 8f be ec 1c 27 be ba 7d 6c be
       -0.18881539 -0.27936313 -0.16319627 -0.23094836
0000b0 3a 20 0c 3e 16 84 7e 3e bd 88 95 3e ea 6a bf bd
       0.13684168 0.24855074 0.29205886 -0.09346564
0000c0 38 88 ee 3d 38 39 f8 bd 08 16 b6 3d 36 c5 01 3e
       0.116470754 -0.121202886 0.08890921 0.12672886
0000d0 9e 61 70 3e fc 9e 30 3e c1 eb 93 3e ac 58 58 be
       0.23474738 0.17248148 0.28890803 -0.21127576
0000e0 00 21 07 3c a0 94 a0 bd 1f 59 2b be 02 98 1c 3e
       0.008247614 -0.07840848 -0.16733216 0.15292361
0000f0 e3 21 8f 3e 7c 6e 50 be 0d ee 36 be 26 c8 c7 bd
       0.2795554 -0.20354646 -0.17864247 -0.09754972
000100 e0 52 e9 bd d2 f3 0a be d8 38 23 bd f0 f9 7d 3d
       -0.1139276 -0.13569573 -0.039849132 0.062005937
000110 1f c6 0b be 54 b9 b3 3d c8 91 bb bd 39 64 8f 3e
       -0.13649796 0.08775583 -0.09158665 0.2800615
000120 bc c4 ab 3d e9 47 9c be 4e b2 95 be 96 4a ed bd
       0.083871335 -0.30523613 -0.29237598 -0.11586492
000130 80 26 77 3c 48 83 a0 3d c0 70 16 3e f0 88 6e bd
       0.015084863 0.0783754 0.14691448 -0.058236063
000140 b2 b2 3d 3e 4b 60 9c 3e 68 d0 23 be 60 84 a1 3d
       0.18525198 0.30542216 -0.1599747 0.07886577
000150 72 80 28 3e 9f d4 85 be 40 fb e3 bb 5c 86 40 be
       0.16455248 -0.2613878 -0.0069574416 -0.18801254
000160 a4 2d ef 3d 7a a5 94 be 52 d3 8d be 46 2e 5d 3e
       0.11678627 -0.290325 -0.27700287 0.21599683
000170 eb 03 8f 3e 17 72 9a be 10 c0 f0 3d 46 d9 5c 3e
       0.27932677 -0.3016517 0.11755383 0.21567258
000180 a3 4a 42 be b0 fb 3b be 68 b7 45 bd f0 8a 04 bd
       -0.18973784 -0.1835773 -0.048270613 -0.032359064
000190 38 5c 1a 3e f2 68 5d 3e 19 da 84 3e 70 60 36 3e
       0.15074241 0.21622065 0.25947645 0.17810225
0001a0 70 ca d3 3d df f8 14 be 00 8a 9e 3c 78 a5 d8 3d
       0.10341346 -0.14548062 0.019352913 0.10578436
0001b0 50 91 8e be 08 1a 5d bd f0 85 3e 3d 3a b3 32 3e
       -0.2784524 -0.053979903 0.04651445 0.17451182
0001c0 00 88 ba 3c 8c 9c 75 be a0 c4 82 bd 78 3b 96 3d
       0.022769928 -0.23985499 -0.063851595 0.073355615
0001d0 c8 7a 3a 3d ba 03 b3 bd f4 cb cb 3d a6 ce 93 be
       0.04552725 -0.08740945 0.0995101 -0.28868598
0001e0 08 68 62 bd 61 6c 01 be 67 13 80 be b9 18 12 be
       -0.055274993 -0.12639 -0.25014803 -0.14267243
0001f0 d3 3c 31 be 4f 28 94 3e 03 59 18 be 94 25 a0 3d
       -0.17308359 0.28937003 -0.14877705 0.078196675
000200 a0 ba d5 3c 02 13 44 3e 96 c6 4d 3e e8 b0 7e bd
       0.026089966 0.19147876 0.20095286 -0.06218043
000210 ca 87 34 be 32 ea c0 bd 3e cb 72 3e 30 ac ac 3c
       -0.17629924 -0.09419669 0.23710343 0.0210782
000220 e2 f8 00 3e 3c 14 d4 3d 4b 4a 85 3e ff 3e 84 3e
       0.12594941 0.10355422 0.26033244 0.25829312
000230 45 de 33 be 6a 81 1c 3e dc 36 9f 3d 8d d7 91 3e
       -0.17565258 0.15283743 0.077741355 0.28484765
000240 b4 4a 0b 3e fa 14 5e be 74 8d 91 be e3 df 8f 3e
       0.13602716 -0.2168769 -0.28428233 0.281005
000250 f0 ca b8 bc a0 45 e2 bc da 44 6c 3e 3f 5b 82 3e
       -0.022557706 -0.02762109 0.2307314 0.2546024
000260 b0 a1 ac 3d 6c 74 49 be c8 55 65 be d8 25 0e bd
       0.08429277 -0.19673318 -0.22396004 -0.03470406
000270 de e5 5c be d4 97 5b be 68 0d 2b 3d f3 16 90 3e
       -0.21572062 -0.21444637 0.041760832 0.2814251
000280 00 7a f9 3b 7a f6 00 3e d0 e7 9e 3d 0d 09 12 be
       0.0076134205 0.12594023 0.077590585 -0.14261265
000290 0d a6 88 be a0 51 66 be 74 60 82 bd 80 5d 10 3c
       -0.26689187 -0.22492075 -0.06366053 0.008811355
0002a0 2d 64 8e 3e 40 00 b3 3b 60 92 90 3d cc 1b e5 3d
       0.27810803 0.0054626763 0.07059169 0.111869425
0002b0 98 05 01 3e 20 fb 6b bd a6 09 3f 3e 92 3b 7f 3e
       0.1259979 -0.05761254 0.18656024 0.24925068
0002c0 4f a7 95 3e 80 d5 d0 3d 8c 97 f1 3d b9 74 86 3e
       0.2922921 0.10196972 0.117964834 0.26260927
0002d0 a0 ab 0a bc 54 58 04 be a0 58 98 bc 00 f5 b8 bb
       -0.00846377 -0.1292432 -0.018596947 -0.0056444407
0002e0 d0 7c 89 3c de e3 7f 3e c5 0e 9e be b5 44 a1 be
       0.016783148 0.24989268 -0.30870643 -0.31497732
0002f0 25 9e 8f 3e 9c 98 3b be 68 2a 1d 3d 74 65 09 3e
       0.28050342 -0.18319935 0.03837052 0.13417608
000300 d2 04 c7 bd 36 51 39 be bd 5c 8b 3e c8 d7 69 bd
       -0.09717716 -0.18097386 0.2721919 -0.05709055
000310 f0 c9 20 3e 90 9f 2a 3d f6 cd 9b be 90 6f bf 3d
       0.15702033 0.041656077 -0.30430573 0.09347451
000320 50 f9 81 bd fc c8 81 bd 58 a5 c1 bd ee 2f 59 3e
       -0.06346381 -0.06337163 -0.09455365 0.2120969
000330 d6 85 30 3e 06 a5 61 3e 42 a0 3d 3e 20 65 4e 3c
       0.17238554 0.22035608 0.18518165 0.012597352
000340 10 c8 2f be 84 4c b9 3d 91 27 8c 3e f4 46 c4 3d
       -0.17166162 0.09047797 0.27373937 0.09583846
000350 c0 38 88 bd 79 43 0f be d7 9c 96 be 4d ce 68 be
       -0.06651449 -0.13990583 -0.29416534 -0.22734948
000360 22 d3 29 3e 5a 8b 4a 3e ce 8b 1e be fc 0b e3 bd
       0.16584447 0.19779721 -0.15483019 -0.1108627
000370 71 3b 99 be 96 d3 72 3e 80 b5 2e 3c b1 d9 a1 be
       -0.29928163 0.23713526 0.01066339 -0.31611398
000380 85 0c 86 be 13 50 6e be 10 30 71 be 26 e1 2e 3e
       -0.26181427 -0.23272733 -0.2355349 0.17078075
000390 20 87 56 3d 48 6f 3b 3e 75 c9 80 3e c8 02 63 3d
       0.05237496 0.18304169 0.251537 0.055422574
0003a0 70 f0 41 bd 12 46 49 3e a4 8c 3a 3e 60 ad 57 bd
       -0.04734844 0.19655636 0.18217713 -0.052655578
0003b0 dc 17 b5 3d 7a cb 38 3e cf a9 6a be 62 11 c6 bd
       0.088424414 0.1804637 -0.2291634 -0.09671284
0003c0 6d 1f 2b be 0d 0f 99 3e a6 04 98 be 80 c4 8c bc
       -0.16711207 0.29894295 -0.29691046 -0.017183542
0003d0 fe 69 be bd 38 d5 13 3e e0 95 0d 3d 76 a1 40 3e
       -0.0929756 0.14436805 0.03456676 0.18811592
0003e0 60 fe 0d bc 80 21 ce 3b 6a 4f 1c 3e e2 7c 79 3e
       -0.008666605 0.0062906146 0.15264669 0.24364045
0003f0 13 85 9b 3e 14 62 17 3e 2c fe dc bd f0 33 9e bc
       0.30374965 0.14783508 -0.10790667 -0.019311875

cdr3a_conv.bias f4 [30]
000000 ea 71 a3 bd 48 4d dc bc c0 25 b2 bd 58 7b c5 3d
       -0.07980712 -0.02689232 -0.086986065 0.096426666
000010 6c 81 26 bd c4 16 79 bd 15 7c bb bd 92 e7 67 bd
       -0.04065077 -0.060812727 -0.09154526 -0.056617327
000020 3d 17 c6 bd 88 92 dd 3d f8 b9 0c 3d 75 b2 e3 bd
       -0.09672401 0.10818964 0.03435704 -0.11118022
000030 15 41 01 3e 0c ae ce bc e8 3f 32 3d 64 78 a2 bc
       0.12622483 -0.025229476 0.043517977 -0.019832797
000040 c8 e2 be bc 26 2c 93 3d 10 dc e6 3d ec 63 47 3d
       -0.023301497 0.07186155 0.11272442 0.048679277
000050 55 31 02 3e 4a 2b fe 3d 10 4e eb bb 58 01 47 bc
       0.12714131 0.124106005 -0.0071809366 -0.0121463165
000060 98 c8 23 bc a0 06 ef bc a8 bb 42 bd ce 9c d9 bd
       -0.009996556 -0.029177964 -0.047542244 -0.10625611
000070 88 a1 fd bd 98 65 52 bd
       -0.12384325 -0.05136642

cdr1b_conv.weight f4 [30, 20, 3]
000000 68 02 11 3d c0 a0 01 bd 1c bf 84 be 1c 54 fd 3d
       0.035402685 -0.031647444 -0.25927055 0.12369558
000010 a0 a7 ba bc 64 db 9b be cd 02 77 be ce b4 47 3e
       -0.022785008 -0.3044082 -0.24122162 0.19502565
000020 80 16 c6 bd d6 17 69 3e bc 7d 36 3e 90 55 c5 3d
       -0.0967226 0.22762999 0.17821401 0.096354604
000030 7c 5a fb 3d 52 ad 91 be ea 65 50 3e 10 72 43 bd
       0.12273118 -0.28452545 0.20351377 -0.0477162
000040 d9 55 13 be 54 1b 97 bd 9e ee d8 bd 8b 1d 95 3e
       -0.14388217 -0.07378259 -0.105923876 0.29124102
000050 a8 f0 e2 bd f4 53 7f be 3e 24 55 3e aa 89 18 3e
       -0.11081058 -0.2493437 0.20814607 0.14896265
000060 a4 8b af 3d ba 3b 53 3e e2 b1 3c 3e b8 26 99 be
       0.08571556 0.20628253 0.18427232 -0.29912353
000070 1c 4f e0 bd 80 37 2c 3c 70 0d 81 3d f0 34 fd 3c
       -0.10952589 0.010511279 0.06301391 0.030909032
000080 eb b5 9d 3e ab 92 8d 3e 90 6c d5 3d 00 a9 49 bc
       0.30802855 0.2765096 0.10421097 -0.012308359
000090 64 90 89 bd f6 fa 9d be 65 4d 8f 3e de 69 94 be
       -0.067169935 -0.3085553 0.27988735 -0.2898702
0000a0 33 43 41 be 52 d5 56 3e 8a df 51 3e 08 69 3a 3d
       -0.1887329 0.20979813 0.2049543 0.04551032
0000b0 f9 fb 9c be f8 17 22 3d 00 16 d0 bc a0 9e bb 3c
       -0.3066099 0.03957364 -0.025401115 0.022902787
0000c0 e8 f3 0e 3e e1 39 7b be 4c 29 02 be 5e 86 ac bd
       0.1396023 -0.24533798 -0.12711066 -0.08424066
0000d0 d4 9f 48 be 46 94 db bd 90 bc 24 bd f0 dd 20 bd
       -0.1959222 -0.1072164 -0.04021889 -0.039274156
0000e0 c8 ad 76 3d 84 8d ff 3d 54 d6 08 3e d0 9c b6 bc
       0.060224324 0.12478164 0.1336301 -0.02229157
0000f0 28 61 0c 3d 79 a5 1a be 6f 3d 95 be aa 7e 68 3e
       0.034272343 -0.15102185 -0.29148433 0.22704569
000100 c9 ce 88 3e 76 92 6d 3e 1c 70 ab 3d ee 36 78 3e
       0.26720265 0.23200402 0.083709925 0.24239704
000110 5e 56 63 be f6 af 70 be 40 aa 14 bd 00 c2 00 bc
       -0.22200915 -0.23504624 -0.036295176 -0.007858753
000120 78 89 13 3d 40 da 9e 3c 16 a2 3d 3e ea 5a 2c be
       0.036019772 0.01939118 0.18518862 -0.16831556
000130 a0 21 1d 3e 79 ad 8e be 85 87 1f be 58 41 f8 3d
       0.15344858 -0.27866724 -0.1557904 0.12121838
000140 a6 85 c5 bd ce 87 55 3e 00 08 a9 b9 36 ee 6a 3e
       -0.09644632 0.20852587 -0.00032240152 0.22942433
000150 00 2a ae 3a ee aa 4b 3e c0 54 83 3b 80 07 56 be
       0.0013287663 0.19889423 0.0040079057 -0.20901299
000160 c0 e5 e3 bd cd cc 8a be 79 7a 83 be c8 31 84 be
       -0.11127806 -0.27109376 -0.25679377 -0.2581923
000170 c8 44 09 bd b4 12 fc 3d 3f 47 88 3e aa 40 3f be
       -0.03351286 0.12308255 0.26616856 -0.18677011
000180 af 66 93 be 47 79 87 3e 33 13 97 3e f6 21 55 3e
       -0.2878928 0.26459715 0.29506835 0.20813736
000190 7e 7f 06 be 30 3d 37 be a8 4b 48 3d c2 b6 f8 bd
       -0.13134572 -0.17894435 0.048900276 -0.12144233
0001a0 68 19 d3 bd d8 13 6e bd 32 0c 14 be 68 e5 6f be
       -0.1030758 -0.058124393 -0.14457777 -0.23427355
0001b0 52 82 90 be d0 ea be 3d 74 f3 cd 3d 00 3a 62 bb
       -0.28224427 0.09322131 0.100562006 -0.0034519434
0001c0 d6 1a 6e be b8 12 84 be a1 7c 98 be fa 6d 48 3e
       -0.23252425 -0.2579553 -0.29782584 0.19573203
0001d0 cc 48 2f 3e 53 07 9e be 3e c8 6f 3e 44 17 72 be
       0.17117614 -0.30864963 0.2341623 -0.23641688
0001e0 a6 33 61 3e 38 3f 4e bd 15 26 91 be 21 6a 00 be
       0.21992359 -0.05035326 -0.28349367 -0.12540485
0001f0 c0 36 eb bd 0e 4e 5f be 00 46 d2 3a 0e e0 03 3e
       -0.11485052 -0.21807119 0.001604259 0.12878439
000200 38 2f 4c 3d 31 57 9f be 08 19 6b be bd 26 8c be
       0.04984972 -0.3112121 -0.22958767 -0.27373305
000210 69 f3 72 be 30 fa 45 3d 00 10 a9 ba 1c c4 b0 3d
       -0.23725666 0.0483343 -0.0012898445 0.08631155
000220 64 ef 05 3e ab 8a 5d be 44 d1 f4 3d 0c 54 17 be
       0.13079602 -0.21634929 0.11953977 -0.14778155
000230 e7 49 82 be dc 6b 89 3d db 10 a0 3e 08 84 cb 3d
       -0.25447008 0.06710026 0.3126286 0.09937292
000240 80 ff dd 3b 9f 93 8d 3e 58 e4 92 be 8e ec 56 3e
       0.0067748427 0.27651688 -0.28689837 0.20988676
000250 01 34 84 3e d4 28 ba bd 24 2e b7 3d 74 56 fb 3d
       0.25820926 -0.090898186 0.089443475 0.12272349
000260 00 99 4d bd c2 42 fe bd b0 e4 de bc 62 7a 91 bd
       -0.05019474 -0.12415077 -0.027208656 -0.07103421
000270 16 51 76 3e 8b 0c 9d 3e a8 f0 21 3d b6 12 c7 bd
       0.2405437 0.30673632 0.03953615 -0.09720366
000280 80 9f 19 bb aa 4a 03 3e 30 f1 06 3d d3 fa 5c be
       -0.0023441017 0.12821451 0.032944858 -0.21580057
000290 23 73 21 be 88 ef f5 3d 08 54 0f bd 84 7f 54 be
       -0.15766577 0.120085776 -0.034992248 -0.20751768
0002a0 4a 3a f8 bd 2b 24 90 3e dc cc bb bd d8 6e 2c 3e
       -0.12120493 0.28152594 -0.09169933 0.16839159
0002b0 7c 84 d1 3d 04 4d 38 be b8 7e 29 be 9e 6b 7a be
       0.102303475 -0.17998129 -0.16552246 -0.24455115
0002c0 d8 53 61 bd f5 13 81 be d0 97 97 bc d0 20 90 3c
       -0.0550116 -0.25210539 -0.018505007 0.017593771
0002d0 9e b5 7f 3e ca 1c 03 be 96 5a 90 be 60 9e 98 3d
       0.24971625 -0.12803951 -0.28194112 0.07452083
0002e0 a3 7e 3f be d0 70 59 bd 4e 0e 5b 3e e2 d7 1a be
       -0.18700652 -0.053086102 0.21392176 -0.15121415
0002f0 30 d4 53 3d cf a0 9d 3e ea 69 00 3e 15 0c 85 3e
       0.05171603 0.3078675 0.12540403 0.2598578
000300 43 8f 9d be 00 03 4f bc b8 e0 6d bd 90 f9 f3 3c
       -0.30773363 -0.012634993 -0.058075637 0.029782087
000310 be 71 19 3e 20 15 8a bd b6 41 f0 bd b4 cd 8b be
       0.14984795 -0.067423105 -0.11731283 -0.27305377
000320 20 75 47 3c b8 d9 f1 3d af 46 15 be 83 26 85 be
       0.012173921 0.11809105 -0.14577745 -0.26005945
000330 80 0f e8 3c 22 87 98 be 80 70 ae bc d6 55 66 be
       0.028327703 -0.29790598 -0.021293879 -0.22493681
000340 de 09 03 be 08 30 67 3d 00 7b bf bd 80 5c f9 bb
       -0.12796733 0.05644229 -0.09349632 -0.007609904
000350 80 6f 58 bd 00 9f fe bb 4c cd 32 3e c8 22 22 3e
       -0.05284071 -0.007770419 0.17461127 0.1583358
000360 40 1c 18 3e 2c c8 2e 3e c1 d9 9a 3e e5 51 9f 3e
       0.14854527 0.17068547 0.30244258 0.31117168
000370 fe 92 f6 bd 5a 3d 9d be f0 2d 02 bd 80 49 1a be
       -0.12039755 -0.3071087 -0.03178209 -0.150671
000380 f0 61 9d be ea d3 82 be 54 c3 cb bd ba 6e 46 3e
       -0.30738783 -0.25552303 -0.09949365 0.19378176
000390 9d 84 a0 3e b4 4c 37 be 54 a6 e7 bd 96 d4 4e 3e
       0.31351176 -0.17900354 -0.113110214 0.20198283
0003a0 cc 89 20 3e ac 2c 0b 3e 68 fa 53 be c0 34 fe 3d
       0.15677565 0.1359126 -0.20700991 0.12412405
0003b0 dc 28 f6 3d 27 3e 86 be 18 36 0b 3d 68 45 8e be
       0.12019512 -0.26219293 0.033987135 -0.27787328
0003c0 00 d8 4d 3b 90 eb c2 3d 3f fa 68 be 9a 1c 39 3e
       0.0031409264 0.09517586 -0.22751711 0.18077317
0003d0 8a fa 83 be 10 b5 96 bc 40 fe df bd 40 c0 42 3c
       -0.25777084 -0.018396884 -0.10937166 0.011886656
0003e0 92 34 2f be 2c 1f ce 3d 80 16 06 3c e0 08 94 bd
       -0.17109898 0.10064539 0.008184075 -0.07228255
0003f0 84 7d 8c bd d9 80 05 be 92 3f 59 3e f5 52 22 be
       -0.06859878 -0.13037433 0.21215656 -0.15851958

cdr1b_conv.bias f4 [30]
000000 80 59 55 3d a8 52 e1 bd 1e 4c e8 bd 08 bb 76 3d
       0.052087307 -0.110020936 -0.11342643 0.06023696
000010 6e a6 ea 3d 2e 85 92 bd 2c ed bc bc 32 b9 c8 3d
       0.11457525 -0.07154308 -0.023062311 0.09800948
000020 80 d9 ba ba 00 0a 43 bd ba 50 f6 3d 2c 2f c1 3d
       -0.0014255494 -0.04761696 0.12027116 0.094328254
000030 14 9e f3 bd 90 06 8e bb f0 51 b7 3d 4c 0c c8 bd
       -0.118953854 -0.0043342784 0.08951175 -0.097679704
000040 f2 61 db 3d 62 21 ce 3d 70 db 2f bc 86 18 a2 bd
       0.10712041 0.10064961 -0.01073347 -0.07914834
000050 d0 7b b2 3d b8 7f 62 bc 84 2b 48 3d dc 20 93 bd
       0.087150216 -0.013824396 0.048869625 -0.07184002
000060 d8 51 e4 3d 20 ad 14 3c da 31 f5 3d 5c 81 ee 3d
       0.11148423 0.009074479 0.11972399 0.11645767
000070 94 dd 8c 3d 77 c6 d3 bd
       0.068782 -0.103405885

cdr2b_conv.weight f4 [30, 20, 3]
000000 12 70 6b 3e 7e 90 30 3e 30 9f cf bd ec 16 d3 3d
       0.2299197 0.1724262 -0.101377845 0.103071064
000010 72 dc 2d 3e c8 a1 b3 bd be 75 cf bd 13 f8 91 3e
       0.16978624 -0.08771092 -0.101298794 0.28509578
000020 61 36 99 3e 40 90 21 be a9 f0 26 be e6 e9 93 be
       0.299243 -0.15777683 -0.16302742 -0.28889388
000030 02 58 9b be 14 15 d6 3d f8 51 17 3d 9e 3a 3e 3e
       -0.30340582 0.10453239 0.036943406 0.18577048
000040 c0 e6 47 3d e0 2e d9 3d 2a d6 9a bd db 50 14 be
       0.048804045 0.10604644 -0.0756038 -0.14483969
000050 f4 e7 85 3d bc 0e 33 3e a3 35 71 be 28 56 14 bd
       0.06538382 0.1748609 -0.23555617 -0.036214978
000060 a4 7f a4 3d 62 96 35 3e 24 a8 0c 3e db 3a 94 3e
       0.08032158 0.17733148 0.13736016 0.28951153
000070 b0 cb 84 3d ca d0 4d 3e ab bc 59 be 20 29 67 bc
       0.06484163 0.20099178 -0.21263377 -0.014108926
000080 59 1b 9a 3e 60 a6 39 3c b0 38 96 bc 1c 67 1c 3e
       0.3009899 0.011331171 -0.018337578 0.15273708
000090 80 67 a7 bd 80 06 bd 3d 2c 19 55 be 94 ae c0 3d
       -0.08174038 0.092297554 -0.20810384 0.09408298
0000a0 8f 56 0c be 55 1b 05 be b2 fc 43 3e 71 81 83 3e
       -0.13704894 -0.12998708 0.19139364 0.25684693
0000b0 7a 38 0c 3e 58 ae 00 be d8 cb e0 bd 09 70 98 3e
       0.13693419 -0.12566507 -0.1097638 0.29772976
0000c0 e0 5a 7f 3c f6 cd 05 be 30 ad 2a 3d b0 f6 a8 3d
       0.015585631 -0.13066849 0.04166907 0.08250177
0000d0 c0 d6 6f 3c 95 79 88 3e 54 45 ea bd 80 9d 63 bd
       0.014638603 0.2665526 -0.114390045 -0.055570126
0000e0 58 74 78 be c0 76 ab 3b 75 d1 95 3e 7a 43 6d be
       -0.24263132 0.005232662 0.29261366 -0.23170272
0000f0 38 39 08 3e f6 1b 32 be 66 47 74 3e 8c a1 83 be
       0.13303077 -0.17393479 0.23855361 -0.25709188
000100 c1 e2 8c 3e 64 98 4b be 9a 53 eb bd d6 94 93 be
       0.2751675 -0.19882351 -0.11490555 -0.2882449
000110 98 03 20 bd 40 42 66 3d f7 6d 84 3e 80 42 86 be
       -0.039065927 0.056215525 0.25865147 -0.2622261
000120 1e 00 02 be b8 f5 16 be c4 bd fa bd 2c 1d ab 3d
       -0.12695357 -0.14742172 -0.12243226 0.083551735
000130 43 32 84 3e 28 cc 0f 3e 90 6c 33 3d a6 32 38 be
       0.25819597 0.14042723 0.043804705 -0.17988071
000140 26 c7 12 3e 8c 26 4c be cb 9d 74 be 60 5e cd 3d
       0.14333782 -0.1993658 -0.23888318 0.10027766
000150 87 89 12 be 38 e4 27 bd 0a bc 26 be ab d3 03 be
       -0.14310275 -0.04098913 -0.16282669 -0.12873714
000160 e8 36 ea 3d a4 7e 99 3d 4a 15 46 3e 00 09 0c bb
       0.11436254 0.07494858 0.19344059 -0.002136767
000170 08 44 16 3d 1b e0 83 be d0 6b ef 3c b6 71 9b be
       0.036685973 -0.25756916 0.029226214 -0.30360192
000180 45 96 8b be 94 c1 32 3e 88 49 16 3d 63 2d 1f be
       -0.27263084 0.17456657 0.03669122 -0.15544657
000190 10 3d cc bd 5c 3b 07 be c8 01 5c bd 48 11 d0 3d
       -0.09972584 -0.13206238 -0.053712636 0.10159546
0001a0 72 97 58 be 25 42 0b be c6 ce 45 3e 80 5c bf bb
       -0.21151522 -0.13599451 0.19317159 -0.0058398843
0001b0 97 52 8e 3e 9e f8 1e 3e 43 49 8e be b7 61 3e be
       0.27797386 0.15524527 -0.2779027 -0.18591963
0001c0 71 ea 88 3e 1f 0f 04 be 58 fe 42 bd d6 34 30 3e
       0.26741365 -0.12896393 -0.047605842 0.17207655
0001d0 e4 86 02 3e 51 45 8e 3e 2a 33 4e 3e 68 c2 85 bd
       0.12746769 0.2778726 0.20136705 -0.06531221
0001e0 b0 c3 0a bd 2f f3 93 3e ca 9a ad bd 50 50 fc 3c
       -0.03387803 0.28896472 -0.08476789 0.030800015
0001f0 1c 9f 9e be 22 48 4e 3e a6 13 f2 bd 46 f2 00 3e
       -0.30980766 0.20144704 -0.11820154 0.1259242
000200 4a e9 71 3e d2 62 4e be d0 a7 66 bd 5d 1e 7c be
       0.23624149 -0.20154884 -0.056312382 -0.24620958
000210 3a f4 04 3e a5 b0 97 3e 2e f7 00 3e 05 30 28 be
       0.1298379 0.29626957 0.12594292 -0.16424568
000220 60 b2 21 3c 60 ff 3f 3d 2a d4 53 3e ee e7 0f 3e
       0.009869188 0.046874404 0.20686403 0.14053318
000230 20 9c 4a 3d 6e b3 80 be 47 00 85 3e ba e5 8c bd
       0.0494653 -0.25136894 0.25976774 -0.06879754
000240 f6 32 21 be 68 a5 34 be b8 2f 11 3e 26 e5 6c 3e
       -0.15742096 -0.17641222 0.1417836 0.23134288
000250 98 63 ec 3d 00 9e 3c 3b 00 04 48 3d 78 cd 1c 3e
       0.115424335 0.0028780699 0.04883194 0.15312755
000260 a0 1a 24 bd 48 4e 39 3d c2 09 60 3e 25 2d 87 be
       -0.040064454 0.04524067 0.21878722 -0.2640163
000270 48 47 52 bd 87 89 3f be 40 09 bb 3d fa 18 7f 3e
       -0.05133751 -0.18704806 0.09132624 0.24911872
000280 0e 1d 6a be 58 7a 31 3d 70 6f 02 3e 4c 39 9a 3d
       -0.22862646 0.043329567 0.12737823 0.0753046
000290 a0 91 45 3d 60 0f 7d bc b0 99 59 3d 00 53 66 bb
       0.048234582 -0.01544556 0.053125083 -0.0035144687
0002a0 b8 a2 22 bd 2a fb 5a 3e ff c2 84 3e 8b a9 00 be
       -0.039705962 0.21384874 0.2593002 -0.12564676
0002b0 50 26 08 bd 58 50 61 3d b0 06 88 3c 00 55 e1 3b
       -0.033239663 0.055008262 0.016604751 0.006876588
0002c0 72 90 67 3e b8 e4 88 3d 08 47 19 bd 9e 2b 6e be
       0.22613695 0.0668425 -0.037421256 -0.23258826
0002d0 ab 4c 60 be dd e3 91 be ed 54 99 be 10 d3 b4 3c
       -0.21904247 -0.28494158 -0.29947606 0.022073299
0002e0 71 da 02 be 24 33 37 3e ca 4c 59 3e 21 62 89 3e
       -0.12778641 0.17890602 0.21220699 0.2683268
0002f0 50 c4 f7 bc 88 ed e9 3d 80 f7 22 bb b0 63 22 bd
       -0.030244976 0.114222586 -0.002486676 -0.03964585
000300 e4 05 cb 3d bc ea 40 be 20 54 71 be 79 dd 23 be
       0.09913233 -0.18839544 -0.23567247 -0.16002454
000310 bc 51 93 bd bc 93 c0 3d f6 c0 8a be 45 e5 00 be
       -0.07193324 0.09403178 -0.27100343 -0.1258746
000320 86 4b 42 be bc 07 15 be e6 81 22 be 46 5f 62 3e
       -0.18974122 -0.14553732 -0.15869865 0.22106656
000330 2a bc 55 3e 9f 6c 3c be 5a e9 49 3e 1c de 2b 3e
       0.2087256 -0.1840081 0.19717923 0.16783947
000340 fc d4 ac bd ff 61 8c 3e 8b 85 89 be e6 c5 64 3e
       -0.08439061 0.27418515 -0.26859698 0.22341117
000350 70 88 ff bd 36 64 13 3e 24 9f 02 be 18 32 95 be
       -0.12477195 0.14393696 -0.1275602 -0.2913978
000360 f0 79 be 3c da 8b fb bd e0 89 a0 be 00 93 7f bc
       0.023251504 -0.12282534 -0.3135519 -0.015599012
000370 2e ae 24 be b6 da 87 be bc 98 8c 3d b2 03 6b be
       -0.1608207 -0.2653405 0.06865069 -0.22950628
000380 92 09 80 be 4c 2c 93 be 80 70 53 bd 40 fc 96 bb
       -0.25007302 -0.28744733 -0.05162096 -0.0046077073
000390 66 b5 65 3e 80 bc dc bd e1 ae 7f be 30 59 a7 3c
       0.2243248 -0.10778141 -0.24969055 0.02042827
0003a0 cb 30 99 be 70 8e c5 bc 10 15 fb bc 7c 87 87 bd
       -0.2992004 -0.024115771 -0.030649692 -0.066176385
0003b0 35 f6 86 3e 1d 53 9d be 06 de 65 be b0 02 ba 3d
       0.26359716 -0.30727473 -0.22447976 0.09082544
0003c0 b9 f8 87 3e e2 c3 01 3e 73 38 a1 3e ba 40 59 3e
       0.26556948 0.1267238 0.3148838 0.21216097
0003d0 66 6b 1a 3e e0 da 5b 3d 98 3c 2f be e1 91 3c be
       0.15080032 0.053675532 -0.17112958 -0.18415023
0003e0 a4 55 f2 bd de e1 38 3e 9d f6 88 be e8 34 1b 3d
       -0.11832741 0.18054911 -0.2675065 0.037892252
0003f0 0b 43 88 3e 28 7b 52 3d 2e cd 2f 3e 44 29 4c be
       0.2661365 0.051386982 0.17168114 -0.19937617

cdr2b_conv.bias f4 [30]
000000 00 05 2f ba 02 9b fc bd 00 5f 60 3b 40 73 4a 3d
       -0.0006676465 -0.12334253 0.0034236312 0.049426317
000010 d1 d4 fb bd 2c 05 b9 bd 00 74 1d 3c b0 ea 97 3d
       -0.12296451 -0.090341896 0.009610176 0.0741781
000020 68 5e 8f bd fb 41 f5 bd be 3c be bd b8 50 8d 3d
       -0.070004284 -0.119754754 -0.092889294 0.069001615
000030 ee 6e ce 3d e8 fa dc bd 79 b7 cd bd 10 06 36 bc
       0.10079752 -0.10790044 -0.1004476 -0.011109844
000040 5a 44 e5 3d ca bd 05 bd 9e 8b b4 3d cc 5d 56 3d
       0.11194678 -0.0326517 0.08815692 0.052335545
000050 e0 23 14 3c 3a e1 e2 bd 28 61 c8 3d 40 9a bb bc
       0.009041756 -0.11078115 0.09784156 -0.0229007
000060 00 fa f9 3c a1 4e 8e bd 40 cd 71 bd ec da 92 bd
       0.030514717 -0.06948591 -0.059033632 -0.07170662
000070 ac fe 00 be 00 a3 29 bc
       -0.1259715 -0.010353804

cdr3b_conv.weight f4 [30, 20, 3]
000000 a0 ff e4 3c ec e8 91 be d4 46 b6 bd 00 99 fb 3b
       0.027953923 -0.28498018 -0.08900228 0.007678151
000010 ea d0 0c 3e 94 10 ab 3d d8 08 0c 3e 5d 72 9a be
       0.1375157 0.083527714 0.13675249 -0.30165377
000020 f0 17 a9 3c 60 c1 40 bd 60 f6 6f bc 5c ab 82 be
       0.020641297 -0.047059417 -0.014646143 -0.25521362
000030 fc 46 fd 3d 50 24 27 3d 63 95 90 be e0 dc d7 3c
       0.12367055 0.040806115 -0.28238973 0.026350439
000040 34 55 01 3e bd b2 2c be 87 c7 12 be 69 b9 3b be
       0.12630159 -0.16865058 -0.14333926 -0.18332447
000050 0e 73 95 be 4e 2a 3c 3e 77 a1 95 3e 3e ae 0f 3e
       -0.29189342 0.18375513 0.2922475 0.14031312
000060 9d ed 94 3e 41 23 84 3e 7f dd 69 be 46 ab d4 bd
       0.29087535 0.25808147 -0.228384 -0.1038423
000070 cc 70 29 3e 92 62 61 3e 8e 30 4b 3e b1 50 a1 3e
       0.16546935 0.22010258 0.19842741 0.31506875
000080 50 ab 3a 3d f6 42 a4 bd 13 52 9b 3e b0 0a 13 bd
       0.045573533 -0.08020584 0.30336055 -0.035898864
000090 3e f9 74 be b3 99 94 be 74 f2 eb 3d 8d 23 8d 3e
       -0.23923203 -0.29023513 0.11520854 0.27566186
0000a0 28 8b 16 bd 9e e4 f2 bd 75 81 87 3e d8 a8 ad bd
       -0.036753803 -0.118600115 0.26465955 -0.0847947
0000b0 ce 86 87 be 58 1b 6e 3d 85 47 26 be 08 6f ba 3d
       -0.26470035 0.058131546 -0.1623822 0.09103209
0000c0 f1 3f 8a 3e e5 61 93 3e 7d df 8a 3e c4 0e ac 3d
       0.27001908 0.28785625 0.27123633 0.08401254
0000d0 f9 c3 86 3e 53 f8 90 3e 3c f6 c6 bd 06 51 88 be
       0.2632139 0.28314456 -0.09714934 -0.26624316
0000e0 52 78 7d 3e ad 40 9b 3e a8 c6 86 bd 64 0a 45 be
       0.2475293 0.3032278 -0.065808594 -0.19242245
0000f0 e9 21 13 be 40 c8 e1 3c c0 b1 3a 3d c0 09 a1 bc
       -0.14368404 0.027561307 0.04557967 -0.01965797
000100 cc 84 53 be 4c 1a 20 3e ce ff 73 3e ec 85 ad 3d
       -0.20656127 0.15635031 0.2382805 0.08472809
000110 c6 af e0 bd 84 5a fe 3d 10 65 e9 3d 58 37 90 be
       -0.10971026 0.12419608 0.11396229 -0.28167224
000120 3a 9c 76 be ec 2a ed bd 40 6e 36 3c 78 8c 9d be
       -0.24083033 -0.11580452 0.011134684 -0.30771232
000130 5e 81 8c bd 62 70 75 be 96 e7 4c 3e 86 0e 60 3e
       -0.06860612 -0.23968652 0.20010218 0.2188054
000140 0f 94 2d be 60 00 b1 bc 74 6c a1 3d 88 33 5e 3d
       -0.16951011 -0.021606624 0.07882014 0.054248363
000150 38 25 b7 3d e8 22 3a bd 6a 53 93 be c8 51 ae 3d
       0.08942646 -0.045443445 -0.28774577 0.08511692
000160 f6 bc d1 bd 06 65 1d 3e 1e 4f 76 3e 00 b7 bd bb
       -0.102411196 0.15370569 0.24053618 -0.0057896376
000170 0c 95 df 3d d0 10 86 3c 30 8a b6 3c a6 bc 34 3e
       0.109171 0.016365439 0.02228269 0.17650089
000180 80 25 76 bc 32 04 5a 3e a0 02 86 bd 00 90 25 3d
       -0.015023589 0.21290663 -0.065434694 0.040420532
000190 55 5b 82 be c0 49 a5 bb d6 33 47 3e 10 09 6e bd
       -0.25460306 -0.005044192 0.19453368 -0.05811411
0001a0 20 a4 b9 bc 94 bb 8b be 7d 45 98 3e a0 04 33 3e
       -0.022661269 -0.27291548 0.29740515 0.17482233
0001b0 56 c1 7b 3e 23 78 0f be ba 58 ec bd 52 87 4b 3e
       0.2458547 -0.14010672 -0.11540361 0.1987584
0001c0 97 2b 9d be 98 72 36 be 70 09 df bc 3a e5 5c 3e
       -0.3069732 -0.17817152 -0.02722618 0.21571818
0001d0 4b d0 8e be b0 2a ae bc 7b 4a 89 3e 90 4f 1b be
       -0.2789329 -0.02126059 0.26814637 -0.1516707
0001e0 a0 36 0b bd 4d 99 87 be 7c 19 e3 bd 2c 12 8c be
       -0.03398764 -0.26484147 -0.11088845 -0.27357614
0001f0 00 9a 65 3a 80 af 48 3c 5c 92 2b 3e 40 91 9a be
       0.00087586045 0.012248874 0.1675505 -0.30188942
000200 8b cf 86 3e 1a 4d 5d be 72 a2 a0 be 1d 65 86 3e
       0.26330218 -0.21611443 -0.31373936 0.26249018
000210 ec 5f f3 bd 54 83 71 be 30 af 80 be e5 54 85 be
       -0.1188353 -0.23585254 -0.25133657 -0.26041332
000220 c0 90 df bb da 96 18 3e b2 92 87 be fa 9c 46 be
       -0.0068226755 0.14901295 -0.26479107 -0.1939582
000230 55 8e 8e 3e 6a a0 4a 3e b3 12 89 be ac ee 0f 3e
       0.27842966 0.19787756 -0.2677208 0.1405589
000240 47 a0 88 3e 18 a7 83 be 1a aa 96 be f0 cd 5d bd
       0.26684782 -0.2571342 -0.29426652 -0.054151475
000250 d1 20 94 3e 4b c5 85 3e 80 4d 8a bb fc 06 31 be
       0.28931287 0.26127085 -0.0042206645 -0.1728782
000260 01 37 16 be b7 e2 83 3e d0 be 2c be 34 f5 6c be
       -0.1466942 0.25758907 -0.16869664 -0.23140413
000270 0b ee 8f 3e 7c 45 eb 3d 38 ed 34 bd ef 49 96 3e
       0.281113 0.114878625 -0.044171542 0.29353282
000280 fc 9f ba bd f0 36 1e 3e c0 3b 3e bc 60 32 7b bc
       -0.09112546 0.15450644 -0.011610925 -0.015331835
000290 4d a1 85 3e 64 a7 39 3e f8 94 15 be 08 12 60 bd
       0.26099625 0.1813026 -0.14607608 -0.054704696
0002a0 e6 f3 27 3e 80 60 72 be 56 bb 2e 3e cc 63 19 3e
       0.16401634 -0.23669624 0.1706365 0.14979476
0002b0 16 3f bb bd 40 3d 15 3c fe 33 96 be f4 49 91 be
       -0.09142892 0.009108841 -0.29336542 -0.28376734
0002c0 4a c2 d6 bd 36 75 49 3e e0 2b 66 3c 9a ac e8 bd
       -0.104862764 0.19673619 0.014048547 -0.11361046
0002d0 9c ae e6 bd 94 ab 30 3e 90 56 93 bd bc 3e 82 bd
       -0.11263773 0.17252952 -0.07194245 -0.06359622
0002e0 3a 0f f0 bd d2 d9 97 bd ad 77 3b be 80 0a f0 3c
       -0.11721654 -0.07414593 -0.18307371 0.029301882
0002f0 60 eb 46 be cf 8a 8b 3e 3d 70 07 be 44 8b 20 3e
       -0.19425726 0.2725434 -0.1322641 0.15678126
000300 88 ad 0e 3d 00 c2 16 3a 6e 35 65 3e c0 26 1a bc
       0.03483346 0.0005750954 0.22383663 -0.009408653
000310 44 d4 2d 3e 6a 12 e4 bd 28 21 4b 3d 18 49 76 bd
       0.16975504 -0.11136325 0.049592167 -0.0601283
000320 f3 04 9c be 48 d0 6b 3d f5 f1 9a 3e 85 0d 9c 3e
       -0.30472526 0.05757168 0.30262724 0.30479065
000330 c8 74 f0 bd 98 c9 46 3d 48 40 10 3e 02 4e f7 bd
       -0.11741024 0.0485321 0.14087021 -0.12075426
000340 f3 60 89 be 94 b7 d6 bd 10 e6 17 bd 04 11 ad 3d
       -0.2683178 -0.104842335 -0.03708464 0.08450511
000350 20 96 97 3d e8 4e 28 bd b8 0a 17 be 78 21 b6 3d
       0.07401681 -0.041090876 -0.14750183 0.088931024
000360 9d 0f 2e be 80 42 d1 bc 1e cc 59 3e d8 3f 27 bd
       -0.16998143 -0.025544405 0.21269271 -0.04083237
000370 50 bf 9f 3c d4 22 af bd 40 5e 4a bd 06 8b 03 3e
       0.019500405 -0.08551565 -0.04940629 0.12846002
000380 d0 7b e3 3c 7c c6 87 be 66 26 91 be 38 6a d9 3d
       0.027769 -0.2651862 -0.28349608 0.10615963
000390 f7 2c 80 be 80 b2 c2 bb ec f4 1a 3e 28 ba 99 3d
       -0.25034305 -0.005941689 0.15132493 0.075062096
0003a0 d2 5f 82 be 38 7c f7 3d 38 fc 92 3d c4 36 b4 bd
       -0.2546373 0.1208424 0.07177013 -0.08799508
0003b0 1c cb f0 bd 84 dc 7c be 60 e6 e2 bd ce b6 3a be
       -0.1175749 -0.24693495 -0.11079097 -0.18233797
0003c0 f0 62 8e bc e0 94 dc 3c d7 61 a1 3e 38 30 14 bd
       -0.017381161 0.026926458 0.31519958 -0.036178797
0003d0 64 db 4f be d6 5e 79 be 25 9a 81 3e a0 08 a7 3c
       -0.20298535 -0.24352583 0.25312915 0.020389855
0003e0 20 b5 bc bd f6 5f 0d 3e 82 c3 6c 3e c9 5b 5e be
       -0.09214234 0.13806137 0.23121455 -0.21714701
0003f0 b6 5e 6e be bd 59 9d 3e 20 08 4d bc 3d 71 0f be
       -0.23278317 0.30732527 -0.012514144 -0.1400804

cdr3b_conv.bias f4 [30]
000000 bc 0a 4a 3d 30 4f 2f 3d f4 f1 b6 bd 32 42 aa 3d
       0.049326643 0.04280013 -0.08932868 0.08313407
000010 12 ad db 3d 00 8b 1c bb 80 ef 73 3c e8 e2 79 3d
       0.1072637 -0.0023886561 0.014888644 0.06100741
000020 08 af 3e 3d 96 11 79 bd fc 58 cf 3d 68 2b 86 3d
       0.04655364 -0.060807787 0.10124394 0.06551248
000030 38 dd 86 3d 74 8f 79 3d 30 d2 cf 3d 5a 75 a4 bd
       0.06585163 0.060927823 0.10147512 -0.080301955
000040 21 29 89 bd 50 e9 f5 bc c2 c3 fd 3d ff a1 01 3e
       -0.06697298 -0.030018479 0.123908535 0.12659453
000050 9e da a3 bd 98 6a 8f 3c f4 ae a6 bc 3e 8a 10 bd
       -0.08000682 0.017506883 -0.020347096 -0.035288088
000060 48 cf 57 bc 58 a4 90 3d 10 99 79 3c 96 75 70 bd
       -0.013171978 0.07062596 0.015234247 -0.05870589
000070 65 96 f1 bd 8a b7 98 3d
       -0.117962636 0.07456882
