scripts/modelling/stored_models/cnn_model.pt (torch, 151328 bytes, 21 tensors)

cdr1a_conv.weight f4 [40, 20, 3]
00000000: 652a a2bd 978d 973c 2fbb 403c 7150 b93a
00000010: d787 8339 acbc 33bc 9e9c b53c 7012 9bbd
00000020: 78d8 16bc 7da0 b9bc 6d49 673e 9cb7 9c3c
00000030: 4c77 823e f733 cabc 90af ce3d c051 10bd
00000040: 87c0 853e 6adf 6fbd 232d 1ebc 52a8 26bd
00000050: 2a3e 0cbc 8433 223d 38dc 3fbc f4b0 cabd
00000060: 0442 fdbd a3de 7c3e c3a0 003c ff36 d8bd
00000070: 30af c4bc 4333 823e c118 b83b 2403 773e
00000080: 1e9e eebc f79c 46bd 2440 06be 71f9 85bd
00000090: ef36 f8bc 1d59 4e3e aa4d 833c ec15 a83c
000000a0: 5a6f 13bd 939b a1bc 58ed 8e3d 2cad 773e
000000b0: 0e9f 9d3d a0cc 3e3e 65eb f3bd 0e88 db3b
000000c0: da6b d1bc 3a31 53bc cb69 4d3e 3631 013e
000000d0: 64c5 fd3b 2c19 57bd 9045 a03c 97fd 4b3e
000000e0: 059a a53c 97b7 483c 4c59 e63d f22a a23d
000000f0: ecc0 433d 329a efbc bf09 c03d 5faa 42be
00000100: 6fc1 ba3b 765e ebbc a1e6 c5bd f38d 34bd
00000110: 8c9a be3c fabd b2bd 15e6 833d e1fd 48be
00000120: 93c6 503e baac 9cbd 47d5 41bd 4522 8a3e
00000130: e1fe 00be e987 f1bd 52f0 2e3d e13a 92bc
00000140: 539d 683d 001d d63c 8b65 8b3e 3897 3c3c
00000150: 13d6 e7bd b5ec 8ebd c3cf 11bd ea1e 08be
00000160: 3a0f d7bd a397 803e b961 233e b5ed eabd
00000170: df67 5d3e a970 a9bd 5479 e13d e87e bdbd
00000180: a061 6c3e d8de 2ebd 4e65 e13c 58d1 11bd
00000190: b465 a4bd 94e7 463e 0f7a 8c3d 4aa9 3fbd
000001a0: 80ea 5abd 0658 1b3d b1f8 9f3e 82fd 2a3e
000001b0: 376b f7bd ed9e 0f3e c70c 1dbe 8549 efbd
000001c0: 7250 23bd c3a4 fabd a27f 4bbc 7a4c 55bd
000001d0: be8d 77bd 5dc5 b0bd d6e9 0e3e 9d25 a5bd
000001e0: ef7f 073e 3e43 213e c018 573d 5242 b13e
000001f0: 7d46 d9b2 5e61 51bc 3f16 31bd d35d cb3c
00000200: 8e71 063e 9a78 1e3d 821e d7bd 9d40 71bd
00000210: 029f 2e3d 7454 93bd 84f3 0abe 6fd0 08bc
00000220: 4614 a8bd 29c1 ae3d f78c 6d3b 65e0 9e3c
00000230: 7d6f 6c3d 248f 84bd 8421 7dbc 568a 7f3d
00000240: 3e27 523c e44e 76bd e419 c73c c037 a13d
00000250: 5389 aebd 3401 c83c 29d8 d13c f952 ec3d
00000260: 9ea6 ad3d 86ac 4bbe 6ef8 7f3e 7dd7 5abe
00000270: a7d6 2cbe 0ab7 273e 5b25 9cbd 1d91 483d
00000280: 6470 a23e 1668 1abd f13a adbd a74d 3a3d
00000290: ffbe a1bd 6967 a73d 95e7 fbbc 1054 c7bd
000002a0: d84c 403c 86da 4abd 5b7c 50be 9933 323e
000002b0: ea6b 22bd e4a8 5ebd 6cd1 933d 0911 82bd
000002c0: 8ff4 6e3c 8fbb 76bd d611 5bbd 2156 423e
000002d0: ae7c 13be 693b 13bd 9c28 c9bd 270d 4bbb
000002e0: d9ce 503c 5e20 113d 1b86 9b3c ed4a 56bc
000002f0: 0591 8abc 82cd a4bd 62eb d83d 9a29 de3d
00000300: ff5f d5bd 7be1 cfbd 6244 123d 271c 5f3e
00000310: e3d4 3c3d 9c45 edbd 1b2f 22bd 277e 25bd
00000320: f7d5 9abd 217d 4dbd 270f 46bb 73f4 1bbd
00000330: c0f7 493e 7ae3 82bd 9417 debc 5c6d 9ebd
00000340: 9de8 85bd 24e7 8dbd 22f5 423d a7f1 cdbd
00000350: 50fe ae3d 3752 2cbd 9a42 82be 3bcd 15be
00000360: 10ca ad3c 9b8c b1bb 61b3 d8bc a084 7a3c
00000370: fbde 73bc 23d9 993e d6f8 68bd f14a b8bc
00000380: 2e36 1abc 8150 b7bc 90de 5f3e 632b 82bb
00000390: f195 8fbd ed7a fabd be01 673d d161 4d3e
000003a0: 2033 193e e274 6c3e 848b 5ebc 09b1 3e3d
000003b0: 1e4f 033d 205e 333e 40a6 bfb8 c594 e7bd
000003c0: 3545 41bd 75d9 933e 2400 04bd ae4f e036
000003d0: f8e0 c73d 8970 683e d626 9ebd 8500 42bd
000003e0: d921 8ebd 874a 8f3e 747c e7ba 586d 43bc
000003f0: 9f6d 11bd 5d12 fb3c 6c73 f4b9 aa52 a4b9
-0.07918242 0.018500132 0.011763378 0.0014138353 0.00025087476 -0.010970276 0.022169407 -0.07571876
-0.009206884 -0.022659535 0.22586603 0.01913052 0.2548164 -0.024682982 0.1009208 -0.035234213
0.2612345 -0.058562674 -0.009654316 -0.040687867 -0.008559743 0.03959991 -0.011710219 -0.098970324
-0.12366107 0.24694304 0.007850829 -0.10557365 -0.024009317 0.25429735 0.0056181853 0.24122292
-0.02912813 -0.048489537 -0.13110405 -0.06541718 -0.030299632 0.20151182 0.016028244 0.020518266
-0.035994865 -0.019727504 0.069788635 0.24187154 0.07696353 0.18632746 -0.11910132 0.0066995686
-0.025564123 -0.0128901545 0.20059888 0.12616429 0.007744478 -0.05251424 0.01956442 0.19920956
0.020215044 0.0122508025 0.11247501 0.079183474 0.047791407 -0.02924833 0.09376859 -0.19010304
0.0056993286 -0.028731566 -0.096631296 -0.044080686 0.023267053 -0.087276414 0.06440369 -0.19628097
0.2038825 -0.076501325 -0.047322538 0.2697927 -0.12597229 -0.11793501 0.042709656 -0.017850341
0.05679066 0.026136875 0.2722591 0.011510663 -0.11320128 -0.06978742 -0.035598528 -0.13293043
-0.10500951 0.2511569 0.15955247 -0.1147112 0.21621655 -0.08273441 0.1100947 -0.09252721
0.23084116 -0.04269299 0.027514126 -0.035600036 -0.08027211 0.19424278 0.06859218 -0.046792306
-0.053446293 0.037925743 0.31244424 0.16698268 -0.120809965 0.14025469 -0.15336905 -0.116839446
-0.03987164 -0.12238457 -0.012420567 -0.052074887 -0.06043791 -0.08631394 0.13956389 -0.08063815
0.13232397 0.15748307 0.052513838 0.3462091 -2.529418e-08 -0.012779562 -0.043234106 0.024825012
0.13129255 0.038689233 -0.10503866 -0.05889951 0.04263211 -0.071938425 -0.13569456 -0.008350476
-0.08206992 0.08532936 0.0036247352 0.019394109 0.05772351 -0.064726144 -0.015449885 0.062387787
0.012826739 -0.06013383 0.024304338 0.078719616 -0.08522286 0.024414636 0.025615769 0.11539263
0.08479045 -0.19890031 0.24997112 -0.21371265 -0.16878758 0.16378418 -0.076243125 0.048966516
0.31726372 -0.03769692 -0.08458508 0.04548421 -0.07897758 0.08174021 -0.030750075 -0.097328305
0.011737071 -0.049524806 -0.20359938 0.17402495 -0.039653696 -0.054360285 0.072176784 -0.063509054
0.0145846745 -0.060237464 -0.053483807 0.18978168 -0.1440303 -0.03594533 -0.09822199 -0.0030983181
0.012744629 0.03543126 0.018984845 -0.013079387 -0.016914854 -0.0804701 0.10591771 0.108477786
-0.104187004 -0.10150429 0.035709746 0.21788083 0.046101462 -0.115855426 -0.039595705 -0.04040351
-0.07560342 -0.05016816 -0.0030221434 -0.03807492 0.19723415 -0.06391044 -0.027110852 -0.077357024
-0.06538508 -0.06928852 0.047597058 -0.10055857 0.085446 -0.042070594 -0.25441438 -0.1462907
0.021214515 -0.005418373 -0.026452722 0.015290409 -0.014884706 0.30048475 -0.056877933 -0.022496672
-0.0094123315 -0.022377254 0.21862245 -0.0039724573 -0.07011021 -0.122304775 0.056398146 0.20056845
0.14960909 0.23091462 -0.013583068 0.046555553 0.032057874 0.17516375 -9.138556e-05 -0.113076724
-0.04718514 0.28876844 -0.032226697 6.684996e-06 0.09759706 0.22699179 -0.07722251 -0.047363777
-0.0694005 0.27986547 -0.0017660991 -0.011927925 -0.035504933 0.030648405 -0.00046625303 -0.00031342107

cdr1a_conv.bias f4 [40]
00000000: 181c 8f3d ef3b a4bd 6894 1dbc 5256 243b
00000010: 8eb0 173a bfec fbbd 00c2 8c3d c14d f23d
00000020: 9355 9bbd a700 82bd ee3c 623d 93e4 c63d
00000030: 41a0 5ebc a1b3 e7bd 2456 79bd 4055 c23d
00000040: 1b1b 2bbc 6c5a fcbc c814 e0bc b8ad df3c
00000050: dfdd a9bc 4789 a33d 1c08 a33d b35b 6dbd
00000060: 6b2f ef3c f07e 273d b1b4 adbd 4af8 17bd
00000070: 384a 013d 868b 8d3b bb63 74bc 0ec2 643c
00000080: 0699 2fbd 3d11 893d cf21 c4bb 3927 2f3c
00000090: 4ec4 48bc 8fb1 503c 2e14 c4bc 6921 153e
0.0698778 -0.08019244 -0.009617902 0.0025075865 0.00057865016 -0.12301015 0.0687294 0.11831237
-0.07584681 -0.06347781 0.05523389 0.09711566 -0.013588012 -0.11313558 -0.060873166 0.094889164
-0.010443474 -0.030804835 -0.02735366 0.027304515 -0.02073568 0.07985168 0.07960531 -0.05794878
0.029197415 0.04089254 -0.0848173 -0.03710202 0.03156492 0.004319611 -0.014916356 0.013962282
-0.042870544 0.06692741 -0.0059854756 0.010690504 -0.012253834 0.012737646 -0.023935404 0.14563526

cdr2a_conv.weight f4 [40, 20, 3]
00000000: 6de1 bf3d dc3d 773e 61a5 e53e d706 8a3c
00000010: a603 9fbe c11e c2be 34e5 f43d 676b 48be
00000020: 2a19 6d3d 6c9a 73bd 67ca c23e 4ba2 d43d
00000030: d396 aabd 65fa 023f ad42 8cbd 6080 e6bb
00000040: bec7 36be 968e 053c 5da1 3fbd 4e58 79bd
00000050: 70c8 47be 250d 343e 6292 7c3d b106 8fbd
00000060: 3e17 24be 970b da3d abf3 b7bd 7d63 ff3d
00000070: a89f 473e 0eee f73d f137 e9bc 3e1a 8b38
00000080: 8305 8e3e d85c 8fbe 5dd9 273e 0863 a33e
00000090: dd47 c83d 1165 893c 5116 e4bd 01ca 563d
000000a0: 328e 8cbd 71b7 08be dc2f 15bd 289f 743e
000000b0: 1f04 813d 66d7 28bd ce9a ffbd 499c 6dbe
000000c0: aa14 ae3d 94d5 d73d c447 ac3d 5850 44be
000000d0: 3314 3a3d 7e2d 2dbe a93f 3abe 8d39 fa3d
000000e0: d472 5bbe 6ad3 3b3e 7f67 08be eb6f 593e
000000f0: c0e7 7ebd f585 9d3c 48ec e4bd 7ec4 b63d
00000100: fc1b 603e 8c5a 763d 6d46 71be 298e 29bd
00000110: 799d 83bd baba debd 42b1 623d 52ee 13be
00000120: f091 403e b2bd dd3d bed1 48be c3f9 d73d
00000130: 7458 59be aa67 583d f461 1abe 836e 7abe
00000140: b3e2 733e 1074 48bc 4344 ddbd 1625 033d
00000150: eaec 2b3d 2eae dc3d 57ed 5fbe f5e3 9c3e
00000160: ad91 c8bd 90b4 f1bd df1f 4ebe f848 e9bd
00000170: 09f0 693c ba6a a0be 6743 c3be 8594 093e
00000180: f8f6 04bd 57b1 96bd 5d5f cc3e 7221 d0bd
00000190: 8c01 84bd 8fb2 6c3e 10b3 893e 7553 b13e
000001a0: cf76 24be dd2b d2be 9aa5 4dbd 11ff e73e
000001b0: 4819 7c3e 7154 473e 9949 13be 8bda 203e
000001c0: cd36 243e 58db b9bd 0544 303e f9f4 fb3d
000001d0: 0af6 2a3e 202a 0c3d 64ee f83d c898 39bd
000001e0: 006b b0bd 3c36 3c3e 8730 10be a717 a23e
000001f0: 6a77 803e fae6 edbd d938 17bd a044 0c3e
00000200: 3356 7b3e 536a 7abe c5b8 6d3c 6868 cdbe
00000210: 352e 16be 1be8 0abe 7317 36be db03 1bbe
00000220: 399b 2fbe 1f6d 35be 9cd4 7b3d b30a 223d
00000230: ace8 963e 4d7b 453e 946b 3dbd fa03 3dbe
00000240: c533 0a3e 506a 92bd ba98 e3bc c8d9 bbbd
00000250: 543c 3cbe 1be6 a4bc 4aff 6cbd 3674 fbbd
00000260: f919 9a3c 28d5 cbbd e006 8f3c 226a c73c
00000270: f041 5c3e 1614 5c3e 2f18 55be b330 283d
00000280: 36fc 0d3e 1760 153e 00ce 89be cd5a 7cbc
00000290: 46e6 113d 5537 193e 1d55 db3e c4d3 7f3d
000002a0: aa78 603d 9edf ba3e 4e98 173e 660c 283e
000002b0: 161f 8cbc eabd adbd 0ea9 d83e de2c 6abe
000002c0: c353 093e c410 463e f579 c8bd 5abd 7ebe
000002d0: 765d 19be 087a fabd ba51 51bd 8a8e 01be
000002e0: 00de 823d 72ba 6a3e 0699 c0bd c437 3bbe
000002f0: 1d9e d6bd fe67 f6be 1eb9 c03d 75bb e7bd
00000300: a100 403a 342a 28be 2b07 043e ce9f 083c
00000310: c298 133e 0f5b 903d d4fa 803e 37e6 ee3c
00000320: c531 70bc 12f3 d7bd f7ad 303e 958c e33b
00000330: 9469 0dbe 8ba0 e3bd f003 cb3d 213b 5dbd
00000340: 0fc6 ec3d 211a 253e 3a56 1f3e b4ff 693d
00000350: 81a6 1a3c 0267 073e 30ae 34bd c398 d3be
00000360: 2f04 4bbe bd86 2abc 0367 d23d 490b c5bd
00000370: 23b8 8a3d 36b3 e3bd b2a4 adbd c21a acbe
00000380: d717 f8bd 17bf 5b3d ad58 d0bd 34c2 5b3e
00000390: 5c0f 133e a423 6f3d 4bd6 1dbe 892b 923e
000003a0: 62bb 6a3e 9663 2e3e df68 003d 3f60 d43e
000003b0: bb4d 383d b932 afbc 8dc1 19bd e250 9f3e
000003c0: 3950 713d 0465 443e 11a3 0a3e 5023 9cbd
000003d0: c313 853e 689f 763c 5f4c fd3d ca94 ed3e
000003e0: 59d3 3dbc 4733 5fbd b532 93be 9812 c4bd
000003f0: e1b6 98be 2112 843e c915 693d c59a 11bc
0.093691684 0.24144691 0.44852737 0.016848965 -0.3105747 -0.37914088 0.119577795 -0.1957222
0.057885326 -0.05947344 0.38045046 0.103825174 -0.08329549 0.5116332 -0.06848655 -0.0070343465
-0.17849633 0.008151671 -0.046784747 -0.06087523 -0.19510055 0.17583139 0.06166304 -0.06983698
-0.16024491 0.10646742 -0.08982023 0.12470148 0.19494498 0.12105952 -0.028469058 6.6329245e-05
0.2773858 -0.28000522 0.16391511 0.31911492 0.09779332 0.016771825 -0.11137069 0.05243874
-0.06863059 -0.13351227 -0.036422595 0.23888838 0.06299614 -0.041221045 -0.124806985 -0.2320415
0.08500035 0.10538784 0.08412126 -0.19171274 0.04542942 -0.16911885 -0.18188347 0.12218008
-0.21430522 0.18342367 -0.1332073 0.212341 -0.062232733 0.019228915 -0.111778796 0.08924197
0.21885675 0.060144946 -0.23562022 -0.04139534 -0.0642652 -0.10875459 0.055344827 -0.1444638
0.1880567 0.10827197 -0.1961126 0.10545685 -0.21225148 0.052833237 -0.15076429 -0.2445622
0.23816948 -0.012234703 -0.108040355 0.03201779 0.041973986 0.1077541 -0.21867882 0.30642667
-0.097934105 -0.11802018 -0.20129345 -0.11390871 0.01427842 -0.31331426 -0.3813736 0.13435562
-0.03246209 -0.07358044 0.39916506 -0.10162629 -0.064456075 0.2311499 0.26894426 0.34633985
-0.16060947 -0.4104909 -0.050206758 0.45311788 0.24619019 0.19465806 -0.14383544 0.15708368
0.1603653 -0.090750396 0.17213447 0.12302584 0.16695419 0.03421986 0.121548444 -0.04531172
-0.08614159 0.18380064 -0.14081012 0.3165867 0.25091106 -0.11616321 -0.03691945 0.13698053
0.24544601 -0.24454622 0.0145093845 -0.40118718 -0.14666064 -0.13565104 -0.17782383 -0.1513819
-0.17149056 -0.17717408 0.061482057 0.039560985 0.2947439 0.19285317 -0.046245173 -0.18458548
0.13496311 -0.07149184 -0.027782787 -0.09172398 -0.18382388 -0.020129254 -0.05786065 -0.12278025
0.018811213 -0.09952766 0.017459333 0.0243426 0.21509528 0.21492037 -0.20810007 0.04106207
0.13865742 0.14587437 -0.26914978 -0.015402508 0.035619996 0.14962514 0.42838374 0.062457815
0.054802574 0.3649873 0.14804193 0.1641098 -0.017104667 -0.08483489 0.42316478 -0.22868678
0.13410859 0.19342333 -0.097888865 -0.2487692 -0.14977059 -0.12230307 -0.05110333 -0.1265203
0.063899994 0.22922686 -0.09404187 -0.18282992 -0.104793765 -0.48126215 0.09410308 -0.113150515
0.00073243125 -0.16422349 0.1289336 0.008338882 0.14413741 0.07048618 0.25191367 0.02916251
-0.0146603035 -0.10544409 0.17253862 0.006944249 -0.13809806 -0.111146055 0.099128604 -0.054011468
0.11561214 0.16123249 0.15560237 0.057128623 0.009439112 0.13222888 -0.04411143 -0.41327485
-0.19825815 -0.010408101 0.10273554 -0.09621293 0.067734025 -0.11118166 -0.08478679 -0.33614165
-0.12113922 0.053649034 -0.101731636 0.21460801 0.14361328 0.0583836 -0.15413778 0.2854884
0.22923043 0.17030177 0.031350013 0.4147968 0.044996005 -0.021386491 -0.0375381 0.31116396
0.058914397 0.1917916 0.13538767 -0.07623923 0.2599164 0.015052654 0.12368082 0.4640258
-0.011586034 -0.05449226 -0.28749624 -0.09573859 -0.29827026 0.2579508 0.05690554 -0.008886998

cdr2a_conv.bias f4 [40]
00000000: 1084 b33c 9858 02bc 2e08 40bd 583e e3bc
00000010: acea 443d b855 e4bd 72a0 a43d e68f d2bd
00000020: c9c6 e2bd c0d0 803d 7a66 04bd fc81 d7bd
00000030: f89d 67bd a60b ac3d 8c8b cdbc b8a9 a0bd
00000040: 70d2 af3d 3070 c8bc 9477 0fbd 9c30 c83d
00000050: 70a2 cfbd 3003 df3d 7ccf 293d 4ee1 bf3d
00000060: 1468 9bbd 00b2 bc3d 08ec 9b3d e0ce ea3b
00000070: b048 bfbb 8865 a7bc 80a6 903a 7827 3e3d
00000080: 2b9d 03be f8c9 c53d 6076 433d 0450 d33d
00000090: 807b 9fbd 80d0 36bb b0a1 b1bd fc24 243d
0.021913558 -0.007955693 -0.0468828 -0.027739689 0.048075363 -0.11149162 0.08038415 -0.10281353
-0.110730715 0.06289816 -0.03232429 -0.105228394 -0.056547135 0.08400659 -0.025090955 -0.07844871
0.0858506 -0.024467558 -0.035026148 0.097748965 -0.10138404 0.1088928 0.04145764 0.09369145
-0.07588211 0.09213638 0.07613379 0.0071657747 -0.0058375224 -0.020434156 0.0011035949 0.04642436
-0.12852924 0.09657663 0.047720313 0.10317996 -0.07787228 -0.0027895272 -0.086734176 0.040074334

cdr3a_conv.weight f4 [40, 20, 3]
00000000: b38b dbbe 66c3 943e e9d1 84be c174 d6bd
00000010: 6b85 033f 2cd6 4bbe 155f 573e 23db b3bc
00000020: ac03 1b3d 393d f9bc 6824 50be 344b c3bb
00000030: 9171 b7bd 5f1b ad3d 1179 adbe 73fc fbbd
00000040: 13cc ffbd 2dd1 3c3e e44e e23c a30c 8f3e
00000050: 414a 763e e57c 99bc f254 bcbe 3a1a a3be
00000060: 2620 803d e911 043e 0805 5a3d a016 bdbc
00000070: 1c0a 75be 2ae2 3e3e ba78 c4bd 883e 57be
00000080: dcfd 85bd 60d7 0f3e c808 0abf 275d bdbe
00000090: e500 1e3c b6ce 07be e7e6 9dbe 2489 6fbe
000000a0: 4cae db3e 70ab ecbd 2f79 78be 16fb a8be
000000b0: 52e5 0c3e b28c 05be 0946 2abe 7dd7 903e
000000c0: 6b51 70be 0566 033e 2272 0abe 8859 11be
000000d0: 92e8 623b 7d21 8e3e 5370 36bd e54a 0ebd
000000e0: 3c14 a7bd a855 1238 238c 273d 0a72 ef3e
000000f0: 4203 0dbe 3cb3 863d 2ab6 00be dfc2 873d
00000100: dfdd f6bd 7678 6d3e bf11 a73d 8c47 84be
00000110: b22b 393e 0fc5 debd 2f16 c8bc 9335 e33d
00000120: 1fec 303d 3da8 c9bd 2283 a6be be88 c23c
00000130: 83c2 aebe d087 27bd 9521 453d 9354 aa3e
00000140: 49d6 543d 9f33 283e d45a 63bd f896 003d
00000150: bc5c 38be ca99 be3e 3812 e6be 7ed3 85be
00000160: 30d6 80be ae19 883e 4727 f7b8 322a 473e
00000170: f40e 1b3e c569 7bbe 6cbf 7cbc 1f07 93bd
00000180: 2bcb eabe eea9 1cbe e978 2c3e 76d4 d13d
00000190: 8a43 89be 870f b6bc a929 203d 8baa 953d
000001a0: 115b 163e 22c1 5d3e 8a78 653e 591c 53bd
000001b0: c53e 263d 4135 fe3d be57 073e deb3 dabc
000001c0: afe3 e4be 8a62 c63e 8f37 153e 0846 963e
000001d0: 24f7 31be e69e 7b3e 333c 2a3d dea5 e7bd
000001e0: 1c29 67be 1673 073e 1417 89be 28d9 813d
000001f0: f661 0ebe 8bb2 213e 5b2d 8e3e f38e f0bd
00000200: c115 b63e 4fb7 05be cadf 8ebd 314a b83d
00000210: 2e3d eebc 7163 16bd 58b9 cf3d a983 e93d
00000220: 9b24 06bf 6943 19be c299 b2bd 4913 cf3d
00000230: c8d1 a2bd 4b20 d73d 597e 4f3e 1794 76be
00000240: a71e 453d a704 7fba 3dc2 a6bd 8fab 933e
00000250: 3164 88be 1f1f 43bc 5084 37bd 6b0e fc3c
00000260: d6cb aa3c 30e4 f33d 0ef3 27be dd70 3c3d
00000270: b51b 06bc b3dc 473c fcf2 3fbe 5705 39be
00000280: e564 b43d a5ec 193b 7912 9e3c 0f20 433c
00000290: 0399 033b bea5 c2be 9915 cc3c 9424 ab3e
000002a0: 4e2d 023d 47b3 23bd 1caf b9be dca8 28be
000002b0: f606 9b3e c2c2 18be e874 8f3e 551d 6abe
000002c0: 8dbb b8be 90a6 843e 7c9c 6bbe ec30 babe
000002d0: fa06 23be 8062 333c f1db 3f3e 59a0 603e
000002e0: 4e42 5b3d d04e 323e 0821 02be 14b9 ce3d
000002f0: 5520 69be a61f c0bd f84b 5ebd 87d8 42bd
00000300: ca37 a93d af19 68be e443 2a3e c09a 163e
00000310: 6f0f 91bc e513 08be be6b 4ebe b7d2 833d
00000320: 6355 933d 2d87 02be c5d8 a13d 742c 3cbd
00000330: 61ea 3abd 5304 ae3c 6a09 733e 3f55 843d
00000340: cdcb cfbd 57d2 a83e 9dc9 d7bd 6175 8c3e
00000350: 7489 223e b8fa a43e aa29 4fbe b07b 023d
00000360: 1565 fdbd 0e4c 84bd 8e6e 0abe 2c87 95be
00000370: 8904 84be 5793 d43d 0724 cc3d 087c a13e
00000380: ea0b 9bbd 3539 4f3e 9a29 86be 2270 813e
00000390: fe28 533c 2127 13bd 45c9 87be 40c5 46bd
000003a0: 9730 00be 6e1f 32bd 42ea 8ebc 3b2b 033e
000003b0: b612 933c db44 883e ea3b 13be 01e1 0bbb
000003c0: ceed d9bd 1f77 a13c 3dfd 883e c1ad b139
000003d0: de49 d93d 794a ccbd ff37 2b3d 929f ddbd
000003e0: f679 26bd d78a 923e 5610 3abe 3625 b93c
000003f0: e8ee 9e3e b1c6 ec3d 3a0d 8dbd ef0c 49bd
-0.4288002 0.29055327 -0.259414 -0.10471488 0.51375455 -0.19905919 0.21032365 -0.021955078
0.0378453 -0.030424701 -0.20326388 -0.0059598926 -0.08957208 0.08452486 -0.3388143 -0.1230401
-0.12490096 0.18439169 0.027625509 0.2793933 0.24051763 -0.018736312 -0.36783558 -0.31855947
0.06256132 0.12897457 0.053227454 -0.023082078 -0.23929638 0.18640962 -0.09593339 -0.21019948
-0.065425605 0.14047003 -0.5391965 -0.36985132 0.009643768 -0.13262448 -0.30840227 -0.23392159
0.42906415 -0.115561366 -0.24264978 -0.33004063 0.13759354 -0.13041952 -0.16628279 0.28289405
-0.23468558 0.12831886 -0.135201 -0.1419431 0.0034623486 0.27759925 -0.044540714 -0.034739394
-0.08158156 3.4888886e-05 0.04090513 0.46766692 -0.13770774 0.06577155 -0.1256949 0.066289656
-0.12054037 0.23190483 0.08157682 -0.25835836 0.18083075 -0.1087743 -0.02442464 0.11094203
0.043193933 -0.09846542 -0.3252192 0.023746844 -0.34132776 -0.040901005 0.04812773 0.3326765
0.05196217 0.16425942 -0.055506542 0.031393975 -0.18004125 0.37226707 -0.44935775 -0.26137918
-0.25163412 0.26582092 -0.00011785194 0.1944969 0.15142423 -0.24552067 -0.015426498 -0.071790926
-0.4585813 -0.15299198 0.16842999 0.10245602 -0.2680934 -0.0222242 0.03910223 0.07307919
0.14683177 0.21655706 0.22409263 -0.051540706 0.040587205 0.12412501 0.13217065 -0.026697095
-0.4470496 0.38747054 0.14571975 0.29350305 -0.17379433 0.24572334 0.041561317 -0.113109335
-0.22574276 0.13227496 -0.2677542 0.063402474 -0.13904557 0.15790765 0.27768978 -0.117460154
0.35563472 -0.13058208 -0.06976278 0.08998526 -0.029081907 -0.03671593 0.101427734 0.11402065
-0.52399606 -0.14967121 -0.08720733 0.101111 -0.07950169 0.10504206 0.20263042 -0.2407993
0.048124935 -0.0009728171 -0.08142517 0.28841826 -0.2663894 -0.011909275 -0.044803917 0.030768594
0.02084915 0.11908758 -0.16401312 0.046006072 -0.008185317 0.012198615 -0.18745035 -0.18068443
0.088083066 0.0023486998 0.019295918 0.011909499 0.0020080216 -0.38017076 0.024912642 0.33426344
0.031781487 -0.039965894 -0.3626641 -0.16470665 0.30278748 -0.14918044 0.2801888 -0.22862752
-0.3608059 0.25908327 -0.23008913 -0.3636545 -0.1592063 0.010948777 0.18736245 0.21936168
0.05353003 0.17412877 -0.12707913 0.100938946 -0.2276624 -0.093810365 -0.05427167 -0.047569778
0.08262594 -0.22666048 0.1662746 0.1470747 -0.017707555 -0.13288839 -0.20158288 0.06436675
0.071940206 -0.12746878 0.07902674 -0.04594083 -0.045633677 0.021242296 0.2373406 0.06461572
-0.10146294 0.32972977 -0.105365016 0.27433303 0.15872747 0.32222533 -0.20230737 0.03185624
-0.123727955 -0.06459819 -0.13518736 -0.2920469 -0.2578471 0.10379665 0.09967809 0.3153994
-0.07570632 0.20236667 -0.26203614 0.25280863 0.012888191 -0.035925988 -0.26520744 -0.048527956
-0.12518536 -0.043487005 -0.017445687 0.1280946 0.017953258 0.26615033 -0.14378324 -0.002134383
-0.10641061 0.019710122 0.26755705 0.00033889528 0.10609792 -0.09975142 0.04180145 -0.10821451
-0.040643655 0.2862155 -0.18170294 0.022600751 0.31041646 0.11561335 -0.068872884 -0.0490846

cdr3a_conv.bias f4 [40]
00000000: 007e ef3c 7895 bf3d 9d47 dabd 1280 7bbd
00000010: f8bc cf3c 9cf6 76bd 8010 b83c 4a9a e53d
00000020: 5a29 f83d ca2d 71bd d426 293d d825 69bc
00000030: 2067 e83d 48c3 9c3d 4cd1 90bc 1268 ab3d
00000040: 607d e3bb 00aa 413c 11a8 82bd 5cd6 10bd
00000050: 0914 04be 9e62 ebbd 52b1 29bd 3a1c e03d
00000060: 50a3 983c 767b 03be 0ccd 773d ecff 4d3d
00000070: 587c b0bc 38bd 04bc 78a7 f23d 408f 68bc
00000080: a65e a0bd 6a81 ab3d b677 3ebd 7a55 f1bd
00000090: a866 963d 0de9 033e 68e6 dd3d d765 023e
0.029234886 0.09354681 -0.106581904 -0.061401434 0.025358662 -0.06029378 0.022468805 0.11211069
0.12117262 -0.05888156 0.041296795 -0.014230214 0.113477945 0.076544344 -0.017677926 0.08369459
-0.006942436 0.011820316 -0.063797124 -0.03536068 -0.12898268 -0.11493419 -0.04142887 0.10942884
0.018632561 -0.12840065 0.060498282 0.050292894 -0.021543667 -0.008101754 0.118483484 -0.01419431
-0.07830553 0.08374293 -0.046500884 -0.117838815 0.07343799 0.1288187 0.10834962 0.12734161

cdr1b_conv.weight f4 [40, 20, 3]
00000000: fc8c 5bbd cdcf bdbe 79d8 c3be c2cf dabe
00000010: bf56 a93d 8fae 63be 6acb 5f3e 285b 79be
00000020: ebce c0bd 0695 af3d 4275 e83d 9f83 f1bd
00000030: 9bdc 0f3e 6e82 913e e650 573e 2188 443e
00000040: 1adf 8d3e 655b 103e cf85 33be f810 4fbe
00000050: 201f 8dbe 520a 15be 3206 78bd 34ec f3bd
00000060: 10e2 343e 53a3 c5be 1e21 693e 9df9 8a3e
00000070: 7e38 01be 26a2 cc3d 8276 26be 031b d2bd
00000080: b035 14be c625 83be 9e95 643d 3fa0 dcbe
00000090: bca5 02be d37d 723e 999c 5d3e 70bc b13e
000000a0: 46e2 24be 3973 7cbe e664 a1be 66cc 97be
000000b0: c93c 88be a4ba 5cbd 8737 61be 6179 6c3e
000000c0: 40c2 1f3e 6a88 54bd d6ac d93e b941 bb3c
000000d0: 0b38 7d3e b23b 173e 706b 84bb c52b a83e
000000e0: a78d b7bd 1a2b 81be b727 ff3d 96f1 febd
000000f0: ce0d 383d 1e42 d83d 1c96 47be ace7 933e
00000100: c283 c3bc f049 f43c 90c4 233d 4c25 d5bd
00000110: fe53 cd3d 2400 e3bd cdc8 8b3b 8801 dbbe
00000120: 86f0 7e3e 5d3f 5ebd 34fd 103e a68f 20be
00000130: 8fe1 2e3e 6176 c13d ab28 30be 17de 8fbe
00000140: 0b7f 6ebd 9128 743d 2d7f 2bbe 9303 8f3e
00000150: 5fcb f03d deae a3bd f2ff 083e 03f1 6abe
00000160: 6dff dabd 3d00 e73d a301 a9be 25b4 b4be
00000170: e968 6c3d d904 95be 7161 65be 8923 e83d
00000180: f4c7 52bd ca48 993e 52c9 3ebe b332 943c
00000190: 334d 3e3e 8355 403e 8a8c 003c a8fa 033c
000001a0: cf65 13be 4968 70be e7cb 9fbd c89a 813d
000001b0: c109 26be 10e2 b1be dbd1 923e a029 97bd
000001c0: 789a 96be ff35 be3d 9206 ed3d d19c 8f3d
000001d0: 4b2e 8d3e f44e 62bb d13a 2c3e ff1a 63bd
000001e0: d406 7abe 5023 a43d 5e8e abbe 2ee5 c03e
000001f0: 9bfa 573d 343f 2a3e ae31 56bd 359e 80be
00000200: 3466 db3d 0902 053d 1d65 44be e86f 9fbe
00000210: 3810 203e f860 f1bd 8cbb 80bd bf04 dabd
00000220: 2aa8 3bbe 1099 52bd 8005 77be 7f58 1abe
00000230: d3c3 bcbe cb67 22be 3c93 7e3e a031 ad3d
00000240: 0abe bdbb 90d6 5a3c 7eb3 413e e037 8d3e
00000250: 9c9c 393e 5e4e 3fbe f9c9 113f 40b0 bcbd
00000260: 776b 293e 64e6 8b3d 8a00 4d3e 22e9 823d
00000270: c86c 7dbe 2cdf 033e 03fe 183c e197 72bd
00000280: 3582 28be fb28 893e ff72 d8bd 9915 74be
00000290: cc63 683e b289 073e 6add ab3b 1f3d c8bd
000002a0: c123 a1be a355 d73d 73c3 6b3e add9 773d
000002b0: 410e 163e 9806 85be e9fb a5be 3259 94be
000002c0: 315c 84be fc4a 8f3d 1035 c8bd cabb 36bd
000002d0: a34d 873c 8d56 5c3e 59f5 683e 211f 063d
000002e0: b320 1abe 5a3e 17be eb02 f8bd 5c00 3cbd
000002f0: e50a 19be 6f85 4e3e e39e 39be eced 09be
00000300: 22cb d83d a06a 1bbe aa2c 033e 5963 49bb
00000310: 3014 463e 18fc 313e 3b6f 6a3e a3e2 003e
00000320: a1cd a5be 24fa 523e 61e1 82bc 1bb1 5f3e
00000330: 9038 5c3e 173c cebd 27df fbbd 20aa 20be
00000340: eab7 943b bc53 a13e fc18 72be 17bd 3ebd
00000350: 5b37 053e 9fbe dfbc 85ec 033e bd5f c63e
00000360: cbe9 943d 5713 aa3c 067b e1bd 4b2c 0b3e
00000370: 7ee6 033e 0bc3 ff3d ac97 533c 3840 783e
00000380: 91d4 e8bc fff0 653e 76be f9bc 1b19 a93d
00000390: 98e0 9a3d ea95 0a3e 1581 32be 1767 24be
000003a0: 2f48 873e e654 c23e fc89 fdbc 456d 4c3e
000003b0: 6364 0ebe d73b c73e adb9 b93e 054f 1e3e
000003c0: 0dcd 9b3e 25dd babd 7c89 5cbd 20bf 7b3e
000003d0: 4df6 05be 702b 12be 481a 93be c5a4 bbbd
000003e0: de2a ffbd d5fd a7bd a78f 723c 5cff ed3d
000003f0: a34b 473d 81f3 483e aace dbbd 7f02 9a3e
-0.05360125 -0.37072602 -0.38251093 -0.42736632 0.08268499 -0.22234558 0.2185494 -0.2435118
-0.094144665 0.08573346 0.1135049 -0.11792683 0.14048998 0.28419822 0.21026954 0.19192554
0.27709275 0.14097364 -0.17531513 -0.20221317 -0.2756281 -0.14554718 -0.060552783 -0.119102865
0.17664361 -0.3860117 0.2276654 0.27143565 -0.12619206 0.09991865 -0.16256145 -0.10259058
-0.14473605 -0.25614756 0.05580675 -0.43091008 -0.12758535 0.2368081 0.21641769 0.3471408
-0.16101941 -0.24653329 -0.31522292 -0.2964813 -0.26608875 -0.053888932 -0.21993838 0.23093177
0.15601444 -0.051887907 0.42514676 0.022858487 0.2472841 0.14768866 -0.004041128 0.32845894
-0.08962565 -0.25228196 0.12458747 -0.124484226 0.04493504 0.10559486 -0.19490856 0.2888769
-0.023866538 0.029820412 0.03998238 -0.104075044 0.10025786 -0.11084011 0.0042658807 -0.42774606
0.2489644 -0.054259647 0.1415909 -0.15679798 0.17078231 0.09446407 -0.17203014 -0.2809913
-0.058226626 0.059609 -0.16747732 0.27932414 0.1175754 -0.07992338 0.13378885 -0.22943501
-0.1069325 0.11279342 -0.3300906 -0.3529369 0.057717238 -0.2910526 -0.22400452 0.11334903
-0.05146022 0.29938346 -0.18631485 0.018090582 0.18584137 0.1878262 0.007846007 0.008055367
-0.14394306 -0.23477282 -0.07802563 0.0632835 -0.16214658 -0.34742785 0.28675732 -0.07380986
-0.29414725 0.09287643 0.11573519 0.07012332 0.2757438 -0.0034531923 0.16819312 -0.055445667
-0.24416667 0.08014548 -0.33507055 0.3767485 0.05272923 0.16625673 -0.052293472 -0.25120702
0.10712853 0.032472644 -0.19179197 -0.31140065 0.15631187 -0.117860734 -0.06285772 -0.106454365
-0.18325868 -0.051415503 -0.24123192 -0.15072821 -0.36868152 -0.15859906 0.24860853 0.08456731
-0.0057904767 0.01335682 0.18916127 0.27581692 0.18126148 -0.18682238 0.5694881 -0.092133045
0.16544901 0.06831053 0.20019737 0.06392123 -0.24748528 0.12878102 0.009337905 -0.059226874
-0.1645592 0.26789078 -0.10568809 -0.23836364 0.2269432 0.1323612 0.0052449005 -0.09777283
-0.3147259 0.10514381 0.23023777 0.060510326 0.14653875 -0.25981593 -0.32418755 -0.289743
-0.25851586 0.06996724 -0.09775746 -0.044612683 0.016516512 0.21517392 0.22749843 0.03274453
-0.15051536 -0.14769879 -0.121099316 -0.04589878 -0.14945562 0.20168088 -0.18127017 -0.13469666
0.105856195 -0.15177393 0.12810007 -0.0030729382 0.19343638 0.17381322 0.22893994 0.12586455
-0.32383445 0.20603234 -0.01597661 0.21844904 0.21505952 -0.10070055 -0.12298422 -0.15689898
0.004538526 0.31509197 -0.23642343 -0.04656705 0.13009398 -0.027312575 0.12883194 0.38744918
0.07271155 0.020761175 -0.11009793 0.13591115 0.12880895 0.12488373 0.012914579 0.24243248
-0.028421672 0.22455214 -0.030486327 0.082567416 0.07562369 0.1353375 -0.17432053 -0.1605495
0.2642226 0.37955397 -0.030949585 0.19963558 -0.13905482 0.38912842 0.36274472 0.15459831
0.3042988 -0.09124211 -0.053842053 0.24584627 -0.13082238 -0.14274383 -0.28730989 -0.09162287
-0.12459348 -0.082027115 0.014804757 0.116209716 0.048656117 0.1962414 -0.107327774 0.3008003

cdr1b_conv.bias f4 [40]
00000000: cea1 cbbd 5e52 49bd d462 9cbc a86f 173d
00000010: 02d7 92bd d4ff 283d be55 ef3d e8f0 74bd
00000020: e0dd 403d 789b 2ebc f4b8 94bd 781a 603d
00000030: 1cdb c73d 5492 f4bc c721 87bd 0a5f aebd
00000040: 8037 673d a014 12bd 855d 00be 5446 e03d
00000050: 540c 133d 50c5 29bd a05e bdbd 6001 e73b
00000060: c8b6 f0bd eab4 92bd 3c6e b6bc 1da5 fdbd
00000070: 7c9f bd3d 294f b6bd 4d67 fbbd 7840 cbbc
00000080: 4c01 6fbd b4ac 7f3d dc48 8b3d 38a6 9d3c
00000090: f03c 78bc 5432 903d 75b8 013e 6f24 f9bd
-0.09942971 -0.049150817 -0.019090094 0.036971718 -0.07169916 0.0412596 0.11686276 -0.05980006
0.047086596 -0.010657184 -0.072618395 0.054712743 0.09758589 -0.029854931 -0.065982394 -0.08514221
0.056449413 -0.0356642 -0.12535675 0.10950914 0.03590043 -0.041447937 -0.09246564 0.0070497245
-0.11753613 -0.07163413 -0.02226936 -0.123850085 0.09258935 -0.08901817 -0.122755624 -0.024811015
-0.058350846 0.062420562 0.06801006 0.019244298 -0.015151247 0.07040849 0.12668021 -0.12165152

cdr2b_conv.weight f4 [40, 20, 3]
00000000: 468d 3f3d 5d39 e73d e8a0 aa3d b6c4 7fbe
00000010: fd3c aa3e 7418 8bbc 4520 03be d017 ffbd
00000020: a208 d7bd a8b1 bd3c db6a 533d 4a8e 69be
00000030: d74c 4c3e ebd5 e33d 5e3a 0b3d ffa4 9f3c
00000040: 9c40 153e a6e5 4abe 7a69 d4bd af80 a83e
00000050: 34d9 80bc 8ee6 e5bd 196d ccbe 1215 f53b
00000060: 5460 89bb da32 04be 3874 373d 9ce8 de3d
00000070: a05a e03c eb7a 363d 9e56 43bd 3740 78be
00000080: 0ff6 f8bd f2a2 fdbc bde2 7a3d e060 4bbe
00000090: 974e 1a3e 732c fbbd 60ae ae3e 8ca7 8d3e
000000a0: 349d b3be fb00 3ebe a43b a63e ac83 913e
000000b0: eaff d1bd 8ed3 723d e593 c83c 524c 11be
000000c0: 44ac 39be fe80 07be 3738 9ebd 263a c5bc
000000d0: 45ef a8be c62a bbbd cab3 7f3d 03c0 843e
000000e0: 5c72 c2be faa5 9bbc 28f8 c53d cf7c ddbd
000000f0: f05c 91be c2d7 11be a497 ba3e f788 dc3e
00000100: 771e 0ebe 9fdb 08be b967 4abd bf51 053e
00000110: 6293 86bd dfb7 e63d 9f32 293d bc1d 4a3e
00000120: ffa1 6d3c 8abe 0ebe e86e 05be f367 f03d
00000130: 785e 65be efcf 39be 8cf2 20bd 03d0 eabd
00000140: 8813 f2bb 7594 0b3d 061b 89ba afbc 503e
00000150: 1b06 60be 8674 bbbd 063f 383c a005 06be
00000160: 7a43 c83c 1c6e e0bd 2d27 1bbe 4e07 d9be
00000170: a27d 43bd 5976 a73e a0c5 7abc 4688 0d3e
00000180: 2b6b 7d3e 38bf f43c 136f 30be a8c4 75be
00000190: e83b 103e b8aa 64bc c967 74be 5334 7e3d
000001a0: d924 663e 99fd 46be c2f7 8f3d 4152 c8bb
000001b0: 45fd afbe 7056 ba3d df49 97bc 5d0e 273d
000001c0: cb36 85be 2ac8 463e ca02 57bd 715d 383e
000001d0: 0767 b7be a14e 343e f2bf 0e3e 0ef4 843d
000001e0: d2f7 c0bd 48d2 babe 8afe 9d3e eb33 2ebe
000001f0: c020 50be 91d5 573e 7a0e 183e fc75 723d
00000200: 087b 763c 51d5 1c3e d499 1bbe bb10 5f3d
00000210: 13cb a83d f91f 07be 150c be3c bf8e b63d
00000220: fe23 11bd c535 df3d c0ee 27be 72b5 143e
00000230: 409e 6fbc ea8c 8bbd c7dc 773c d176 12bc
00000240: c3ce 2dbe fc25 833d 8311 3abe b525 36be
00000250: d7cb a7bd 58eb 9b3e 81f1 6c3e 8f64 a8bd
00000260: 6ffd 38be 1617 57bd ae19 33be ed67 d7bd
00000270: 0e7c 5e3e b1b0 2c3d 4b97 f4bd 6540 243e
00000280: 6239 87bd 0795 d2bd 0ee4 913d 6584 16be
00000290: aad8 e93c 29b8 b13e 51aa 88bc e2ab 4d3e
000002a0: c28b 4f3e cbc0 a7be df4f b1bd 7ea2 1bbe
000002b0: a764 0dbe d76e 223c 5ce3 6dbb c40a e53d
000002c0: 8e0a 113e 1218 b73e 4dca 743d 8304 ca3d
000002d0: 8561 8bbd b95d 0e3d ba80 3fbd fac0 863e
000002e0: 48eb 44be d2b4 73be aa02 d0bb 5a48 5bbb
000002f0: d25a 213e 3834 b43e a5ff a03d 11f4 cc3d
00000300: 34c3 10be 3a6c 733c 52bb 36bd e1b3 fb3c
00000310: b1ba 5dbe 178e 093e 2506 18be c42d 9f3d
00000320: 1838 84bb ea09 d83d 3b20 eabd 8c89 37be
00000330: 0966 51bd 34f7 9d3d 03ab 0a3e debb efbd
00000340: 501c 8dbd 0c45 09bd 8864 0f3e 1442 9b3d
00000350: e859 22bd 760c 923e 04b6 813c 4afd 8fbe
00000360: 7861 c6bc 2d1f 9b3d 54d4 2cbe 9e06 5e3c
00000370: 9f35 49be 5792 5dbd ad18 57be 6452 c1bd
00000380: 710b 07be 84e8 5fbe 73fd bc3b e12b 14be
00000390: 861d 1abe f93a 04be 6c1b 69be dd0a fabe
000003a0: bd66 8dbe d9fe 0d3d 1714 fb3d 8d85 43be
000003b0: c3f8 6d3e 2af9 4dbd 3794 96bd 0791 babc
000003c0: 3f97 133e 7c54 bfbe 77bb 013e e0de 0ebe
000003d0: e225 7cbd db6c 043e ce48 96bb 38af 16bc
000003e0: 3091 113e df18 9cbe 2070 95bd a1d8 3a3d
000003f0: 1845 5bbe c3b4 bd3d 6873 843e e068 90bd
0.04676559 0.11290238 0.08331472 -0.24977383 0.33249655 -0.016979434 -0.12805279 -0.12455714
-0.104996935 0.023156002 0.051615577 -0.22808185 0.19951187 0.11124786 0.03399121 0.019487856
0.14575428 -0.19814166 -0.103716806 0.32910678 -0.01572857 -0.112256154 -0.39926985 0.0074793184
-0.0041923914 -0.12910023 0.04478857 0.108842105 0.027386963 0.044550817 -0.047690026 -0.24243246
-0.12156307 -0.030961487 0.06125139 -0.19861174 0.15069042 -0.122643374 0.34117413 0.2766689
-0.35080874 -0.18555062 0.32467377 0.2842077 -0.1025389 0.059283786 0.024484584 -0.1418927
-0.1813212 -0.132328 -0.07725566 -0.024075579 -0.32995048 -0.09139018 0.06242732 0.25927743
-0.37977874 -0.019000042 0.09666473 -0.10814821 -0.28391218 -0.14242461 0.36443818 0.43073246
-0.13878809 -0.13365029 -0.049415324 0.13019465 -0.0657108 0.112655394 0.04130804 0.19737905
0.014503955 -0.13939872 -0.13030589 0.11738577 -0.22399318 -0.18145727 -0.03929381 -0.11465456
-0.007387582 0.034077127 -0.0010460324 0.20384477 -0.21877329 -0.091530845 0.011245495 -0.13088083
0.024446238 -0.10958502 -0.15151663 -0.42388386 -0.047727235 0.3270748 -0.0153059065 0.13821515
0.24747913 0.029876336 -0.17229871 -0.240008 0.14085352 -0.013956718 -0.23867716 0.06206162
0.22474994 -0.19432677 0.07029678 -0.006113321 -0.34372917 0.09098518 -0.018467842 0.040785182
-0.26018366 0.19412294 -0.052492894 0.18004395 -0.3582079 0.1760812 0.13940409 0.06491862
-0.09422268 -0.36488557 0.3085826 -0.17011993 -0.20324993 0.21077563 0.14849272 0.05919455
0.015043981 0.15315749 -0.151954 0.054459315 0.08241858 -0.1319579 0.02319912 0.089139454
-0.035434715 0.108989276 -0.1639967 0.14522341 -0.014625132 -0.068139866 0.015128321 -0.008939461
-0.16973405 0.06403729 -0.18170743 -0.17787822 -0.08193176 0.3045299 0.23139001 -0.08222305
-0.18065427 -0.05251225 -0.17490265 -0.10517869 0.2172701 0.042160694 -0.11942919 0.1604019
-0.06602742 -0.10282331 0.07123576 -0.14698942 0.028545696 0.34710816 -0.016682776 0.200851
0.20268157 -0.32764277 -0.08657812 -0.15198705 -0.13807927 0.009914122 -0.0036298847 0.11183694
0.14164183 0.35760552 0.05976324 0.09864142 -0.0680571 0.03475735 -0.046753623 0.26319104
-0.19230378 -0.23799446 -0.006347974 -0.0033459873 0.15757301 0.3519609 0.0786126 0.100074895
-0.14136964 0.014857346 -0.044612236 0.030725421 -0.21653248 0.13433109 -0.14846094 0.07772401
-0.004035007 0.10548766 -0.11431929 -0.17923564 -0.0511227 0.07713166 0.13541798 -0.11705755
-0.06890166 -0.033513114 0.14003193 0.07580963 -0.039636523 0.28525132 0.015833862 -0.28122932
-0.024216399 0.07574306 -0.16877872 0.013551382 -0.19649361 -0.05409464 -0.21005507 -0.09439543
-0.13187958 -0.21866041 0.005767518 -0.14469863 -0.15050325 -0.12913121 -0.22764367 -0.48836413
-0.27617446 0.03466687 0.12259691 -0.19093914 0.23239426 -0.05028645 -0.073524885 -0.022774233
0.14413165 -0.37369144 0.12669168 -0.13952208 -0.061559565 0.1293215 -0.0045863157 -0.009197049
0.14215541 -0.30487725 -0.07296777 0.04561675 -0.21413076 0.09262993 0.25869298 -0.07051253

cdr2b_conv.bias f4 [40]
00000000: 9c6c 023d 24e0 6e3d 907a 4a3d d8b8 95bc
00000010: f489 f5bd 72f8 d33d 80b8 01bc def4 c43d
00000020: 1058 603d 4867 c0bc a5de eabd c004 8fbb
00000030: 3431 8e3d c8e3 843c e052 d43d 6a24 0cbd
00000040: 7d63 96bd 588f e73c a4e7 39bd 98ff ec3c
00000050: 7859 a23c 6678 f2bd 0086 85bb 707b 273d
00000060: 2070 dd3b b09d cd3c 46bb c2bd d651 d8bd
00000070: 26a6 a13d 319d 97bd f45f 62bd b027 3e3d
00000080: 10eb 50bc 003c 77ba 6823 2abd 9889 8abd
00000090: 347a d4bc 7dea fdbd 008e d739 aed1 ce3d
0.03184186 0.058319226 0.04943329 -0.018276617 -0.11989203 0.103501216 -0.007917523 0.09617017
0.054771483 -0.023486748 -0.11468247 -0.00436458 0.069429785 0.016221896 0.1036737 -0.034214415
-0.07343195 0.028266594 -0.045386925 0.02893047 0.019818053 -0.118393704 -0.004074812 0.040889204
0.006757751 0.025099605 -0.09508376 -0.10562484 0.078930184 -0.07403029 -0.05526729 0.046424568
-0.012751356 -0.0009431243 -0.041537672 -0.06764525 -0.025937177 -0.12398241 0.00041113794 0.10098587

cdr3b_conv.weight f4 [40, 20, 3]
00000000: 2822 68bd d532 723e 34e0 0fbd f341 72bd
00000010: d439 39be 6a4e 7cbd 8456 c0bd 5726 26bd
00000020: e3dd 4d3e 020c 7fbe 19d4 83be cf44 3dbe
00000030: 389c 483e 8884 bc3d 8f3f 60be 68c6 29bd
00000040: 874f b53e a59a 8bbd 10bd 0cbe 8e5a 563e
00000050: a30e b2bd e175 6cbc dc5d 8a3c 4414 83bd
00000060: 6d2d 86be 9aff c8be 4dbf 8e3e 08e5 8abd
00000070: aa71 35be 8479 84bd 4e03 c03e 7cf8 3fbe
00000080: 87e6 1cbd 3ade cebd f82e b93d 08eb c13d
00000090: f4d5 673d 4c40 c23c 001a c6bd 21ab 97bd
000000a0: f8f5 d0bc 0d95 d23d 7ddc 79bd 455c 9a3d
000000b0: 49f2 153e fdb2 16be 6c02 823b e473 3b3d
000000c0: 19fc ae3d bead 73be 68a0 73be c6a5 60bd
000000d0: a0c6 953d 431c f93c d86a 01be 2fb5 95bb
000000e0: 47f2 c4bc db4f 703d 00d5 173e ed0c b23e
000000f0: 9292 99bd cc1d b23d 1bce 263e 72af 8abe
00000100: 2bea febd adb7 8f3e 2056 0abd 0d5c 0ebe
00000110: 1cb8 913e 17e0 df3d b0e3 833d 1dad 263e
00000120: 852b 363e 9a30 98bd 11b5 8d3c 40a4 723e
00000130: 40fc 13be a6cf 093d f8c1 a53e 6fc7 90bd
00000140: def2 ffbc 6e1e e3bc 6c06 90bd 4855 853d
00000150: ecdc a0bd 2bb5 bc3d e069 5f3e 615a 1cbc
00000160: 1320 29be 9ad1 92bd 8e79 093e 4b80 f9bd
00000170: fa18 243e 7ab4 793e d459 9d3d d3a2 213e
00000180: e44e 3b3d 2b0b 3dbd a3ce 87be a784 193d
00000190: c748 b3be 09ed 293d ce73 1d3d 3f43 72be
000001a0: 2312 b03d 4eca 9d3d ce24 dfbd 360e 053e
000001b0: 9cc5 083d 309b 0dbe 32c5 503d f5e3 a9bd
000001c0: 150d 853c 1fd9 2d3e b98c a1bd 30af dd3e
000001d0: 77bd 333e b497 d73e 57f5 4b3d 78e9 8fbe
000001e0: 669d 6f3d 73db 563e c093 75be fbab d03d
000001f0: 15da 083e ffe1 5a3d 3e1c 18bc 38ec 5b3d
00000200: 7ae7 e63d df7e 70be 429a e83d b151 31be
00000210: bde6 05be be8a a1be 8fab 81bc 5f2a 36be
00000220: a591 1c3e 6d28 a73e 3f35 acbc 5a70 e2bd
00000230: 9270 883e d655 d13d 0b98 553e e67d ab3e
00000240: 734b 473c d151 0b3e 1377 203e 588a 1d3e
00000250: 8180 733e 785c a83d 5a7b 6c3e b17b 18be
00000260: 0d6b 06bd a409 f8be 5adb 983d 9c4e 12bd
00000270: 4ed3 ecbe c858 8b3e 3110 a03e 4958 a03e
00000280: bdf9 493d 64fb ab3b a55e 983d ee20 dc39
00000290: 04a8 b13d 7aa0 1ebe 4675 c33c f440 523e
000002a0: 2692 37be 3b0e 8dbc 6a82 523d 84c8 37be
000002b0: 5a5a adbe 6f89 4d3e dbe9 303d 4fd6 02bd
000002c0: 0c97 80bd 57c8 0fbe 056f 16be b43b a33d
000002d0: bd8c 643e d275 1f3d ec95 f03d a0b6 d93e
000002e0: 1f5e 6cbe 9c63 01bd c995 283e 3161 753d
000002f0: 8cbe 9ebd f2fe 3a3d 80bf 223e f788 3d3e
00000300: b760 44bd ccdc 8dbd a8a0 66be e9c9 7c3e
00000310: e492 e5bc 8c4f ae3d 2972 db3d d90b 8b3c
00000320: d3a9 4d3d f3c5 b13e 726b 623d c761 62bc
00000330: 1e41 6e3d a3ea 603d 8c04 a63e 7f3d 723e
00000340: 8ba9 6a3e e9a0 083d 0fad 033e 4f79 afbd
00000350: ccaf b1bd 7035 fc3c 04c4 be3e ab6d 04bd
00000360: 05dc 973b 3414 123e f8a5 513e 75de 8d3e
00000370: 7c3b a3be 0e94 9bbd 11ac 2e3d 29bd 07bd
00000380: 30b9 603d 4da6 ad3d 221b dc3d 7020 973e
00000390: d4f7 3b3e b70e 05be 4c3e 27bd 8dd9 cfbd
000003a0: 05fb 5b3c 4aee 153e fa84 45be 9efd 8cbe
000003b0: 3c85 953d 4172 b4be 4a83 40be 9ff4 c5bd
000003c0: 7082 de3c 959d 4a3e e8e2 6e3e c046 e6bd
000003d0: db7e c93d 43fc 80bd 97c9 e03c 9df2 b1be
000003e0: ecc4 84be 78fe a13e 05c8 563e 6f39 81be
000003f0: bec2 563e 00bb 0bbe 5809 4c3e b5e8 193e
-0.0566732 0.23652203 -0.035125926 -0.059144925 -0.18088466 -0.06159822 -0.093915015 -0.040563907
0.20104174 -0.24906924 -0.25747755 -0.1848328 0.19590843 0.09204966 -0.21899246 -0.04144898
0.35412237 -0.068166055 -0.13743997 0.20932981 -0.08694198 -0.014432401 0.016890459 -0.0640035
-0.26206532 -0.3925751 0.27880326 -0.067819655 -0.1771914 -0.0646849 0.3750252 -0.18747133
-0.038305786 -0.1010098 0.09042162 0.09468657 0.056600526 0.0237123 -0.09672928 -0.07405687
-0.025507912 0.102823354 -0.06100129 0.0753713 0.14643206 -0.14716716 0.003967574 0.04576482
0.085441776 -0.23796746 -0.23791659 -0.054845594 0.07313275 0.030408984 -0.12638414 -0.004568718
-0.024041308 0.058669906 0.14827347 0.34775487 -0.07498659 0.086970896 0.1628956 -0.2708698
-0.12447008 0.2806982 -0.03377354 -0.13902302 0.28460777 0.109314136 0.06439912 0.16276975
0.17790039 -0.07431145 0.017298253 0.23695469 -0.14451694 0.033645295 0.3237455 -0.07069289
-0.031243738 -0.027724471 -0.07032475 0.06510407 -0.078546375 0.092142425 0.21817732 -0.009543032
-0.16516142 -0.071688846 0.13425276 -0.12182673 0.16025153 0.24385253 0.07683149 0.15784769
0.045729533 -0.04615323 -0.2652484 0.037480023 -0.35016462 0.04148582 0.038440518 -0.23658465
0.08597209 0.07704602 -0.10895692 0.12993702 0.03339158 -0.1382873 0.05096931 -0.082954325
0.01624159 0.16977356 -0.07888169 0.4329772 0.17552744 0.42107928 0.04979452 -0.2810781
0.058499716 0.2098215 -0.23982143 0.10189053 0.13364442 0.053438183 -0.009284077 0.053692073
0.112746194 -0.23485897 0.11357547 -0.17316319 -0.13076301 -0.31551164 -0.015828876 -0.17789601
0.15289934 0.3264803 -0.021021483 -0.110565856 0.26648384 0.1022145 0.20858781 0.3349449
0.012163985 0.13605429 0.15670423 0.15384805 0.23779489 0.08220762 0.2309393 -0.14890935
-0.032816935 -0.48444855 0.07463713 -0.0357195 -0.46254963 0.27216172 0.31262353 0.31317356
0.049310435 0.005248474 0.07439927 0.00041986204 0.086746246 -0.15490904 0.023859631 0.2053259
-0.17926845 -0.0172187 0.051393904 -0.17947584 -0.33857995 0.20071958 0.043191772 -0.03194266
-0.0627881 -0.14041267 -0.14690788 0.07970372 0.22319312 0.03893072 0.11747345 0.42522144
-0.2308278 -0.031589136 0.16463389 0.059907142 -0.07751188 0.04565329 0.15893364 0.18509279
-0.047943797 -0.06926879 -0.22522223 0.24686398 -0.028024144 0.08511266 0.10715134 0.016973423
0.050210785 0.34721336 0.05527825 -0.013817257 0.05816757 0.054911267 0.32425344 0.23656271
0.22916238 0.03335658 0.12858985 -0.0856806 -0.08676109 0.0307872 0.37258923 -0.03233115
0.0046343827 0.1426552 0.20473468 0.27708784 -0.3188132 -0.075965986 0.042644564 -0.03313938
0.05486411 0.08478985 0.10747363 0.29516935 0.18356258 -0.12993895 -0.040830895 -0.101489164
0.013426547 0.14641681 -0.19289008 -0.27537245 0.07300803 -0.3524342 -0.18800083 -0.096657984
0.027161807 0.19786675 0.23328745 -0.11243963 0.09838649 -0.06298115 0.027439876 -0.34755412
-0.2593149 0.31639457 0.20974739 -0.2523913 0.20972726 -0.13645554 0.1992544 0.15030177

cdr3b_conv.bias f4 [40]
00000000: a01a c9bd d742 d9bd 588d ac3d c08f 643d
00000010: b62b a6bd 44c9 b23d 90b5 053c 1fcd cdbd
00000020: f858 cb3c b888 af3d f52e d7bd 16dc c83d
00000030: a8b9 bdbd 4035 273d 50b4 a9bc e2dd 92bd
00000040: b020 41bc 6850 3ebd 403b 183c 9589 ebbd
00000050: faa2 36bd 46d1 ccbd decb e53d b0e7 2d3d
00000060: ee79 f83d 20a8 ee3c 24bc 123d 10c5 efbd
00000070: 16c5 57bd 9074 483c 385a 853d 2818 11bc
00000080: e41d b83d a03f 06bc 0032 41bc 0876 c4bd
00000090: 322d acbd 3054 53bd e237 af3d 1014 403c
-0.098195314 -0.10608452 0.08425397 0.055801153 -0.08113806 0.087297946 0.008160964 -0.10048889
0.024822697 0.08570999 -0.10507003 0.09807603 -0.09263927 0.040822268 -0.020715863 -0.07171227
-0.011787578 -0.0464634 0.00929147 -0.11500851 -0.04458902 -0.10000853 0.11220525 0.042457283
0.12132631 0.029132903 0.035823956 -0.117075086 -0.05267819 0.012234822 0.065113485 -0.008855857
0.08990076 -0.00819388 -0.011791706 -0.09592825 -0.08407058 -0.05159396 0.08555581 0.011723533

pep_conv.weight f4 [40, 20, 3]
00000000: 2de7 813e 05a5 9cbe 124e 4b3c 376a 6bbe
00000010: ef7a 94bd f47a 24bd 765b 17be b08b 0d3c
00000020: eef9 c13c 53f7 ce3d 86fa 4c3e 3d34 4abe
00000030: 6106 b3be a429 4dbd afad f13d 9484 053e
00000040: aa59 33be 3f43 6bbd 6130 66bd fb2d 26be
00000050: 30f4 54be 298e fbbd 44f7 0abe eb63 e33c
00000060: 072f af3e 18d0 4cbd bfc2 683c 92fb 183e
00000070: f33a 653e 0821 efbd 0c25 0c3e b921 c8bd
00000080: 2823 aebe 2feb a6be fd1e 813e ceb3 5f3e
00000090: 9ce6 623d 1d95 133e 9d0c 2bbe 70bb b0bd
000000a0: 5b40 a9bd 3b15 77bc 9ad8 bfbe d0a8 523d
000000b0: 82e4 143c 76be afbc d176 223e 1a16 9abe
000000c0: b639 f3bc 22ea 95bd be9b 253d 3d3c 623c
000000d0: 1c57 cabe f5e9 e23e 0308 72bd 51b6 20be
000000e0: 78ae b43d b5d8 19be 42e6 43be 75ac f33d
000000f0: d363 5dbe 3bae 023e fc53 2cbe a22e 10bd
00000100: 38f4 d8bb 905a 703e 26b2 42be 87b5 1ebe
00000110: e0be 91be 08d0 4cbe 9d25 37bd 9706 033e
00000120: 298f bebd 07a5 93be 493e 513e b358 ffbd
00000130: 1b8d 67be 65c7 3ebd 92a8 efbb 77e5 c53d
00000140: f288 843e 884e af3d 10f0 2bbd 1eaf da3d
00000150: 3020 153e 5052 383e 6046 2ebe 3a70 1abe
00000160: 1513 1a3e 6807 373e 1718 a0be dc7b 23be
00000170: f619 7e3e 423f 7dbc be2f ce3d 441b 1dbd
00000180: bf92 393d ed24 86bd 0d0f 783c f294 57bd
00000190: 5189 053e 8740 21be 3ab5 f8bc 87b2 653d
000001a0: 800d cdbd 7c2b 873d 9305 81be f726 3dbe
000001b0: a145 9f3d cecf df3c 8a7f f7bb 99e4 dfbd
000001c0: 63e8 f33d c0f6 f2bd 852f 433d 0762 6b3d
000001d0: 95e2 49bc 1429 d2bb 2ff4 ad3e d643 26be
000001e0: 5a04 b1bd 0e45 95bb e18d 853d 567e 46be
000001f0: 1682 363e 5414 d93d 60ac bfbe 96dc 663c
00000200: b4c6 a03d 5e38 eb3e 1a0e 553e d87b e9bd
00000210: 619a fb3e 1bd4 ad3e e481 96be 9d3e acbe
00000220: b25c 59bd 7a5a 7e3e 318e b0bc ccf7 bf3d
00000230: 144a d73e 5344 f23d 7d2f 84be b897 81be
00000240: 740b b6bd b5b1 89be 3f8a 9abe fc9e adbd
00000250: 5b8d ef3d 593f 8f3e a229 d03d 4b23 24be
00000260: 5771 24be 4b84 7ebe 3685 033e c71c 9bbe
00000270: 2f46 b83e 1f56 293e 0bf9 49bd d75b 63be
00000280: 25c1 ba3e fcf1 873e 0e00 34bd 299c 833e
00000290: c567 0ebe 3af2 34bd e073 da3d c53e 843d
000002a0: 4cf7 b63e f4ec afbe a428 29bd a8ea bcbd
000002b0: 079f 6cbb d16f 5bbe 4092 92bc f993 023f
000002c0: 95e5 05be 866b f4bd aa14 083e cf9b ce3d
000002d0: 06fa 08bc 2095 14bb 0bc8 b33e 74dd 24bd
000002e0: ebb7 d6bc 9c29 2abe bf65 ee3d 2dd9 4e3d
000002f0: 59b7 0abd 42c6 733d 7243 0cbe e8f3 ec3c
00000300: b0ff 2b3e 6479 193e 6f8c febd 7634 a9bc
00000310: 36d1 8a3c a8a4 893e e6f9 96bd 81ca 38be
00000320: 1313 563d a5b2 983e eb24 03be d56d 01be
00000330: c290 6ebe e6ba 47be fa64 973c b4d6 1fbd
00000340: a3e1 5ebe 26c8 25bd b39b 78be 11f2 19be
00000350: 6841 f13c fd9b a43e 8b23 963e 35d4 6ebd
00000360: 6cb1 3d3d 845f 2ebe c48e 06bf c6c0 fa3d
00000370: 4b29 ac3e a415 2dbe 81b2 1abe 14b4 f23d
00000380: e000 a3be 65a9 61bd 6d5c 5abc bcc9 25bd
00000390: 0ca2 08bd 394d d73d bcb9 9cbe 291d 803e
000003a0: 214e aabe d760 a53e fe87 54bd 8ceb 043c
000003b0: 5ef0 f63d d6a9 a43d 2da5 5dbd 73e7 1fbe
000003c0: 13c0 d7be 3a0e dfbc 7511 63be b6d4 c73c
000003d0: 83dc 3bbe beb4 02be ac4b 0d3e c069 b9bd
000003e0: 549a 6e3c 0315 07be ac1b 3bbe 43a6 10be
000003f0: a3c1 45bd ab4b e0bc 0f15 a8be e80b 7e3e
0.25371686 -0.3059465 0.01240875 -0.22989736 -0.0725001 -0.04015632 -0.14780983 0.008639261
0.023678746 0.10105767 0.20017442 -0.1974649 -0.34965804 -0.05008854 0.11800706 0.13038856
-0.17514673 -0.057437178 -0.05619848 -0.16228478 -0.20796275 -0.12282974 -0.13570887 0.027757606
0.34215567 -0.05000314 0.014206587 0.14939716 0.22385769 -0.11676222 0.13686007 -0.09772057
-0.34011197 -0.32601306 0.25218955 0.21845934 0.055395707 0.14412351 -0.1670403 -0.08629501
-0.08264228 -0.015080745 -0.3746994 0.051430523 0.009087684 -0.021453124 0.15865637 -0.30094987
-0.029690605 -0.07320048 0.04043173 0.013808307 -0.39519584 0.4431912 -0.05908967 -0.15694548
0.0882234 -0.15024073 -0.19130805 0.11898128 -0.21620111 0.12761776 -0.16828912 -0.035200723
-0.00662091 0.23472047 -0.1901327 -0.15498935 -0.2846594 -0.20001233 -0.044713605 0.12795483
-0.093046494 -0.28836843 0.20433916 -0.1246809 -0.22612421 -0.046576876 -0.0073137963 0.096629076
0.2588573 0.085599005 -0.04197699 0.10677932 0.1456306 0.1800015 -0.17019033 -0.15081874
0.15046342 0.17873919 -0.3126838 -0.15965217 0.24814591 -0.015456976 0.100677 -0.03835608
0.045305964 -0.06550012 0.015140307 -0.05263228 0.13040663 -0.15747271 -0.030359853 0.05607846
-0.100123405 0.06600091 -0.25199565 -0.18471895 0.077769525 0.027320769 -0.0075530456 -0.109322734
0.119095586 -0.1186347 0.04765274 0.057466533 -0.012322088 -0.0064135883 0.3397536 -0.16236815
-0.08643408 -0.004555351 0.06521202 -0.19384131 0.17823061 0.105995804 -0.374362 0.014090678
0.078503996 0.45941442 0.2080616 -0.114005744 0.4914122 0.33950886 -0.29395974 -0.3364152
-0.053066917 0.24839202 -0.021552177 0.093734354 0.42048705 0.11829438 -0.2581748 -0.25311065
-0.08888903 -0.26893392 -0.30183598 -0.084775895 0.11696883 0.27978018 0.10164191 -0.16029088
-0.1605886 -0.24855153 0.12843785 -0.30295393 0.35991046 0.16536759 -0.04930977 -0.22203003
0.36475483 0.26551807 -0.043945365 0.25705078 -0.13906772 -0.044176318 0.10666633 0.06457285
0.35735548 -0.34360468 -0.041298524 -0.09224445 -0.003610553 -0.21429373 -0.017892003 0.5100704
-0.1307586 -0.11934571 0.13289133 0.10088312 -0.0083603915 -0.0022671893 0.35113558 -0.040250257
-0.026210746 -0.16617435 0.116405 0.050500084 -0.03386626 0.059515245 -0.13697603 0.028924897
0.16796756 0.14987713 -0.12429129 -0.020654898 0.016945463 0.26883435 -0.07371883 -0.18045999
0.052264284 0.29823795 -0.12807052 -0.12639554 -0.23297408 -0.1950489 0.018480767 -0.039023116
-0.21765761 -0.04047408 -0.24278145 -0.15033747 0.029450133 0.3215026 0.29323992 -0.058307845
0.04631178 -0.17028624 -0.52561593 0.122438 0.33625254 -0.16902786 -0.15107156 0.118507534
-0.31836605 -0.055093188 -0.0133277 -0.040475592 -0.033357665 0.10512776 -0.30610454 0.25022247
-0.33262733 0.32300445 -0.051887505 0.008112799 0.12057565 0.08040206 -0.054112602 -0.15615635
-0.42138728 -0.027228463 -0.22174628 0.02439342 -0.18345837 -0.1276426 0.13798398 -0.09053373
0.014563162 -0.13191609 -0.18272275 -0.14125924 -0.04828037 -0.027379831 -0.32828566 0.2480923
