scripts/modelling/stored_models/cnn_model.pt (torch, 64941 bytes, 15 tensors)

conv1.weight f4 [100, 27, 5]
000000 42 d6 44 be 27 86 2a 3e 05 dd cd bd 16 67 36 be
       -0.19222358 0.16652738 -0.10051922 -0.17812762
000010 ba 3f 0a be 5f 8b 79 bd 2e 76 b1 bc 82 43 b1 bd
       -0.13500872 -0.06092393 -0.021662798 -0.08655454
000020 3c eb 73 bd a9 dc e6 bd 2a 14 20 be d7 42 c0 bd
       -0.05955051 -0.11272556 -0.15632692 -0.09387749
000030 ef 84 05 3e b5 e0 b3 3c ec 01 7b 3c 7c 98 a5 bc
       0.13038991 0.021957735 0.015320282 -0.020214312
000040 5c 32 5c 3d 26 c2 80 3e b0 af 91 bd ad 55 b7 bc
       0.053758964 0.25148124 -0.07113588 -0.02237972
000050 2c c1 38 3e 12 fc 66 bd 07 bc 09 be fe c9 1b be
       0.18042439 -0.056392737 -0.13450633 -0.15213773
000060 3a cc 8a bd 57 5d b1 bd b6 35 11 bd 38 9c bb bb
       -0.067772344 -0.08660381 -0.035451613 -0.00572541
000070 3b ef b6 bd 9f dc 5f 3d 07 8f 79 bc d1 f9 21 be
       -0.08932348 0.05465376 -0.015231854 -0.15817954
000080 45 bd 9b bc f7 7e ab bd d4 02 b1 bc 59 54 d9 bd
       -0.01901115 -0.08373826 -0.021607794 -0.10611791
000090 b9 d8 87 bd f3 2b b0 3d 2f 86 07 3e 63 9c 59 3d
       -0.066331334 0.08602133 0.1323478 0.053127658
0000a0 7c 69 ef bb fe 18 ae 3a 68 96 96 bd 77 a9 d2 bd
       -0.007306276 0.0013282595 -0.073529065 -0.10286229
0000b0 24 93 b8 3e 94 e9 f1 bd df 88 d1 bd 7f c1 a8 3d
       0.3604976 -0.118121296 -0.10231184 0.082400315
0000c0 29 f9 31 3e 20 1b 96 bb 94 08 c9 bb 98 a6 ab b9
       0.17380203 -0.0045808703 -0.006135056 -0.00032739784
0000d0 f3 d2 3c bd c3 a3 9b 3e c4 d2 13 3e f2 d5 01 3e
       -0.046099614 0.30398378 0.1443587 0.1267927
0000e0 22 a1 6f 3e da 25 be bb bb 47 54 3e 99 90 27 be
       0.23401311 -0.005802852 0.20730488 -0.16363753
0000f0 1b b4 cf 3d 81 83 28 bd 2f a0 ee bd 18 05 69 bd
       0.10141774 -0.041141037 -0.11651646 -0.056889623
000100 d3 9b 3b bc aa 17 c7 bd 71 54 4e bd a9 99 01 be
       -0.011450726 -0.097213104 -0.0503735 -0.12656273
000110 ca 0f a7 3d 67 b5 c5 bd 5f e3 fe 3c 1e e2 a6 bd
       0.081573084 -0.096537404 0.031114278 -0.08148597
000120 3c 54 60 3e f0 91 8b 3d 21 ce a7 3d 3c f1 51 be
       0.21907133 0.06814945 0.08193613 -0.2050218
000130 a7 9e d9 bd be 33 31 be 72 fb 44 3e c8 5d df bd
       -0.10625964 -0.17304894 0.19236544 -0.10906559
000140 0a 73 1e 3e 95 e1 a8 3e 61 8c 26 be 94 47 10 bd
       0.15473571 0.32984605 -0.16264488 -0.035224512
000150 32 1e 6e 3d 68 9f 21 3e 3f 2c 11 be af 68 0a be
       0.058134265 0.15783465 -0.14177035 -0.13516496
000160 01 2b b0 bd b1 70 bd 3d 97 6d 5c bd ed e5 88 3c
       -0.08601952 0.0925001 -0.05381545 0.0167112
000170 14 6e 40 bd b3 42 1e 3d a6 ce 80 3c 0e 96 40 3e
       -0.04697998 0.038637828 0.015723538 0.18807241
000180 fa 17 a9 bd e2 c4 0a be 83 27 5c bc 3e ea 07 3e
       -0.08256526 -0.13551667 -0.013437155 0.1327295
000190 26 42 c1 bd 34 c3 80 bd 4f bd 45 3d 98 aa 71 be
       -0.09436445 -0.06287232 0.048276242 -0.23600233
0001a0 8e a2 11 3e ca 86 fb 3d 01 4f 92 be 0a f6 96 3c
       0.14222166 0.12281568 -0.285759 0.018427867
0001b0 fd 0a 23 3e 61 96 ab bd f8 5c 1d be eb 49 96 3e
       0.1592216 -0.08378292 -0.15367496 0.2935327
0001c0 07 6c a1 3d d9 94 bf 3d 59 10 df bd 02 24 70 3d
       0.07881933 0.09354562 -0.1089179 0.05862809
0001d0 8b 8a 7f be 75 20 e2 bd 2e 01 3d 3e f3 0d a7 3d
       -0.24955194 -0.11041347 0.18457481 0.081569575
0001e0 30 a7 30 3e 81 2d f4 3c 0b b9 50 3d 90 52 13 3e
       0.17251277 0.029806854 0.05095772 0.14386964
0001f0 06 b3 36 bd 06 4f b7 bd de 37 74 bb b0 a6 19 3e
       -0.044604324 -0.089506194 -0.0037264745 0.15004992
000200 45 c4 86 bc a4 a3 2f 3e 42 6f 92 3c 97 84 e2 bd
       -0.01645101 0.17152268 0.017875317 -0.11060446
000210 87 50 de bd d2 28 56 be 09 b8 3c 3e d5 1b 4d be
       -0.10855203 -0.20914009 0.18429579 -0.20030148
000220 22 55 27 3d 05 68 5c 3e a6 b2 c9 3e 5a 54 6a bd
       0.040852673 0.21524055 0.3939411 -0.05720935
000230 66 cf 3f bd df 41 06 3c e7 43 5f 3c d1 5a 9c bd
       -0.04682865 0.008194416 0.013627029 -0.07634509
000240 f4 4a 75 bd ef 56 a9 bd bb 47 78 3e 4b 46 c5 3c
       -0.059885934 -0.082685344 0.24246113 0.02408137
000250 4f b2 a2 3d 5d da 75 bd 7d 20 bf bd 7b af de bd
       0.07944166 -0.0600227 -0.093323685 -0.10873314
000260 a8 65 0a 3d 61 50 79 bd e9 6b d9 bc 1b bf c4 3e
       0.033788353 -0.06086767 -0.026540713 0.38427052
000270 02 78 ed bd 97 f7 f4 bd 16 8f 5c bd 13 c5 2f bd
       -0.11595155 -0.119612865 -0.053847395 -0.042912554
000280 ae 24 e6 bd ad 3c 4f 3d fc 4d 24 be 10 fd 87 3d
       -0.11237465 0.050594974 -0.16045374 0.06640065
000290 17 38 4e 3e e8 d3 1f 3e f1 dd 12 3e dd 16 f7 3c
       0.20138584 0.1560818 0.14342476 0.03016227
0002a0 5f a1 9f 3d 4f 53 8b bc 78 34 99 bc 21 e0 39 bd
       0.07794451 -0.017007498 -0.018701777 -0.04537976
0002b0 f0 73 b7 3e 7f 38 cd bc af b2 7a bd 81 5e 84 bd
       0.3583064 -0.025051353 -0.061205562 -0.06463338
0002c0 9b 08 3d bd 3a da 6b be 34 76 59 bc f8 20 89 3b
       -0.046150785 -0.23032466 -0.013272811 0.0041848384
0002d0 68 16 59 bd 5f 3f 9d bd 89 37 1a 3e bd eb 5b 3e
       -0.052999884 -0.07678103 0.15060247 0.21476646
0002e0 87 c3 04 be 4a 0e 44 3c 4e f3 ca bd aa 5b 6d 3d
       -0.12965213 0.011966297 -0.09909688 0.057948746
0002f0 d9 ae 7c bd 86 f1 3e bd 46 28 83 3e cd ab 67 be
       -0.061690185 -0.046617053 0.25616664 -0.2262413
000300 86 c0 1f be 4f c0 e9 bc 91 0e e6 bc 04 6e 92 bd
       -0.15600786 -0.028534083 -0.028083118 -0.0714989
000310 5f 56 af bd 06 3f b7 3b ec 04 1d bd 8c 73 2c be
       -0.08561396 0.00559223 -0.038334772 -0.16840953
000320 2f 1a 90 3c bf 49 03 3e 98 b1 a6 bc 08 23 b0 bd
       0.01759061 0.128211 -0.020348355 -0.08600432
000330 03 56 e3 bc 3e 4b 09 3e 0c 1e 52 be fe 0c a7 bd
       -0.027750975 0.13407609 -0.20519274 -0.08156775
000340 81 1c 0d 3e 2b 53 9f 3c 52 96 03 3e 3f a5 27 3d
       0.13780405 0.019448837 0.12850311 0.040929075
000350 d4 9b cf bd cb b5 14 be 33 fb 18 3e 06 50 d4 bd
       -0.10137144 -0.14522474 0.14939575 -0.10366826
000360 ca 82 4b 3e 4b cf 0f be 01 b9 2a be 40 7e b9 bd
       0.19874111 -0.1404392 -0.16672136 -0.090572834
000370 a7 2f cb bd ca 9a 4f bd 19 c5 44 be 52 58 c6 3b
       -0.09921198 -0.050684728 -0.19215812 0.006053009
000380 dd cf 50 be 45 92 77 bd 59 52 0c bc ef 3c ab bb
       -0.20391794 -0.060442228 -0.008564555 -0.0052257697
000390 04 77 19 be 3b 55 86 3d ee 54 09 be bb 77 30 be
       -0.14986807 0.06559225 -0.13411304 -0.17233174
0003a0 27 c0 80 be 7b fa 00 be c4 b1 a7 3c ce be 3a be
       -0.251466 -0.1259555 0.020470507 -0.18236849
0003b0 67 f0 2a be 02 8b 06 bd 5f 67 82 3d 19 dc 10 bd
       -0.16693269 -0.032847412 0.06367373 -0.03536615
0003c0 57 9d 70 3d dc f7 1d be 3a b8 4c 3e 19 4a 0c bc
       0.0587438 -0.15426582 0.19992152 -0.008562588
0003d0 30 06 f4 bc 3e d8 27 3d 9d c8 c9 3e 6e 43 b9 3c
       -0.029788107 0.04097771 0.39410868 0.02261516
0003e0 0c 21 4e 3d f3 00 7d 3d ff 87 55 3d 93 67 74 be
       0.050324485 0.061768483 0.05213165 -0.23867635
0003f0 f8 18 90 be 82 5b 7b bd c9 c2 ac bd 84 70 99 3d
       -0.2814405 -0.061366566 -0.0843559 0.07492164

conv1.bias f4 [100]
000000 b8 9c 09 b3 00 0d 31 b2 cc 1e f1 1a a7 29 0a 80
       -3.2040333e-08 -1.0305712e-08 9.972502e-23 -9.33297e-40
000010 70 7e 48 b3 6c 9f b6 b5 52 19 06 b5 8a a1 3d 2c
       -4.6681123e-08 -1.3606455e-06 -4.9955736e-07 2.6948188e-12
000020 ce 88 26 35 24 3f 24 2d f1 0f e6 34 80 34 1b 32
       6.2038896e-07 9.336341e-12 4.2852437e-07 9.034125e-09
000030 34 66 21 a9 34 06 11 b6 08 db 9d 33 1f f1 f7 34
       -3.583783e-14 -2.1610294e-06 7.350724e-08 4.6182774e-07
000040 b4 e7 4a b2 da 51 0f 36 69 73 ae b4 ac 05 be b3
       -1.1810631e-08 2.1356304e-06 -3.2493998e-07 -8.848596e-08
000050 f8 79 55 34 05 c0 97 b4 90 74 ed b3 a4 4f e4 b3
       1.9881543e-07 -2.8265654e-07 -1.1057375e-07 -1.0631564e-07
000060 37 78 02 b4 30 24 bf 1f 72 9c b9 34 26 8e b0 34
       -1.2150927e-07 8.0951514e-20 3.4572764e-07 3.288598e-07
000070 f5 bd 84 b8 8e be 40 b3 44 32 2a b5 74 7e 34 ae
       -6.329633e-05 -4.4876792e-08 -6.340308e-07 -4.1039575e-11
000080 f8 90 aa b3 f5 29 d3 b3 30 3f 36 a6 78 e3 9c b5
       -7.9426115e-08 -9.833085e-08 -6.322957e-16 -1.1689108e-06
000090 e8 5c 31 24 3c 6d 7a b6 6e e3 16 b3 64 8c 8e b3
       3.845945e-17 -3.7316486e-06 -3.5131443e-08 -6.637927e-08
0000a0 c7 c3 b4 b3 95 37 c4 33 e2 98 fe 33 cc ef 33 b5
       -8.417515e-08 9.1370715e-08 1.1855606e-07 -6.7031647e-07
0000b0 b6 ce 49 b4 00 5c 1b af 29 de a6 34 b5 68 a0 09
       -1.8794785e-07 -1.4129853e-10 3.1081552e-07 3.8617065e-33
0000c0 5d 3f 18 35 3e ae 6a b5 48 e3 88 b4 a8 98 b7 33
       5.671662e-07 -8.742535e-07 -2.5497343e-07 8.5493696e-08
0000d0 40 57 4e 32 62 20 ac b3 11 9f b2 b3 d6 e7 00 35
       1.20106165e-08 -8.0152645e-08 -8.317705e-08 4.802108e-07
0000e0 ee 39 74 b4 5c 3c a7 35 70 1b 44 b5 e0 cb 06 b8
       -2.2745346e-07 1.2460036e-06 -7.3055617e-07 -3.2137963e-05
0000f0 27 0c 17 25 31 74 b6 35 4f e2 ef 33 31 ea 2a b5
       1.310128e-16 1.3593873e-06 1.117047e-07 -6.367073e-07
000100 33 3d 4d 34 35 7d eb b3 43 97 77 b4 f2 98 31 32
       1.9114377e-07 -1.0965815e-07 -2.3058696e-07 1.0337532e-08
000110 38 df e9 33 ec b2 6f b2 1a e6 85 b4 45 20 e4 a6
       1.0890511e-07 -1.3952313e-08 -2.49406e-07 -1.5829425e-15
000120 0c b4 bf 32 00 ae 90 33 84 8f 57 b4 60 c6 af 33
       2.2317202e-08 6.737173e-08 -2.0075646e-07 8.185157e-08
000130 80 00 ee b1 a6 0e a0 b2 26 45 ec 34 f0 21 1f 34
       -6.9267685e-09 -1.8633113e-08 4.4008738e-07 1.4820375e-07
000140 1e a6 2d 32 d3 b5 dc b4 db ea 7e 35 62 40 ba 39
       1.0107696e-08 -4.1110488e-07 9.4964133e-07 0.00035524654
000150 24 22 d5 9a bd d2 13 34 0e ab 14 35 48 14 8d 2f
       -8.814989e-23 1.3767108e-07 5.5383214e-07 2.566216e-10
000160 24 4a 0e 35 5d 94 7c b0 1a e6 0e 35 80 61 61 9b
       5.300701e-07 -9.1887903e-10 5.3233964e-07 -1.8643068e-22
000170 d1 28 9f 34 ed 5b 92 33 ed fc ff b4 52 30 ff 34
       2.9645756e-07 6.815376e-08 -4.768148e-07 4.753261e-07
000180 87 b3 e2 b1 b2 ed 4e b4 96 28 b2 32 3a 6b 5c 34
       -6.5978756e-09 -1.9271718e-07 2.0740384e-08 2.0528105e-07

dense1.weight f4 [1, 127]
000000 0e a2 be 3e e4 1d 00 bf 60 0c a4 b2 2a 21 0f 9c
       0.37233013 -0.5004561 -1.909774e-08 -4.7357595e-22
000010 a5 20 bd 3e 3f eb bd 3e 75 5b 8e 3e 5e f7 52 bb
       0.36938968 0.3709354 0.2780415 -0.00321909
000020 da ca 91 3e 7c df 0d b6 4f e4 01 bf f0 67 a2 3d
       0.28475076 -2.1140722e-06 -0.50738996 0.07929981
000030 c1 41 01 b7 d0 19 11 bf ba 85 c3 3e 88 8b 99 3e
       -7.704309e-06 -0.5668001 0.38187963 0.29989266
000040 bb 1f cf bc 08 bb c7 3e 19 30 c7 3e 74 fc b1 3e
       -0.025283685 0.3900988 0.38903883 0.3476292
000050 87 31 ba 3e f9 22 d7 be 52 95 43 be f8 23 0d 3d
       0.3636591 -0.4201887 -0.1909993 0.03445813
000060 74 83 14 be 26 13 6f 34 4a e8 6d 3e bd e2 85 be
       -0.1450327 2.2265576e-07 0.23233142 -0.2614955
000070 cb 9e b5 3b a9 9b 02 3e 61 86 ac be 1f 81 71 3b
       0.0055426112 0.12754692 -0.33696273 0.0036850644
000080 7d 53 94 3e 69 89 39 3e 7d 0d 1d b8 f5 b4 ac 3e
       0.28969947 0.18118824 -3.744428e-05 0.3373181
000090 a5 6f 49 37 a6 69 92 be c0 af 45 3d 22 8e 6d 3e
       1.2006528e-05 -0.28596228 0.04826331 0.2319875
0000a0 ef 13 aa 3d 02 0c b4 3d 31 42 93 be d9 7f 97 3e
       0.08304583 0.08791353 -0.28761438 0.29589728
0000b0 40 6c de 39 ef 18 f6 3d c6 83 20 3e 34 08 8c af
       0.00042423792 0.120164745 0.15675268 -2.547168e-10
0000c0 70 2b 79 be 93 87 8c be c1 00 ac be 60 7d a4 be
       -0.24332976 -0.27447185 -0.33594325 -0.32126904
0000d0 66 31 b0 3e 89 40 82 be d2 56 4c 3e cf d5 8c be
       0.34412688 -0.2543986 0.19954994 -0.27506873
0000e0 fc a1 85 be 8e ea a6 be 81 6e 12 be 86 13 f6 ba
       -0.26100147 -0.32600826 -0.14299966 -0.0018774129
0000f0 52 58 52 34 8c 09 ae be 63 72 1a 3e 7e c2 b6 3e
       1.9589905e-07 -0.3399166 0.15082698 0.3569526
000100 92 25 ab be 64 19 4a 3e da e9 fb bd d7 a4 99 be
       -0.334271 0.19736248 -0.12300463 -0.30008575
000110 b6 27 4d be 2d 07 35 bc d2 85 45 3e 95 a9 49 ba
       -0.2003468 -0.011049074 0.1928933 -0.0007692811
000120 2e d8 8d bc a0 1c c2 be a2 1b 1f be e5 9d 1f 3d
       -0.017314997 -0.37912464 -0.15537885 0.03896894
000130 45 aa 63 3e e9 d1 25 bd e0 ea eb 3e 5c 94 91 be
       0.22232921 -0.04048339 0.46077633 -0.28433502
000140 d2 c7 b8 bc 9a 77 b2 be 01 01 b2 be 7c ce e2 ba
       -0.02255622 -0.34856874 -0.3476639 -0.0017303969
000150 d5 b9 1e b3 b9 aa 9a 3e 22 fb f6 3d 25 f9 86 ba
       -3.6956255e-08 0.30208376 0.120596185 -0.001029764
000160 4d f5 b4 be ca 0b 23 b9 7b 70 7b be 2d 5a 20 b6
       -0.353434 -0.00015549283 -0.24554627 -2.3894347e-06
000170 d5 bf d3 be 53 da 11 3e 54 43 93 3e 24 5c c4 be
       -0.41357294 0.1424344 0.28762305 -0.38351548
000180 dc f2 12 bd d3 cb 9f be cc 05 a3 bd 35 97 2a 3e
       -0.03587614 -0.31210193 -0.0796009 0.16659243
000190 da dc e3 bb 60 41 11 bc 43 31 36 3e 62 93 85 3d
       -0.006953818 -0.008865684 0.1779223 0.06522252
0001a0 47 07 b5 bd 41 82 0a be 01 7c 9e bc 7f 6a 21 b4
       -0.08839279 -0.1352625 -0.019346239 -1.5033037e-07
0001b0 dc f0 a1 ba 90 6f 26 36 c6 40 d9 39 af 64 5f ba
       -0.0012355107 2.4800866e-06 0.00041437725 -0.0008521778
0001c0 ce 2f e6 bb 65 67 5c bc a7 8a 93 b8 a4 b9 0a bb
       -0.0070247417 -0.013452386 -7.035332e-05 -0.002116778
0001d0 cf 64 d5 b8 64 39 02 bb dd a6 d4 39 1f 46 08 be
       -0.000101754085 -0.0019870633 0.00040560114 -0.13307999
0001e0 09 dd f6 34 4b 31 2e b5 18 33 20 ba b5 c4 e5 39
       4.5981895e-07 -6.489178e-07 -0.0006111129 0.00043824842
0001f0 de 26 ff 39 3d 4c a9 37 5e 81 bb 3b
       0.00048666348 2.0181871e-05 0.005722209

bn_start.weight f4 [27]
000000 fe 3b 34 3f 91 64 93 3e ad 0e 04 3f 67 c2 11 3f
       0.7040404 0.28787664 0.51584893 0.5693726
000010 64 97 4e 3f 07 50 39 3f 96 8f a0 3e f4 bd 23 3f
       0.80699754 0.7238774 0.31359547 0.6396172
000020 43 fc fb 3e 2b e7 24 3f 3b 86 0c 3f c2 5e 1d 3f
       0.49215898 0.64415234 0.5489232 0.61472714
000030 8d 10 ea 3e 28 41 1a 3f b7 75 09 3f 8e 7b 3e 3f
       0.45715752 0.6025567 0.53695244 0.7440728
000040 9a 14 2a 3f bf 6f 41 3f c3 dd b1 3e 98 54 fd 3e
       0.66437685 0.75561136 0.34739503 0.49478602
000050 46 86 26 3f c1 1b df 3e 72 a6 f6 3e 13 d0 20 3f
       0.65048635 0.43575862 0.48173863 0.62817496
000060 11 b8 0e 3f e9 8a 3a 3f 4c b8 13 3f
       0.55749613 0.7286821 0.5770309

bn_start.bias f4 [27]
000000 ac 6e 1b bd aa db e2 bd 98 b5 44 bd 07 b6 ff 3b
       -0.03794734 -0.11077054 -0.048024744 0.007803682
000010 0e c2 42 bc e2 28 ae 3d 71 5b 43 be 6a 59 71 bc
       -0.011887087 0.085038915 -0.19077851 -0.014730791
000020 a6 6b 95 3c f5 0c ae bd 0a ca 1c be e6 98 f0 3b
       0.018239807 -0.08498565 -0.15311447 0.0073424457
000030 c5 3c 24 3d 99 4c de bc d7 64 35 3d 0b c8 a0 3d
       0.040097017 -0.027136134 0.04428562 0.07850655
000040 9b 04 b8 3d cd 76 cd bd ce 64 97 bd ee f8 74 bd
       0.089852534 -0.10032425 -0.07392274 -0.05980771
000050 70 81 22 3e 65 4e 85 be 5f 35 c6 bd 4e 10 98 3d
       0.15869689 -0.26036373 -0.096781485 0.07424985
000060 18 55 da bc 98 4e 6a 3c da 6d fb 3d
       -0.026651904 0.014300965 0.12276812

bn_start.running_mean f4 [27]
000000 e1 7d 84 3d 3f ef 2f 3b c4 b4 1b 3d 2f 53 0e 3d
       0.06469322 0.0026845483 0.03801419 0.0347473
000010 8c dc 87 3d ac 16 bb 3d 0f dd 81 3c 26 e1 13 3d
       0.06633863 0.09135184 0.01585248 0.03610339
000020 a1 a4 89 3c 74 a7 81 3d 29 4a 83 3c 24 7b 73 3d
       0.016802134 0.06330767 0.016026573 0.059443608
000030 bc 93 76 3c 02 b3 18 3d 52 03 ab 3c 44 eb da 3d
       0.015049871 0.03728009 0.020875607 0.106894046
000040 e3 da 60 3d 2d 4a 60 3d 8d e3 33 3b 8c 97 45 3d
       0.054896247 0.05475824 0.0027448863 0.04824023
000050 26 ca 9c c0 43 63 45 3f 1a 20 38 40 88 32 99 bf
       -4.8996763 0.77104586 2.8769593 -1.1968546
000060 fa b2 82 3f 67 84 16 be b9 21 d6 bf
       1.0210869 -0.14698945 -1.6729041

bn_start.running_var f4 [27]
000000 e3 de 77 3d 46 7c 2f 3b 11 d1 15 3d 8b 61 09 3d
       0.060515296 0.0026776954 0.036576334 0.03354029
000010 a4 c0 7d 3d af 04 aa 3d 7a ad 7f 3c 17 8b 0e 3d
       0.061951295 0.083016746 0.015605325 0.034800615
000020 8e 59 87 3c a3 ed 72 3d e1 2f 81 3c 66 05 65 3d
       0.016522195 0.05930866 0.0157699 0.05591335
000030 0d e3 72 3c cc 07 13 3d 61 73 a7 3c 18 8b c3 3d
       0.014824641 0.035896108 0.02044076 0.095480144
000040 f9 8c 54 3d 03 08 54 3d 5d 62 33 3b af 16 3c 3d
       0.051892255 0.051765453 0.0027371862 0.04592007
000050 5a 43 06 41 2b ce 08 3f 2d 20 8b 40 1a e0 e6 3f
       8.391443 0.5343959 4.3476777 1.803714
000060 1a ea c9 3f 26 af 32 3e 94 89 c8 40
       1.5774567 0.17449626 6.266794

bn_cnn1.weight f4 [100]
000000 c3 b6 53 3d f2 dc e0 3d c3 e6 45 aa 11 21 4d 1a
       0.051687967 0.10979642 -1.7577176e-13 4.2419717e-23
000010 27 ab 8a 3d 19 35 78 3d d3 85 8e 3d 4f b7 93 b9
       0.06770926 0.060597513 0.06959119 -0.000281746
000020 1b 46 cf 3d 85 4d 2c b7 49 e8 82 3d c7 c7 01 3d
       0.101207934 -1.0270048e-05 0.06391961 0.031684663
000030 c0 14 39 b1 3a 0c 80 3d 7e 52 07 3e 93 1f d8 bd
       -2.6932838e-09 0.06252332 0.13215062 -0.10552897
000040 70 da 93 bc f6 a8 53 3d 08 06 2a 3d d3 18 5d 3d
       -0.018048495 0.051674806 0.041509658 0.053978752
000050 f1 79 db 3d 35 80 55 bd 0f 25 a4 3d 9c c3 49 3c
       0.10716618 -0.05212422 0.08014881 0.012314703
000060 4c 34 51 3d 52 90 7f ac 7c 3c 49 bd 8c 06 13 3d
       0.051075265 -3.6317793e-12 -0.049129948 0.035894915
000070 65 06 8e bd c8 68 e0 3c c5 d6 99 3d 4c c8 38 bd
       -0.069348134 0.027393714 0.07511667 -0.045112893
000080 a8 c8 4c 3d de d7 15 3d 9c 00 d2 af a4 bb cc 3d
       0.04999605 0.03658282 -3.819921e-10 0.09996727
000090 b7 bc e6 ad 75 1d 82 3d ca e3 34 3d 70 3e 22 3d
       -2.6231779e-11 0.06353275 0.04416255 0.039610326
0000a0 93 5d d4 bc 68 38 cd bc 2c f9 49 3d b1 ac bc 3d
       -0.025923526 -0.02505131 0.049309894 0.09212626
0000b0 08 c0 6c bc 18 6e d3 bc c5 35 f7 bc 35 9d 49 1e
       -0.014450081 -0.025809333 -0.030177006 1.0673361e-20
0000c0 eb 7d 3b 3d a2 91 ec 3d d5 66 5a 3d 5d 3c 3c bd
       0.04577438 0.11551215 0.053320725 -0.045956004
0000d0 ac 37 29 3d 65 15 09 3d 2c 4d a5 3d cb f6 9a 3d
       0.04131286 0.03346767 0.0807136 0.07566603
0000e0 06 77 3b 3d cf 60 a3 3d ef 5d bc 3d 99 2d 49 3b
       0.045767806 0.07977449 0.09197604 0.0030697344
0000f0 75 46 70 b3 be 2b 25 bd bf 4d fd 3c 46 34 86 3d
       -5.5943435e-08 -0.04032492 0.030920861 0.06552939
000100 ad cb 39 3d 22 00 f0 3d fe c1 1b 3d ae fd 56 3d
       0.045360256 0.11718775 0.038026802 0.05248802
000110 59 88 09 bd 03 ad 16 bc f4 66 13 3d 22 f7 45 b6
       -0.033577297 -0.009196523 0.035986856 -2.9499138e-06
000120 ed 8e fb bc dd e8 7b 3d ac d9 0d 3d 9a 63 81 bc
       -0.0307078 0.061501373 0.034631416 -0.015794564
000130 e4 5a 45 3d 82 a0 5a bc 61 9f 6c 3d 87 b1 2d 3d
       0.048182383 -0.013343932 0.057769183 0.04240563
000140 9d 23 94 3c d5 8f 86 3d 7f af 8a 3d a3 2b be ba
       0.018083388 0.065704025 0.067717545 -0.0014508854
000150 1d 72 ba 29 68 00 91 3d a3 35 21 3d 5e 54 0f b6
       8.279855e-14 0.070801556 0.039357793 -2.1357769e-06
000160 66 3c bb bd 87 b3 b2 b4 23 e9 20 3d fd 40 86 2c
       -0.091423795 -3.3285707e-07 0.039284837 3.815724e-12
000170 6f 92 90 3d da 06 05 bd 7a d6 2e 3d 44 0e e9 3d
       0.0705918 -0.032477237 0.04268501 0.11379674
000180 e3 21 ae bd 7b a2 30 3d de 26 d0 bc 88 a0 13 3d
       -0.08502557 0.043123703 -0.025409158 0.036041766

bn_cnn1.bias f4 [100]
000000 ba 39 89 38 62 ec 3a b8 f8 22 7f 1f 9b b5 79 81
       6.5434215e-05 -4.4566004e-05 5.4027276e-20 -4.5864373e-38
000010 00 0d ec 34 0c 46 d7 b6 40 dd 8f 34 86 47 74 ae
       4.3967884e-07 -6.415654e-06 2.6796806e-07 -5.5542702e-11
000020 f2 be d2 36 39 54 56 a8 63 a4 c6 38 bf 31 27 36
       6.2807167e-06 -1.1897649e-14 9.471995e-05 2.4913895e-06
000030 35 3e 1a 28 f8 12 d2 b8 da 9e 72 37 77 9f 0f b6
       8.562206e-15 -0.000100171135 1.446131e-05 -2.1401481e-06
000040 31 b6 1f 34 23 c4 68 b7 7c f4 ee b6 ef 5c 70 b7
       1.487431e-07 -1.3873944e-05 -7.1214145e-06 -1.43267525e-05
000050 1c 8f 86 37 66 d7 06 38 5a b3 3b b6 c0 1f d3 b3
       1.6040685e-05 3.2148695e-05 -2.7969568e-06 -9.8312285e-08
000060 8a c8 ae b6 e0 b6 15 23 d2 2d f9 36 06 53 ac b7
       -5.20895e-06 8.1160315e-18 7.4261125e-06 -2.0542659e-05
000070 18 cc 19 b2 d4 dd 4d b6 6c dd 6e 36 4a 67 21 b0
       -8.952178e-09 -3.0676501e-06 3.5593648e-06 -5.871824e-10
000080 ab e4 37 37 1b 1d 50 b7 a4 01 37 a7 a4 b4 de 36
       1.0960891e-05 -1.2404543e-05 -2.5397241e-15 6.637145e-06
000090 90 51 c4 24 3f 50 b3 b6 c8 95 9d 33 f2 da 00 37
       8.513962e-17 -5.3439576e-06 7.338127e-08 7.680372e-06
0000a0 64 9d 5e 37 20 f5 c0 b5 12 0d df 37 aa 14 66 b7
       1.32688765e-05 -1.4376456e-06 2.6589758e-05 -1.37138795e-05
0000b0 50 f0 29 2e 50 20 9f 35 e6 f3 92 b6 74 30 56 9a
       3.863959e-11 1.1855827e-06 -4.3795326e-06 -4.4293303e-23
0000c0 a4 52 6b 36 e1 eb 21 b7 80 b5 b8 b6 2c 9b d6 37
       3.5065832e-06 -9.651268e-06 -5.5047567e-06 2.5583045e-05
0000d0 56 e2 6c b8 56 ea 32 38 90 e2 a1 b4 04 b3 f9 b6
       -5.6477576e-05 4.265675e-05 -3.0153433e-07 -7.4416184e-06
0000e0 91 9b 46 b7 c9 b5 cf b7 43 51 32 b5 0e c0 17 b2
       -1.183794e-05 -2.4760973e-05 -6.642842e-07 -8.833025e-09
0000f0 d8 3f b5 23 76 d7 9e b7 c8 48 2b 36 ba fc 7c b7
       1.9651098e-17 -1.89354e-05 2.552335e-06 -1.5079213e-05
000100 02 b2 43 38 b3 45 4e 37 90 35 a8 b4 b9 1d 0f 37
       4.6657406e-05 1.2294785e-05 -3.133141e-07 8.530385e-06
000110 3c aa 05 b8 70 9e 87 34 c4 87 36 37 50 81 88 ad
       -3.1868214e-05 2.5260988e-07 1.0879656e-05 -1.5518836e-11
000120 3c 23 8e 33 e1 51 5e 38 d2 d0 2f 37 dd 31 9f 34
       6.6187994e-08 5.300518e-05 1.0479433e-05 2.9652338e-07
000130 0a a6 e8 35 0b ee 8e b5 64 79 48 38 ac 2a 57 b8
       1.7333671e-06 -1.0649104e-06 4.779677e-05 -5.1299736e-05
000140 d8 67 57 33 89 62 6a b8 98 02 3e b6 fa 02 10 b2
       5.0153034e-08 -5.5881716e-05 -2.8313716e-06 -8.38258e-09
000150 55 d1 9a 21 15 99 f0 b7 72 12 91 b6 30 92 b6 2c
       1.0490856e-18 -2.8681514e-05 -4.323484e-06 5.188981e-12
000160 30 a6 e5 35 ac 60 3d ac b4 46 70 37 4f 9f 9d a2
       1.7110196e-06 -2.691218e-12 1.4321577e-05 -4.272361e-18
000170 e1 37 97 37 e8 0d 17 37 a4 67 15 b6 33 cb a3 37
       1.8026623e-05 9.003539e-06 -2.2263057e-06 1.9525736e-05
000180 83 7d 8f 33 de 77 16 b8 f9 f3 fb 36 9e 65 ce 36
       6.681787e-08 -3.5874422e-05 7.508785e-06 6.151108e-06

bn_cnn1.running_mean f4 [100]
000000 2a 76 8a 40 8e 59 a6 40 b0 ec 9f 3a c4 8d f0 33
       4.3269243 5.198432 0.0012201276 1.1201658e-07
000010 88 48 62 40 13 2e 93 40 a4 a3 6a 40 d8 45 04 3d
       3.535677 4.5993743 3.6662378 0.03229317
000020 5d 46 76 40 c9 a0 9c 3d 5e a3 bb 40 70 79 b3 3f
       3.8480446 0.07647855 5.8636923 1.4021435
000030 93 0c 4d 3a 49 56 be 40 e8 45 57 40 08 2d 6c 40
       0.0007822003 5.948033 3.3636417 3.6902485
000040 f8 71 de 3f da 82 95 40 2e db 9c 40 66 0c 94 40
       1.737853 4.672223 4.9017553 4.6265135
000050 d1 bb 75 40 fb c2 98 40 7e 92 4a 40 64 76 36 3f
       3.8395884 4.7738013 3.1651912 0.712744
000060 15 a8 24 40 af db 31 3b 7c ae 78 40 ca c9 50 40
       2.572759 0.0027138998 3.8856497 3.2623162
000070 a2 f4 b0 3e 5c 5b 13 40 1e 77 7e 40 55 21 11 3e
       0.3456164 2.3024511 3.9760203 0.14172871
000080 ab d2 53 40 97 4c 2a 40 3a f8 2e 3a fe 3d 77 40
       3.3097332 2.6609247 0.0006674562 3.8631587
000090 26 ef 54 39 3e 1e 83 40 70 e8 72 3f e6 ed 53 40
       0.00020306985 4.0974417 0.9488592 3.3113952
0000a0 ee 3e 04 40 8f f8 1f 40 87 a9 38 40 1a 15 5c 40
       2.066341 2.4995458 2.8853471 3.438788
0000b0 a5 7a 0f 3f 70 17 11 40 e0 26 1b 40 13 d9 2d 32
       0.56046516 2.2670555 2.4242477 1.0119282e-08
0000c0 8d fd 3c 40 28 cd 5d 40 ed b0 5f 40 25 46 81 40
       2.9529755 3.4656467 3.4951737 4.0398126
0000d0 c9 c2 72 40 fd 81 7e 40 95 53 46 40 e8 6d 57 40
       3.7931387 3.9766839 3.0988514 3.3660831
0000e0 14 ed 55 40 b3 73 7a 40 13 b1 2b 40 a7 e0 48 3e
       3.342595 3.9133117 2.6826828 0.19616948
0000f0 62 8a 08 3c 45 30 89 40 27 16 25 40 59 87 56 40
       0.008333774 4.2871423 2.579477 3.352011
000100 41 f4 70 40 53 4f 63 40 c9 af 12 40 a5 be 58 40
       3.764908 3.5517166 2.291979 3.386636
000110 e9 17 53 40 83 2f 6f 3e 96 14 18 40 33 1f 31 3c
       3.2983344 0.23357968 2.3762565 0.010810661
000120 6d cc d0 3e 8b 65 56 40 5a 3a 0c 40 48 64 30 3f
       0.40780964 3.3499477 2.1910615 0.6890302
000130 9c c3 30 40 4a d3 8b 3f fd b3 85 40 12 4f 6b 40
       2.761939 1.0923855 4.178221 3.676701
000140 ce 5f f2 3e 39 65 8f 40 6a 0d 66 40 76 16 a8 3c
       0.47338718 4.4811063 3.5945687 0.020518523
000150 40 c3 0f 39 61 66 68 40 e6 01 10 40 f8 fa f6 3d
       0.00013710279 3.6312487 2.2501159 0.12059587
000160 2e 4d a3 40 bc 17 e9 3c 18 c1 32 40 6a 31 c0 3a
       5.1031713 0.0284537 2.7930355 0.0014663164
000170 4a 8a 95 40 be e9 16 40 82 6e 69 40 87 d4 83 40
       4.673131 2.3580165 3.6473699 4.1196933
000180 f3 ab df 3f 44 33 7f 40 7c ac ac 3f 82 31 33 40
       1.747435 3.987504 1.3490138 2.7998967

bn_cnn1.running_var f4 [100]
000000 83 b4 a6 3f d7 88 36 40 6b bd c3 36 84 de 0e 28
       1.3023838 2.852102 5.833504e-06 7.930834e-15
000010 a1 f1 c3 3f 58 84 b5 3f ff b3 95 3f 36 e2 33 39
       1.5308114 1.4181013 1.1695555 0.0001715504
000020 6a 10 c7 3f 6f 6a b0 3b 7e df 36 40 80 f2 3c 3e
       1.5551884 0.0053837816 2.8573909 0.18451881
000030 91 13 d3 36 9c d5 36 40 d9 e1 c2 3f 43 b0 b1 3f
       6.290568e-06 2.8567877 1.5225173 1.3881916
000040 17 ef fa 3e 79 e2 f1 3f cb ff 12 40 9a a6 e6 3f
       0.49010536 1.8897239 2.2968624 1.8019593
000050 c3 d5 fa 3f ac 93 28 40 a9 d2 6e 3f 0f 7c b7 3d
       1.9596485 2.6340132 0.9329019 0.08959209
000060 a7 57 24 3f 16 3e 20 38 f4 ac 2e 3f 0b 4f ab 3f
       0.64196247 3.8204795e-05 0.68232656 1.3383497
000070 12 ee 59 3d 0f cb a3 3e 7c 24 d6 3f 7b ea 34 3c
       0.053205557 0.3199086 1.6729884 0.011042233
000080 1c fb 78 3f 6a 79 23 3f 0c b9 cb 35 4e aa 89 3f
       0.9725816 0.6385714 1.5178534e-06 1.0755098
000090 96 bc e7 34 6b ac ad 3f c4 22 64 3e 0b 04 5b 3f
       4.3164317e-07 1.3568243 0.22278887 0.85553044
0000a0 33 aa e2 3e bc 4e 8b 3e 0b 5e 8f 3f 26 99 ce 3f
       0.44270477 0.27208507 1.1200575 1.6140487
0000b0 2b 5f 1a 3e a5 43 c9 3e 1b a3 d9 3e 39 46 35 26
       0.15075366 0.3930942 0.42507252 6.289216e-16
0000c0 92 52 60 3f cd 04 bb 3f c7 23 c8 3f 84 cb 7d 3f
       0.8762599 1.461084 1.5635918 0.99138665
0000d0 62 1a e8 3f ff 56 98 3f a4 42 56 3f 4b 7a ac 3f
       1.8133051 1.1901549 0.83695436 1.3474821
0000e0 21 05 93 3f e4 87 87 3f 04 2e 15 3f a2 76 72 3d
       1.148594 1.0588346 0.5827334 0.05919517
0000f0 b7 41 a7 39 fb d9 97 3f f1 31 12 3f 17 91 8a 3f
       0.00031901684 1.1863397 0.57107455 1.0825528
000100 ac ab e0 3f 3a 71 96 3f 28 09 fa 3e c0 0b 79 3f
       1.755239 1.1753304 0.4883511 0.97283554
000110 ee 01 88 3f 45 2e c0 3b a7 96 1d 3f 98 19 e5 38
       1.0625589 0.0058648908 0.61558 0.00010924338
000120 0b e0 d3 3c bb 68 ed 3f 78 47 0c 3f 49 52 32 3e
       0.025863668 1.8547586 0.5479655 0.17414202
000130 c2 ee 3b 3f e6 29 10 3e c4 3e 02 40 f4 10 86 3f
       0.7341119 0.14078483 2.035081 1.0473924
000140 e0 29 70 3d 8a 66 95 3f 15 be a8 3f a7 83 14 3a
       0.058633685 1.1671917 1.3183008 0.00056653697
000150 72 be 16 34 45 a9 b9 3f 11 ef 09 3f c6 bd 1f 3c
       1.4039122e-07 1.4504782 0.5388041 0.009749835
000160 e5 23 db 3f 1e 21 4d 3b 34 fc 8e 3f 8a 46 e7 36
       1.7120329 0.0031300257 1.1170716 6.8925483e-06
000170 9b e7 20 40 e6 b2 e8 3e ef 74 97 3f 0e 48 14 40
       2.514136 0.4544899 1.183256 2.3168979
000180 ab 28 ba 3e fe 0a 5d 3f ee b0 bd 3e e1 4d 0a 3f
       0.36359152 0.863449 0.3704905 0.54025084

bn_dense.weight f4 [127]
000000 07 8a 19 3f fc 16 3b 3f 1d d3 d5 32 f8 b8 e5 27
       0.5997624 0.73081946 2.4892467e-08 6.376081e-15
000010 0a 02 15 3f 07 d2 0d 3f f1 eb e2 3e c4 85 11 b9
       0.58206236 0.553986 0.44320634 -0.00013878109
000020 ec e9 e3 3e 83 4f 8f 36 1a ee 32 3f fd 92 2b 3e
       0.44514406 4.2709885e-06 0.69894564 0.1675529
000030 4a cf 39 35 75 c4 48 3f cf 36 14 3f f0 ab 01 3f
       6.9219516e-07 0.7842477 0.5789613 0.5065298
000040 e7 ea c5 3c f8 f7 14 3f f2 35 14 3f bc a4 05 3f
       0.024159862 0.5819087 0.57894814 0.5220449
000050 77 c0 0e 3f 81 a1 23 3f 51 fe af 3e 92 32 3b 3d
       0.5576243 0.6391831 0.34373716 0.045702524
000060 a2 e8 7b 3e 17 43 fa 32 e9 6f c4 3e b5 63 d4 3e
       0.24600461 2.913434e-08 0.3836663 0.4148232
000070 fe 4e c7 bb d6 d4 59 3e 83 10 fe 3e 6c 75 1f 3b
       -0.0060824146 0.21272597 0.49621972 0.0024331464
000080 b9 7d e2 3e 2f ec 95 3e a4 a0 a8 32 ed 13 04 3f
       0.44236544 0.29281756 1.9630825e-08 0.51592904
000090 52 e8 20 33 24 4f e8 3e 03 91 7e 3d 3c ae cc 3e
       3.7464197e-08 0.4537288 0.062150013 0.3997668
0000a0 28 0d 44 3e 01 e2 27 3e 13 ec eb 3e ef 6e ee 3e
       0.19145644 0.16394807 0.46078548 0.4656901
0000b0 48 f0 5c 3b e2 1b 3e 3e 08 af 86 3e 46 70 18 2f
       0.0033712555 0.18565324 0.26305413 1.3864207e-10
0000c0 96 47 d1 3e ae 6f d9 3e e4 b8 00 3f 67 2a ff 3e
       0.40874928 0.42468017 0.5028212 0.49837038
0000d0 c3 38 0c 3f 34 b2 c3 3e 66 2d a9 3e 25 03 d6 3e
       0.5477411 0.38221896 0.3304245 0.41799274
0000e0 95 1e cf 3e 64 42 06 3f 92 a8 65 3e 6f b9 d1 3b
       0.4045302 0.52445054 0.22427586 0.0064002792
0000f0 0d 75 e7 32 e8 6f 05 3f dd e4 80 3e c9 47 0a 3f
       2.6945168e-08 0.5212388 0.2517461 0.54015785
000100 be 85 03 3f 12 fc ac 3e d0 33 53 3e ae da f3 3e
       0.5137595 0.33786064 0.20625234 0.47627777
000110 b5 09 a9 3e e2 ad b9 3c a9 bc a3 3e 5e da 0c b7
       0.33015218 0.022665922 0.31979874 -8.395493e-06
000120 1e 77 e4 3c f5 e6 18 3f 32 48 83 3e f2 22 aa 3d
       0.02788883 0.5972741 0.25641018 0.083074465
000130 bd 86 b6 3e 90 09 83 3d c8 fe 2c 3f 19 86 e3 3e
       0.35649672 0.06398308 0.67576265 0.44438246
000140 fb 60 52 3d 31 98 10 3f 06 44 0b 3f 1b 0a aa ba
       0.05136202 0.56482226 0.5440067 -0.0012972982
000150 57 4e fd 31 4a 0c ee 3e 17 02 3d 3e be bf ca 37
       7.3721753e-09 0.4649375 0.18457828 2.4169563e-05
000160 de 7e 15 3f f4 c3 92 37 a2 30 cd 3e 3e 2f 90 30
       0.5839671 1.7495804e-05 0.40076166 1.0490806e-09
000170 3e 62 1c 3f 2e 39 90 3e d1 df e0 3e 13 25 1d 3f
       0.61087406 0.28168625 0.43920758 0.61384696
000180 8b b2 c1 3c 15 92 f1 3e 47 89 2e 3e 41 bd 96 3e
       0.023644706 0.47181764 0.17044555 0.29441264
000190 dd 48 2a 3c 81 4d 4f 3c 0c 19 8a 3e e9 9e 09 3e
       0.0103933485 0.012652756 0.26972234 0.13439526
0001a0 62 ed 1f 3e 82 3e 81 3e a2 c7 e4 3c 1e bb 1e 34
       0.15617898 0.25243002 0.027927224 1.478297e-07
0001b0 d5 e6 db 3a c6 b7 3b 35 6d 7f be ba 9d 67 9f ba
       0.0016777167 6.9930354e-07 -0.0014533825 -0.0012161616
0001c0 2e 0d ad 3c d6 7b b8 3c 60 52 10 3a 36 8d 60 3b
       0.021124449 0.022519987 0.0005505439 0.0034263856
0001d0 9e 85 2f 39 84 bf 97 3b de d4 8a 39 ff 03 89 3e
       0.00016739077 0.0046309847 0.0002648001 0.2676086
0001e0 a0 36 33 b5 da 78 7d b5 d1 07 e4 b9 45 53 4f 39
       -6.6762186e-07 -9.4425707e-07 -0.00043493373 0.00019772079
0001f0 b9 6e 10 3a 90 06 51 b7 05 0a 2d 3c
       0.0005509663 -1.2458899e-05 0.010561471

bn_dense.bias f4 [127]
000000 af 98 91 bd 9c 00 92 3c 22 23 ab 32 d8 a9 a7 1c
       -0.071092 0.017822556 1.9922997e-08 1.1095037e-21
000010 7f 40 13 bd 27 d9 87 bd 0b ce b7 bb 67 a8 60 3a
       -0.03595018 -0.066332154 -0.005609279 0.0008570016
000020 d9 93 07 bd 98 61 88 35 37 8d 80 3b 2f b3 98 bc
       -0.033099983 1.0161193e-06 0.003923084 -0.018640129
000030 de 88 71 36 d9 bc 43 bc 87 6d ef bc f8 e3 11 bc
       3.5991466e-06 -0.01194688 -0.029227031 -0.00890445
000040 5e 95 1d 3c 92 77 9c bd 98 08 68 bd f9 82 49 bd
       0.009618131 -0.07639994 -0.05664882 -0.04919717
000050 f2 af 5a bc 2a c6 92 3d 22 8f f4 3c ef e3 d3 bb
       -0.013347613 0.07166703 0.029853407 -0.006466381
000060 05 dd b7 3c 5c c0 3b b4 f5 96 14 bd 9e 96 33 3d
       0.022444258 -1.7485712e-07 -0.036276776 0.04384481
000070 63 97 1e bb 79 b6 d7 bc d6 3d f3 3c 22 fb e3 ba
       -0.002419912 -0.026332127 0.029692572 -0.0017393569
000080 22 47 2f bd 0d 7f 0b bc 03 e3 77 37 72 55 64 bd
       -0.042792447 -0.008514178 1.47752025e-05 -0.05574555
000090 3b 2b b5 b6 50 b5 38 3d 65 7d c0 bb 56 a7 b6 bb
       -5.399253e-06 0.045094788 -0.005874323 -0.005574147
0000a0 c6 58 5b bc 0e eb 2e bc 0d 3a 05 3d 9f 93 04 bd
       -0.013387864 -0.010676159 0.032526065 -0.032367345
0000b0 1d 5e 87 b9 ed 84 8b bc 66 3e 52 bc 25 62 95 2f
       -0.00025819326 -0.017031157 -0.01283226 2.7172678e-10
0000c0 73 4c b0 3c 90 74 74 3d 97 2b 38 3d 16 a7 27 3d
       0.021520829 0.059681475 0.044963446 0.04093083
0000d0 51 93 b3 bc 23 c4 82 3b b0 43 8a bc cd 1d 45 3d
       -0.021920832 0.0039906665 -0.016877979 0.048124123
0000e0 c7 91 ab 3c e0 a3 d4 3c b2 b6 bf 3c 6b be 8d 3a
       0.020943535 0.025957048 0.023402546 0.0010814195
0000f0 77 25 10 b4 b8 13 c8 3c 9b e4 cb bc b9 9c da bc
       -1.3424675e-07 0.024423465 -0.024889281 -0.02668606
000100 2e d0 ce 3c 39 c6 69 bc e2 d3 0a 3d 0c 7f ad 3c
       0.025245752 -0.014268451 0.033893473 0.021178745
000110 4b 1a 20 3c 02 76 26 3b 02 5b 78 bb d5 3d 88 39
       0.009771894 0.0025399928 -0.0037896042 0.0002598601
000120 3f 91 25 ba c8 48 e8 3c cf 50 0e 3d 64 9b 50 bb
       -0.0006315894 0.028355017 0.034745034 -0.0031830901
000130 a6 c9 7c bc 9e 19 92 3c d0 6d 29 bd 80 bc 7d 3d
       -0.015428936 0.01783448 -0.04136449 0.061947346
000140 ab b5 c8 3b cc 34 8a 3d f7 11 4f 3d 1e 52 2e 3a
       0.006125172 0.067483515 0.050554242 0.00066498097
000150 dc fb f4 32 5c 40 1b bd 00 d2 b0 bb 57 55 ca 39
       2.8519871e-08 -0.037903175 -0.0053961277 0.00038592026
000160 82 4c dd 3c 6b 3a 56 38 9d 49 1f 3d 16 dd ac 35
       0.02701402 5.1075982e-05 0.038888562 1.2879343e-06
000170 3a 4a 38 3c c1 54 b9 bc 98 02 43 bd f0 43 57 3d
       0.011248166 -0.022623422 -0.047609895 0.052555025
000180 75 3c 0c 3c 35 9a 27 3d c1 dd b5 3c fb fc 47 bc
       0.008559336 0.040918548 0.022200467 -0.012206311
000190 2d cf af 3a 93 59 5e 3b b1 97 ff bc af e6 6e bc
       0.0013413184 0.0033927902 -0.031200262 -0.014581366
0001a0 f8 69 74 3c 50 b2 00 3d 7b b2 cd 3b 9e 3b 06 34
       0.014917843 0.031420052 0.00627738 1.2501411e-07
0001b0 29 31 8c 39 e4 ec 9e b5 a6 fd 0b b9 17 c4 4f 39
       0.00026739508 -1.1840862e-06 -0.00013350564 0.00019814108
0001c0 c2 a5 84 3b dc 0f 94 3b a4 66 25 38 31 ec 13 3a
       0.00404808 0.004518492 3.9434657e-05 0.00056428
0001d0 19 5f 30 38 bb 42 56 3a e0 ac d4 b8 5e 66 ee 3c
       4.2050237e-05 0.0008173396 -0.00010141148 0.029101547
0001e0 72 3a bb b4 95 0c 13 35 f1 42 e4 38 53 d4 ea b8
       -3.487399e-07 5.4780077e-07 0.00010884356 -0.00011197538
0001f0 04 3d 4d b9 82 4d a8 b6 dd 27 d3 b9
       -0.00019573054 -5.0158133e-06 -0.00040274757

bn_dense.running_mean f4 [127]
000000 4c 48 e1 b5 28 c6 b5 35 63 79 19 1e 3b 4d ac 84
       -1.6784848e-06 1.3543222e-06 8.124855e-21 -4.050793e-36
000010 07 65 05 36 4c 4b e6 35 c3 59 b5 b5 3e bf d0 ac
       1.987735e-06 1.715825e-06 -1.3511675e-06 -5.9329477e-12
000020 75 8f d0 b4 dc 92 61 aa 2b 1d c8 b6 5d bd 57 b2
       -3.8847398e-07 -2.0034967e-13 -5.96386e-06 -1.2557703e-08
000030 e1 55 a4 25 01 56 9f 34 0b 01 0e b5 83 58 86 b4
       2.850766e-16 2.9678634e-07 -5.290064e-07 -2.5023846e-07
000040 b4 8c ac b1 48 68 05 36 ff cf 31 35 da 26 44 35
       -5.021855e-09 1.9879244e-06 6.624031e-07 7.3072226e-07
000050 9c 36 a5 b5 99 9e 89 b6 6c 3e 86 b4 32 6f a3 33
       -1.2309351e-06 -4.1013814e-06 -2.5004863e-07 7.610505e-08
000060 ae 49 ea 34 5d e9 0a a2 01 38 d6 33 54 8d 1a b5
       4.3639506e-07 -1.882603e-18 9.9753386e-08 -5.757513e-07
000070 8b 89 84 2f fc 3b 09 35 23 e0 07 35 e6 4b 80 30
       2.410839e-10 5.1123766e-07 5.061758e-07 9.334797e-10
000080 99 41 19 b4 40 e3 53 35 7f c1 d8 24 28 da ce b4
       -1.42731e-07 7.893432e-07 9.400286e-17 -3.852922e-07
000090 72 5d 13 25 75 a4 96 34 2c ad 05 b2 c7 b5 5c b5
       1.2781878e-16 2.8059335e-07 -7.780994e-09 -8.222091e-07
0000a0 b1 20 33 b5 90 74 6f 34 ef f4 a2 b5 f7 69 fa 34
       -6.673027e-07 2.2301015e-07 -1.2141226e-06 4.6643228e-07
0000b0 b2 21 ad 2e 52 fc c9 33 3d 0c b9 b4 bb 56 0a 19
       7.873115e-11 9.405689e-08 -3.446784e-07 7.151948e-24
0000c0 7d 9d 75 35 3b c0 50 35 d7 ac 12 b5 58 52 18 b6
       9.149879e-07 7.776577e-07 -5.4640753e-07 -2.2697695e-06
0000d0 46 7a cf 35 c8 39 2b b6 79 a6 01 b5 d9 4e 84 b3
       1.5458288e-06 -2.5514619e-06 -4.8298494e-07 -6.161071e-08
0000e0 2d c2 0f b4 62 23 ae 35 78 99 22 33 15 47 7e b0
       -1.3388554e-07 1.2974308e-06 3.7858143e-08 -9.2505675e-10
0000f0 fc fa cb a4 e2 7e 22 36 57 5e 4a 35 c6 a9 da b3
       -8.84624e-17 2.4213737e-06 7.5388147e-07 -1.0182298e-07
000100 ea bc 65 b6 2d 76 1f b5 71 a4 6e 34 d0 0e 93 b5
       -3.4233622e-06 -5.9404084e-07 2.2225301e-07 -1.0956664e-06
000110 6e 3f 55 35 3c 9d 46 b1 4a 8c f9 b5 45 85 2b 2b
       7.9440986e-07 -2.890217e-09 -1.8592775e-06 6.093635e-13
000120 02 27 9e b1 a2 a5 4c b6 1a c2 09 b5 bb 71 09 33
       -4.60284e-09 -3.049478e-06 -5.131893e-07 3.2001235e-08
000130 a1 59 9f b4 00 91 e0 b3 0f 78 18 b6 1a 3f 68 31
       -2.9681271e-07 -1.0457188e-07 -2.2719648e-06 3.3796312e-09
000140 7b e0 c5 32 fc 62 62 36 02 28 ba 35 f1 c1 04 30
       2.30359e-08 3.373424e-06 1.3869724e-06 4.829693e-10
000150 50 14 b2 9e c8 76 8f 35 55 92 94 33 55 47 13 2c
       -1.8854884e-20 1.06889e-06 6.918405e-08 2.0929554e-12
000160 73 f3 43 35 87 d8 57 a9 46 dc 23 34 24 89 a6 20
       7.2997426e-07 -4.7927398e-14 1.5260693e-07 2.8212246e-19
000170 13 42 c5 b5 81 93 f0 b4 e5 2c 86 b5 1c 63 a0 35
       -1.4696874e-06 -4.4810807e-07 -9.996844e-07 1.1949774e-06
000180 67 8d ed b1 b3 ac 52 36 98 02 a8 b4 35 f2 3a b5
       -6.9136834e-09 3.1392963e-06 -3.1294326e-07 -6.964286e-07
000190 00 c1 a6 c0 56 b9 1d bf 62 26 8a bf 05 3b 6e be
       -5.2110596 -0.61610925 -1.0792964 -0.23264702
0001a0 30 48 d0 be 09 99 bb bf ff f8 93 c4 b4 74 fd 43
       -0.40680075 -1.4656078 -1183.7811 506.91174
0001b0 f4 65 38 c4 28 92 93 40 6b 6d b9 44 fc 8e b1 c2
       -737.593 4.6115913 1483.4193 -88.77927
0001c0 16 e4 2b 40 b7 ec 19 c4 fb 59 7d 43 0c 26 b7 c3
       2.6857963 -615.69867 253.35149 -366.29724
0001d0 be b9 1a 40 69 92 2e 44 e2 9f 3a c2 9f a6 07 40
       2.4175868 698.28766 -46.656136 2.1195447
0001e0 5f 0e 12 c4 20 ac 71 43 73 cd b1 c3 af 6d 06 40
       -584.22455 241.67236 -355.60507 2.1004446
0001f0 ee 73 33 44 8c 4f 2b c2 5f 5b 0a 3f
       717.8114 -42.827682 0.5404567

bn_dense.running_var f4 [127]
000000 6d 96 49 3b 47 88 4a 3c f0 ec 80 14 04 00 00 00
       0.0030759827 0.012361593 1.3018152e-26 6e-45
000010 4a fc 99 3b 6d 44 77 3b 05 82 a3 3b a7 a8 a8 33
       0.0046992647 0.0037729994 0.004989865 7.853787e-08
000020 a7 a8 2b 3c 0f ca 00 2f 79 e3 88 3b 14 df 7c 3a
       0.010477222 1.1713318e-10 0.0041775075 0.00096462783
000030 af ec 67 22 69 50 7e 3b 58 74 92 3c d2 bd 3a 3c
       3.1431637e-18 0.0038805252 0.017877743 0.011397796
000040 87 7d bd 39 20 f5 11 3b 13 92 f8 3a c4 43 46 3b
       0.00036142414 0.002227135 0.0018964432 0.0030252794
000050 75 b2 40 3c f7 6b 35 3b b4 80 d8 3b 99 48 36 39
       0.0117612975 0.002768276 0.0066071395 0.00017383917
000060 d3 12 2f 3b cb 17 a8 19 be 66 22 3b b8 81 ab 3a
       0.00267141 1.7380403e-23 0.0024780477 0.0013084924
000070 98 b3 a2 3b 5f 15 45 3a 2f bb cb 3b ba 10 0a 3b
       0.004965257 0.0007518138 0.0062173824 0.0021067099
000080 32 1f 28 3b 6c 66 af 3a 0e d2 ec 1e eb b3 29 3c
       0.002565336 0.0013381965 2.5074349e-20 0.010357837
000090 de 91 8d 1b 71 a6 87 3b 26 01 07 3b c8 23 cc 3a
       2.3420758e-22 0.0041397144 0.002060005 0.0015574628
0000a0 89 05 43 3a 52 69 2a 3a c0 c4 20 3b 7e 98 0e 3c
       0.00074394845 0.00065006793 0.0024531335 0.008703349
0000b0 c8 bc 65 39 2e 6a 32 3a 9d b1 83 3a 04 00 00 00
       0.00021909468 0.0006805983 0.001004744 6e-45
0000c0 08 69 11 3b 07 10 60 3c 7c eb 4e 3b b8 08 0f 3b
       0.0022187848 0.013675696 0.0031573465 0.0021825265
0000d0 8d 6c f1 3a a3 07 d3 3a 65 8b da 3b b4 53 c2 3b
       0.0018419191 0.0016100298 0.006669449 0.0059303883
0000e0 28 bb 07 3b ef 2e d6 3b 38 e5 0e 3c 99 b7 22 37
       0.002071092 0.0065363566 0.008721642 9.6987e-06
0000f0 4b f6 6d 27 c5 14 da 3a 3d e7 7f 3a 8e 76 8c 3b
       3.3023873e-15 0.001663827 0.0009761935 0.0042865938
000100 0e eb 07 3b 09 ea fc 3b df 7f de 3a 39 19 39 3b
       0.0020739469 0.007718329 0.0016975364 0.0028243794
000110 9d 0e 99 3a 00 23 be 38 8f c6 9f 3a 11 9a 13 2d
       0.0011677329 9.066425e-05 0.0012189912 8.390192e-12
000120 16 0c 80 3a ff 70 60 3b 5a 49 a2 3a 2f 5d 88 39
       0.0009769227 0.0034247038 0.001238148 0.0002600937
000130 00 1f 1d 3b 13 57 57 39 52 39 58 3b 4a 55 e9 3a
       0.0023974776 0.00020536435 0.003299315 0.0017801907
000140 d2 b6 b1 39 e0 6f 8a 3b b9 98 99 3b 2d f6 49 36
       0.00033896283 0.0042247623 0.0046873954 3.0094627e-06
000150 e2 3f 60 11 c7 81 a8 3b 19 66 d3 3a 4a af 47 2e
       1.769017e-28 0.005142424 0.001612845 4.540305e-11
000160 2b 74 0c 3c 9b cd 77 2a 8a 5d d0 3a ee 81 39 19
       0.0085726185 2.2009341e-13 0.0015897017 9.590515e-24
000170 2c f9 a0 3b d6 b3 93 3a 51 6f f1 3a b0 0a d8 3b
       0.004912516 0.0011268805 0.0018420016 0.006593071
000180 78 db f4 3b 21 bd f8 3a ae 5c 32 3a 49 c7 ae 3a
       0.007472452 0.0018977263 0.00068039715 0.0013334538
000190 8f 1f 69 41 4f aa 39 3f 6e 3d be 3f 03 d1 8e 3e
       14.570205 0.72525495 1.4862497 0.27893838
0001a0 5a b9 be 3e e7 c2 02 40 90 68 0d 49 57 33 d0 47
       0.37250787 2.043146 579209.0 106598.68
0001b0 db 0e 56 48 b4 b0 1a 41 1f d8 55 49 a7 70 64 45
       219195.42 9.66814 875905.94 3655.0408
0001c0 47 42 c6 40 e7 98 1b 48 33 d7 e2 46 3f d4 4e 47
       6.1955905 159331.61 29035.6 52948.246
0001d0 34 6d 2c 40 b0 86 47 48 00 25 87 44 74 fc 92 40
       2.6941652 204314.75 1081.1562 4.593317
0001e0 ca e7 fd 47 25 d8 b4 46 fc 07 6a 47 27 b7 08 40
       129999.58 23148.072 59911.984 2.1361787
0001f0 54 83 69 48 9b e4 35 44 e8 03 76 3e
       239117.31 727.57196 0.24024928
