scripts/modelling/stored_models/minimize_input.pt (torch, 459179 bytes, 33 tensors)

conv1.weight f4 [100, 27, 3]
00000000: f4de d1bd 1e46 6fbd 47b8 163e 9a02 9d3b
00000010: 3be0 4e3d cfbd ff3c 4b91 c33d d4db 2c3e
00000020: 4af8 0bbe 9177 403d 4c88 693c b228 8abd
00000030: a172 083e 17de 383e 5e3b 22bd 26e4 25bc
00000040: fafe f73d 4965 92bd 7121 193e 3d36 39bd
00000050: 5b2b eb3d 42c0 f93c 4f66 303e ac01 19be
00000060: 3713 2fbc 630f 243a 9fce 393d a10e 043c
00000070: 7d1b e13d 405e 07be 704e d93d 7ad2 bd3d
00000080: 34ea 043e bf12 9cbd d491 a1bd 1883 f7bd
00000090: d35f 2b3d de0f 11bd 7908 023e 5ff2 5cbd
000000a0: 7382 32bd ab3a f93c 8a11 c4bc 743b a3bc
000000b0: 3d1a 5c3e e6e3 fd3c ea5c c13d b8f9 f83d
000000c0: 8fbb f2bd f0da aabd bedd 103e aff4 abbd
000000d0: a3ef 743d e647 2b3e ec08 0abd 9fa6 563d
000000e0: 5dea 8dbc d716 7abd 6902 b23c 5dec 9abd
000000f0: effb 39ba 2edb f9bd eb41 88bd dd1e b0bd
00000100: c20d d2bc 442d 693d 2c16 113c 4b20 4f3d
00000110: 4383 d13d d19c c3bd e2d3 38be f2f3 f1bd
00000120: 5bf3 3fbe be5b 503c 12ad 633d b715 dbbd
00000130: 27bc 343e d18a 8e3d 110d 12bd c0d1 9a3c
00000140: 555e 1a3e ba4b a03d e9a8 843e 5166 d5bc
00000150: a46e f9bc 1f94 ef3d 0270 a4bc 3e1a 94bc
00000160: d3cd 633e 6e1e cc3c 1447 323d ce49 65bd
00000170: cd3e 1bbc 2533 003d 4285 92bd 4af1 e83d
00000180: 045e ec3d ec28 413d 3e7f ebbd 5d04 ab3d
00000190: d61f 3e3d 7edb 28bd 3820 253b 59e5 d33d
000001a0: 7007 5abd e072 ec3d bab0 b43c 50bd adbd
000001b0: c25b 4fbd b675 d53d e315 7e3e 0d76 bdbd
000001c0: aeea 17bb a596 023e 1567 07bd 9a24 1cbd
000001d0: 1429 14bd bc1f 12bd 7a81 d23c 4724 a63c
000001e0: 3427 9f3d f0d8 553d 70c1 b13b 6fc0 82ba
000001f0: c490 44bd 96e1 703d 085f c23d fab2 a53c
00000200: b914 a33d 47bd 70bd cf79 bcbc 88bb f93d
00000210: 7eac c1bb 09e4 d13d 2d65 bfbb 46b6 c2bd
00000220: 57c9 c63d d486 953b 1a0c ba3d 27cf a6bd
00000230: 2e12 15be 2a12 d23c 49c5 d53d ab32 1f3d
00000240: 6153 41bd 7ef1 2c3c f517 85bc b5a5 2dbe
00000250: 46cd 063d eea4 00be 3465 f63d 89ee 63be
00000260: 4f5e bebd 571b 47bd 29dc 0cbd 0f1b b03c
00000270: aae4 ea3d a711 50be 2f53 01be 429b 2b3d
00000280: aad3 aebc c5f0 bdbd aeeb a8bd 2cab 113c
00000290: 9d1e 693e a4b3 283c bdcd 6d39 bf04 e23c
000002a0: 5f9e c5bc 1c53 0bbe d682 963d 06e6 53bd
000002b0: 70c6 e6bd fa04 a0bd 1ae9 c3bd df73 efbc
000002c0: 3c94 7f3d d90c 8a3d f291 87be 97c2 053e
000002d0: 1e56 c33b ad20 d83d 7bbe 423e 04f5 813e
000002e0: 9163 d6bd f8fb bfbd 4b53 4f3d 2335 9f3d
000002f0: 0d38 09be 80e7 1b3e 3882 f03d ed03 703d
00000300: 02d9 b4bc 403e 9dbc 46b1 fe3c 7e35 febc
00000310: 2493 0d3e 7802 0dbc 05b3 993d 6022 9cbb
00000320: cf7e c2bd 1f33 9cbd ed7e c1bd a911 39bd
00000330: 94b6 f2bc 2ec1 413e e142 ff3d c77d 7abd
00000340: b063 17bd 0719 923d 22d5 f63d c93b 9bbc
00000350: 006f 193d fc40 1abe aaba b23d 0d80 9d3d
00000360: 5677 af3d 940c 1a3d b16c 79bd 2500 e93d
00000370: 1dfd c63b e97c 833d ad66 04be 6623 88bd
00000380: caef fdbd 4816 c0bd 5db0 4e3d 2ab1 9e3d
00000390: c60e 87bd db7f 143e bbb3 55bd 2130 33bc
000003a0: 4a2a a03d ec69 ba3d 48bc e73b 1a0f 353c
000003b0: 9f8e 56bc b5fc a2bc 627f d23d f7ad 8c3d
000003c0: 1f95 e1bd 8b12 e53d 9c49 c73c 63e7 503e
000003d0: 9040 0d3d 3ee0 153d 2a77 1cbd 9938 073c
000003e0: 7411 0abc 1298 9abd 6718 ad3c 0489 7f3d
000003f0: 0f11 44bd 32a3 ed3c 00bd 193c 597c c23d
-0.10247603 -0.05841648 0.14718734 0.00479157 0.05050681 0.031218437 0.09549197 0.16880733
-0.13668934 0.046989027 0.014253687 -0.06746043 0.13324977 0.1805347 -0.0396074 -0.010125196
0.1210918 -0.07148225 0.14954163 -0.04521774 0.11482879 0.030487183 0.17226528 -0.14942044
-0.0106857335 0.00062583963 0.045363065 0.008060128 0.10991571 -0.13219547 0.10610664 0.09268661
0.12979966 -0.07620763 -0.07889143 -0.12085551 0.041839432 -0.035415523 0.12698545 -0.05394208
-0.043581437 0.030423483 -0.023934145 -0.01992581 0.21494384 0.03099246 0.0944155 0.12157005
-0.1185218 -0.0834254 0.14147088 -0.08396279 0.059798848 0.16726646 -0.033699915 0.052404996
-0.017323667 -0.061056938 0.021729665 -0.07564614 -0.0007094731 -0.12200008 -0.06653198 -0.08599637
-0.025641326 0.056927934 0.008855384 0.050567906 0.10230114 -0.09551395 -0.18049577 -0.11814107
-0.18745176 0.012717186 0.055584975 -0.10697501 0.176499 0.06960071 -0.035656992 0.018898845
0.15075047 0.07826944 0.25910118 -0.026049765 -0.030448265 0.11698174 -0.02007294 -0.01807892
0.22246484 0.024916854 0.043524817 -0.05597859 -0.009475422 0.031298775 -0.07154323 0.11374147
0.115413696 0.047158167 -0.11498879 0.083504416 0.04641708 -0.04122495 0.0025196206 0.10346479
-0.05322975 0.11545348 0.022056926 -0.08483374 -0.050624616 0.10422842 0.24813037 -0.09251032
-0.0023180651 0.12752779 -0.03305729 -0.038120843 -0.036171988 -0.035674796 0.025696505 0.02028097
0.07771149 0.05220884 0.005424671 -0.0009975563 -0.04798962 0.058808886 0.09490782 0.020226944
0.07962937 -0.05877426 -0.023007302 0.12193972 -0.0059104552 0.102485724 -0.0058409185 -0.09507422
0.09706371 0.004563192 0.090843394 -0.0814498 -0.14557716 0.025643427 0.1043802 0.03886668
-0.047198657 0.010555623 -0.016246775 -0.16957743 0.032910608 -0.12562916 0.12031022 -0.22258963
-0.09295332 -0.048610058 -0.03438965 0.021497278 0.114693955 -0.20319234 -0.12629388 0.041896112
-0.021341164 -0.09274439 -0.08248077 0.008890908 0.22765584 0.010296736 0.00022678725 0.027590154
-0.024123369 -0.13605922 0.07349174 -0.05173304 -0.11268318 -0.07813449 -0.09565945 -0.029230056
0.062397227 0.06740732 -0.26478535 0.13062511 0.0059611937 0.105531074 0.19017975 0.25382245
-0.104682095 -0.09374231 0.050616544 0.07773807 -0.13400288 0.15225029 0.11743587 0.058597494
-0.022076134 -0.019194722 0.03109039 -0.031031366 0.13825661 -0.008606546 0.075048484 -0.00476484
-0.09496843 -0.07626938 -0.09448037 -0.045182858 -0.029628076 0.18921348 0.12463928 -0.061155107
-0.036960304 0.0713368 0.120523706 -0.018949406 0.037459373 -0.15063852 0.087270096 0.076904394
0.085676834 0.03760965 -0.06089467 0.11376981 0.006072654 0.06420309 -0.12929793 -0.06647377
-0.12399252 -0.0937925 0.050461162 0.07748635 -0.06594615 0.14501898 -0.052173357 -0.010936768
0.07820566 0.09102234 0.0070720054 0.011050964 -0.013095527 -0.01989589 0.102782026 0.06869119
-0.11014771 0.111851774 0.024327092 0.20400767 0.0344854 0.036590807 -0.03819958 0.00825324
-0.008427013 -0.07548536 0.0211298 0.062386528 -0.04786783 0.029008482 0.00938344 0.09496374

conv1.bias f4 [100]
00000000: ce73 12bd 3aad 573d 7041 abbd 49cb 453c
00000010: 7384 1bbd a25b 0bbd 6628 8a3d 17b9 0d3e
00000020: 4987 9cbc 0d50 2e3b 7758 7f3d 58e0 93bd
00000030: 2e71 853d dc78 2fbd 46e5 eabb e210 19bd
00000040: 4a1b 1abc a38c 1ebe 6621 dbbd 6c48 be3d
00000050: 8812 5a3d 7c36 7abd c27d 4ebd 032c 27bd
00000060: f017 50bb e213 6c3c 2e11 aa3d c8e9 313d
00000070: 3cd0 f3bd 9a52 273d a504 cfbc 057e 9e3c
00000080: db92 af3c 5376 7cbd 01ee 013d 1e49 043d
00000090: 8fc3 d23c f5fb 8b3c 87bd 8b3d 4009 29bb
000000a0: f909 443d b79c 1d3d e092 f7bc e6af 63bd
000000b0: 68e3 72bd 44ef 573d 4fbc 373c 2592 783b
000000c0: daef 753d 014a 2a3d 1d1e c03d 2373 0fbd
000000d0: 9024 d73b 1458 393d 6a66 e5bc e88d df3b
000000e0: 57a4 b1bc 4be0 b6bc 55e2 a73d 6b1d 9fbd
000000f0: aef4 183e 7f43 8bbb a27d ebbc 782f 5d3d
00000100: 7ed8 35bd 9547 eb39 988b 6b3d b91b 393d
00000110: b208 c3bc 90cb acbc 7cec 7bbd ecb5 42bc
00000120: d242 7bbb c2d6 223d 5623 283d e60d 49bd
00000130: a5ba 6f3c 12ef a5bd ef5f 4cbc 913f 84bd
00000140: 79cf 8a3d f642 f9bd 32fe 9f3d ff54 013d
00000150: 5f6e 053e 106d a33d 8339 eabc d74e 7dbd
00000160: 6ee4 2c3c c139 c6bc 2df7 abbd 5f9e 90bc
00000170: de4f a1bc 7b89 503d eb91 293c 7f91 fa3c
00000180: 6ca1 803d 110f 823d b8d6 e9bb aac4 7e3d
-0.03575497 0.052655436 -0.083620906 0.012072393 -0.03796811 -0.034022935 0.06745987 0.13840137
-0.019107478 0.0026598007 0.062340226 -0.072205245 0.06515728 -0.04283987 -0.007168445 -0.037369616
-0.00940592 -0.15483336 -0.106997296 0.09291157 0.05324033 -0.061087117 -0.0504129 -0.040813457
-0.003175255 0.014409037 0.08304058 0.04343584 -0.11904952 0.04085026 -0.02527077 0.0193472
0.02143233 -0.06163628 0.03172112 0.032296292 0.025728015 0.017087916 0.06823259 -0.0025792867
0.047861073 0.038479533 -0.030221403 -0.05558767 -0.059298903 0.052718416 0.01121433 0.0037928906
0.060043193 0.041574482 0.09380744 -0.035021912 0.006565638 0.045250013 -0.028002936 0.0068223365
-0.021684809 -0.022323748 0.08197466 -0.07769283 0.14937088 -0.0042499895 -0.02874643 0.054000348
-0.044395916 0.00044876026 0.057506174 0.045192454 -0.023807857 -0.02109316 -0.061504826 -0.011884194
-0.0038339389 0.03975559 0.041049324 -0.04908552 0.014631902 -0.0810224 -0.012474044 -0.06457437
0.067778535 -0.12170975 0.07812156 0.0315752 0.13030384 0.079797864 -0.028591877 -0.061842766
0.010552509 -0.024197461 -0.083967544 -0.017653642 -0.019691404 0.05091236 0.010349731 0.030586956
0.06280789 0.0635053 -0.007136192 0.062199272

conv2.weight f4 [100, 100, 3]
00000000: e20c 8c3d 9c58 53bc 7f74 8abb 3e31 acbc
00000010: 7da0 303d 7bba f0bc 18cf 933c bea1 763d
00000020: 194a 83bd 1c6d a83b 9b9b 0abc 7ffa 8dbd
00000030: a42a 923d 5971 07bd 7260 de3c 2739 f63c
00000040: 71f7 ac3d 87f2 5bbd c097 f53b 4556 f3bc
00000050: f43f 933d 67ae be3d 64f5 113b 52c9 f7bc
00000060: 2452 17be 2961 683c aa13 2a3d de0c 75bd
00000070: e712 d6bc 89ea 903d 9632 f23c 1ae3 f3bc
00000080: fa91 973d 2333 00bd 5576 c1bc e200 cf3b
00000090: e0de 2b3e 271c 20bd 9685 62bd ed75 503d
000000a0: 3386 be3d 3f7a a4bd 89cb 33bd 2c0a 573c
000000b0: d367 dc3c 5d1f 14bd bf19 c93d 2f31 0fbb
000000c0: 84d6 0fbd 868c 4abc c6a0 bd3d 7a0f 6d3d
000000d0: 37d2 7f3c c0eb ccbc 6496 5abd 8b4a 0ebc
000000e0: 9436 8e3d 06f8 2a3d eab7 7b3c 5b7c 3a3d
000000f0: 1bec 1a3d 70c0 0bbc 36ee 02be be1d c3bc
00000100: 220e 77bd b079 98bc dae7 a1bb 9b66 553d
00000110: e27b 81bc 185b 0a3e db83 ac3d 51ef 8cbd
00000120: 0276 a03d 603c babc 1a38 1b3d 0cce 953c
00000130: 245a 7ebc 1084 21bd 0e6c 99bd 84ac 02be
00000140: e16b 9fbc efca ffbc 419f 93b8 897c 14bc
00000150: 6849 353c bbd1 30bd 978a 0b3d b0f8 d33d
00000160: 1f75 da3c 0cfc b93c f17f d33d 60f0 edbb
00000170: a109 ddbc 695f cd3c 7ec5 dd3d 38ef 0f3b
00000180: 067a 3c3d d1ce 903d d4e1 02bd 94ae 7e3a
00000190: ea83 18bd 28f2 08bb 156b 73bc eb81 67bc
000001a0: 8e1c c43d e14b b43c 620d 27bc e562 49bd
000001b0: 1dd4 98bd 6255 fd3b 90f4 133d 292d ff3c
000001c0: fa36 d9bc 60a3 683c 75d0 4fbd d4cd c7bc
000001d0: bad2 23bd eb90 b73d cc65 a73d d140 ebbc
000001e0: ae29 a53c 3a38 ca3c bf06 d0bc e5fe bfbd
000001f0: 4a03 303c d296 68bd 25d0 2fbd 541f 593d
00000200: 1343 fa3c e4ba 2a3c 1922 663d d736 943c
00000210: 8519 283d 5883 003e d255 fe3b 93f6 323d
00000220: 8236 043d 97ee 56bb 36f0 5ebd 8cc6 f2bd
00000230: 9b25 ab3d 6fdf 703d 2718 c93d ad73 9c3b
00000240: ddd0 a13d 81c0 893d b3c6 4b3b 0a72 34bd
00000250: 3d84 b5bc c361 683d c87a f83b 2207 71bd
00000260: 7e67 8cbc 453f 213c d994 b33d ee22 073d
00000270: 9176 babd 2be4 87bb 4824 04bb f2d4 113b
00000280: a19f 9a3d 2e51 a6bb 1fb2 78bc ac96 83bc
00000290: 4dae 50bd b25e 8ebd 5666 b2bc 317c bebc
000002a0: 32c5 1b3d c321 c03d afe0 32bc 5433 2bbd
000002b0: 84da 2e3e 5f82 04bd 36c3 32bc ecc3 f53d
000002c0: 1d7d 3cbd 27d0 97bc 1a24 1a3d 63bd ed3c
000002d0: 50be 74bd 0042 17bd 5578 0cbd 49a3 d33c
000002e0: 898f b83c da17 b0bd dfdf 9d3d 1a1f 2c3d
000002f0: cfb9 b7bc 1187 723d 0b20 e73c ee81 203c
00000300: 5ea0 a33d 1e0a dc3d a4fc 7f3d 97fb 9ebd
00000310: 4d8b 973c f4b5 c53c caad 24bc 07da a23d
00000320: da5d 5e3d 66fc 393d 73a2 b43d c679 083d
00000330: 9d1a f5bc ecd4 913d 6b4c d03b 7b96 85bc
00000340: 1421 8c3b 64f0 9fbd fdbc d23d 7111 6bbd
00000350: a254 01be 2f50 103d 4017 b13d 8af8 073e
00000360: 098a a33c e5f3 85bc 463d c33d bbea c2bc
00000370: 060d c13c 6889 babc d050 aebd 56a3 273d
00000380: f1de ec3c db72 5bbd 09d2 323d 2fe3 4e3c
00000390: 5027 27bd e045 84bd 928e 7bbd 1144 8abd
000003a0: d1f8 c13c 90b6 9abd 236e ab3c f946 95bd
000003b0: c5f3 853d f9ca d1bd 2240 8f3b f5e8 f83c
000003c0: 47bd 0fbe 7c6d fd3c fc2e d83d eca9 a73c
000003d0: 0598 a93c ae26 06bc fe05 bd3d 3934 ab3d
000003e0: 7678 5c3d 9cd5 a73b 669b 14bb 6374 0cbb
000003f0: 9215 af3d e020 b73d 9283 a43b 5da8 4f3c
0.06838395 -0.012899544 -0.004225313 -0.021019574 0.043121804 -0.029385796 0.018043086 0.060212843
-0.064106174 0.00513996 -0.008459951 -0.06932544 0.07137039 -0.03306708 0.027145598 0.03005655
0.08445633 -0.05369809 0.0074948967 -0.029704222 0.071899325 0.09310608 0.0022271508 -0.030247364
-0.14777428 0.014183321 0.04152266 -0.059826724 -0.02613206 0.07075984 0.029565137 -0.029771376
0.0740089 -0.031298768 -0.023615995 0.006317244 0.16784239 -0.03908935 -0.05530318 0.050893713
0.0930294 -0.08031129 -0.043895278 0.013124984 0.026904976 -0.036162723 0.09819364 -0.0021849384
-0.035116687 -0.012362605 0.09259181 0.057876088 0.015614084 -0.025014758 -0.05336608 -0.008684765
0.06944004 0.04174044 0.015363673 0.04552875 0.037822824 -0.008529767 -0.12786183 -0.023817893
-0.060316212 -0.018612713 -0.004940969 0.052099805 -0.015806142 0.13511312 0.08423587 -0.068815835
0.07835008 -0.022733867 0.0378953 0.018286727 -0.015524421 -0.039432585 -0.07491313 -0.12761122
-0.01946062 -0.031224696 -7.0391696e-05 -0.009062895 0.011064865 -0.043168765 0.034067716 0.10350168
0.026667176 0.022703193 0.10327137 -0.007261321 -0.02698213 0.02506991 0.10828684 0.0021962654
0.046014808 0.07070697 -0.031953648 0.0009715345 -0.037235178 -0.002089629 -0.014857073 -0.014130096
0.09575759 0.022008838 -0.010196062 -0.04916658 -0.074623324 0.0077311257 0.036121905 0.031149464
-0.026515473 0.014199108 -0.05073591 -0.024390139 -0.039995886 0.08963188 0.08173713 -0.02871743
0.020161476 0.024685014 -0.025393842 -0.09374789 0.010742972 -0.05678446 -0.04292311 0.053008392
0.030549562 0.010420535 0.05618486 0.018092556 0.041039962 0.12550104 0.0077616954 0.043692183
0.032278545 -0.003279602 -0.0544283 -0.11854276 0.08356782 0.058806833 0.0981906 0.004774532
0.07901166 0.0672617 0.0031093776 -0.04405407 -0.022157783 0.056733858 0.007582996 -0.058844693
-0.017139193 0.009841745 0.08768625 0.032992296 -0.09104646 -0.004147073 -0.0020163227 0.002225217
0.07549978 -0.0050755953 -0.015179186 -0.016063057 -0.050947476 -0.069516554 -0.021777313 -0.023252578
0.038029857 0.093814395 -0.010917827 -0.041796997 0.17075545 -0.032350894 -0.0109108 0.1200026
-0.046017755 -0.018531872 0.037632085 0.02902097 -0.05975181 -0.036928177 -0.034294445 0.025834696
0.02252938 -0.08598299 0.07708716 0.04202185 -0.022427468 0.05921084 0.028213521 0.009796603
0.07989572 0.10744117 0.062496796 -0.07762831 0.018499041 0.024134614 -0.0100512 0.07951742
0.054288723 0.04540672 0.08820047 0.033319257 -0.029919917 0.0712069 0.006356766 -0.016307106
0.004276404 -0.07809523 0.10289953 -0.05738968 -0.12629941 0.03523272 0.08647013 0.13278404
0.019963281 -0.01635165 0.09533171 -0.023793569 0.02356578 -0.022770599 -0.085115075 0.040927254
0.0289149 -0.05357633 0.043657336 0.012627407 -0.040808976 -0.0645864 -0.061415263 -0.06751264
0.023678215 -0.07554352 0.02092654 -0.072889276 0.06540636 -0.10243792 0.004371659 0.03038452
-0.14037047 0.030935995 0.105558366 0.020466767 0.020702371 -0.008187933 0.092296585 0.0835957
0.053825818 0.0051219 -0.0022675632 -0.0021431677 0.08549036 0.08941817 0.005020567 0.012674418

conv2.bias f4 [100]
00000000: 0d20 a83c fcba 8dbb 9a42 0b3d d94e 943d
00000010: a4e9 3a3d 31ca 043d c863 b1bd 0a00 98bc
00000020: c60b 42bd c316 dabd 54b9 9bbb dbcb 00bc
00000030: e01a d8bc 6da1 4d3d 7b00 1cbd 1e17 6a3c
00000040: 7eae d6bb 2c7a 733d 7a9c 2dbc 9f4e 19bc
00000050: 6c50 32bd 1226 01bd b6db 6b3d 14c3 86bc
00000060: 7705 6c3b dcf6 3dbb 60f6 3e3d 8d92 803b
00000070: cad9 cabd 1f2c 1c3d fc27 bcbb 0433 0cbd
00000080: d72f c7bb bd30 1d3c 493f 253d 4fac 7a3d
00000090: 65b6 f13c 439f ebbc e1d5 ac3c d1f8 7a3d
000000a0: ad1c 9c3c d5fb 20bb ec22 903d d32a 593d
000000b0: e4a4 22bd 2eb2 23bd 9755 0fbc f748 ad3b
000000c0: bc8a 013d 2dac 293d 68d2 e6bd 9acb dfbc
000000d0: e107 6abd a04b 993c ce7f 82bd 1b77 34bd
000000e0: a778 173d 5863 683b 504c 96bc 8f6b 63bc
000000f0: 2e92 fe3c 7aa9 373d 607f b1bc 53fb d1bd
00000100: dc49 f7ba 463a 293d 4cdd 7f3c 2d65 ec3c
00000110: 394e 393c ab3d debb 5219 cd3b d592 2b3c
00000120: a2cb 893d 0d7c a23c f7cd 083d efe8 6a3c
00000130: 3e78 34bd 7c67 81bc 352e 30bd fb50 a63c
00000140: fb3a 57bc 8e71 8e3c d2f7 a83b b5c3 a43c
00000150: f0ea 553c 1300 e9bc 39a7 ad3c 6e4b ff3b
00000160: 71b6 acbc 279e d0bb dc8c 7d3b c668 bd3d
00000170: e90d 883b ffa1 2cbd 3dfa 5dbc 0fae 0ebc
00000180: 98df 4abd e88d 443b 192a 6dbc 58da 463b
0.020523096 -0.004325269 0.033999063 0.072416015 0.045632973 0.032419387 -0.0866161 -0.018554706
-0.04737451 -0.10648873 -0.0047523174 -0.007861103 -0.026380002 0.050202776 -0.038086396 0.014287738
-0.006551563 0.059442684 -0.010596389 -0.009357124 -0.043533728 -0.031530447 0.05758258 -0.016450442
0.0036014 -0.002898625 0.04662168 0.00392372 -0.09904821 0.038128015 -0.005742071 -0.03422834
-0.006078701 0.00959414 0.040343557 0.061199483 0.029505918 -0.028762465 0.02109808 0.061272446
0.019056642 -0.0024564166 0.07037911 0.053019356 -0.039708033 -0.039964847 -0.008748434 0.005288239
0.031626448 0.041423965 -0.112706006 -0.027318764 -0.05713642 0.018712819 -0.06372033 -0.0440589
0.036980297 0.0035459604 -0.018346936 -0.013880624 0.031075563 0.04483936 -0.021667182 -0.102530144
-0.0018866616 0.04131534 0.015616726 0.028856838 0.011310154 -0.0067822537 0.006259122 0.010472019
0.06728293 0.019834543 0.03339955 0.014337762 -0.044059984 -0.015796416 -0.043012816 0.020302286
-0.013136621 0.017388131 0.0051564956 0.020112852 0.013056502 -0.028442418 0.021197902 0.0077909743
-0.021083089 -0.0063665095 0.0038688695 0.092484996 0.004152049 -0.04214668 -0.013548431 -0.008708491
-0.049529642 0.002999181 -0.014475369 0.0030342545

rnn1.weight_ih_l0 f4 [200, 100]
00000000: fea9 063c ce10 8f3c 6c39 6bbd 93ac 69bd
00000010: 58d7 b73c 9af4 98bc 5ab6 06bd da97 00bd
00000020: 4051 0dbd 50d5 c33d 5f35 3fbd 10b7 1e3d
00000030: 5ecc 7c3a 09c7 13bd e8cd dcbc d2dc 753c
00000040: 1ba8 303c c92a 1bbc 01f0 3d3d 0808 88bd
00000050: 07e6 1f3c a81f 3ebd 0bbb aabb a2d0 803d
00000060: d82f 8a3d b487 ecbb 2964 62bd 3f02 cdbc
00000070: ba5e 333d 5755 e53c 799b c23b 714e 2f3d
00000080: 31a8 153c 929c e63c 8c9c d3bc db20 17bc
00000090: d08a 30bd cebd 7d3c 2d62 94bb ccd0 f7bc
000000a0: 4e4b fa3b 85b1 31bd 3de3 9dbc 807b 9ebd
000000b0: 9910 713c 889e 20bc d3f4 36bc 5940 77bb
000000c0: 5292 873c d170 e43b 4639 203d e413 44bc
000000d0: f267 82bd 4d30 003d c4c0 353c 8353 643d
000000e0: 7da4 963c f2f1 113d 2dbc 1abc 6073 0f3c
000000f0: fb7a e7bc 86b3 e7bc 1ed1 84bc 790a 893d
00000100: 4338 0ebd 1969 a03b 47d0 053d 3213 bf3c
00000110: 7ff2 ca3c 48ae c63a 450a bc3c 1d99 6dbd
00000120: c498 473d b370 c63a eaa2 023d cd51 09bd
00000130: f367 153d 4801 8a3c 5d90 50bc 47e3 24bd
00000140: 3d4f 4e3c 1769 ddbc 9b99 1d3d 43ed 51bd
00000150: ff8d 983c 5f2f 4dbd aba6 c1bc 81ff 25bd
00000160: b193 2c3c 55c3 673d 070c cabc cb2c 8dbd
00000170: ffc7 9cbd bb2a 103c a195 c03c 7fb9 ddba
00000180: 367b d1bb ccac 873b 160c 643d f9ba 73bd
00000190: 0bc6 5dbd 5d37 dcbc 8065 873d 767c 96ba
000001a0: 8e55 0abc ed33 61bd 0dc1 663d 6bcb ca3b
000001b0: d013 9c3d 570b 7a3d 9f48 eb3c 88b6 5fbd
000001c0: 6e95 003d 510d 9ebd 8026 49bd 2c7b 053d
000001d0: 1b48 0cbd b515 45bd 0f8a a1bc c32e 8abd
000001e0: 4788 63bb fe6e a2bd 7389 c13c 32ae 3d3b
000001f0: e99f 3cbd c400 70bc 84d1 1c3d 2b83 2b3d
00000200: bb47 9ebc 25d2 81bc 607f 233d c4af 3d3c
00000210: c8bd a53c dca7 a5bc 2275 4fbd d5d7 ad3c
00000220: eb8f 803a b136 1cbc 3a0c 5f3c d437 93bd
00000230: b833 e73b a69f 7dbc b8d2 223d d6e1 853c
00000240: 0c24 843d 34be cfbb f61d b9bc 3ac7 c1bd
00000250: 6010 79bc b0ac 17bd c679 813c fe50 a2bc
00000260: 307d ea3d 20ed d23d c369 98bb 93a2 3f3d
00000270: 8107 093d b10b 86bd e8f0 5bbd 43be 423d
00000280: 11f9 85bb 8461 9bbd 81d4 0abd c724 97bd
00000290: c201 b73c 49f1 113d 49de 22bd 8ada 81bc
000002a0: c505 ddbc 2eec 4b3d 13ca c73d 7ae6 303d
000002b0: 261c eebc a00f 9d3b 883c fdbc 9e14 c4bc
000002c0: 2e40 223b c758 523b b7d9 903d 5d67 acbc
000002d0: 64b0 84bb e781 5c3d daf1 103d 05c2 c4bc
000002e0: 710f a3bd 27a6 5a3d 31e9 edbc 9cb4 9d3c
000002f0: ae17 253b 9867 4dbc ac0f 5f3d 8ca0 b3bc
00000300: 5744 ae3c 8ec4 b0bc 3393 2abd 9058 c33c
00000310: 2198 88bd 8a11 aa3d 714e 3a3b 95df a43b
00000320: 9013 c63c fc3b 583d 7daf c33c 379b b63b
00000330: 66b3 4f3c 85ab 313a fef2 36bb 9a61 c43c
00000340: 69da 3a3c 84bb 293c ed83 ce3c 2700 10bd
00000350: 6a6d d1bc b95d 013d ad45 a2bc 8616 64bc
00000360: 28c1 8d3c 76ec c43c c51e 3abc b05d 46bc
00000370: 08e6 f7bc 5da7 25bc fea6 0cbc ff86 b13c
00000380: 4208 5a3d df13 353d a731 64bb 5f72 0ebc
00000390: 4a3f 20bd fb4d dcb9 dcbe aa3c 52ef 90bc
000003a0: 7c4d 9e3c e826 c3bb 823d 76bb 1f7e 6cbd
000003b0: 8234 13bd bceb 333c 20cf 553c 0c36 873a
000003c0: 7203 e3bc eeaa 2dbc ce56 a33b 2100 3f3d
000003d0: 681d a93b 1031 3ebc 572c b3ba d48b d1bb
000003e0: 7fa7 c73b e7f3 2cbd f9c7 5f3d 1e34 03bd
000003f0: 9ce3 b43c 9435 5ebb 308f 34bc 811b 49bc
0.00821924 0.017464068 -0.05742781 -0.057049345 0.022441551 -0.018671323 -0.032888748 -0.031394817
-0.034501314 0.095621705 -0.046681758 0.0387488 0.000964349 -0.036078487 -0.026953653 0.015006261
0.010782267 -0.00947065 0.046371464 -0.06642157 0.009759433 -0.04641691 -0.0052102855 0.062897936
0.06747407 -0.0072183255 -0.0552713 -0.025025485 0.04379151 0.027994795 0.005938944 0.042799417
0.009134338 0.02815083 -0.025831483 -0.009224142 -0.043101132 0.0154871475 -0.004528305 -0.03025093
0.0076383715 -0.043382186 -0.019273395 -0.077383995 0.01471343 -0.009803422 -0.011166769 -0.0037727563
0.016549263 0.0069714566 0.03911712 -0.011967633 -0.06367482 0.031296063 0.011093322 0.055743705
0.018388981 0.035631128 -0.009444279 0.008755535 -0.028256884 -0.028283846 -0.016212996 0.066914506
-0.034721624 0.004895341 0.032669332 0.023324583 0.024773834 0.0015158141 0.022954116 -0.05800735
0.048729673 0.0015139788 0.03189365 -0.033525277 0.036476087 0.016846314 -0.012729731 -0.04025581
0.012592134 -0.02702765 0.038476568 -0.05125166 0.018622397 -0.050094005 -0.023639044 -0.04052687
0.010533259 0.056582768 -0.024663938 -0.06893309 -0.07655334 0.00879925 0.023508849 -0.0016916244
-0.0063928617 0.004140472 0.05567559 -0.059504483 -0.054143947 -0.026881868 0.066111565 -0.0011481184
-0.008443249 -0.05498116 0.05633645 0.0061888 0.076209664 0.06104597 0.028721152 -0.054617435
0.031392507 -0.07717384 -0.049108982 0.03258817 -0.034248453 -0.048116405 -0.019719152 -0.067472
-0.0034718679 -0.07931326 0.023625111 0.002894294 -0.04605094 -0.01464862 0.038285747 0.04187314
-0.019321313 -0.015847275 0.039916396 0.01157755 0.020232096 -0.020221643 -0.050648816 0.02122108
0.0009808516 -0.009534524 0.013613755 -0.07188383 0.007055726 -0.015479958 0.03975174 0.016343039
0.06452188 -0.0063398127 -0.022597294 -0.094618276 -0.015201658 -0.037029922 0.015805136 -0.01981401
0.11449659 0.10299134 -0.0046512797 0.046785902 0.033454422 -0.06545199 -0.053696543 0.04754473
-0.004088529 -0.07586959 -0.033894066 -0.073800616 0.022339705 0.035630498 -0.03976277 -0.015851278
-0.02698029 0.049785785 0.097553395 0.04318855 -0.029066157 0.0047931224 -0.030912653 -0.023935612
0.0024757492 0.0032096372 0.07072776 -0.021045381 -0.0040493477 0.053834822 0.035386898 -0.024018297
-0.079619296 0.05338111 -0.029041858 0.01925116 0.0025191116 -0.012536906 0.054458305 -0.02192714
0.021272821 -0.0215781 -0.041644286 0.02384594 -0.06669641 0.083041266 0.0028428102 0.005031536
0.02417925 0.05279158 0.02388739 0.0055727023 0.012677049 0.00067775726 -0.002791583 0.023972321
0.011404612 0.010359649 0.025209391 -0.035156395 -0.025564868 0.03158352 -0.019808615 -0.013921386
0.017304018 0.024038535 -0.011359875 -0.012107298 -0.030261055 -0.010110703 -0.008584736 0.021670816
0.05323053 0.044208404 -0.0034819634 -0.00869426 -0.039122857 -0.0004201977 0.020842962 -0.017692242
0.019324057 -0.0059555657 -0.0037573283 -0.057737466 -0.035938747 0.010981496 0.013049871 0.001031579
-0.027711604 -0.010599835 0.004984713 0.046630982 0.005160976 -0.011608377 -0.001366983 -0.0063948426
0.006092965 -0.04222479 0.05463407 -0.032032125 0.022081189 -0.0033906447 -0.011020467 -0.012274624

rnn1.weight_hh_l0 f4 [200, 50]
00000000: ec95 b8bc d51e cebc 1034 683b cb92 87bc
00000010: 62b1 c9bb 5b40 023c fcc1 8cbc 0540 0d3d
00000020: 035f 16bd 9d7f 92bc 1ee6 923b 60b8 28bc
00000030: 1dae 09bd 9e3e 03bc f691 d93b 1fe0 8a3b
00000040: 1f17 4bbc cec2 20bb ea0d 4dbc 9673 b33c
00000050: eeae ee39 e0e9 bbbb 6314 4cbc ec22 c53c
00000060: de05 e33c 4a02 6dbd a10e 983c 1841 153c
00000070: 9b65 73ba 8ba6 19bc 8b77 6b3b 518a 3e3d
00000080: 63e1 0cbc b952 4dbc 5bcb da3c 6efe 783c
00000090: b80e 473c 9c32 863c 2f49 f13b 521c 16b9
000000a0: 1a9b bdbc 3e6c 3dbc 56c7 ac3c d1d9 403c
000000b0: b956 513c 337c 793c 1d99 a53b 5d6d 28bd
000000c0: e0dc 4c3c 2a82 08bd a22e d9bb e49e 953b
000000d0: 6dd8 7bbb a1eb 77bb 1401 443b c6ea 8ebb
000000e0: 0242 9dba 8871 9f3b 08fb 4739 78af 52bb
000000f0: 1d83 ae3b 9185 72bb de56 a6bb deb7 923b
00000100: b940 033c f40a 203b b2c7 b3bb 9021 14bb
00000110: b223 4cbb 89e1 913b 95d0 8f3b 9049 69b7
00000120: 8b6f 85bb 6dad d03b 86eb 03bc 428d 2eba
00000130: a49b bcbb 070e 19bb 846d 23ba bf0b 873b
00000140: 1341 b93a 065e a13b f426 933a 6534 7abb
00000150: 85fd ca3b 0eb7 843b 89ef e6bb 5731 833b
00000160: 8bb3 28ba b2ff 75bb 6b63 083b ec4c 643a
00000170: 6a68 01bc 3457 b7bb cce9 9d3b 3c5b 1f3c
00000180: e7c3 423b a1e9 a2bb 7e3f 1aba ceab 41bc
00000190: 8612 30bb 1774 443a bf83 c7ba e859 e3bb
000001a0: b435 2a38 d8f4 6b3b cb85 b339 0484 0dbb
000001b0: 1967 0f3b cafe 9dbb 36ed 38bb 9de8 d8bb
000001c0: cda3 5dbb bb99 e83b 20d0 4038 3fc9 a2ba
000001d0: 9e4a 4ebc 4a3d 1ebc bd74 0dbc f37a 763b
000001e0: d163 c83b bc5d 183c 448a 11bc 7c23 233c
000001f0: f99b a6ba b363 54bb 8f57 1bbc f216 523b
00000200: c6ac 373c e141 033c d94c 49ba fe9d 41ba
00000210: a3d9 6bbb 87de 91bb f005 ecba b75a e23b
00000220: d8c4 dcbb 50a4 923b 89a5 2c3c 0943 3f3b
00000230: aa84 303c a40a 5f3b e4cc 3e3a dc37 263c
00000240: a275 9a3b b609 a6ba 118b 0d3b de1e c8bb
00000250: b7ca 9e3b 289e 9ebb aa89 e53b 332b 22bc
00000260: 02ce 07bc 2255 97ba 808e 813c 944b a4b9
00000270: 8a8e 313b 411f bdb9 51ad 373c 6046 8b3b
00000280: a74f 243b e208 cd3b d162 6ebb e8df 4a3a
00000290: 6772 bf3b 1061 07bb b551 24bb a500 8a3c
000002a0: 5fda feba 1400 fbbb 25f1 cc3b 5ab5 1bbc
000002b0: 3211 023c 2129 eeba eba1 e83b ae1f 3dbc
000002c0: 7885 c83b a592 0dbb f48f 85ba 690c 73bc
000002d0: 39af b83b 7109 663a ac0c cd3a 6060 a43b
000002e0: dc68 05bc b110 e4bb f596 e23b ad99 853c
000002f0: 16d6 6cbb 8c2e 81bb b288 87bb ce9f 4abb
00000300: abc7 003c abb8 75bc 894c 8bbb fc51 ccbb
00000310: 78c6 893a 43f3 223b 5d77 b4bb aed1 00ba
00000320: 61e6 1c3a 310a 523a a6da bc3a 4f62 4abb
00000330: d234 04ba b4aa 38ba b804 2d3b cda6 d63b
00000340: 4b22 0ebb 4947 823b 56a2 efbb 90fb 7137
00000350: c1ed 6d3b 890e 3cbb 37c4 b93b 0dcb 5fbb
00000360: 1e03 c03a 73c4 5abb ecd7 34bb 7221 2f3c
00000370: bf56 d33b 6d4c efba a701 37ba 95c8 7e3a
00000380: 9a2c f8ba 119a 5cba a053 8d3a 63c0 423a
00000390: ee3c 35ba d0ac 4039 7962 5ebb f45d 73bb
000003a0: 3143 e13a da1f 473b cab2 3839 afcb b33b
000003b0: e959 adbb edf9 c0ba 64c4 4f3b 11c2 ee3b
000003c0: 3ce5 a0bb df42 11bb 91ac c9b9 81d6 863b
000003d0: b7b4 74ba 2bbd 4b3b 4330 53ba 2321 dabb
000003e0: 1067 813b 988f 1dbc 899b e8bb c442 323b
000003f0: 65aa 83ba 6035 00bc a130 c7b8 fd34 863a
-0.022532426 -0.025161186 0.0035431422 -0.016549489 -0.006155179 0.007949914 -0.017182343 0.034484882
-0.036711704 -0.017883116 0.0044829985 -0.010297865 -0.033613313 -0.008010535 0.0066397144 0.004238143
-0.012395649 -0.0024530175 -0.012515524 0.021905702 0.0004552523 -0.005734667 -0.012456032 0.024064504
0.027712759 -0.05786351 0.018561663 0.009109758 -0.0009284855 -0.009378086 0.0035929407 0.046518628
-0.008598658 -0.01253193 0.026708296 0.0151973795 0.012149505 0.016381554 0.0073634605 -0.00014315665
-0.023145247 -0.0115614515 0.021091145 0.0117706815 0.012777024 0.015227365 0.005053653 -0.041119922
0.012503833 -0.03332726 -0.0066278735 0.0045660604 -0.003842856 -0.0037829655 0.002990787 -0.0043614833
-0.0011997821 0.004865829 0.00019071635 -0.0032148045 0.0053256885 -0.0037005881 -0.0050762733 0.004477485
0.008011037 0.002442059 -0.005486452 -0.0022603013 -0.0031149206 0.0044519347 0.0043888786 -1.390501e-05
-0.004072135 0.00636833 -0.008051759 -0.00066586223 -0.0057558585 -0.0023354308 -0.00062342756 0.0041212733
0.0014133774 0.0049245385 0.0011226819 -0.0038178202 0.0061947727 0.004050142 -0.007047598 0.0040036845
-0.00064354454 -0.003753644 0.002081121 0.0008708972 -0.007898429 -0.005595112 0.0048191305 0.009726342
0.0029718818 -0.0049716984 -0.0005884095 -0.011820747 -0.002686651 0.00074941054 -0.0015221759 -0.006938208
4.0581173e-05 0.0036004093 0.00034241224 -0.002159358 0.002188152 -0.004821633 -0.002821756 -0.0066195265
-0.0033819557 0.007098404 4.59702e-05 -0.0012419595 -0.012591032 -0.009658167 -0.00863379 0.0037609905
0.0061154147 0.009299692 -0.008883063 0.009957191 -0.0012711278 -0.0032408058 -0.009481325 0.0032057134
0.011210626 0.008011312 -0.00076789927 -0.00073859084 -0.0035987876 -0.004451576 -0.0018007141 0.0069077867
-0.006737333 0.004475154 0.0105375135 0.0029184243 0.010773817 0.0034033442 0.0007278456 0.010145154
0.00471373 -0.0012667689 0.0021597783 -0.0061071953 0.004845943 -0.004840631 0.007004936 -0.009897995
-0.008288862 -0.0011545757 0.01581502 -0.00031336828 0.0027093017 -0.00036072175 0.011210755 0.0042503327
0.002507189 0.0062571624 -0.0036374817 0.0007739053 0.0058424952 -0.002065722 -0.0025073115 0.01684601
-0.0019443742 -0.0076599214 0.0062543326 -0.009503687 0.00793867 -0.0018170216 0.0070993803 -0.011543198
0.0061194263 -0.00216023 -0.0010189996 -0.014834502 0.0056361225 0.00087752106 0.0015644035 0.0050163716
-0.008142676 -0.0069599976 0.006914968 0.01630863 -0.0036138347 -0.0039423164 -0.0041361684 -0.0030918005
0.007860105 -0.014997642 -0.004251067 -0.0062353592 0.0010511419 0.0024864234 -0.0055073933 -0.0004914057
0.0005985257 0.0008012383 0.0014408424 -0.003088135 -0.0005043271 -0.000704448 0.0026400518 0.006550646
-0.002168792 0.003975783 -0.007313053 1.4423291e-05 0.0036305042 -0.0028695187 0.0056691426 -0.0034148127
0.0014649366 -0.0033381253 -0.002759452 0.010689126 0.00644955 -0.001825703 -0.0006981142 0.000971922
-0.0018934191 -0.00084152917 0.0010782368 0.00074291806 -0.0006913681 0.00018374925 -0.0033933206 -0.0037134858
0.0017186162 0.0030383975 0.00017614212 0.0054869275 -0.005290259 -0.0014722921 0.0031702751 0.007286318
-0.0049101394 -0.0022165102 -0.0003846628 0.0041149263 -0.000933479 0.0031088095 -0.0008056203 -0.0066567822
0.0039490536 -0.009616755 -0.0070986194 0.002720044 -0.0010045288 -0.007825226 -9.498117e-05 0.001023918

rnn1.bias_ih_l0 f4 [200]
00000000: bf8a e0bc 373d a6bc 9648 643a b903 7cbb
00000010: e731 00bb 7f8c 03bc c48f 8a3c f1e2 923c
00000020: a7aa aebc fdd2 9aba caf7 7e3b 8e71 b5b9
00000030: 1b10 e73b 3001 87bc e0ae 4c3a ef36 a63a
00000040: 24ee 27bb ea3a cb3b 686b 0cbc 9070 27bc
00000050: 446e 82bb 7a4f 573c a24a 1dbc 0739 1abc
00000060: 35a6 b9bc 3a50 5ebc 5698 d33a 5dc1 213b
00000070: 707a bf3a 6d4e 45ba 6a9d cbbb 5345 843b
00000080: a10c 843c 2df2 fbba 2841 dabb fb1a d7bb
00000090: 3eb5 debb 5ba4 453b f610 fc3b 7353 24bb
000000a0: e63c 603b 4265 98bc 34f7 1b3b e5ae f73b
000000b0: 3c4b 4abb 964c 073c 62dc fbb9 4440 08bc
000000c0: 4bcc 17bb bb60 813c 6c2a a23c 6ddc d83b
000000d0: a7ad 26bd 21ec b53c 2d30 c6bb 5ff7 cd3c
000000e0: 4851 183d fa74 313d 98eb 9c3c f23f 553c
000000f0: 4f7b be3b f782 8fbc 0ef8 e83c 9e61 38bd
00000100: 606a ffbb 5bfd 1fbc 23db 763c 6258 ee3c
00000110: 9e6b e1ba 1a17 e33c 7036 cebc 2d0e 5fbc
00000120: bd60 f7bc 8167 f6bb 4f6c 18bc 82ae 0f3d
00000130: 2150 c13b da20 e13b 7012 9b3c c241 b43c
00000140: 0892 7a3b 474e 343d 7d54 b53b dd41 cc3c
00000150: e028 fd3b 118d 773c dbec da39 4d4e 823c
00000160: a69f 0b3d 2650 3f3c b858 ea3b 7d23 cdbc
00000170: a0c3 1e3b 545b 803c 14a6 6439 be07 c63c
00000180: 6a68 95bc f247 0a3d eaaa fa3b 3a71 86ba
00000190: 72a8 60bc 4b2c b43d 660a 66bb ba6a 3cbd
000001a0: a1e3 17bd f9f0 4f3d c53c 4dbd 3944 c83c
000001b0: c65e 993c e603 a4bd 5dc9 b63d e36e ddbc
000001c0: 7810 40bc 7202 bf3b 288f 913c e53c ecbd
000001d0: 5c5d 413c 6b1d 03be d6de 12be e84b 7abc
000001e0: 4dd7 453d 67e6 373d 09f5 033d b7e4 77bc
000001f0: 81e4 613d 915a f53c f3e7 96bd 69af 943c
00000200: 0be0 933d c89c 1a3d 968e f53d 2101 1d3d
00000210: 171e d3bd e444 83bd 5e2c 0a3d c9a2 06bd
00000220: ec58 34bd 62ca 653d 8961 763d 68db 44bc
00000230: f61c 63bc ec8d e1ba 6e29 2b3b f098 963d
00000240: f606 0c3c 68b2 1bbd dd16 0c3d 29b7 acbd
00000250: 0eb0 ac3c a970 8bbd 328c c63a 3429 963c
00000260: a007 af3b c617 37bb c846 64bb cbb3 4abb
00000270: 1d15 7b3c d920 e43c bf8a cf3c b139 cd3b
00000280: 6b63 2d3c 338f 413c eb17 3e3b 71a2 7d3b
00000290: 9e7c 843b fc61 1b3b 346d d2ba 9a72 5f3c
000002a0: 6896 84bc b57b b2bc 1e91 36bc b24a 883b
000002b0: 4164 84bb c1dc 383c fdb9 89bb edde 8d3b
000002c0: 1fd7 e43b c622 a33b 53f9 973c 3247 bf3b
000002d0: a427 db3a 997a 2a3c e005 d53b e182 c03a
000002e0: fe6d 9a3a cc5a 1b3c 3735 39bc 8d9a 41bb
000002f0: 64ed 713c 3203 2d3c 0749 cd3b 11b4 33bb
00000300: 654b d13a cd9d db3b 0ee0 00bc 7d91 a4bb
00000310: 676c d2ba ea31 6e3c b72b ea39 37b4 e63b
-0.02740991 -0.020292861 0.0008708326 -0.0038454367 -0.0019560994 -0.008029102 0.016914256 0.01793048
-0.021321608 -0.0011812147 0.0038905018 -0.00034607615 0.0070514805 -0.016480058 0.0007808041 0.0012681166
-0.002562412 0.0062020915 -0.0085705295 -0.010219708 -0.00398043 0.013141507 -0.009600313 -0.00941301
-0.022662262 -0.013568932 0.0016143422 0.0024681904 0.0014608633 -0.000752664 -0.0062138336 0.0040365844
0.016119303 -0.0019221954 -0.0066605993 -0.0065644956 -0.006796508 0.0030157778 0.0076924516 -0.0025074154
0.0034215986 -0.018602971 0.0023798468 0.007558691 -0.0030867597 0.008258006 -0.0004803865 -0.008316103
-0.002316254 0.015793195 0.019795619 0.0066180737 -0.04069295 0.022207322 -0.0060482235 0.02514237
0.03718689 0.04332445 0.019155309 0.013015734 0.0058130394 -0.017518504 0.028438594 -0.04501497
-0.0077946633 -0.0097649945 0.015066895 0.029094879 -0.001719821 0.027720977 -0.025172442 -0.01361422
-0.030197496 -0.007519663 -0.0093031665 0.035078533 0.0058994447 0.0068703713 0.01892969 0.022004012
0.0038234014 0.044019964 0.0055337534 0.02493375 0.00772582 0.015109316 0.0004175667 0.015906477
0.0340878 0.011676824 0.0071516894 -0.025041336 0.0024225488 0.015668549 0.00021805643 0.024173614
-0.018238265 0.03376002 0.007649769 -0.0010257133 -0.0137120355 0.08797511 -0.0035101413 -0.04600022
-0.03708232 0.05076692 -0.050106782 0.024446594 0.01872195 -0.08008556 0.08925126 -0.027030414
-0.011722676 0.005829149 0.017768458 -0.11535052 0.011802044 -0.12804191 -0.14342818 -0.0152768865
0.04830103 0.044897463 0.032216106 -0.015130213 0.05514956 0.029950412 -0.073684596 0.018150048
0.07220467 0.037747175 0.11990087 0.038331155 -0.103084736 -0.06409624 0.033733718 -0.032870088
-0.044030115 0.05610121 0.06015161 -0.012015201 -0.013861885 -0.0017208434 0.0026117223 0.07353389
0.0085465815 -0.03801194 0.03420149 -0.084333725 0.021080043 -0.068085976 0.0015147983 0.018330194
0.005341485 -0.0027937754 -0.0034832228 -0.003092992 0.015324858 0.027847694 0.025334714 0.006262981
0.010582785 0.0118139265 0.0029005955 0.003870156 0.004043176 0.0023709526 -0.0016054274 0.013638163
-0.016185 -0.021787504 -0.011142997 0.004159295 -0.0040402715 0.011283101 -0.0042030797 0.0043295533
0.0069836522 0.0049785106 0.018551504 0.0058373446 0.0016720188 0.010405206 0.0065009445 0.0014687442
0.0011782048 0.009482097 -0.011304191 -0.0029541582 0.014766071 0.010559844 0.006264809 -0.002742056
0.0015967904 0.006702161 -0.007865919 -0.0050222264 -0.0016054035 0.014538268 0.00044664528 0.0070405263

rnn1.bias_hh_l0 f4 [200]
00000000: 75e1 dfbc 21df d1bb 1642 b13a 47b0 4cbb
00000010: dc94 1bbb dc81 04bc 041a 893c 7913 913c
00000020: 7e8c a4bc 887a e5ba eac7 263b bd04 09ba
00000030: 9375 dd3b f7d0 69bc 0408 823a b671 813a
00000040: 0e62 42bb f9bf cf3b 7c09 81bb 6445 13bc
00000050: fbc4 96bb 2f9f 533c 828f 19bc b1c5 18bc
00000060: c732 b7bc bd93 a9bc cc83 e93a 5420 333b
00000070: 2c91 043b 884b 32ba a642 a8ba a1e3 8c3b
00000080: a540 8c3c 83cd 67bb 33ec f7bb 6e79 ddbb
00000090: 2094 ddbb 270b 2539 da69 063c adfa 833a
000000a0: 9cbd 383b 27b5 97bc 0059 a43b 9d36 d73b
000000b0: 19dd 4cbb d229 e53b 89d1 27ba 1266 00bc
000000c0: 406f 4fbb e914 293c e46d 883c fed9 243d
000000d0: d626 27bd 16a7 bb3c 46bf 8bbb d6f4 f13c
000000e0: d866 2b3d 7f31 e43c a56a 993c ea87 5e3c
000000f0: 59a9 c63b 5ea8 82bc f6e2 293c b393 40bd
00000100: 04b9 e8bb 3726 46bc 5e9a 1a3c a796 fb3c
00000110: 43cd 4dba 7b13 e03c c1dd ebbc e8c9 58bc
00000120: 7bb0 00bd 8c24 14bc eb17 14bc b4e6 1c3d
00000130: b427 3dbc 439d 053c e490 943c 8ad1 f43b
00000140: 8745 fd3b cf5d 3d3d 6175 a43b 06ed cf3c
00000150: 0cd9 663b de78 c13c cd61 d13b 0fd6 943c
00000160: 9a55 c53c 3b32 333c 311b c03b 4cc1 b4bc
00000170: bc52 d7bb 38d5 473c 674c 22bb e071 cb3c
00000180: b0e9 97bc dedb 063d 1c1e ff3b 069b 92b9
00000190: 7856 3b3c 8fa9 36bc 3128 e73c 4740 96bd
000001a0: 0e99 5cbc 99a6 58bc 40a4 0bbd a1b4 ab3d
000001b0: 34e2 4ebd fe17 10bd db7f 523d d206 ba3b
000001c0: 0fba e6bc e818 10bc e2ea 68bd dfac efbc
000001d0: fe9b a3bc daa4 b5bc b582 07be 84ca d83d
000001e0: 952d 8e3d 3f92 a53c 23a9 61bd b48a b33d
000001f0: dad0 b93c 1526 ee3d 312d a0bc c299 0a3d
00000200: cf23 8c3d 91a1 203d 15c5 053e 1662 afbc
00000210: e023 11bd 3a26 a3bd d2b5 a7bd 062d 163d
00000220: d0db 493a 0b43 b13c 99f4 303d 3102 64bd
00000230: 6660 253c e41d eb3b bb56 003d ba39 003d
00000240: 9c26 993d 2b52 883d d332 cb3d b6f9 a13b
00000250: 0830 643d f3f0 adbc 0611 263b 29c0 6c3c
00000260: 4540 a53b c02d f8ba ceef cfbb 107a 64bb
00000270: 5f47 823c 5289 f63c da9a cf3c ba58 cf3b
00000280: d87c 363c 80ef 393c 9646 613b 688d 163b
00000290: 8f40 9a3b 481b 2b3b 2fba 78bb 2fd9 203c
000002a0: 8773 86bc 1444 99bc 2112 46bc dbe8 213b
000002b0: ed54 b7bb 344b 393c 5783 e3ba d713 473b
000002c0: c97a e93b 14ef 973b e2e7 933c 9787 ae3b
000002d0: 236d 313b 5425 213c 1f5d ba3b ff96 b73a
000002e0: de0e 403a 5be5 153c 18c6 20bc 5d97 ffba
000002f0: ed17 7b3c b240 273c 2d74 ff3b 770e 35bb
00000300: b3d9 f7b9 bb51 a63b 527c f8bb f85d a9bb
00000310: c939 39bb 1040 6b3c c709 763a 56a3 a43b
-0.027329186 -0.006404773 0.0013523723 -0.0031233 -0.002373985 -0.0080876015 0.016736038 0.01770948
-0.020086523 -0.0017507831 0.0025448748 -0.00052268413 0.0067584007 -0.0142710125 0.0009920602 0.0009875807
-0.0029660496 0.0063400236 -0.003937898 -0.008988712 -0.0046011186 0.01291637 -0.009372594 -0.009324477
-0.02236308 -0.02070033 0.0017815768 0.0027332501 0.002022813 -0.0006801416 -0.0012837246 0.0042995964
0.017120669 -0.0035370297 -0.007565999 -0.0067588603 -0.0067620426 0.00015739781 0.008203948 0.0010069214
0.0028189188 -0.018518997 0.0050154924 0.0065677897 -0.0031259714 0.0069935108 -0.00064017676 -0.007836835
-0.0031652004 0.010319927 0.016653962 0.040246956 -0.04080852 0.022906821 -0.004264745 0.029535692
0.041846126 0.027855633 0.01872761 0.013582209 0.0060626683 -0.015949424 0.010369053 -0.047015857
-0.0071021337 -0.012094072 0.009436218 0.030711485 -0.0007850716 0.027353039 -0.028792264 -0.013231732
-0.031418305 -0.009041917 -0.009038906 0.038305953 -0.0115451105 0.00815517 0.018135495 0.007471268
0.0077292356 0.04623204 0.0050188755 0.025381576 0.0035224585 0.023617204 0.0063898326 0.018168477
0.02408867 0.010937269 0.0058626165 -0.022064827 -0.006571142 0.012196831 -0.0024764778 0.024834573
-0.018544048 0.032924525 0.0077855717 -0.00027962792 0.01143419 -0.011148824 0.028217407 -0.07336479
-0.013464225 -0.013223314 -0.034092188 0.083840616 -0.050508693 -0.03517913 0.051391464 0.0056770826
-0.028164892 -0.008795001 -0.056864627 -0.029257236 -0.019971844 -0.022173334 -0.13233455 0.10585502
0.06942288 0.020211337 -0.055092942 0.0876669 0.022682596 0.11628357 -0.019552799 0.03383804
0.068427674 0.03921658 0.13063462 -0.021409076 -0.035434604 -0.079662755 -0.08188976 0.03666403
0.0007700296 0.021638414 0.043202017 -0.055666152 0.010093784 0.007175194 0.031332713 0.031305052
0.07478067 0.06656297 0.09921803 0.004943098 0.05570987 -0.021233058 0.0025339737 0.014450111
0.005043062 -0.0018934533 -0.0063457256 -0.0034862794 0.015903173 0.030094776 0.025342394 0.0063277157
0.0111381635 0.011348605 0.0034374348 0.0022972468 0.004707403 0.002610879 -0.003795277 0.009817406
-0.01641251 -0.01870922 -0.012089283 0.0024705443 -0.0055948407 0.011309434 -0.0017357868 0.0030376816
0.007125233 0.0046366546 0.018054906 0.005326222 0.0027073107 0.00983556 0.0056873704 0.0014006792
0.0007326434 0.009148921 -0.009812854 -0.0019500066 0.015325529 0.010208296 0.0077958317 -0.002762703
-0.0004727371 0.005075661 -0.0075831795 -0.0051686727 -0.0028263202 0.014358535 0.0009385612 0.005024354

rnn1.weight_ih_l0_reverse f4 [200, 100]
00000000: 5caa cd3c ebec d5bb 83e6 4e3b cee5 5c3d
00000010: ce7d c2bd 68a5 8ebc a4f4 aabc e90b d83c
00000020: 6989 a63c db58 32bd 13a2 24bd 688c 67bc
00000030: 99bf 2cbd 77b6 7ebc 2988 0e3c 5628 bc3c
00000040: 6192 eabc f7d2 92bc 135b 24bd 88e6 7b3c
00000050: 0928 99bc 0ec8 d33b 8a61 acbc 2339 f93b
00000060: 9100 a9bc fd1e fe3c 3ed5 173c 4b02 75bd
00000070: da30 01bc faba 9cbd db3b 50bd 39b5 c3bc
00000080: f24a 6ebd d83d 06bb 5adf 9ebc feae b93b
00000090: a79c 9e3d efbc bbbb f817 bb3c 4bbc 13bc
000000a0: 4fbb 8ebc 9bc2 e53c 421d 643d 5f3a 6fbc
000000b0: 0699 183d 78be d6bc 0a7c 27bc 56f1 313d
000000c0: 8d2b ba3b c50b f83b b736 b53d 9662 7c3d
000000d0: 4209 8a3b 54f1 e23c 943c e73a 6895 bd3c
000000e0: 7fc9 bfba f08d 4cbc c3cb 11bd 17bd 263d
000000f0: 0e3f 0ebd 0d91 fd3b d62c 9fbd 04e2 943d
00000100: 1465 12bd d369 733c 1c7b 98bc b688 58bd
00000110: 23b5 133d 6709 e23c f454 6abd 6b85 44bd
00000120: 5528 033d 7824 863d 294c c4bc b0a6 a63c
00000130: c367 173c 8341 8d3d 2057 873d ee48 1bbd
00000140: 47e7 ea3c e5a8 54bc 07c1 7b3c 4eab 3fbc
00000150: 56ab 0d3d bc92 0f3b 0b76 2c3d 46b4 2b3d
00000160: 17e4 353c a190 b93c 13d1 76bc bdae 2b3c
00000170: 9a45 113c 5392 71bc d91f 933c 62df 143d
00000180: a6d9 3a3c 5317 8bbc 731b 863d 5a6d 1cbd
00000190: c9cc a53c 6015 923b 61b9 9cbc 92aa 15bd
000001a0: 55ed 43bd c616 bf3b ae7b 1f3d 1178 c1bc
000001b0: 6699 37bb d34b d1bb 1cb0 cbbc 4b53 4a3c
000001c0: fd2e 08bb f2df da3c 6dd1 c63c 55fa 83bb
000001d0: 3237 44bc 4361 babc 28b8 37bd aa7b 7bbc
000001e0: 4a36 943c 3788 20bd 0f0a 0ebc dc1f 823d
000001f0: fda0 913d 918e 5abc 90f8 893c f964 443d
00000200: 9477 d6bc 98ac b9bc b47c 15bd 8ee0 b93d
00000210: 84a2 403d 7b43 b23c 6854 69bb afa1 463c
00000220: e6a9 563b 73cc 03bd 296e d23c ec65 45bc
00000230: 25f4 96bc bbb1 c0bc e8db 85bc 3649 a73c
00000240: bbbe 9e3c 4d43 a73d 0b25 bf3b 9e92 8bbc
00000250: b351 803c 9d2d 7d3c 849e 423d 127b ff3c
00000260: 2ecb 00bc 7dd1 adbc cca6 543c eebf 193d
00000270: b374 d03c 25dc 693c 9bad 19bd a2f0 45bc
00000280: b900 d53c 7843 1bbd 0f59 a43c 0c9a 48bd
00000290: 8afe b03c e86a 0ebd 22fd a53c 40c2 f43c
000002a0: 5920 ae3c 9441 96bc 3e3f 48bc 6cda 3b3d
000002b0: 4107 253d ec36 38bc 5844 0cbd 36f3 9b3c
000002c0: 58a5 d83b 654e a5bc c2e6 47bc 30d4 96bc
000002d0: d791 a63b 4003 9bbc 4499 0d3d 1f1b 3bbd
000002e0: 4c27 f1bb 9215 50bc 45d4 dbbb 88cb c43d
000002f0: 9d10 19bd a5c8 fe3b dfb2 803c 4566 62bc
00000300: c987 a43c c9bc d2bb c7c9 54bc db9d c63c
00000310: 913e 48bd 6628 6e3c 6db0 01bb a119 1a3a
00000320: 10aa 1abd 339d acbb f196 d93c 09e7 0e3d
00000330: 51de 16bd 6c7e 61bc f5e9 d3bd 41ae b8bd
00000340: 1ef5 40bd 9466 003a 5892 7fbb d821 9cbc
00000350: 11d9 9dbc 9684 53bd 4abc cfbc 4fa1 1abd
00000360: b75d 67bd 5e4b bd3c 4fd9 67bd f7a2 943c
00000370: d5ef 64bc 2a07 a93c 786e e6bd 7280 663b
00000380: 2646 b53c 004c 183d a7aa 613b 0ebf a9bc
00000390: 8bd2 6b3b 56b5 923c bf5e 033d 4f90 703d
000003a0: e512 60bc e447 eb3c a3f1 76bd 50a6 14bd
000003b0: 6fbb 02bc 517b 28bc 7fbe 933d 499b 483c
000003c0: 6ef6 5abd dc96 90bb 23cf 603c 7e7e b4bc
000003d0: cf42 04bb 0f97 22bd 1a3a 39bd 2fba 52bc
000003e0: 6465 913c d5ab 4dbc a54e c9bc 7020 90bd
000003f0: 0965 1b3d 237d 8bbc 9777 133c 8ebc 27bd
0.025105648 -0.006528487 0.00315705 0.053930096 -0.094966516 -0.017412856 -0.020868607 0.026372867
0.020329194 -0.04354177 -0.04019363 -0.014132597 -0.04217491 -0.015546433 0.008699455 0.022968452
-0.028634252 -0.017922862 -0.040125918 0.015374787 -0.018695848 0.0064630574 -0.021042604 0.007605688
-0.020630153 0.031020636 0.0092671495 -0.05981664 -0.007885182 -0.076528504 -0.050838333 -0.023890125
-0.058176942 -0.002048364 -0.019393612 0.0056666126 0.07744723 -0.0057293097 0.022838578 -0.0090170605
-0.0174233 0.028046897 0.055691965 -0.014601319 0.03725531 -0.02621387 -0.010222444 0.043443047
0.005681461 0.0075697624 0.08848327 0.061617456 0.0042125294 0.027702965 0.0017641955 0.023142532
-0.0014632194 -0.012485012 -0.035594713 0.040707674 -0.034728102 0.0077382387 -0.07772224 0.072696716
-0.035740927 0.014856773 -0.01861339 -0.052864753 0.036061417 0.027592374 -0.057209924 -0.0479788
0.032020885 0.065499246 -0.023962097 0.020343155 0.009241047 0.06897261 0.06608415 -0.037911348
0.028674735 -0.012979721 0.0153658455 -0.011698557 0.034587227 0.002190753 0.042104762 0.04191997
0.011101744 0.022651972 -0.015064496 0.010478673 0.008866692 -0.014744359 0.017959522 0.036345847
0.0114044305 -0.016978895 0.06548204 -0.038190223 0.02023925 0.0044581145 -0.019131364 -0.03653962
-0.04783376 0.005831572 0.03893631 -0.023616822 -0.0028015017 -0.006387213 -0.024864249 0.01234896
-0.002077996 0.026718114 0.024269784 -0.0040276446 -0.01197605 -0.022751456 -0.04485336 -0.015349308
0.018092293 -0.039192405 -0.00866939 0.06353733 0.07110784 -0.013339655 0.016842157 0.047947858
-0.026180066 -0.022665307 -0.03649588 0.090760335 0.047029987 0.021760693 -0.0035603289 0.012123509
0.0032755076 -0.0321774 0.025687294 -0.012048226 -0.018426964 -0.023522248 -0.016340211 0.020420652
0.019378057 0.081671335 0.0058332733 -0.017037686 0.015663957 0.01545277 0.047514454 0.031186614
-0.007860942 -0.021218056 0.012979221 0.037536554 0.025446272 0.014273678 -0.03751908 -0.012081297
0.026001321 -0.03790614 0.020061998 -0.048975036 0.021605749 -0.034769922 0.020262305 0.029877782
0.021255659 -0.018341817 -0.012222109 0.0458626 0.04029012 -0.011243563 -0.034244865 0.01903687
0.0066115074 -0.020178983 -0.012201013 -0.018411726 0.0050833034 -0.018922448 0.034569994 -0.04568016
-0.007359421 -0.012700455 -0.006708654 0.09609133 -0.03736936 0.0077753835 0.015710292 -0.013818328
0.020084279 -0.0064311964 -0.012987561 0.024245193 -0.048887793 0.014535999 -0.0019788996 0.0005878453
-0.03775984 -0.005267763 0.026561232 0.0348883 -0.03683311 -0.0137630515 -0.10347358 -0.09017611
-0.047108762 0.0004898098 -0.003899714 -0.019059107 -0.019268544 -0.051640116 -0.025358338 -0.037751492
-0.056485858 0.023107227 -0.056603726 0.018144114 -0.013973196 0.020633299 -0.11251539 0.0035171774
0.022128176 0.037181854 0.0034433992 -0.020720985 0.0035983648 0.017908733 0.03207278 0.058731373
-0.01367638 0.028720804 -0.060289036 -0.03629142 -0.007979258 -0.010283307 0.072140686 0.012244054
-0.05345767 -0.004412515 0.01372126 -0.022032972 -0.0020181423 -0.039694842 -0.045221426 -0.012861772
0.017748542 -0.012553175 -0.024573633 -0.07037437 0.03793815 -0.017027443 0.00900068 -0.040951304
