scripts/modelling/stored_models/tcr_model.pt (torch, 9641 bytes, 17 tensors)

tcr_a_conv.weight f4 [3, 20, 3]
-0.08278009 -0.17543821 0.2092373 0.010671509 -0.13122223 -0.01507464 0.412991 -0.053631388
0.009862842 0.11614634 -0.03893883 0.11987116 -0.14725542 0.1458517 -0.13544093 0.07959808
0.02400446 -0.12445907 0.04661282 0.3904496 -0.062426843 -0.13189653 -0.057589855 0.17851274
-0.07600902 0.12424742 0.08754858 -0.10467328 -0.007644384 -0.008928875 -0.19520296 -0.17534707
-0.13139988 0.09551476 -0.08522529 0.24518709 0.07643109 -0.07243638 0.12864813 -0.153461
-0.021562664 0.0073635955 0.104017235 0.45919707 0.02819641 0.4686771 -0.14603882 0.019485774
0.034096517 -0.2914002 0.37773895 -0.20644107 -0.016699728 0.16004252 -0.10936917 0.12955545
0.0012940083 -0.12297423 0.5430964 -0.03783154 0.21450977 0.06389253 -0.022085475 0.15220264
0.12847458 0.05679185 -0.068670765 -0.17119277 0.112812795 0.13033774 -0.2013243 -0.0743115
-0.10937671 -0.07222933 -0.0041732746 -0.081784725 0.2747693 0.13056451 0.02257623 -0.028796768
0.09683011 -0.028410181 -0.19629441 0.17269866 0.061963994 -0.33014226 0.11750192 -0.11764326
-0.01712001 -0.048019275 0.07521609 0.08249388 -0.08014181 -0.10056016 -0.057701997 0.41815767
0.07585389 -0.18340273 -0.05158894 0.29750058 -0.16216344 -0.08740232 0.14566484 -0.1929642
0.082905725 0.043570124 0.035160523 0.16930433 -0.050480213 -0.032338202 0.2693081 -0.015428452
-0.32175925 -0.09530604 0.11750256 -0.063583076 0.059255224 0.23156635 -0.237714 -0.020231519
-0.06023569 0.096655406 -0.05756103 0.18392615 0.038204085 -0.14997603 -0.15176897 -0.00952144
-0.12553436 0.005609214 -0.0016193206 -0.06680862 -0.028414413 0.21565275 0.07936265 -0.10683214
0.2041468 -0.13577482 0.14411211 -0.06553203 -0.026184551 -0.022902707 -0.07912045 0.18383631
-0.14009242 -0.06111974 -0.027532872 0.114690244 -0.07837741 -0.03191305 -0.15172154 -0.103173055
0.22281267 -0.04748803 -0.12886617 0.025597546 -0.016126879 0.03991206 0.08694963 -0.15243244
-0.16401297 -0.07442561 -0.020797124 -0.06789497 -0.16200009 -0.13463475 -0.08752482 -0.15655532
-0.0994969 -0.07758128 -0.01494649 -0.0851388 0.12527122 0.0392557 0.12654665 0.1902439
-0.0357393 0.09891375 -0.03170399 -0.10714816
00000000: 9c88 a9bd 13a6 33be 4e42 563e 8ed7 2e3c
00000010: 1f5f 06be 9ffb 76bc 8e73 d33e 96ac 5bbd
00000020: c297 213c 22de ed3d 537e 1fbd 037f f53d
00000030: 20ca 16be 265a 153e 07b1 0abe 5104 a33d
00000040: 00a5 c43c 66e4 febd 16ed 3e3d 03e9 c73e
00000050: 4ab3 7fbd e20f 07be 57e3 6bbd 0bcc 363e
00000060: 9eaa 9bbd 6e75 fe3d ab4c b33d f25e d6bd
00000070: be7d fabb 6b4a 12bc 49e3 47be 2f8e 33be
00000080: b18d 06be 3e9d c33d 998a aebd 5312 7b3e
00000090: e787 9c3d 8659 94bd 56bc 033e e124 1dbe
000000a0: 2fa4 b0bc 514a f13b fd06 d53d e11b eb3e
000000b0: 28fc e63c 72f6 ef3e 338b 15be a1a0 9f3c
000000c0: caa8 0b3d 6832 95be 0067 c13e 4a65 53be
000000d0: decd 88bc 30e2 233e f2fc dfbd 2faa 043e
000000e0: b79b a93a ead9 fbbd 5e08 0b3f 3ff5 1abd
000000f0: 73a8 5b3e 16da 823d 99ec b4bc 02db 1b3e
00000100: d78e 033e 929e 683d 42a3 8cbd 284d 2fbe
00000110: 650a e73d 4277 053e f527 4ebe a130 98bd
00000120: e600 e0bd f9ec 93bd f7bf 88bb c07e a7bd
00000130: 90ae 8c3e b4b2 053e c9f1 b83c 33e7 ebbc
00000140: dd4e c63d 78bc e8bc 6701 49be ebd7 303e
00000150: f5cd 7d3d 6808 a9be d9a4 f03d f3ee f0bd
00000160: 433f 8cbc dcaf 44bd e50a 9a3d 8df2 a83d
00000170: 6421 a4bd 7cf2 cdbd ee58 6cbd c318 d63e
00000180: 4959 9b3d edcd 3bbe ed4e 53bd ff51 983e
00000190: 2c0e 26be fdff b2bd 2a29 153e 6898 45be
000001a0: 7aca a93d 9676 323d 7b04 103d 1d5e 2d3e
000001b0: 57c4 4ebd 1075 04bd c0e2 893e 9ec7 7cbc
000001c0: a1bd a4be d02f c3bd 2fa5 f03d d837 82bd
000001d0: 9bb5 723d bb1f 6d3e 4c6b 73be 92bc a5bc
000001e0: b3b9 76bd 45f3 c53d 1dc5 6bbd 2357 3c3e
000001f0: e37b 1c3d 5193 19be 5369 1bbe d0ff 1bbc
00000200: 148c 00be 7fcd b73b 623f d4ba f5d2 88bd
00000210: 58c5 e8bc 13d4 5c3e e388 a23d cfca dabd
00000220: dc0b 513e 8e08 0bbe 2092 133e a835 86bd
00000230: fc80 d6bc 759e bbbc e709 a2bd 963f 3c3e
00000240: 6374 0fbe b158 7abd 9e8c e1bc b8e2 ea3d
00000250: 5684 a0bd 42b7 02bd e45c 1bbe 654c d3bd
00000260: 0129 643e cf82 42bd 7ef5 03be f2b1 d13c
00000270: 841c 84bc d47a 233d a612 b23d 4017 1cbe
00000280: 04f3 27be 746c 98bd bb5e aabc 850c 8bbd
00000290: 5ae3 25be b1dd 09be 3640 b3bd 0a50 20be
000002a0: 08c5 cbbd efe2 9ebd 1fe2 74bc 405d aebd
000002b0: 1947 003e 96ca 203d 7295 013e 4ccf 423e
000002c0: 5f63 12bd 4b93 ca3d 0bdc 01bd 7f70 dbbd

tcr_a_conv.bias f4 [3]
-0.024675844 -0.04815039 0.0011395435
00000000: ff24 cabc 5839 45bd bc5c 953a

tcr_b_conv.weight f4 [3, 20, 3]
-0.06989017 0.031557966 -0.1644096 0.058553316 0.26707783 -0.16582566 0.010981611 -0.10023155
0.24594726 0.691362 -0.12559181 -0.030170422 -0.0013163759 0.049626518 -0.06644595 -0.1640013
-0.12613037 0.18349628 -0.15231027 -0.004572955 -0.17467114 -0.040253054 0.1397572 -0.052781735
0.09938102 -0.060568262 -0.012432913 -0.053386293 0.22349384 -0.02518863 -0.09578854 0.5417114
-0.25688803 -0.073512755 -0.07499029 -0.037399787 0.070301 -0.04623564 0.13866605 0.058746275
-0.10034411 0.06284927 0.042062044 -0.06470868 -0.07039734 -0.32586294 -0.033051904 -0.023073858
-0.12926006 0.4473199 -0.31105238 0.0076632937 0.09025627 -0.18179634 0.02395156 -0.03522623
-0.051937345 0.022537837 -0.13210061 -0.21655317 -0.046630323 -0.040266432 -0.16106513 -0.08374121
-0.03963959 0.3133277 0.3603459 -0.16535603 -0.07127097 0.073390156 0.30962688 -0.2045106
-0.020100845 -0.013535172 0.049446 -0.06913441 0.06037996 0.046664584 0.16264434 0.056570992
0.036239773 -0.109459385 -0.00067523494 0.08352464 0.1119847 0.06395666 -0.16727082 -0.14699337
-0.03149757 -0.051370602 -0.19250561 0.058158863 -0.13961911 -0.004176492 0.055173565 -0.00945251
-0.0013830621 -0.034706328 0.101105 -0.070032634 0.11810123 -0.25154123 0.061476525 0.70564723
-0.15835868 -0.10962822 -0.035784766 -0.020541884 0.07682387 -0.11836399 -0.060635433 -0.054702085
-0.12597577 -0.03425472 -0.025449306 0.08376321 0.07189996 -0.0874621 -0.0068166894 -0.015511923
0.05875688 0.26465812 -0.038688313 0.04066509 -0.049060572 0.028530698 -0.022927664 -0.101441704
0.009086215 0.5968837 -0.18980166 -0.007939963 -0.053327627 -0.048214946 0.1619578 -0.095241845
0.114669785 0.03423615 0.108398564 -0.09046497 0.13782382 0.009429877 -0.0911507 0.07433662
0.066732205 0.23854327 0.28921527 0.07604838 -0.03735502 0.054069992 0.056293245 -0.05967656
0.02779269 -0.10413455 0.022898322 -0.07479642 0.065881155 -0.15683347 0.13910264 0.059568174
-0.13455717 0.16365843 0.050759714 -0.0061205784 -0.02920122 -0.28813323 0.3875701 -0.21990226
-0.05292856 -0.091065094 -0.2342237 0.05788985 -0.09880453 -0.038777206 -0.046258826 -0.007419667
0.07817971 -0.13636999 -0.015846865 0.24011642
00000000: 9422 8fbd ed42 013d fd5a 28be 9ad5 6f3d
00000010: 6dbe 883e 34ce 29be 37ec 333c 3346 cdbd
00000020: 99d9 7b3e 1afd 303f 249b 00be f627 f7bc
00000030: 3f8a acba 2d45 4b3d d014 88bd f5ef 27be
00000040: 5228 01be 73e6 3b3e 39f7 1bbe bad8 95bb
00000050: fedc 32be 63e0 24bd 831c 0f3e a931 58bd
00000060: 4788 cb3d 6d16 78bd 6bb3 4bbc 96ab 5abd
00000070: 92db 643e 6358 cebc c82c c4bd 99ad 0a3f
00000080: d486 83be db8d 96bd 8294 99bd 8530 19bd
00000090: f8f9 8f3d 9561 3dbd 79fe 0d3e ef9f 703d
000000a0: 3681 cdbd 1eb7 803d 4049 2c3d fc85 84bd
000000b0: 7b2c 90bd 82d7 a6be 6f61 07bd 6305 bdbc
000000c0: c05c 04be 1d07 e53e 4242 9fbe 5e1c fb3b
000000d0: 47d8 b83d d228 3abe 1036 c43c 6149 10bd
000000e0: 41bc 54bd 45a1 b83c 6245 07be 1dc0 5dbe
000000f0: 70ff 3ebd 6aee 24bd 42ee 24be 8380 abbd
00000100: 1f5d 22bd 7d6c a03e 427f b83e 1753 29be
00000110: 84f6 91bd 944d 963d 6a87 9e3e 3a6b 51be
00000120: 87aa a4bc a0c2 5dbc e487 4a3d 5796 8dbd
00000130: fa50 773d 5d23 3f3d 3d8c 263e fcb6 673d
00000140: 2870 143d 3e2c e0bd 4002 31ba f70e ab3d
00000150: 3c58 e53d b6fb 823d 0b49 2bbe 6e85 16be
00000160: 9903 01bd fb69 52bd 3120 45be fd37 6e3d
00000170: 50f8 0ebe f4da 88bb adfd 613d b3de 1abc
00000180: dd47 b5ba 3928 0ebd 2310 cf3d 456d 8fbd
00000190: 0fdf f13d 03ca 80be cfce 7b3d 4ca5 343f
000001a0: c728 22be c384 e0bd 0c93 12bd 7447 a8bc
000001b0: d555 9d3d d268 f2bd dc5c 78bd 4b0f 60bd
000001c0: cbff 00be ad4e 0cbd 107b d0bc 0c8c ab3d
000001d0: 4940 933d 541f b3bd 895e dfbb b825 7ebc
000001e0: 0eab 703d 4581 873e a377 1ebd 7090 263d
000001f0: bdf3 48bd 36b9 e93c ccd2 bbbc abc0 cfbd
00000200: 59de 143c 5fcd 183f 5e5b 42be 9e16 02bc
00000210: 126e 5abd 097d 45bd 44d8 253e 280e c3bd
00000220: fed7 ea3d 353b 0c3d 1100 de3d b345 b9bd
00000230: b021 0d3e c57f 1a3c 38ad babd cc3d 983d
00000240: e5aa 883d b044 743e 0614 943e 41bf 9b3d
00000250: 9401 19bd 7f78 5d3d bf93 663d 696f 74bd
00000260: 7fad e33c 7f44 d5bd 4395 bb3c de2e 99bd
00000270: b3ec 863d f498 20be ec70 0e3e c2fd 733d
00000280: 5bc9 09be 1396 273e 6be9 4f3d 228f c8bb
00000290: 6637 efbc 3386 93be 976f c63e 0f2e 61be
000002a0: 9ecb 58bd 5680 babd 56d8 6fbe e81d 6d3d
000002b0: 085a cabd d9d4 1ebd e579 3dbd ae20 f3bb
000002c0: af1c a03d 93a4 0bbe 49d1 81bc 14e1 753e

tcr_b_conv.bias f4 [3]
-0.1694471 -0.21303938 -0.231369
00000000: 8a83 2dbe ff26 5abe ffeb 6cbe

pep_conv.weight f4 [3, 20, 3]
-0.12598413 0.13533972 -0.08900154 -0.03261665 0.009787518 0.070026755 -0.008130657 -0.08260805
-0.0495552 0.064904384 0.01148459 0.039433938 0.21411501 -0.0483745 0.1450011 -0.03580941
-0.115390435 -0.089051865 0.074028835 -0.038362127 0.06590798 0.10771581 0.17100073 0.0013262954
-0.08580445 0.07758129 -0.21346822 0.061862603 0.007815973 0.16168782 -0.043181814 -0.015955247
-0.03542669 -0.076096915 0.106245294 -0.055299733 0.0061132363 0.011067944 -0.12174409 -0.08435116
-0.07916813 -0.15663768 -0.05278804 0.024402011 -0.081858724 -0.10128611 0.056860033 -0.12865037
-0.095450975 0.12991697 -0.15605634 -0.088526234 0.1929574 -0.039986383 0.07217446 0.0765194
0.114351764 0.3814121 -0.011700393 0.23258597 -0.07878267 0.08801816 -0.13260496 0.030897299
-0.090658024 0.12366908 0.035625994 0.033236604 0.022753736 -0.032687977 -0.08551513 -0.12943834
-0.20350024 -0.025135405 0.17977817 -0.09263696 0.22070146 0.1253162 0.036428243 -0.1659452
-0.016916063 0.26356018 -0.036605235 0.19248617 0.0139732165 -0.14682068 -0.19259433 0.19897369
-0.03306593 -0.22342019 0.2322306 -0.20244165 -0.17700508 0.015283527 0.10286929 0.10135506
-0.029255522 -0.03515168 0.06561616 0.09956442 -0.18316667 -0.25990948 0.03559481 0.07650647
0.005409699 -0.08245565 0.19675577 -0.006598003 0.076509334 -0.11957474 -0.12093124 0.122521915
-0.13776019 0.14356941 -0.112644754 -0.023362061 0.12626587 -0.19806801 -0.105825365 -0.048258882
-0.21935372 0.02282607 0.86854804 -0.29910484 0.28842333 0.089532614 0.04077521 0.00537784
0.18126391 0.063294515 0.029303111 0.37464845 0.001009952 -0.14749268 -0.2274421 0.04271343
0.006012111 -0.018936593 0.17181234 0.0021256653 0.14973971 -0.10894471 0.098828375 0.007044136
0.14704952 0.078397006 0.32290375 0.1339006 -0.11450595 0.013272736 0.47473246 -0.08861519
0.01790239 -0.032435697 0.09355536 0.25388244 0.030449439 0.08182815 0.3468471 0.20020841
0.021812411 0.3156922 0.16193761 0.035735443 0.16046657 -0.19955571 0.039736707 0.22760695
-0.17143753 0.033287752 0.0004575211 -0.1318232 0.2612717 0.035667486 0.14349073 -0.109722495
-0.015353528 0.1830174 0.009440597 -0.11127687
00000000: fc01 01be 7f96 0a3e 7046 b6bd 0999 05bd
00000010: d35b 203c 306a 8f3d 7236 05bc 692e a9bd
00000020: 65fa 4abd 97ec 843d dd29 3c3c 7b85 213d
00000030: f740 5b3e 5724 46bd 2b7b 143e e3ac 12bd
00000040: d251 ecbd d360 b6bd 6e9c 973d 9b21 1dbd
00000050: c3fa 863d 1b9a dc3d d11a 2f3e 17d7 ad3a
00000060: 3eba afbd f0e2 9e3d 6a97 5abe a463 7d3d
00000070: 910e 003c 7e91 253e 6adf 30bd 94b4 82bc
00000080: 941b 11bd b3d8 9bbd 2297 d93d f981 62bd
00000090: 8b51 c83b 5256 353c f754 f9bd 4dc0 acbd
000000a0: e722 a2bd a165 20be 4638 58bd bae6 c73c
000000b0: 8ca5 a7bd 186f cfbd 11e6 683d ecbc 03be
000000c0: cd7b c3bd f408 053e 3ccd 1fbe 3e4d b5bd
000000d0: a096 453e c3c8 23bd 34d0 933d 34b6 9c3d
000000e0: 4231 ea3d 7248 c33e 01b3 3fbc 042b 6e3e
000000f0: cf58 a1bd dd42 b43d 98c9 07be 551c fd3c
00000100: eaaa b9bd 3746 fd3d 90ec 113d 1b23 083d
00000110: 0b66 ba3c d4e3 05bd 8e22 afbd 7c8b 04be
00000120: 5e62 50be c4e8 cdbc c517 383e 72b8 bdbd
00000130: 90ff 613e e452 003e c835 153d 8aed 29be
00000140: 8e93 8abc 5cf1 863e 5fef 15bd 181b 453e
00000150: ebef 643c 2958 16be 7337 45be c2bf 4b3e
00000160: 2470 07bd 43c8 64be dccd 6d3e dd4c 4fbe
00000170: d240 35be c267 7a3c 22ad d23d 3e93 cf3d
00000180: 47a9 efbc 35fb 0fbd c461 863d 6ee8 cb3d
00000190: 0b90 3bbe db12 85be ddcb 113d 6daf 9c3d
000001a0: d843 b13b 82de a8bd 587a 493e 1034 d8bb
000001b0: edb0 9c3d 9ae3 f4bd ccaa f7bd c5ec fa3d
000001c0: 0211 0dbe dc03 133e 4bb2 e6bd cb61 bfbc
000001d0: d74b 013e 57d2 4abe f8ba d8bd 1bab 45bd
000001e0: 439e 60be bdfd ba3c 2a59 5e3f 4524 99be
000001f0: 39ac 933e e05c b73d e803 273d 9738 b03b
00000200: 3f9d 393e 8ea0 813d 140d f03c ecd1 bf3e
00000210: 5e60 843a 5208 17be 95e6 68be 47f4 2e3d
00000220: 3e01 c53b ea20 9bbc 93ef 2f3e bf4e 0b3b
00000230: 5e55 193e 671e dfbd 8866 ca3d 7fd2 e63b
00000240: 2694 163e 9c8e a03d a453 a53e 3d1d 093e
00000250: 1882 eabd e475 593c 2210 f33e e17b b5bd
00000260: 08a8 923c 4bdb 04bd f499 bf3d e1fc 813e
00000270: 1a71 f93c 8495 a73d f195 b13e 6f03 4d3e
00000280: f1af b23c 68a2 a13e f9d2 253e 545f 123d
00000290: 5951 243e 5558 4cbe f5c2 223d cc11 693e
000002a0: 528d 2fbe bd58 083d 71df ef39 a9fc 06be
000002b0: 67c5 853e 1218 123d 3cef 123e 30b6 e0bd
000002c0: 5d8d 7bbc ea68 3b3e bcac 1a3c 21e5 e3bd

pep_conv.bias f4 [3]
-0.43937236 -0.39283043 -0.3060206
00000000: 6af5 e0be 1221 c9be bbae 9cbe

dense1.weight f4 [32, 9]
0.05443492 0.05801432 -0.080985926 -0.0006389015 -0.1037059 -0.06709935 0.09172514 0.072317466
-0.16676918 -0.03457618 -0.029081048 0.029387653 -0.023289368 0.15082787 0.05947979 -0.10807028
-0.07639656 0.20851403 0.07336098 -0.0007456009 -0.03410862 -0.010572866 -0.051025532 -0.052106243
0.12834288 0.105065405 -0.09673614 0.0057510985 0.07302443 -0.031669434 -0.099792756 0.080370106
0.029048875 -0.15597285 -0.15497653 0.13269396 0.47931078 0.47165167 -0.4729945 -0.15031451
0.22126395 -0.014294113 -0.19059516 -0.22189353 0.34157354 -0.4365616 -0.45957205 0.5759436
-0.35775465 0.18500955 -0.15429954 -0.382743 -0.35245246 0.18106206 -0.53737026 -0.43486723
0.61882794 -0.42131478 0.2780849 -0.063488096 -0.3835728 -0.4775087 0.09648537 0.09286467
-0.031565882 -0.04627448 0.018545795 -0.066637754 -0.017336749 0.014512582 0.056709625 -0.18834524
0.30012986 0.3825452 -0.5606618 0.3891887 -0.12607706 0.118381284 0.39665332 0.41463354
-0.15966848 -0.47380605 -0.4249701 0.52742594 -0.35970688 0.19816712 -0.19730389 -0.5067175
-0.42390513 0.18542436 0.016842414 -0.0089594675 -0.013518419 -0.0035585582 -0.025727835 -0.0069547864
0.004020301 0.045813087 -0.007974255 -0.45138147 -0.42933097 0.4691364 0.15465485 -0.19269975
0.02290532 0.27663228 0.15331638 -0.40855718 -0.39142397 -0.4147531 0.42194787 0.14840986
-0.22863515 0.031722922 0.22610843 0.22359826 -0.43583748 -0.11675818 -0.090345494 0.12666865
0.04364165 -0.020038282 0.038692005 0.015165015 0.02558585 0.023128394 0.0797956 0.0075342758
-0.10874429 -0.014481551 -0.12535533 -0.100044526 0.07965545 0.07006607 0.070452444 -0.0148714185
0.010125452 -0.021857047 0.10136242 -0.14528248 -0.07351307 0.22879003 0.17651995 -0.26009512
0.03227571 0.075259216 -0.067918085 0.017391967 -0.049877103 -0.16450849 0.22618176 0.069361895
-0.22294307 -0.011831323 -0.0016140641 -0.035660602 0.0065451157 -0.005586494 -0.048955034 0.14666773
0.04669757 -0.094848685 -0.21595144 -0.22373942 0.29545173 -0.2531325 0.08947333 -0.032733798
-0.3475716 -0.30083802 0.1455601 0.062245656 -0.026387235 -0.021023916 0.022171853 -0.03599551
-0.021066636 0.09953475 0.032063466 -0.07225344 0.055281885 -0.0006818042 -0.054937262 0.026798042
-0.03752331 -0.07750149 0.1077766 0.13755234 -0.15713094 -0.4622313 -0.43971622 0.45188445
0.14725648 -0.15151067 0.03985528 0.13461262 0.14577246 -0.3963138 -0.4155241 -0.37155542
0.45238426 0.12679245 -0.24474348 0.0026855632 0.28865433 0.17209941 -0.37728626 0.014774363
-0.03305584 -0.034628976 0.020636227 -0.030120358 -0.077979155 0.12030418 0.11577694 -0.1541792
0.1484542 0.14796789 -0.2028242 -0.13581793 0.11563843 -0.06326799 -0.05740057 -0.02370194
-0.06646682 -0.011215111 -0.017206004 -0.03708677 0.11195525 -0.011309451 -0.11214772 0.18570802
0.13364355 -0.26049498 -0.4521286 -0.4254926 0.49089575 0.22112802 -0.14134479 0.009130387
0.17305444 0.17740504 -0.39024293 -0.45220205 -0.36114967 0.4507988 0.13237634 -0.32866108
0.07675746 0.20471746 0.18709299 -0.29387522 0.48119092 0.38091812 -0.43472767 -0.059260134
00000000: 27f7 5e3d 6ca0 6d3d f3db a5bd f47b 27ba
00000010: c263 d4bd 626b 89bd 64da bb3d 2e1b 943d
00000020: 8ac5 2abe c19f 0dbd 613b eebc 60be f03c
00000030: 58c9 bebc 9f72 1a3e 15a1 733d f353 ddbd
00000040: cd75 9cbd b484 553e 483e 963d 6e74 43ba
00000050: 7bb5 0bbd d039 2dbc 2600 51bd 5b6d 55bd
00000060: 516c 033e 882c d73d 991d c6bd b673 bc3b
00000070: d58d 953d cfb7 01bd 2560 ccbd 1599 a43d
00000080: e8f7 ed3c 59b7 1fbe 2bb2 1ebe ede0 073e
00000090: 3968 f53e 547c f13e 562c f2be 0cec 19be
000000a0: 0493 623e db31 6abc 612b 43be 0f38 63be
000000b0: bae2 ae3e 0185 dfbe 074d ebbe 0a71 133f
000000c0: 9e2b b7be 2573 3d3e b300 1ebe e4f6 c3be
000000d0: a674 b4be 5568 393e 1991 09bf eba6 debe
000000e0: 826b 1e3f 92b6 d7be 2561 8e3e 0c06 82bd
000000f0: a763 c4be 057c f4be 1f9a c53d d52f be3d
00000100: 3a4b 01bd 4f8a 3dbd 5aed 973c 6079 88bd
00000110: cc05 8ebc 2ec6 6d3c 5a48 683d 93dd 40be
00000120: 9faa 993e f7dc c33e 8887 0fbf be43 c73e
00000130: 581a 01be e371 f23d 2516 cb3e d94a d43e
00000140: 2280 23be b596 f2be ae95 d9be 6305 073f
00000150: 802b b8be 52ec 4a3e 080a 4abe 3db8 01bf
00000160: 180a d9be e2df 3d3e 1af9 893c bbca 12bc
00000170: 5c7c 5dbc b336 69bb 2ec3 d2bc fae4 e3bb
00000180: bbbc 833b 81a6 3b3d 73a6 02bc 791b e7be
00000190: 45d1 dbbe a532 f03e d75d 1e3e 1553 45be
000001a0: f0a3 bb3c bfa2 8d3e f8fe 1c3e 682e d1be
000001b0: b968 c8be 855a d4be 8d09 d83e c1f8 173e
000001c0: 551f 6abe e5ef 013d f888 673e f1f6 643e
000001d0: 1726 dfbe ea1e efbd 0f07 b9bd 6db5 013e
000001e0: 96c1 323d 5327 a4bc 827b 1e3d af76 783c
000001f0: 6b99 d13c c277 bd3c e06b a33d 16e2 f63b
00000200: 54b5 debd 0744 6dbc 265d 00be 25e4 ccbd
00000210: 6622 a33d cd7e 8f3d 5f49 903d 40a7 73bc
00000220: 39e5 253c 8d0d b3bc 1a97 cf3d eec4 14be
00000230: 058e 96bd ef47 6a3e a5c1 343e 302b 85be
00000240: 8933 043d 8121 9a3d a318 8bbd 9979 8e3c
00000250: ef4b 4cbd ea74 28be 319c 673e 9c0d 8e3d
00000260: 304b 64be 2ad8 41bc 018f d3ba da10 12bd
00000270: 6978 d63b e90e b7bb 1385 48bd 1130 163e
00000280: f345 3f3d 0740 c2bd 6022 5dbe f21b 65be
00000290: 7345 973e 959a 81be cb3d b73d e013 06bd
000002a0: e8f4 b1be 7107 9abe b50d 153e 4df5 7e3d
000002b0: 0b2a d8bc 593a acbc bfa1 b53c 0770 13bd
000002c0: f093 acbc e0d8 cb3d fb54 033d 9df9 93bd
000002d0: 426f 623d 1bbb 32ba e505 61bd 9187 db3c
000002e0: 0bb2 19bd 1ab9 9ebd fab9 dc3d 85da 0c3e
000002f0: efe6 20be 95a9 ecbe 7c22 e1be 665d e73e
00000300: 67ca 163e 9d25 1bbe 4a3f 233d e4d7 093e
00000310: 6045 153e a4e9 cabe 93bf d4be 833c bebe
00000320: e99e e73e e1d5 013e 099e 7abe 4600 303b
00000330: 80ca 933e d43a 303e aa2b c1be 2b10 723c
00000340: 8f65 07bd 1dd7 0dbd 4e0d a93c f8be f6bc
00000350: 89b3 9fbd 0a62 f63d 761c ed3d 27e1 1dbe
00000360: 6104 183e e584 173e 26b1 4fbe db13 0bbe
00000370: d7d3 ec3d a692 81bd dc1c 6bbd 922a c2bc
00000380: c21f 88bd 96bf 37bc 9bf3 8cbc 4ce8 17bd
00000390: cb48 e53d 474b 39bc b4ad e5bd 3e2a 3e3e
000003a0: dbd9 083e 995f 85be 667d e7be 2bda d9be
000003b0: b056 fb3e 626f 623e b0bc 10be 9e97 153c
000003c0: 2f35 313e aba9 353e eccd c7be 0787 e7be
000003d0: 9ce8 b8be 1acf e63e aa8d 073e 4446 a8be
000003e0: 0433 9d3d 74a1 513e 4e95 3f3e d076 96be
000003f0: a85e f63e b307 c33e a094 debe c1ba 72bd

dense1.bias f4 [32]
0.2622999 -0.14250255 -0.030716846 0.1751544 -0.34018767 0.45023298 0.43718112 -0.058452394
-0.4084209 0.3272987 -0.0023412693 0.362686 0.38248032 -0.051866528 0.036213174 0.07777491
0.36820304 0.100177094 0.1911217 0.029105017 0.13734548 0.21695906 0.3779962 0.010001773
0.0865384 0.26245502 0.29937217 0.26064533 -0.487152 0.18505771 -0.009601934 0.31482065
00000000: 2c4c 863e 30ec 11be e5a1 fbbc ad5b 333e
00000010: 142d aebe f084 e63e 34d6 df3e c76b 6fbd
00000020: 8b1c d1be b293 a73e fb6f 19bb fbb1 b93e
00000030: 76d4 c33e ff71 54bd 4454 143d 7448 9f3d
00000040: 1c85 bc3e a629 cd3d 68b5 433e a56d ee3c
00000050: 4ba4 0c3e 842a 5e3e b888 c13e 7ade 233c
00000060: 0b3b b13d 8160 863e 4f47 993e 4e73 853e
00000070: fd6b f9be c57f 3d3e 6e51 1dbc 2c30 a13e

dense_out.weight f4 [1, 32]
0.04793898 -0.06758528 0.05151193 -0.08232018 0.21453683 0.2076615 0.25271598 0.061974704
-0.19026391 0.23018272 0.0045139072 -0.19591372 -0.15204404 -0.06989354 0.056894258 0.11912859
0.14948243 0.022921007 0.09696297 0.018406967 0.08195509 -0.20617715 -0.18771456 0.038932405
0.067294694 0.16995206 -0.18272732 -0.16760379 0.2701791 0.11273448 -0.08669243 -0.1728825
00000000: aa5b 443d 276a 8abd 2cfe 523d 7c97 a8bd
00000010: 8baf 5b3e 37a5 543e fd63 813e 30d9 7d3d
00000020: 8bd4 42be 05b5 6b3e 66e9 933b 9b9d 48be
00000030: 6fb1 1bbe 5824 8fbd f409 693d b1f9 f33d
00000040: ec11 193e d6c4 bb3c 8694 c63d 35ca 963c
00000050: 12d8 a73d 1a20 53be 3f38 40be 9677 1f3d
00000060: cdd1 893d ea07 2e3e df1c 3bbe 54a0 2bbe
00000070: ea54 8a3e 56e1 e63d cd8b b1bd 1c08 31be

bn_dense.weight f4 [9]
1.2334468 1.145548 1.2783456 0.80278724 0.57875896 0.31314003 1.0323981 0.9857205
1.0803792
00000000: 96e1 9d3f 51a1 923f d4a0 a33f 7783 4d3f
00000010: 8c29 143f e453 a03e 9f25 843f 2e58 7c3f
00000020: de49 8a3f

bn_dense.bias f4 [9]
-0.7747181 -0.5994975 0.858291 -0.06322002 -0.12131389 -0.08018578 0.059125725 -0.020005029
-0.34294492
00000000: ed53 46bf ab78 19bf f5b8 5b3f 7f79 81bd
00000010: 6b73 f8bd 7138 a4bd d12d 723d 96e1 a3bc
00000020: 7a96 afbe

bn_dense.running_mean f4 [9]
0.7285084 0.7925325 -0.20926122 0.98475957 0.9833685 0.95441115 0.97811997 0.9683652
0.9264443
00000000: 877f 3a3f 69e3 4a3f 9348 56be 3419 7c3f
00000010: 0abe 7b3f 4a54 743f 1266 7a3f c8e6 773f
00000020: 742b 6d3f

bn_dense.running_var f4 [9]
0.119153164 0.049519125 0.55670714 0.00048591848 0.00022694096 0.0008712155 0.00059799996 0.0010058975
0.0037760502
00000000: 9306 f43d 91d4 4a3d 5c84 0e3f e0c2 fe39
00000010: 00f7 6d39 4862 643a 19c3 1c3a 52d8 833a
00000020: 9c77 773b

bn_start.weight f4 [20]
1.0 1.0 1.0 1.0 1.0 1.0 1.0 1.0
1.0 1.0 1.0 1.0 1.0 1.0 1.0 1.0
1.0 1.0 1.0 1.0
00000000: 0000 803f 0000 803f 0000 803f 0000 803f
00000010: 0000 803f 0000 803f 0000 803f 0000 803f
00000020: 0000 803f 0000 803f 0000 803f 0000 803f
00000030: 0000 803f 0000 803f 0000 803f 0000 803f
00000040: 0000 803f 0000 803f 0000 803f 0000 803f

bn_start.bias f4 [20]
0.0 0.0 0.0 0.0 0.0 0.0 0.0 0.0
0.0 0.0 0.0 0.0 0.0 0.0 0.0 0.0
0.0 0.0 0.0 0.0
00000000: 0000 0000 0000 0000 0000 0000 0000 0000
00000010: 0000 0000 0000 0000 0000 0000 0000 0000
00000020: 0000 0000 0000 0000 0000 0000 0000 0000
00000030: 0000 0000 0000 0000 0000 0000 0000 0000
00000040: 0000 0000 0000 0000 0000 0000 0000 0000

bn_start.running_mean f4 [20]
-0.119182855 -0.38132983 -0.2547423 -0.1832236 -0.29659948 -0.25702727 -0.2078188 -0.27295068
-0.148137 -0.25370595 -0.14812094 -0.14855292 -0.29806823 -0.08175552 -0.23430169 -0.048999667
-0.0650827 -0.23683098 -0.44257182 -0.16834638
00000000: 2416 f4bd aa3d c3be 956d 82be f89e 3bbe
00000010: e3db 97be 1499 83be 74ce 54be 31c0 8bbe
00000020: 3ab1 17be bfe5 81be 04ad 17be 421e 18be
00000030: 669c 98be 706f a7bd c8ec 6fbe e0b3 48bd
00000040: 144a 85bd d283 72be c698 e2be fe62 2cbe

bn_start.running_var f4 [20]
0.19124873 0.4614847 0.5071462 0.35913926 0.70196056 0.69898295 0.3132958 0.49424183
0.3626503 0.5058097 0.28960192 0.3725494 0.5506922 0.40746665 0.39805418 0.3418662
0.22188221 0.42344016 0.5469205 0.46695092
00000000: b5d6 433e b947 ec3e 55d4 013f 1ae1 b73e
00000010: b0b3 333f 8cf0 323f 4f68 a03e 440d fd3e
00000020: 4dad b93e bf7c 013f b446 943e ccbe be3e
00000030: 2afa 0c3f 789f d03e c2cd cb3e 1609 af3e
00000040: 1735 633e 26cd d83e fb02 0c3f 3114 ef3e
